HybridLearning-master/data/hlt_stoch/InvertedPendulumBulletEnv/seed_666/model_9000.pt (torch, 180898 bytes, 10 tensors)

log_std f4 [1, 5]
-4.924892 -2.3214478 -4.6958194 -4.5899954 -1.7543797
00000000: b798 9dc0 9a92 14c0 2744 96c0 3ee1 92c0
00000010: 848f e0bf

mu.0.weight f4 [200, 6]
0.651814 -0.05931167 -0.5371733 -0.8507204 -0.21854325 -0.5993264 0.16714904 -0.19929087
-0.15465549 -0.6369024 -0.033081714 0.11657937 0.0017680768 -0.0065155015 0.0006455274 -0.0011776463
0.0012632528 0.0037145684 -0.044671908 -0.13333979 -1.401659 0.88248074 0.020156445 0.14938758
-0.12694277 0.023311673 0.1337814 -1.2500261 -0.11937096 0.17902729 -0.8948495 0.3490641
-0.22208363 -1.8443534 0.518773 -0.035701565 0.72562593 0.2808547 0.019451791 -0.8351327
0.169571 0.67113143 -0.0012113627 -0.0011379899 -0.0006690336 -0.00042993497 -0.0001582601 0.0038877642
0.00025811384 0.0011422632 9.994314e-05 0.0001453273 -0.00017624153 -0.00046670096 0.16608502 0.12097248
-0.37048128 1.2484881 -0.14932373 -0.21688648 -0.00075304613 -0.00459968 0.00054970564 -0.0026632675
0.00072027685 0.0021049406 0.0013278552 -0.0005221913 -0.00020106773 0.0003883258 0.00020575155 0.0012828364
0.11372811 0.092167355 -0.4869141 -0.5730314 -0.026244652 -0.1553463 0.00014483594 -7.669921e-05
3.602299e-05 3.1041855e-05 4.9624326e-05 -6.354406e-05 0.024511542 -0.021133244 -1.4372202 -0.31980264
0.105627865 -0.00909957 -0.0063290517 0.0023109366 -0.0014916295 0.00020811672 -0.0010707766 0.00025937153
0.047411993 0.015175585 -0.6112289 -1.071133 0.10312096 0.37361628 -0.0017869327 0.0004747709
-0.00087703555 1.3268767e-05 -0.00072814553 0.0007383978 0.00093112845 -0.0013505023 0.00057051325 -0.00046242768
0.0005010215 -0.0003863395 0.009988525 0.23010333 -0.22056827 -0.7485715 0.36595976 -0.05921143
-0.7060596 -0.53038025 -0.33109343 -1.6850652 -0.29597268 0.80648607 -0.0002585531 0.0023793145
-0.0012850289 0.0016675622 -0.0005067271 0.0016424012 -0.6644431 0.37584373 -0.13237709 0.012670973
0.09485831 0.25714692 0.008282253 -0.0027559884 0.0021745772 -3.217977e-05 0.0015936348 -0.0011310299
9.307531e-09 1.0269445e-06 -2.6605932e-07 4.8261444e-07 -1.8972129e-07 8.8127614e-08 0.0010441421 -0.004749003
0.0022861026 -0.0022148467 0.0028212387 0.0003949341 2.301063e-05 -6.552566e-05 3.438264e-05 -6.0233942e-05
1.4423312e-05 -2.37265e-05 0.0002519373 -5.0869654e-05 3.284234e-05 7.7754674e-05 5.2924144e-05 -0.00012644305
0.0071179275 0.0011040722 -0.0014911656 0.010209973 0.0008749184 -0.0025565866 -0.96894306 -0.3405032
0.38562524 -0.74949366 0.32695827 0.13720526 0.00080059713 -0.00068081997 0.00019538682 0.0003104447
0.00017880787 0.00090961467 -0.0005938351 0.0038680574 4.8641275e-05 0.00067440944 -0.00040760287 -0.0013709447
-1.3593371 -0.30064493 0.724309 0.7020082 0.27499467 0.6088388 -1.0685208 -0.71640444
-0.11597774 -1.7225633 -0.032872025 -0.58167595 -0.0015560236 0.0015840399 -0.0009278903 0.00022779948
-0.00086819695 0.001041176 0.47270188 -0.02366091 -0.69988865 1.2875367 -0.3941109 0.04440521
-0.025628658 -0.017818328 0.0003308276 -0.014074127 0.0003030358 -0.013138342 -0.008499865 0.0058246003
-0.0016982782 -4.0363902e-05 -0.0022698955 -0.001698136 -1.6572041e-05 0.0001246196 -3.0754672e-05 5.3838983e-05
-6.695954e-05 -7.263094e-05 -1.1095055 0.10538921 -0.020259429 0.44634223 0.57286525 -0.47845742
0.7993754 0.09121062 0.89280784 -0.96851945 0.04141162 -0.10239982 0.000417901 0.0002184209
0.0001162277 0.0001495812 8.266503e-05 -0.00053021795 2.7123848e-05 0.0009047572 -0.00033939705 0.00071820203
00000000: 48dd 263f cbf0 72bd 3084 09bf d0c8 59bf
00000010: cdc9 5fbe 746d 19bf 1e29 2b3e e812 4cbe
00000020: 025e 1ebe 090c 23bf b180 07bd 2ac1 ee3d
00000030: d0be e73a fd7f d5bb 9c38 293a 415b 9aba
00000040: bb93 a53a 1e70 733b e4f9 36bd 3a8a 08be
00000050: 9069 b3bf 42ea 613f 211f a53c 0ff9 183e
00000060: 49fd 01be 1ff8 be3c fefd 083e db00 a0bf
00000070: c378 f4bd ee52 373e db14 65bf 88b8 b23e
00000080: e469 63be c613 ecbf 4fce 043f ce3b 12bd
00000090: 9fc2 393f 30cc 8f3e 5d59 9f3c 42cb 55bf
000000a0: 05a4 2d3e 45cf 2b3f 96c6 9eba 9b28 95ba
000000b0: 1662 2fba e568 e1b9 9ff2 25b9 dcc9 7e3b
000000c0: 7453 8739 feb7 953a 9198 d138 0063 1839
000000d0: 7acd 38b9 8baf f4b9 3112 2a3e 6bc0 f73d
000000e0: b9af bdbe 75ce 9f3f 52e8 18be 7d17 5ebe
000000f0: 1268 45ba eab8 96bb 1f1a 103a 378a 2ebb
00000100: f6d0 3c3a 0bf3 093b 6d0b ae3a aae3 08ba
00000110: b5d5 52b9 3598 cb39 03bf 5739 d924 a83a
00000120: 49ea e83d 3dc2 bc3d ce4c f9be 30b2 12bf
00000130: 06ff d6bc 1a13 1fbe 1adf 1739 93d9 a0b8
00000140: 6417 1738 f032 0238 b723 5038 f542 85b8
00000150: 6ecc c83c a01f adbc d5f6 b7bf 2cbd a3be
00000160: 6c53 d83d 5d16 15bc ef63 cfbb 1573 173b
00000170: c882 c3ba e839 5a39 4d59 8cba 42fc 8739
00000180: 1433 423d 04a3 783c 7f79 1cbf e31a 89bf
00000190: 1531 d33d a24a bf3e 8337 eaba acea f839
000001a0: dce8 65ba ec9c 5e37 05e1 3eba 0a91 413a
000001b0: f916 743a 5603 b1ba 7f8e 153a fe71 f2b9
000001c0: fc56 033a 9c8d cab9 e9a6 233c 35a0 6b3e
000001d0: a6dc 61be 62a2 3fbf 145f bb3e af87 72bd
000001e0: 52c0 34bf 00c7 07bf 1485 a9be 37b0 d7bf
000001f0: bb89 97be df75 4e3f 698e 87b9 46ee 1b3b
00000200: 6a6e a8ba 1a92 da3a e1d5 04ba d745 d73a
00000210: f118 2abf 976e c03e dc8d 07be ea99 4f3c
00000220: 1345 c23d c3a8 833e 49b2 073c d09d 34bb
00000230: 5a83 0e3b c4f8 06b8 83e1 d03a 113f 94ba
00000240: f4e6 1f32 8bd5 8935 ead6 8eb4 038d 0135
00000250: 31b6 4bb4 ab40 bd33 98db 883a 869d 9bbb
00000260: 70d2 153b f626 11bb 88e4 383b 280f cf39
00000270: f406 c137 d26a 89b8 1436 1038 b4a3 7cb8
00000280: a7fb 7137 4508 c7b7 7416 8439 e05c 55b8
00000290: 32c0 0938 3910 a338 defa 5d38 cc95 04b9
000002a0: 813d e93b 84b6 903a 3773 c3ba bb47 273c
000002b0: c85a 653a 688c 27bb a70c 78bf 6f56 aebe
000002c0: ac70 c53e d1de 3fbf 1367 a73e 897f 0c3e
000002d0: 2adf 513a 0e79 32ba c0e0 4c39 2fc3 a239
000002e0: 5f7e 3b39 3573 6e3a 99ab 1bba 3c7f 7d3b
000002f0: 2c04 4c38 daca 303a 88b3 d5b9 45b1 b3ba
00000300: c2fe adbf 22ee 99be 516c 393f cfb6 333f
00000310: 1acc 8c3e dcdc 1b3f 4ac5 88bf 4866 37bf
00000320: bd85 edbd f47c dcbf d1a4 06bd b7e8 14bf
00000330: 7df3 cbba 8f9f cf3a aa3d 73ba 75dd 6e39
00000340: b697 63ba 1278 883a fb05 f23e 86d4 c1bc
00000350: e72b 33bf 01ce a43f e7c8 c9be 3de2 353d
00000360: 31f3 d1bc bef7 91bc ee72 ad39 2b97 66bc
00000370: c7e0 9e39 3342 57bc 0543 0bbc 4adc be3b
00000380: c398 deba 694c 29b8 87c2 14bb fd93 deba
00000390: 3004 8bb7 52ac 0239 94fe 00b8 2bd1 6138
000003a0: a16c 8cb8 7051 98b8 4704 8ebf 4cd6 d73d
000003b0: 1af7 a5bc f886 e43e 4ca7 123f 5ff8 f4be
000003c0: dea3 4c3f a2cc ba3d 0e8f 643f e4f0 77bf
000003d0: 3b9f 293d ffb6 d1bd b919 db39 ea07 6539
000003e0: 45bf f338 e6d8 1c39 735c ad38 53fe 0aba
000003f0: 0588 e337 3a2d 6d3a 1af1 b1b9 b945 3c3a

mu.0.bias f4 [200]
-0.34746966 0.17297947 0.00055264786 1.4308872 0.6767835 0.12545487 -0.15403916 -8.601825e-05
-0.0005069283 0.68423945 0.0009147215 -0.0002465515 0.4782255 1.4891639e-05 -1.2490261 0.0014421089
0.82370704 0.0009854994 6.322753e-05 0.30335835 0.7246375 -0.00027043885 0.2466231 -0.0020456256
-2.1776626e-07 -0.0017161977 -7.1816366e-06 3.4842353e-05 -0.00022195051 -0.6194576 -0.00015130441 -0.0008056454
0.17708038 -0.040796958 -0.00020130709 0.8298128 0.005044042 0.0008794802 -6.121849e-05 0.14544013
-0.9400593 -7.367638e-05 -0.00015278703 -0.3187367 -0.0008870318 1.3326248 5.144729e-05 -0.0007934285
0.2828822 -0.0005176905 -0.00012002655 -0.00943972 -1.1814471e-05 -1.9832807e-05 -0.6973161 -0.7777063
0.0010873844 -0.00013177271 -0.00024212069 0.0003465393 -9.455955e-05 -0.00023754033 -0.00095269934 0.00092064304
-0.00028107787 0.05832848 0.0033847492 -0.6425956 -0.09807726 -0.46585116 -0.6565785 -0.0005369937
0.008244543 0.59715885 -0.00025049862 -0.00010621302 -0.45624474 0.0011671144 1.3181667 -0.00029205863
-0.01996318 6.475775e-05 0.00022877002 -0.4263599 -2.0691666e-06 -0.49031955 0.0007594071 -0.27210644
0.00012612606 0.07838883 -0.38642466 -0.5965245 -0.0024804194 0.46324572 0.0003667608 0.0002802342
-7.816515e-05 -0.0002870292 -0.0005849848 -0.00048613583 0.50136274 -0.00028816488 -0.26091093 -0.04572566
-0.00026912484 -0.0049231155 0.0016164308 -0.3197966 0.49371338 0.0037636142 -0.00011760721 -0.33321255
1.6844622e-05 -0.17027514 -2.9936089e-06 0.0012184738 0.014392699 -0.0034966911 0.94924843 -0.09880036
0.0005433235 0.00076893 0.00026499052 1.3939718 -2.1301512e-05 -1.2401885 -0.000596558 -0.9109131
0.00078827393 -0.0008241112 0.06765987 -0.0002521532 -0.52946764 0.0012304072 0.000115992305 0.1616347
0.0022347285 -0.0003346835 -0.030246612 0.38976303 0.00029287173 -4.605027e-06 0.0010189146 -0.0016477869
0.00059466093 0.4103699 0.12884206 -0.467082 -0.0003752921 -0.37479404 0.24703495 -0.00022892967
5.8288333e-05 0.5445987 0.033774998 -0.85644627 0.091904484 -0.00027737752 -0.000265175 -0.027686968
0.00034274044 0.9869661 -0.00031880295 1.1543874 1.7047587e-05 0.07818434 -0.32255808 -0.016482878
0.17060784 -4.6205456e-05 0.000619384 0.092291966 -0.00030566228 0.7502045 0.16136211 -0.0006586151
0.0018428267 0.0022252132 -0.0012452814 -0.7788707 -5.634912e-06 -0.00012958894 0.27334267 0.25573167
-0.13085455 -0.0053761806 -0.20155036 0.00029802942 0.46811286 0.00019433389 -0.5227575 0.0007007466
-0.0010541534 0.5765405 -1.3760847e-05 -0.0009731969 -0.00025386398 0.7986981 -0.24395274 -0.0003488882
00000000: 8be7 b1be 8821 313e 92df 103a 5027 b73f
00000010: af41 2d3f 3e77 003e 71bc 1dbe b264 b4b8
00000020: 62e3 04ba 512a 2f3f ecc9 6f3a 9543 81b9
00000030: f9d9 f43e 1ad7 7937 16e0 9fbf 2505 bd3a
00000040: 77de 523f df2b 813a 0699 8438 c951 9b3e
00000050: d881 393f b0c9 8db9 c48a 7c3e e70f 06bb
00000060: 22d3 69b4 0af2 e0ba caf9 f0b6 b123 1238
00000070: 63bb 68b9 c694 1ebf 78a7 1eb9 f331 53ba
00000080: 8f54 353e b61a 27bd f615 53b9 9d6e 543f
00000090: 7e48 a53b eb8c 663a 6d62 80b8 42ee 143e
000000a0: baa7 70bf b582 9ab8 7535 20b9 7531 a3be
000000b0: b287 68ba 7393 aa3f 1bc9 5738 16fe 4fba
000000c0: f0d5 903e 9fb5 07ba c3b6 fbb8 0ea9 1abc
000000d0: c436 46b7 a15e a6b7 4f83 32bf c317 47bf
000000e0: 9186 8e3a 782c 0ab9 c7e1 7db9 b8af b539
000000f0: 464e c6b8 3f14 79b9 92be 79ba 4f57 713a
00000100: a25d 93b9 d8e9 6e3d abd2 5d3b 2581 24bf
00000110: bbdc c8bd 0b84 eebe 8715 28bf 0ac5 0cba
00000120: 1f14 073c 67df 183f 5b55 83b9 aebe deb8
00000130: e998 e9be dcf9 983a b0b9 a83f 721f 99b9
00000140: d389 a3bc 8dce 8738 fce1 6f39 d84b dabe
00000150: 03dc 0ab6 2a0b fbbe f312 473a 8951 8bbe
00000160: b540 0439 538a a03d 74d9 c5be d4b5 18bf
00000170: 888e 22bb 8b2e ed3e cd49 c039 66ec 9239
00000180: 98ec a3b8 687c 96b9 aa59 19ba 0ce0 feb9
00000190: 4f59 003f d614 97b9 1e96 85be d44a 3bbd
000001a0: 5319 8db9 1652 a1bb 6bde d33a 61bc a3be
000001b0: 00c8 fc3e f8a6 763b e4a3 f6b8 d69a aabe
000001c0: 8d4d 8d37 9b5c 2ebe cfe5 48b6 32b5 9f3a
000001d0: 5bcf 6b3c be28 65bb f201 733f d857 cabd
000001e0: d36d 0e3a 0592 493a 6dee 8a39 ab6d b23f
000001f0: a6b0 b2b7 7fbe 9ebf 5462 1cba 9a31 69bf
00000200: 2ba4 4e3a 2b09 58ba 4291 8a3d 6e33 84b9
00000210: 318b 07bf 9d45 a13a e540 f338 9183 253e
00000220: 8674 123b 7578 afb9 bec7 f7bc 058f c73e
00000230: 948c 9939 e184 9ab6 1a8d 853a 8efa d7ba
00000240: 05e3 1b3a 011c d23e 2cef 033e 5f25 efbe
00000250: dac2 c4b9 01e5 bfbe bbf6 7c3e d70c 70b9
00000260: 9f7a 7438 d26a 0b3f a757 0a3d 1040 5bbf
00000270: 6b38 bc3d fb6c 91b9 3007 8bb9 c8cf e2bc
00000280: d8b1 b339 cfa9 7c3f 0225 a7b9 f7c2 933f
00000290: 6a01 8f37 1c1f a03d 5526 a5be 1a07 87bc
000002a0: d2b3 2e3e bbcc 41b8 285e 223a 9203 bd3d
000002b0: 4c41 a0b9 670d 403f 1c3c 253e e9a6 2cba
000002c0: 018b f13a e2d4 113b b638 a3ba 1264 47bf
000002d0: 8713 bdb6 44e2 07b9 92f3 8b3e 43ef 823e
000002e0: bcfe 05be ac2a b0bb 3863 4ebe d540 9c39
000002f0: 7dac ef3e 1bc6 4b39 6fd3 05bf 4fb2 373a
00000300: 852b 8aba 2998 133f 63de 66b7 231e 7fba
00000310: 0c19 85b9 7b77 4c3f bfce 79be fbea b6b9

mu.2.weight f4 [5, 200]
-0.017836984 -0.020513093 -0.004041319 0.017785018 0.005561313 -0.0031416903 0.007315066 -0.0013662206
0.00035941924 0.019552339 -0.0011916462 -0.0006052178 0.017521203 -1.2127549e-05 -0.0053164694 0.00093043194
-0.004646036 -0.00033572258 -0.00029176768 -0.0048520616 0.0008330616 0.0003151768 -0.018852865 -0.00085788325
1.9048633e-07 -0.0019951547 -2.808672e-05 4.631677e-06 -0.0002540373 0.023044476 -0.0003164033 0.00047448897
-0.015431359 0.0076084645 9.773201e-05 0.010919493 0.0027755094 0.0026688038 0.000109087996 -0.011194385
0.025009925 0.0001748458 0.00021797289 -0.0045164553 0.002991537 -0.0019781138 0.0020324902 -0.00051264383
-0.0060209143 0.0006730092 0.00015568716 0.0138244135 -9.92662e-05 0.0014301875 -0.0022080257 0.0033311227
0.0009574888 0.0018923976 0.00041906224 -0.0038232626 5.126685e-06 0.0005985078 0.0013215536 -0.0007808914
0.0012413063 0.10632217 0.0013467096 -0.0016029084 -0.01596204 -0.009347786 0.00080784044 -0.0024680293
-0.0042108465 -0.011879724 -0.00012416222 -2.4154422e-05 0.035288297 0.0007786612 -0.010876443 0.0028665634
0.005318724 -8.8744295e-05 -0.00020146034 -0.002940685 -7.738809e-05 -0.0022008065 -8.176998e-06 -0.01314089
-8.4699845e-05 0.030827543 -0.00084878894 0.007427763 0.0045255213 -0.0047566593 -0.0007685164 0.00028462632
-0.0006663825 -0.0008823228 -0.00045161913 0.0007570542 0.009522686 0.003504845 0.0013986003 -0.0032270814
0.00079553085 -0.0018558904 0.000550469 -0.0033515655 5.854218e-05 -0.0083696935 5.7263806e-05 -0.023048723
-0.0022555992 -0.003018991 -7.879415e-05 0.0010903836 0.009976749 -0.03785002 -0.0007085936 0.00048914755
-0.00017364135 -0.006675043 -0.0008077545 -0.0069482997 9.0577254e-05 -0.0022864917 -0.0004483468 -0.00738157
-0.0015463668 3.3676457e-05 0.021771636 0.0014887026 0.004237468 -0.001205932 -0.00042492023 -0.071387954
0.0004366746 -0.0011793277 -0.0048441566 0.014640527 -0.004557929 1.8713687e-05 0.00023049941 -0.00038662335
-0.00082129944 0.0005949904 0.12609844 -0.0042994786 0.0007654315 -0.018574432 -0.004575202 0.00020842087
-0.0007226356 -0.009141932 0.06400012 0.0039510643 0.025349604 0.00025067726 0.000100038225 -0.010422714
0.0004202589 -0.0010904112 0.00071898237 0.002601535 8.1917424e-05 -0.002720654 -0.0107860435 0.009838823
0.0017451469 0.0034216242 0.0008527089 -0.0605842 8.315205e-05 -0.0038591048 -0.014854864 0.0010483937
-0.0022772274 7.6614546e-05 0.0013046471 0.012098091 -3.4569322e-05 0.0025090904 -0.0014053279 0.0044141766
0.0068041915 -0.00064083654 -0.0014131711 -0.0008565895 0.0031314138 -4.7939724e-05 0.012474133 -0.0024113732
0.0009183408 0.004236078 0.0030299064 0.001279446 0.00027214477 0.0043003866 0.006404091 -0.00024365187
-0.42432845 0.13149936 -0.013522441 0.26749173 0.05228996 -0.09731531 0.3109066 -0.0061320006
0.0024077944 0.6056411 -0.008727285 -0.0019092519 -0.27718022 -0.000115462026 -0.13851357 -0.00016217992
-0.22721826 -0.0010786037 -0.00079869555 0.03628993 0.037879348 0.002388733 -0.17332406 0.0017674199
1.1836736e-06 -0.0057294755 -0.00012680702 -1.8537505e-05 0.0060269777 0.544123 -0.0005818331 0.008980113
-0.34243613 0.074759334 0.0008444846 0.2418438 -0.012649511 0.0052183466 0.00010046769 -0.23757367
0.2839205 0.0012781008 0.0012003233 -0.6140219 0.008274737 0.08921904 0.009457815 0.0012149907
-0.07614804 0.003810371 0.0010011765 0.38790172 -0.00022085459 0.0072226133 -0.11522778 0.02398967
00000000: de1e 92bc 130b a8bc 0a6d 84bb e3b1 913c
00000010: ad3b b63b d1e4 4dbb 39b3 ef3b c212 b3ba
00000020: 6f70 bc39 3a2c a03c 0331 9cba 7ba7 1eba
00000030: a088 8f3c 6d77 4bb7 c735 aebb 3be8 733a
00000040: c63d 98bb ec03 b0b9 65f8 98b9 0bfe 9ebb
00000050: d161 5a3a 503e a539 5371 9abc 92e3 60ba
00000060: 7c88 4c34 24c1 02bb c69b ebb7 cd69 9b36
00000070: 4f30 85b9 c5c7 bc3c efe2 a5b9 d5c4 f839
00000080: d0d3 7cbc 6d50 f93b 79f5 cc38 ace7 323c
00000090: 52e5 353b 19e7 2e3b 2cc6 e438 a768 37bc
000000a0: 9de1 cc3c d056 3739 a78f 6439 c6fe 93bb
000000b0: aa0d 443b 3ea3 01bb 8733 053b f262 06ba
000000c0: 174b c5bb e26c 303a f43f 2339 cb7f 623c
000000d0: 232d d0b8 2175 bb3a 86b4 10bb f74e 5a3b
000000e0: fcff 7a3a 540a f83a 95b5 db39 b48f 7abb
000000f0: e405 ac36 2ee5 1c3a fb37 ad3a bcb4 4cba
00000100: 54b3 a23a 70bf d93d 1384 b03a ae18 d2ba
00000110: d3c2 82bc 7527 19bc 41c5 533a a9be 21bb
00000120: 24fb 89bb 2da3 42bc 8b31 02b9 3a9f cab7
00000130: 768a 103d 121f 4c3a 1c33 32bc f4dc 3b3b
00000140: b148 ae3b 3b1c bab8 193f 53b9 82b8 40bb
00000150: 6a4b a2b8 683b 10bb f02f 09b7 e34c 57bc
00000160: e2a0 b1b8 0b8a fc3c 4381 5eba 9864 f33b
00000170: d34a 943b c0dd 9bbb 4376 49ba e639 9539
00000180: 2cb0 2eba ae4b 67ba 4bc7 ecb9 0c75 463a
00000190: 0a05 1c3c 8bb1 653b 3d51 b73a 717d 53bb
000001a0: 2c8b 503a 5941 f3ba 594d 103a f0a5 5bbb
000001b0: 308b 7538 0a21 09bc 8b2e 7038 add0 bcbc
000001c0: add2 13bb 44da 45bb 4a3e a5b8 34eb 8e3a
000001d0: 8575 233c 9f08 1bbd e9c0 39ba 233a 003a
000001e0: 7f13 36b9 52ba dabb 7dbf 53ba 90ae e3bb
000001f0: 4bf4 bd38 f7d8 15bb 1710 ebb9 19e1 f1bb
00000200: 76af caba d23f 0d38 6e5a b23c 9220 c33a
00000210: 75da 8a3b 5d10 9eba d4c7 deb9 d933 92bd
00000220: 79f1 e439 ac93 9aba bbbb 9ebb d2de 6f3c
00000230: ae5a 95bb 56fb 9c37 37b2 7139 b5b3 cab9
00000240: 794c 57ba 21f9 1b3a f31f 013e a4e2 8cbb
00000250: 3da7 483a 6829 98bc 93eb 95bb 8d8b 5a39
00000260: 416f 3dba 0bc8 15bc 7f12 833d ee77 813b
00000270: f9a9 cf3c 556d 8339 9dcb d138 08c4 2abc
00000280: 3256 dc39 21ec 8eba 177a 3c3a 847e 2a3b
00000290: 15cb ab38 004d 32bb f2b7 30bc 0433 213c
000002a0: 6abd e43a 543d 603b 5388 5f3a 2327 78bd
000002b0: eb61 ae38 09e9 7cbb d161 73bc 416a 893a
000002c0: 893d 15bb 1fac a038 b100 ab3a 1237 463c
000002d0: 87fe 10b8 8d6f 243b fb32 b8ba cca4 903b
000002e0: b2f5 de3b d0fd 27ba 273a b9ba c08c 60ba
000002f0: 6838 4d3b e312 49b8 4e60 4c3c 2108 1ebb
00000300: cfbc 703a ccce 8a3b 6591 463b 15b3 a73a
00000310: a7ae 8e39 42ea 8c3b 69d9 d13b cd7c 7fb9
00000320: 9441 d9be c5a7 063e 3a8d 5dbc adf4 883e
00000330: ff2d 563d 404d c7bd 262f 9f3e f3ee c8bb
00000340: 16cc 1d3b 4c0b 1b3f e3fc 0ebc dd3f faba
00000350: 91ea 8dbe 3424 f2b8 80d6 0dbe d70e 2ab9
00000360: e7ab 68be ef5f 8dba 8d5f 51ba c0a4 143d
00000370: 6027 1b3d 4a8c 1c3b dd7b 31be c5a8 e73a
00000380: b7de 9e35 53be bbbb 80f7 04b9 fd80 9bb7
00000390: f47d c53b a54b 0b3f 2986 18ba 5321 133c
000003a0: ca53 afbe 6c1b 993d 6760 5d3a e7a5 773e
000003b0: e53f 4fbc aafe aa3b 2eb2 d238 8346 73be
000003c0: 075e 913e f285 a73a 2b54 9d3a 8a30 1dbf
000003d0: c392 073c 79b8 b63d f4f4 1a3c 5340 9f3a
000003e0: 81f3 9bbd 6bb7 793b e939 833a 0e9b c63e
000003f0: 3495 67b9 acab ec3b 8bfc ebbd fc85 c43c

mu.2.bias f4 [5]
0.0040119826 0.21847214 -0.029448135 0.00015213493 0.07175971
00000000: f376 833b 29b7 5f3e 373d f1bc 6986 1f39
00000010: c1f6 923d

reward_fun.0.weight f4 [200, 6]
0.81949234 -0.2016752 1.8759112 -0.13970399 -0.5545884 0.40085348 0.35263705 -0.14536896
-0.6280992 0.85166854 0.0140475985 -0.8150017 0.31585455 -0.019865507 -0.11333028 0.21680653
-0.00800737 -0.22828737 -0.7011174 -0.44984463 -0.84382075 -2.020882 -0.05628279 0.11097746
1.4424361 -0.62216794 0.8387959 1.4785103 -0.24197799 -0.9445214 0.2899672 1.1173625
-1.5059276 1.0438545 -0.07966134 0.5240561 -0.05969135 -0.20225091 2.0053964 2.129984
0.8777179 -0.62949204 -1.8847071 -0.4184842 1.3125774 -1.1743687 0.29081628 -0.2790765
-0.401578 -0.252315 -0.009828596 0.57579374 0.266528 -1.3422294 0.036612436 0.3208729
-0.3936171 0.7391088 -0.0074469512 -0.2607342 -0.32824147 0.38977057 2.1228962 -1.0407358
-0.4868929 -0.36202186 -0.83624715 -1.2978114 -0.21941419 -0.8206627 0.3432085 -0.7725368
0.04072954 0.039707184 -0.3890676 0.5412093 0.0018739677 -0.08887226 2.1011121 0.39452875
-0.04743393 0.50944805 -0.08321505 0.08072817 0.52981967 -1.1965494 1.0200125 0.24423893
0.22024898 -0.43088132 0.080512725 0.15258487 -0.2838154 0.52335244 0.037972514 0.12918629
-0.25838557 -0.3847895 -0.4738898 -0.028868094 0.20145495 -0.9307272 -0.55997676 0.8591434
-1.9335096 -0.16734168 -0.246536 0.4366695 0.26255396 0.18684733 -0.34450644 -0.19237494
-0.0059929024 -0.19276942 1.7155648 0.68113184 0.51990074 0.873498 -0.34362733 1.108089
-0.041237224 0.0888704 -0.23347558 0.37361383 0.00017476619 -0.2358296 -0.09729516 0.62079316
2.593075 2.4519005 0.28593224 0.30665743 0.07837679 0.40033847 0.104840524 -0.69256514
-0.0845567 0.6818712 0.21649519 0.107228614 1.677946 2.4709787 0.407358 -0.35990134
0.11541964 0.07629246 -0.28098622 0.07226592 0.003197435 -0.27933496 0.55502176 -0.10059928
1.2859887 1.7194692 0.076503076 -1.5111773 1.0552827 -0.07728172 -1.0259784 -1.0223831
0.17159897 -0.8600186 -1.9821955 -0.6141029 -0.05587479 -0.482149 0.28713587 -1.6416521
-0.42781934 -0.32875973 2.2258608 -0.41723365 -0.5356871 -0.211997 0.083226815 -0.48048767
2.1402745 0.21960571 -0.50702786 -0.18334565 -0.52293324 -1.2867674 0.88907206 0.8766908
-0.27621916 0.05468802 1.8227563 0.42759177 -0.91052985 0.28706014 0.052539483 -1.016005
0.19996068 0.06809463 -0.25034183 -0.09699392 -0.0037058992 -0.30576378 0.5255593 1.6533024
-1.5662546 1.2641482 -0.055509612 0.49537537 -1.3444012 -0.76877123 -0.28123745 -1.8738807
0.09495631 -1.0590537 0.041014966 0.09214527 -0.21524097 0.07968836 -0.0019499583 -0.24999325
0.07551457 -0.0071760276 -0.29567307 0.70320684 0.050401706 -0.75637686 0.26106846 -0.003777778
-1.36721 0.7295345 0.008793452 -0.07881333 -1.6786872 0.0057525653 1.6101631 0.1696517
0.5664824 -0.28657827 -0.42985132 1.1261448 0.25576046 0.13258606 -0.35535476 0.5781747
0.18793926 1.5064824 -0.77200055 -0.68409014 -0.38166052 1.0412753 0.29592326 0.40596446
2.380509 0.3885591 0.5531839 0.806767 0.5922552 -0.17117861 -0.02190379 0.4638018
00000000: 40ca 513f f283 4ebe dc1d f03f 900e 0fbe
00000010: 81f9 0dbf ab3c cd3e d88c b43e 9adb 14be
00000020: 1ccb 20bf f306 5a3f e627 663c f4a3 50bf
00000030: b0b7 a13e fdbc a2bc b519 e8bd 8802 5e3e
00000040: 5831 03bc 2ac4 69be 6e7c 33bf 0952 e6be
00000050: a304 58bf 2156 01c0 c888 66bd 2748 e33d
00000060: bfa1 b83f 6646 1fbf 54bb 563f d33f bd3f
00000070: 14c9 77be 28cc 71bf 9576 943e bc05 8f3f
00000080: 3cc2 c0bf 069d 853f 7c25 a3bd 8a28 063f
00000090: eb7e 74bd dd1a 4fbe 6a58 0040 a851 0840
000000a0: 1fb2 603f 6426 21bf 153e f1bf 9043 d6be
000000b0: 8902 a83f b751 96bf dfe5 943e 1de3 8ebe
000000c0: a29b cdbe 6f2f 81be 1f08 21bc 3867 133f
000000d0: 5c76 883e 2cce abbf ecf6 153d 7449 a43e
000000e0: 2e88 c9be 3c36 3d3f 8e05 f4bb f47e 85be
000000f0: 440f a8be 0290 c73e 88dd 0740 d536 85bf
00000100: 074a f9be ee5a b9be 4b14 56bf af1e a6bf
00000110: 1dae 60be f316 52bf 06b9 af3e f9c4 45bf
00000120: 05d4 263d 00a4 223d de33 c7be b18c 0a3f
00000130: ec9f f53a a902 b6bd 9f78 0640 acff c93e
00000140: 154a 42bd 306b 023f a76c aabd d054 a53d
00000150: 43a2 073f 8828 99bf c58f 823f c519 7a3e
00000160: f388 613e 7a9c dcbe dbe3 a43d 353f 1c3e
00000170: 4150 91be 6dfa 053f 1189 1b3d 6949 043e
00000180: 1d4b 84be 2103 c5be afa1 f2be c87c ecbc
00000190: 354a 4e3e 2344 6ebf a35a 0fbf d2f0 5b3f
000001a0: 3e7d f7bf 9e5b 2bbe ef73 7cbe 2593 df3e
000001b0: 796d 863e e854 3f3e 2663 b0be f0fd 44be
000001c0: 1c60 c4bb 5965 45be a197 db3f a85e 2e3f
000001d0: 3718 053f 919d 5f3f ecef afbe dcd5 8d3f
000001e0: 5de8 28bd af01 b63d 3914 6fbe 504a bf3e
000001f0: 7141 3739 517d 71be af42 c7bd 4dec 1e3f
00000200: f1f4 2540 f0eb 1c40 b665 923e 3402 9d3e
00000210: 0384 a03d 2af9 cc3e a1b6 d63d f34b 31bf
00000220: 102c adbd 1c8f 2e3f eab0 5d3e ad9a db3d
00000230: efc6 d63f 8424 1e40 3a91 d03e fd44 b8be
00000240: 2261 ec3d 393f 9c3d 6ddd 8fbe 2800 943d
00000250: 0f8c 513b fe04 8fbe e815 0e3f ff06 cebd
00000260: 479b a43f 9117 dc3f a5ad 9c3d 426e c1bf
00000270: 8113 873f e145 9ebd 4353 83bf 73dd 82bf
00000280: a4b7 2f3e 2e2a 5cbf 95b8 fdbf d935 1dbf
00000290: f7dc 64bd 3cdc f6be 7903 933e a821 d2bf
000002a0: 230b dbbe 3253 a8be 8174 0e40 a69f d5be
000002b0: ca22 09bf be15 59be d272 aa3d 7b02 f6be
000002c0: 42fa 0840 52e0 603e 94cc 01bf f6be 3bbe
000002d0: f4de 05bf cbb4 a4bf 3a9a 633f cf6e 603f
000002e0: 996c 8dbe 8c00 603d 1450 e93f 4fed da3e
000002f0: 7c18 69bf 8cf9 923e a433 573d 740c 82bf
00000300: 7ec2 4c3e 3375 8b3d ce2c 80be c0a4 c6bd
00000310: acde 72bb 128d 9cbe 0e8b 063f 6a9f d33f
00000320: 087b c8bf 9ccf a13f 0c5e 63bd d7a1 fd3e
00000330: 5715 acbf 31ce 44bf 5bfe 8fbe 53db efbf
00000340: 7478 c23d 128f 87bf 4fff 273d a9b6 bc3d
00000350: 2168 5cbe a733 a33d be95 ffba 3bfe 7fbe
00000360: 62a7 9a3d e224 ebbb 7662 97be 5d05 343f
00000370: 0572 4e3d eaa1 41bf c4aa 853e 9994 77bb
00000380: bd00 afbf c6c2 3a3f 6912 103c e268 a1bd
00000390: 39df d6bf 0480 bc3b d319 ce3f 2db9 2d3e
000003a0: fe04 113f 63ba 92be 7915 dcbe 8325 903f
000003b0: 09f3 823e a4c4 073e 0ff1 b5be 4203 143f
000003c0: 2673 403e 6ad4 c03f d4a1 45bf 8820 2fbf
000003d0: 0269 c3be 8248 853f 4183 973e 93da cf3e
000003e0: 425a 1840 38f1 c63e 769d 0d3f 4888 4e3f
000003f0: 099e 173f 7249 2fbe 946f b3bc 6e77 ed3e

reward_fun.0.bias f4 [200]
-2.7942297 -1.8231499 -0.83374554 -0.72537494 -1.8433615 -2.3962445 -1.3275819 -0.46203706
-0.8650248 -1.4682549 -1.8516657 -0.7208982 -0.78329533 -1.7145791 -1.8580252 -0.65590376
-1.3839655 -1.3577222 -1.0628562 -1.8082339 -0.7543015 0.12363693 -1.8250251 -1.8750876
-0.6560934 -0.38504148 -2.011361 -1.4440488 -3.4541528 -2.3758082 -1.840323 -1.3519521
-0.7677942 -3.024333 -1.4103348 -0.6168602 -0.9634406 -1.5273771 -1.1269664 -2.1826768
-2.4606268 -1.7056872 -0.84768504 -1.8271314 -1.4783924 -0.71432 -0.61939234 -1.4323597
-2.0356596 -0.511355 -0.30513746 -1.2829205 -0.974609 0.4562588 -1.1320788 -1.533244
-0.75712943 -1.2089101 -1.5855957 -1.7419811 -1.9573107 -2.8918147 -0.6657367 -0.8123315
-0.5601959 -1.0964327 -0.45461765 -0.20867625 0.54046625 -0.2491931 -1.0561225 -1.7126801
-0.88906926 0.21677367 -1.1329198 -0.5871 -1.2019532 -1.5790564 -1.1567173 -2.5188758
-1.8186678 -3.0858138 -1.2638503 0.72489136 -1.6764725 -1.485903 -0.57461995 -0.60231566
-1.823403 -1.6790403 -0.6505041 -2.2119179 -1.9142226 -1.3396497 0.5622474 -0.74573827
-1.7863108 -1.8041201 -0.9922649 -1.5382059 -0.61238056 -2.116436 -0.6446267 -2.2826269
-1.3201083 -2.1283622 -2.6029725 -1.854789 -1.0825078 -1.3626175 -2.3034668 -1.2740192
-1.3523463 -2.0945287 -1.2889087 -2.3540287 -1.1154416 -1.362485 -1.5561621 -1.1311501
-1.5289503 -1.5367749 -2.3672938 -2.2692385 -1.510966 -1.4214282 -0.8939729 -0.90061766
-1.4588732 -1.227265 -0.8480046 -1.369211 -0.8991953 -0.666811 -0.049970202 -2.0800953
-1.7935542 -1.6352171 -1.058485 -0.9586117 -2.285465 -1.1584494 -2.7758777 -1.4867053
-1.7670362 -2.234042 -1.5927955 -0.7727907 -2.342293 -1.4818968 0.12215896 -1.2383292
-1.010519 -2.431239 -2.5887542 -0.97187126 -1.9514667 -1.140793 -0.7560338 -0.9713233
-0.8361768 -2.1394477 -1.8275857 -1.312311 -2.2436938 -1.7316108 -2.3158739 -2.599003
-1.5725186 -0.97678787 -0.5569402 -2.415873 -1.6127373 -1.1854229 -2.6730697 -0.33035156
-2.2011364 -1.3886188 -1.1948111 -1.8909382 -1.2475713 -0.58562034 -1.0415105 -0.7272185
-0.9577449 -1.8741789 -0.53481656 -1.1521058 -1.394135 -0.7235221 -2.3038082 -1.4564735
-0.3377505 -1.3430047 -0.954316 -0.60983115 -0.9129761 -1.3834785 -0.9042897 -1.1379364
00000000: a9d4 32c0 fa5c e9bf 5970 55bf 2cb2 39bf
00000010: 45f3 ebbf 125c 19c0 34ee a9bf 1f90 ecbe
00000020: 4472 5dbf c7ef bbbf 6203 edbf c98c 38bf
00000030: 0b86 48bf 5477 dbbf c5d3 edbf 4fe9 27bf
00000040: c825 b1bf d7c9 adbf ac0b 88bf 3574 e7bf
00000050: e719 41bf 5c35 fd3d 6c9a e9bf df02 f0bf
00000060: bdf5 27bf 2824 c5be 23ba 00c0 97d6 b8bf
00000070: d710 5dc0 3e0d 18c0 b48f ebbf c40c adbf
00000080: 298e 44bf ac8e 41c0 da85 b4bf 8dea 1dbf
00000090: 0ba4 76bf 1881 c3bf 6f40 90bf fab0 0bc0
000000a0: e97a 1dc0 f553 dabf e301 59bf 71df e9bf
000000b0: f63b bdbf addd 36bf 7f90 1ebf 9057 b7bf
000000c0: 3f48 02c0 29e8 02bf fa3a 9cbe bd36 a4bf
000000d0: fa7f 79bf c19a e93e f5e7 90bf 5741 c4bf
000000e0: 3cd3 41bf 91bd 9abf cdf4 cabf 3df9 debf
000000f0: 2889 fabf 7e13 39c0 b86d 2abf f5f4 4fbf
00000100: 0069 0fbf e857 8cbf a5c3 e8be 3aaf 55be
00000110: ff5b 0a3f 7a2c 7fbe 062f 87bf 1a39 dbbf
00000120: 0b9a 63bf ebf9 5d3e 8403 91bf 304c 16bf
00000130: 9ad9 99bf 851e cabf 500f 94bf 4335 21c0
00000140: 1bca e8bf f97d 45c0 d9c5 a1bf 7b92 393f
00000150: a796 d6bf 1232 bebf 4b1a 13bf 5c31 1abf
00000160: 4565 e9bf cbea d6bf 7087 26bf 1090 0dc0
00000170: 3f05 f5bf a479 abbf 72ef 0f3f b4e8 3ebf
00000180: d5a5 e4bf 68ed e6bf 1305 7ebf eee3 c4bf
00000190: f9c4 1cbf b073 07c0 4106 25bf 8f16 12c0
000001a0: 4ff9 a8bf 1637 08c0 1a97 26c0 ba69 edbf
000001b0: 9e8f 8abf 406a aebf 006c 13c0 1013 a3bf
000001c0: af19 adbf c20c 06c0 f6fa a4bf 68a8 16c0
000001d0: cac6 8ebf e965 aebf 5230 c7bf 87c9 90bf
000001e0: a5b4 c3bf 0ab5 c4bf be81 17c0 343b 11c0
000001f0: 5567 c1bf 5cf1 b5bf 68db 64bf e18e 66bf
00000200: 5bbc babf 0517 9dbf d416 59bf 4e42 afbf
00000210: aa31 66bf 20b4 2abf 8ead 4cbd 4820 05c0
00000220: 2f93 e5bf cb4e d1bf 707c 87bf 9467 75bf
00000230: 0f45 12c0 1248 94bf fba7 31c0 5c4c bebf
00000240: 3e2e e2bf 8bfa 0ec0 b9e0 cbbf 9cd5 45bf
00000250: 21e8 15c0 cbae bdbf 7a2e fa3d 9281 9ebf
00000260: b058 81bf 6b99 1bc0 26ae 25c0 8ecc 78bf
00000270: a9c9 f9bf 8105 92bf 6e8b 41bf a5a8 78bf
00000280: af0f 56bf b6ec 08c0 54ee e9bf cff9 a7bf
00000290: ae98 0fc0 6ca5 ddbf 4737 14c0 1156 26c0
000002a0: 4a48 c9bf c50e 7abf a293 0ebf aa9d 1ac0
000002b0: 2d6e cebf f0bb 97bf 9313 2bc0 d723 a9be
000002c0: 6bdf 0cc0 43be b1bf 92ef 98bf 430a f2bf
000002d0: 6bb0 9fbf 37eb 15bf 3750 85bf fe2a 3abf
000002e0: c52e 75bf 18e5 efbf bde9 08bf 3478 93bf
000002f0: 0473 b2bf bf38 39bf 9871 13c0 b96d babf
00000300: a2ed acbe 94e7 abbf 0e4e 74bf e51d 1cbf
00000310: cdb8 69bf d315 b1bf 887f 67bf e6a7 91bf

reward_fun.2.weight f4 [200, 200]
-0.34899434 -0.5054734 0.091689035 -0.16881172 0.3460558 -2.7932494 1.0615832 -1.8070087
0.5756688 0.25155923 -0.40385035 -0.7457734 -0.13780826 0.3553341 1.156248 -0.37434366
-0.6497359 -0.24894492 -0.29761747 -0.5410933 0.14899112 0.095392674 -0.55041826 -0.47089648
-0.28626913 -0.03300254 -0.07994083 1.5083336 -5.746834 -1.430114 1.7085754 -0.62119764
-0.26665792 -2.715664 0.57516533 -0.14574209 0.20220144 -1.159928 0.38577974 -0.8667754
-0.66433793 0.5790579 0.2366836 1.0868196 -1.0521821 0.064239316 -0.05514382 -2.9015574
-1.5394751 -1.4886286 0.27234772 0.44440255 -0.18326496 0.35291734 -0.035910502 0.8395582
-0.3291367 -0.26465258 -0.8747747 -0.8444086 1.1621536 -5.882634 -0.8234418 -0.76839834
0.3300366 0.23851986 0.11987942 0.30324683 0.9781958 0.82445776 0.38282517 -1.2248807
-0.8413103 0.047236536 0.025771951 0.83809537 -1.075699 0.8714622 -1.810239 -1.3179753
0.44462788 -5.7845707 -0.5081948 0.7192863 -1.5086074 -0.59959453 -0.76221204 0.72345716
-1.4891514 0.19605356 -0.34371108 0.48128384 -1.9461823 -0.15790215 -0.2962458 -0.7776619
0.9174133 -0.6968205 -0.5522027 -0.6097062 0.07732606 0.85637593 0.07956874 -1.9183872
-0.26154014 0.84446394 -7.349795 -0.5135679 0.5778473 1.2857333 -0.8333003 0.021682449
-0.45861164 0.61227804 0.17795554 -0.2412184 -0.48215234 -0.9198549 -0.046928734 -0.7739823
0.6626241 -0.3552293 -2.2417169 0.44450086 0.5692627 -0.31158757 -0.11867408 -0.6243709
-0.10143538 -0.5730377 0.57577616 -0.9402218 -0.14934415 -0.031815667 -0.44399107 0.35851142
-0.18212475 -0.005614348 -0.270626 -0.25025332 0.71078545 0.084481455 -0.24806687 1.1050934
-0.9577271 -1.9933465 0.24465747 0.010631471 0.4531045 -0.39547086 0.24241593 0.48503268
0.28762677 -0.09977197 0.41220877 -0.41213503 -0.43722364 0.107291915 -0.13012551 -0.39496294
-0.32731178 -0.4062348 -0.16440608 -1.5884445 -0.2725967 -0.9218303 -0.019599186 0.2728363
-0.5500631 0.9934583 -0.20462555 0.13039784 1.1947912 0.04354623 -0.27303666 0.15524049
-1.8308135 -1.4871899 -0.102907345 -0.29496682 0.17690226 -0.5007438 -0.26347822 -0.23195712
-0.018977275 0.5524206 0.08909964 -0.5650551 -0.123299696 0.9782101 -2.3278859 -1.0379177
0.6231647 -2.8693714 0.42223397 -1.0418513 0.47977772 0.5638968 0.1814011 -1.865512
0.8945466 -1.5150633 0.041260216 -1.0377717 -1.999735 0.05412525 -0.513998 0.18029992
-1.1367992 -0.10820538 0.3151061 -0.9994112 -0.07533276 -1.2607248 -1.0874643 0.29396972
0.37733316 -0.44280776 -0.11668243 0.99851424 -0.48973364 -0.41269514 -1.1472144 0.14015692
0.04164592 0.10350079 0.06395049 -0.9406223 -0.96777374 0.7576913 -0.4487281 -1.6805259
-0.75726056 -0.18830745 0.1893173 0.027634926 -0.28035596 -0.0367474 -1.8755771 0.42620897
-0.2075553 -0.038204473 0.31824648 -1.864497 -0.009372709 -0.3722072 -0.032935385 0.50797397
-0.330873 -0.72124195 -0.37511298 -1.026345 0.022993205 -0.14886639 0.4692144 -0.14094119
00000000: 63af b2be b466 01bf 76c7 bb3d fbdc 2cbe
00000010: 3a2e b13e 99c4 32c0 f5e1 873f 104c e7bf
00000020: 085f 133f 5fcc 803e 79c5 cebe 01eb 3ebf
00000030: 9c1d 0dbe 5aee b53e efff 933f f9a9 bfbe
00000040: 1855 26bf 6beb 7ebe 5161 98be 1785 0abf
00000050: 2191 183e 3c5d c33d 36e8 0cbf 5819 f1be
00000060: de91 92be ac2d 07bd 05b8 a3bd 1311 c13f
00000070: 10e6 b7c0 fa0d b7bf 99b2 da3f cf06 1fbf
00000080: 6387 88be 70cd 2dc0 093e 133f 6a3d 15be
00000090: e50d 4f3e 8578 94bf ec84 c53e fee4 5dbf
000000a0: 0d12 2abf 233d 143f 305d 723e e81c 8b3f
000000b0: e7ad 86bf e78f 833d 7cde 61bd 1eb3 39c0
000000c0: 850d c5bf 628b bebf 2971 8b3e bb88 e33e
000000d0: cfa9 3bbe 95b1 b43e e416 13bd 49ed 563f
000000e0: 9b84 a8be 8b80 87be 3cf1 5fbf 292b 58bf
000000f0: 73c1 943f 8a3e bcc0 15cd 52bf c1b5 44bf
00000100: 8ffa a83e 8d3e 743e 5783 f53d 2b43 9b3e
00000110: 0a6b 7a3f aa0f 533f a901 c43e e4c8 9cbf
00000120: 1d60 57bf 197b 413d b31f d33c 6b8d 563f
00000130: 81b0 89bf 2618 5f3f e9b5 e7bf 6ab3 a8bf
00000140: 44a6 e33e 341b b9c0 0e19 02bf 2623 383f
00000150: 0c1a c1bf 077f 19bf 5420 43bf 7d34 393f
00000160: 839c bebf 44c2 483e e6fa afbe d66a f63e
00000170: 801c f9bf 1ab1 21be 88ad 97be da14 47bf
00000180: 99db 6a3f d462 32bf 285d 0dbf b515 1cbf
00000190: 205d 9e3d 743b 5b3f f0f4 a23d b68d f5bf
000001a0: 97e8 85be ca2e 583f 8531 ebc0 3079 03bf
000001b0: cded 133f e992 a43f 2b53 55bf 649f b13c
000001c0: 25cf eabe 41be 1c3f fa39 363e f501 77be
000001d0: acdc f6be 9c7b 6bbf 5838 40bd b423 46bf
000001e0: bca1 293f 9de0 b5be 4a78 0fc0 9e95 e33e
000001f0: 33bb 113f 6888 9fbe 650b f3bd c5d6 1fbf
00000200: 5abd cfbd 99b2 12bf 1166 133f 60b2 70bf
00000210: aced 18be 2551 02bd cc52 e3be cf8e b73e
00000220: e97e 3abe 91f8 b7bb 7e8f 8abe 3421 80be
00000230: 09f6 353f 9d04 ad3d 3e05 7ebe b373 8d3f
00000240: 9a2d 75bf fa25 ffbf 7d87 7a3e 9f2f 2e3c
00000250: 50fd e73e 287b cabe e23b 783e 3456 f83e
00000260: d143 933e 3f55 ccbd 070d d33e 5d03 d3be
00000270: c7db dfbe ddbb db3d 9f3f 05be 9538 cabe
00000280: 6995 a7be 02fe cfbe 115a 28be 2652 cbbf
00000290: cb91 8bbe 12fd 6bbf 798e a0bc 33b1 8b3e
000002a0: efd0 0cbf 4853 7e3f 5c89 51be 0387 053e
000002b0: ebee 983f 885d 323d 76cb 8bbe 5df7 1e3e
000002c0: 1958 eabf 3d5c bebf 16c1 d2bd e405 97be
000002d0: de25 353e bf30 00bf 9ee6 86be 2b86 6dbe
000002e0: 3b76 9bbc 706b 0d3f df79 b63d 73a7 10bf
000002f0: 8d84 fcbd fa6b 7a3f 15fc 14c0 7dda 84bf
00000300: b987 1f3f c8a3 37c0 0d2f d83e 625b 85bf
00000310: 6da5 f53e 8a5b 103f 36c1 393e 19c9 eebf
00000320: 0201 653f 98ed c1bf 7900 293d b4d5 84bf
00000330: 51f7 ffbf 70b2 5d3d 5f95 03bf 8ba0 383e
00000340: a382 91bf c89a ddbd 9655 a13e 6ad9 7fbf
00000350: 1048 9abd 6e5f a1bf 0832 8bbf 3383 963e
00000360: d031 c13e b3b7 e2be 33f7 eebd a19e 7f3f
00000370: 5ebe fabe c74c d3be ecd7 92bf 4c85 0f3e
00000380: ea94 2a3d 39f8 d33d 79f8 823d a0cc 70bf
00000390: 05c0 77bf 0ff8 413f b1bf e5be 791b d7bf
000003a0: d4db 41bf abd3 40be 65dc 413e a462 e23c
000003b0: d18a 8fbe 7184 16bd e912 f0bf 1038 da3e
000003c0: 6089 54be 4b7c 1cbd 34f1 a23e d6a7 eebf
000003d0: fe8f 19bc f191 bebe 41e7 06bd 950a 023f
000003e0: 3068 a9be 50a3 38bf cf0e c0be 465f 83bf
000003f0: 3f5c bc3c 6e70 18be df3c f03e e352 10be

reward_fun.2.bias f4 [200]
0.8691534 -0.48846045 0.36591524 -0.21520217 -0.3899273 -0.2991309 -0.18275085 0.08180314
-0.061265834 0.12435479 0.6128053 -0.07069038 0.13113485 -0.24907982 -0.11467242 -1.4540944
-0.14433096 -0.19127283 -0.16768356 -0.09001947 -0.08847295 -0.0800721 0.27334586 -0.21266946
-0.055349488 -0.17703027 -0.0602679 1.1823529 -0.1714639 -0.29314053 -0.69240135 -0.81557107
-0.026591275 -0.87280893 0.99745446 -0.22320434 -0.028473489 -0.002183118 -0.23192206 -0.30044296
-0.033106472 -0.32638368 -0.28966025 -0.10566988 -0.076635174 0.3326776 0.12068681 0.11826394
0.09535715 -0.62637633 -0.021566449 -0.0123326555 -0.086369246 -0.11146787 -0.0015872427 -0.26592404
1.3012235 -0.15782917 0.9143915 -0.21443217 -0.22125764 0.031617202 1.5864598 -0.094526626
-0.083970286 -0.09309546 0.2965205 0.23102474 -0.04722121 0.08436936 0.5643746 0.2984791
1.2999674 0.53798497 0.25908005 -0.061900627 0.007188248 -0.5260647 -0.15161376 -0.030621478
0.5643172 -0.031343333 -0.14365868 -0.256479 -0.024673903 -0.03890262 0.6866257 -0.24527729
-0.07387811 0.016171094 -0.13482122 -0.08150406 0.78085464 -0.3664508 0.0013363207 -0.16805884
-0.12059424 1.1018142 -0.56212765 -0.16301504 -0.18413495 -0.061392657 -0.2014802 -0.6012656
-0.02478567 -0.08158996 -0.29232207 -0.58962697 -0.26741713 -0.08926154 -0.073477015 -0.17694756
-0.6259098 -0.23842686 1.1016282 -0.06425906 0.15601547 0.46388268 -0.0562193 -0.09434136
-0.03470722 -0.6587443 1.276993 0.53997904 0.18347654 0.06099576 -0.7069727 -0.025149727
0.23708628 -0.17231345 -0.08431436 -0.84219414 -0.45618695 0.0032872276 -0.04985472 2.0661697
-0.13188735 -0.30298665 0.12120785 -0.06814982 0.050151557 -0.024557373 -0.0342486 -0.11558244
0.7123353 -0.07791607 -0.2816202 -0.51177096 0.34857234 -0.34145397 0.275372 -0.020981347
0.10590805 1.7025869 -0.10422708 0.16183026 -0.1764623 -0.017961144 -0.0651382 -0.102569096
-0.10966628 -0.19052692 0.75945485 -0.17932288 -0.44446805 -0.27155787 -0.09761679 0.020329077
-0.06924589 0.73327094 0.025173508 -0.33287185 -0.10259715 -0.038596895 -0.12042713 0.030228993
-0.7350057 -0.0868512 0.2870369 -1.0799149 0.13171709 -0.012186473 -1.6628934 0.0020230857
-0.08516243 -0.008395231 -0.89646083 -0.13458979 -0.04418078 -0.5725957 -0.117615715 -0.18121973
1.0429136 -0.2219582 0.15740103 -0.159661 -0.90138847 -0.0028051208 0.036843892 -0.061562702
00000000: d680 5e3f 7d17 fabe 3e59 bb3e f55d 5cbe
00000010: 8da4 c7be af27 99be 0a23 3bbe 6888 a73d
00000020: e2f1 7abd b9ad fe3d cfe0 1c3f 1ec6 90bd
00000030: 3748 063e c80e 7fbe 60d9 eabd c41f babf
00000040: 7fcb 13be 06dd 43be 3db5 2bbe 215c b8bd
00000050: 4e31 b5bd d7fc a3bd fdf3 8b3e 06c6 59be
00000060: 25b6 62bd 6c47 35be 79db 76bd 5757 973f
00000070: 3c94 2fbe 8416 96be 3741 31bf 44c9 50bf
00000080: f2d5 d9bc 6870 5fbf 2d59 7f3f ae8f 64be
00000090: 3c41 e9bc a412 0fbb fa7c 6dbe a9d3 99be
000000a0: a79a 07bd c31b a7be 594e 94be 7369 d8bd
000000b0: e7f2 9cbd b854 aa3e a52a f73d 5d34 f23d
000000c0: 9c4a c33d 335a 20bf 1fac b0bc e80e 4abc
000000d0: 5ce2 b0bd 4449 e4bd 070b d0ba 3227 88be
000000e0: 7e8e a63f f89d 21be 9015 6a3f 1b94 5bbe
000000f0: 5d91 62be 0a81 013d 1d11 cb3f 2d97 c1bd
00000100: 9df8 abbd d5a8 bebd 89d1 973e c091 6c3e
00000110: 076b 41bd d8c9 ac3d db7a 103f 41d2 983e
00000120: 5565 a63f 62b9 093f 24a6 843e 838b 7dbd
00000130: 658b eb3b 2dac 06bf a340 1bbe e5d9 fabc
00000140: 1877 103f de61 00bd 431b 13be 3751 83be
00000150: ed20 cabc 5b58 1fbd b4c6 2f3f f829 7bbe
00000160: 684d 97bd 3e79 843c 930e 0abe 9aeb a6bd
00000170: 17e6 473f 709f bbbe 7b27 af3a 9e17 2cbe
00000180: 1dfa f6bd 3f08 8d3f 99e7 0fbf 6aed 26be
00000190: df8d 3cbe de76 7bbd d350 4ebe 8bec 19bf
000001a0: 510b cbbc a318 a7bd 3dab 95be cbf1 16bf
000001b0: e6ea 88be c1ce b6bd 1e7b 96bd be31 35be
000001c0: a03b 20bf 2c26 74be 2702 8d3f 419a 83bd
000001d0: 85c2 1f3e 0882 ed3e 3546 66bd 0b36 c1bd
000001e0: 2829 0ebd 77a3 28bf 8274 a33f 113c 0a3f
000001f0: 46e1 3b3e b1d6 793d 2afc 34bf cd06 cebc
00000200: bfc6 723e f072 30be 02ad acbd 099a 57bf
00000210: 5691 e9be 876e 573b 7634 4cbd 203c 0440
00000220: 7a0d 07be 1121 9bbe d23b f83d 2292 8bbd
00000230: b86b 4d3d 8b2c c9bc 4348 0cbd 7cb6 ecbd
00000240: 9b5b 363f 7692 9fbd 8630 90be 6c03 03bf
00000250: 1378 b23e 0ed3 aebe 8ffd 8c3e 13e1 abbc
00000260: 52e6 d83d 5eee d93f 0275 d5bd d5b6 253e
00000270: 88b2 34be 4023 93bc 2d67 85bd bf0f d2bd
00000280: b798 e0bd 7d19 43be a26b 423f 6ba0 37be
00000290: 5191 e3be a209 8bbe 50eb c7bd 2a89 a63c
000002a0: cad0 8dbd a5b7 3b3f ac38 ce3c 2e6e aabe
000002b0: 741e d2bd c717 1ebd 80a2 f6bd cba2 f73c
000002c0: 5529 3cbf 0bdf b1bd 80f6 923e a73a 8abf
000002d0: d8e0 063e c6a9 47bc b1d9 d4bf bf95 043b
000002e0: a469 aebd 278c 09bc 757e 65bf e8d1 09be
000002f0: e8f6 34bd a295 12bf 82e0 f0bd aa91 39be
00000300: 317e 853f 0349 63be bc2d 213e 2c7e 23be
00000310: 65c1 66bf 1ed6 37bb 9fe9 163d 2c29 7cbd

reward_fun.4.weight f4 [1, 200]
0.15992671 -0.6751898 -0.29793638 0.023576748 -0.03336373 0.024540111 -0.030974204 0.033941153
0.051098466 1.5669 0.19520687 -0.074533224 -0.38425598 0.012319237 0.00742771 0.20293109
0.0884933 0.04539116 0.096413255 0.010394572 0.042433094 -0.08633525 0.46628162 0.075942606
0.010966806 0.07874862 -0.006760122 -0.41942915 0.011469514 -0.016969396 0.48096856 0.18325041
-0.048357528 0.6267516 -0.16375849 0.04759047 -0.0032340318 -0.00017934844 0.05612096 -0.022326289
-0.020668274 0.05295707 -1.9480511 -0.00066874916 0.010897459 -0.24901184 -0.9661092 -0.6023855
-0.1210306 -0.36014527 0.09048488 0.04065453 0.5431211 0.065247595 -0.0067986543 -0.23128952
-0.24228728 0.08580754 -0.6785931 -1.3062814 0.014955891 0.044914007 0.42465597 0.027349865
-0.015918555 0.24268442 -0.12309663 -0.7170207 -0.014579831 0.07702803 -0.62413013 0.67486656
-0.28819343 -0.77941096 -0.6035783 0.16567646 -0.03882491 -0.06561807 0.08717901 0.09345657
-0.68261373 0.042563453 -0.050763756 0.8735687 0.0013140761 0.0113203395 -2.0172071 0.11245239
0.059791878 0.0029265764 0.07317706 -0.05105897 -0.34476402 0.042457234 0.100252256 0.06380728
-0.07234916 0.18867795 0.04102142 0.05969116 -0.023591308 0.053678405 0.08374931 -0.002536245
0.022332108 -0.066836745 -0.008994908 0.1449687 -0.18942152 -0.019514319 -2.7193553 0.07904132
-0.069674 0.06998881 0.46663547 0.03747645 0.65016854 -0.15800807 -0.07184935 0.01282811
-0.017572574 -0.038621925 -0.44389102 -0.26657686 0.59696287 0.95276517 -0.55859596 0.03376781
0.21421084 -0.08552355 -0.0041919746 -0.23772736 -0.03245821 -0.0028225137 -0.017656233 0.1935779
0.025926089 -0.2194066 -0.08531477 0.32763803 -0.03533527 0.13423386 0.037131406 -0.023462309
-1.7247695 -0.06127123 0.13191108 0.006599584 -0.59410715 -0.018761313 0.118912034 0.020047585
-0.057059433 -0.37551576 -0.40620837 0.036020875 0.044212695 0.046766922 0.012798661 0.033985145
-0.042408373 0.9269961 -0.32515773 -0.012860181 0.035077278 0.09363597 0.021831034 -0.01036526
0.010161142 -1.3383502 0.13218963 0.091344364 0.049097054 0.044416267 -0.04621564 -0.01927641
0.052822 0.0807605 0.56824255 -0.191112 -0.004098876 0.0056457543 -0.24444391 0.026110074
-0.0032286956 0.006298452 0.09455983 -0.03354639 0.013134555 0.33924866 -0.0391575 -0.073068865
0.35913497 -0.032757655 -0.44548422 0.013943416 -1.2637491 -0.003580897 0.027155844 -0.0035764144
00000000: d4c3 233e 3dd9 2cbf 1e8b 98be 0624 c13c
00000010: 68a8 08bd 5808 c93c 9dbd fdbc e105 0b3d
00000020: a04c 513d 2e90 c83f 4fe4 473e e0a4 98bd
00000030: 33bd c4be a0d6 493c 2664 f33b 2bcd 4f3e
00000040: fa3b b53d 15ec 393d 5074 c53d ff4d 2a3c
00000050: 53ce 2d3d 89d0 b0bd 77bc ee3e cc87 9b3d
00000060: 1eae 333c f546 a13d 0384 ddbb 6bbf d6be
00000070: a1ea 3b3c 6703 8bbc 8341 f63e ffa5 3b3e
00000080: 8b12 46bd cb72 203f 4eb0 27be 3aee 423d
00000090: 0df2 53bb 7b0f 3cb9 17df 653d 9fe5 b6bc
000000a0: 8350 a9bc 83e9 583d bd59 f9bf ff4e 2fba
000000b0: 428b 323c f6fc 7ebe ef52 77bf f035 1abf
000000c0: e4de f7bd f664 b8be 2350 b93d 5d85 263d
000000d0: fc09 0b3f 88a0 853d 3fc7 debb 29d7 6cbe
000000e0: 281a 78be ddbb af3d 47b8 2dbf 3b34 a7bf
000000f0: 8e09 753c c0f7 373d 826c d93e d30c e03c
00000100: a167 82bc 4482 783e 161a fcbd ab8e 37bf
00000110: 3ee0 6ebc dfc0 9d3d fec6 1fbf 0ec4 2c3f
00000120: 178e 93be 7a87 47bf 1c84 1abf 17a7 293e
00000130: de06 1fbd c462 86bd e98a b23d 2866 bf3d
00000140: c6bf 2ebf 0457 2e3d a8ed 4fbd 33a2 5f3f
00000150: 143d ac3a f278 393c ec19 01c0 704d e63d
00000160: 54e8 743d cecb 3f3b dbdd 953d 3623 51bd
00000170: e984 b0be a3e7 2d3d 0e51 cd3d 64ad 823d
00000180: cc2b 94bd cb34 413e 1406 283d b87e 743d
00000190: 8f42 c1bc e3dd 5b3d c284 ab3d 2137 26bb
000001a0: d3f1 b63c b4e1 88bd 615f 13bc ad72 143e
000001b0: b7f7 41be 7edc 9fbc eb09 2ec0 6ae0 a13d
000001c0: 3eb1 8ebd 4b56 8f3d d8ea ee3e e880 193d
000001d0: 7271 263f decc 21be c125 93bd fe2c 523c
000001e0: 5cf4 8fbc 0632 1ebd af45 e3be c37c 88be
000001f0: 8fd2 183f 6be8 733f 2500 0fbf 1d50 0a3d
00000200: 165a 5b3e f926 afbd d55c 89bb cd6e 73be
00000210: e6f2 04bd ecf9 38bb cea3 90bc 4939 463e
00000220: f362 d43c 20ac 60be 83b9 aebd 2cc0 a73e
00000230: b7bb 10bd 9a74 093e 1a17 183d 0734 c0bc
00000240: 3fc5 dcbf 8bf7 7abd b313 073e 5341 d83b
00000250: 6817 18bf 53b1 99bc 2788 f33d d53a a43c
00000260: 27b7 69bd 9a43 c0be 8bfa cfbe a08a 133d
00000270: 5f18 353d ac8e 3f3d 7ab1 513c 0234 0b3d
00000280: 67b4 2dbd 9e4f 6d3f 137b a6be 82b3 52bc
00000290: 31ad 0f3d 37c4 bf3d ffd6 b23c 0dd3 29bc
000002a0: eb7a 263c 0f4f abbf b85c 073e c112 bb3d
000002b0: fe19 493d d5ed 353d 9c4c 3dbd 90e9 9dbc
000002c0: e25b 583d c365 a53d 5878 113f ddb2 43be
000002d0: dd4f 86bb 0500 b93b 814f 7abe cbe4 d53c
000002e0: 8698 53bb 3f63 ce3b 96a8 c13d f067 09bd
000002f0: 5132 573c 00b2 ad3e 9d63 20bd 21a5 95bd
00000300: 8ae0 b73e e42c 06bd 8216 e4be ed72 643c
00000310: 88c2 a1bf 7cad 6abb ef75 de3c 4762 6abb
