HybridLearning-master/data/hlt_stoch/InvertedPendulumBulletEnv/seed_666/model_5000.pt (torch, 180898 bytes, 10 tensors)

log_std f4 [1, 5]
0	0xc09a5c2d	-4.823752
1	0xc0104189	-2.254
2	0xc098fa47	-4.7805514
3	0xc090aac8	-4.5208473
4	0xbfc4dfa0	-1.5380745

mu.0.weight f4 [200, 6]
0	0x3e921366	0.28530425
1	0xbd22f1d7	-0.039781418
2	0xbf0a82f6	-0.5410608
3	0xbf63241e	-0.88726985
4	0xbe25d407	-0.16194163
5	0xbf5569a0	-0.83364296
6	0x3da81e27	0.08208876
7	0xbe71ccc7	-0.23613273
8	0xbb8e46a2	-0.004341916
9	0xbf72ffec	-0.94921756
10	0xbe20a5d4	-0.15688258
11	0xbcbddcc2	-0.023176555
12	0x3d0bd665	0.03414001
13	0xbd300aaf	-0.04297894
14	0x3bf8182c	0.007571241
15	0x3dbc0d14	0.09182182
16	0x3c50beff	0.0127408495
17	0xbe03ad85	-0.12859161
18	0xbc853693	-0.016261375
19	0xbe4afb02	-0.19822314
20	0xbfbb1ea1	-1.4618722
21	0x3f3edb14	0.74553037
22	0x3ac04a3f	0.0014670565
23	0x3e5eed9a	0.21770325
24	0xbdfa9f78	-0.122374475
25	0x3d0b6096	0.03402766
26	0x3e6918d0	0.22763371
27	0xbf86c3f5	-1.0528551
28	0xbdf1a43b	-0.117989026
29	0x3e839f0b	0.25707278
30	0xbf7b2f42	-0.98118985
31	0x3ec6d3c6	0.38833445
32	0xbe6d0239	-0.23145379
33	0xbf9d427d	-1.2285916
34	0x3f181fc4	0.5942347
35	0x3eac2f20	0.33629704
36	0x3f24bd31	0.64351183
37	0x3edcc80b	0.4312137
38	0xbc17f506	-0.009274727
39	0xbf54e628	-0.8316369
40	0x3e0da80f	0.1383364
41	0x3f87122f	1.0552424
42	0xbe24dc65	-0.16099699
43	0xbdbfcfdd	-0.09365819
44	0x3d0ead94	0.034833506
45	0xbd1a20b0	-0.03762883
46	0x3c30bd81	0.010787369
47	0xbd6769db	-0.056497436
48	0x3b2e3349	0.0026580861
49	0xbaf35a54	-0.0018566349
50	0xbb89bdac	-0.004203519
51	0xba3a8720	-0.0007115472
52	0x37ddeb7f	2.6454914e-05
53	0x3c3bb306	0.011456257
54	0x3e1a472c	0.15066212
55	0x3d9224e1	0.0713594
56	0xbd4f96de	-0.050680988
57	0x3f86599b	1.0496095
58	0xbe11a9fc	-0.14225
59	0xbe803dab	-0.2504705
60	0x3523d442	6.103111e-07
61	0xb45871b9	-2.015794e-07
62	0x3493aa1e	2.750466e-07
63	0xb3e3031b	-1.0571076e-07
64	0x33bd614d	8.818697e-08
65	0x35a4b141	1.227054e-06
66	0xb9cbba72	-0.0003885809
67	0xbaa1d8d7	-0.0012347949
68	0xba93cd90	-0.0011276472
69	0x3a7a8139	0.0009555999
70	0xba48a6c0	-0.0007654242
71	0x3ac1ecc6	0.0014795295
72	0x3e2dd974	0.16977483
73	0x3dc9b18b	0.09848317
74	0xbeff4ecd	-0.49864808
75	0xbf10abb0	-0.56511974
76	0xbd9acfac	-0.075591415
77	0xbe8c442a	-0.27395755
78	0x39bd882f	0.00036150354
79	0xb9ed84bc	-0.00045303057
80	0xb819001d	-3.6478148e-05
81	0xb98c9020	-0.00026810262
82	0xb943793b	-0.00018641811
83	0x3b824893	0.0039759367
84	0x3ca748e9	0.020420508
85	0x3d5e2893	0.054237913
86	0xbf9f641e	-1.2452428
87	0xbe116aed	-0.14200945
88	0x3e0be3a2	0.13661054
89	0xbdd168cd	-0.10225067
90	0xbf065e68	-0.524878
91	0x3dab07af	0.08351075
92	0x3e8dd8f0	0.27704573
93	0x3e251683	0.16121869
94	0xbd20c2e9	-0.03924838
95	0xbbc3e151	-0.0059777875
96	0xbe53dd34	-0.20689851
97	0x3e54bfac	0.20776242
98	0xbf2ed9b9	-0.6830097
99	0xbf88f77c	-1.0700526
100	0x3dbdbb38	0.09264225
101	0x3ef68e14	0.48155272
102	0xbb2cb520	-0.0026353076
103	0xbb7c850b	-0.0038531448
104	0xbb3d7cc4	-0.0028913477
105	0x3bbc2240	0.0057413876
106	0xbb4e4749	-0.0031475595
107	0x3c4c7dc9	0.012481161
108	0x36890fa8	4.084741e-06
109	0x381acd6b	3.690777e-05
110	0x37688854	1.3860019e-05
111	0xb793b651	-1.7608663e-05
112	0x3796041f	1.7883312e-05
113	0xb845bbe5	-4.714345e-05
114	0x3d6660db	0.056244712
115	0x3eb53ec5	0.35399452
116	0xbe1ef935	-0.15524752
117	0xbf458002	-0.7714845
118	0x3eaefdfa	0.34178144
119	0x3e47b123	0.19501166
120	0xbf4dd815	-0.8040784
121	0xbf3118e9	-0.69178635
122	0xbe480089	-0.19531454
123	0xbfac6d52	-1.3470862
124	0xbead9e33	-0.3390976
125	0x3f6996f2	0.9124595
126	0xbac682e7	-0.0015145213
127	0xb8c0db02	-9.196067e-05
128	0x39cdc341	0.00039246122
129	0xb98b03c9	-0.00026514966
130	0x39d7d4f5	0.0004116666
131	0xbb5ef215	-0.0034018804
132	0xbf370370	-0.7148962
133	0x3ee384f5	0.44437376
134	0xbe03c394	-0.12867576
135	0x3d75fc97	0.06005534
136	0x3e555b26	0.20835552
137	0x3ed017f6	0.4064328
138	0xb86e6e6d	-5.6846464e-05
139	0xb84db8d8	-4.9047958e-05
140	0xb8d6402b	-0.000102162674
141	0x3923b1a4	0.00015611068
142	0xb90e7920	-0.00013587298
143	0x3a4df9bd	0.00078573433
144	0x3e3f82a4	0.18702179
145	0x3ecb9688	0.39763284
146	0xbe191e24	-0.14952904
147	0x3ed48cd9	0.41513708
148	0xbcd8fec1	-0.026488664
149	0xbef0838c	-0.46975362
150	0xba496c43	-0.0007683674
151	0x3939a62a	0.00017704876
152	0x39aedcc6	0.00033352355
153	0xba1a6778	-0.0005890052
154	0x394dfbe6	0.00019644163
155	0x3a2c53d4	0.00065737707
156	0xbad864e7	-0.0016509563
157	0x382e8eb0	4.161772e-05
158	0x3a246614	0.00062713143
159	0xb996615d	-0.0002868277
160	0x3a1edd4c	0.00060601975
161	0xbb218d08	-0.0024650712
162	0x3b405e4a	0.0029353076
163	0x3b01f38d	0.0019829005
164	0x3ac43a0d	0.0014970914
165	0xbb353560	-0.0027650222
166	0x3aea86fa	0.0017893009
167	0xbbe95b1d	-0.0071214573
168	0x3ecf1f69	0.40453652
169	0xbe1fd8d6	-0.1561006
170	0xbdbbe8a3	-0.09175231
171	0xbec17da4	-0.3779117
172	0xbccd9897	-0.025097175
173	0xbddda8cd	-0.10823212
174	0xbf4d7c4a	-0.80267775
175	0xbea9f8b1	-0.3319755
176	0xbdc00cc8	-0.09377438
177	0xbf3b9bcd	-0.7328461
178	0x3eb51bc6	0.35372752
179	0x3ce0b78d	0.027431274
180	0x3b5a7b46	0.0033337637
181	0x3b9367ab	0.004498442
182	0x3ad363db	0.0016127782
183	0xbb34e173	-0.0027600199
184	0x3adbf39f	0.0016780979
185	0x3acc9068	0.0015607001
186	0xb93b695f	-0.00017872964
187	0x3910c0cc	0.00013804733
188	0x37a2161a	1.9322197e-05
189	0xba1c4e23	-0.0005962571
190	0xb9431c68	-0.00018607231
191	0x3ada048b	0.0016633434
192	0xbf7ee53f	-0.9956855
193	0xbeb88302	-0.3603745
194	0x3f1f64c6	0.62263143
195	0x3ed5e4e5	0.41776195
196	0x3e6fdf20	0.23424959
197	0x3f4b0b9c	0.7931459
198	0xbfadf8ad	-1.3591515
199	0xbf0c496f	-0.5479955
200	0xbebae2e5	-0.36501232
201	0xbf9cca0e	-1.2249162
202	0xbde1c32e	-0.11023556
203	0xbf4edf46	-0.8080944
204	0xbb1ae9e4	-0.0023637945
205	0x3a00f023	0.00049185957
206	0xb9871743	-0.00025766538
207	0x3852ebb7	5.0287428e-05
208	0xb889fde3	-6.579959e-05
209	0xbb91edcd	-0.004453397
210	0x3e46416e	0.19360897
211	0xbc8cb290	-0.017174989
212	0xbee8edaf	-0.45493838
213	0x3f4c8057	0.7988333
214	0xbebc478e	-0.36773342
215	0x3df5746c	0.11985096
216	0x3de572f8	0.11203569
217	0x3c070331	0.008240507
218	0xbc4af397	-0.012387178
219	0xbdd420f8	-0.10357851
220	0xbc2bdfd0	-0.010490373
221	0x3da06824	0.07832363
222	0xb9a5d42c	-0.00031629333
223	0x39117dae	0.00013875097
224	0xb816b2df	-3.5929374e-05
225	0x385bbc03	5.238877e-05
226	0x380b9c9f	3.3286047e-05
227	0xba24e848	-0.0006290716
228	0xbacfbad7	-0.0015848529
229	0xba138eb4	-0.00056288694
230	0xbb023c3a	-0.0019872324
231	0x3b0f3e04	0.0021857033
232	0xbaf35d91	-0.0018567314
233	0x3bad93ab	0.0052971444
234	0xbf6c1799	-0.9222351
235	0x3df76c39	0.12081189
236	0xbb83ae79	-0.0040186015
237	0x3f1ed960	0.6205044
238	0x3f1e57d5	0.6185277
239	0xbdf154db	-0.11783763
240	0x3f3dc836	0.7413362
241	0x3e4e07cb	0.2012016
242	0x3f3d530e	0.73954856
243	0xbf1057a4	-0.5638373
244	0x3dccaed2	0.09994282
245	0xbdf4f240	-0.11960268
246	0x3ed2e8ed	0.41193333
247	0x3dd79406	0.1052628
248	0x3d898765	0.067152776
249	0x3eac37df	0.33636376
250	0xbcf85975	-0.030316094
251	0x3e52823d	0.20557494
252	0x3a05dcab	0.00051064295
253	0x39808ac9	0.00024517465
254	0x3a27aa94	0.00063959626
255	0xba5b0a43	-0.0008355716

mu.0.bias f4 [200]
0	0xbe9684b7	-0.29398128
1	0x3ea6bea6	0.32567328
2	0x3cb9d3bc	0.02268397
3	0x3fb93c64	1.4471555
4	0x3f2867c4	0.65783334
5	0x3dee1b45	0.11626295
6	0xbe22ed7c	-0.15910906
7	0xbd973511	-0.073831685
8	0xbb693e9f	-0.0035590304
9	0x3f1951be	0.59890354
10	0xb407382e	-1.2593293e-07
11	0x399d07b8	0.00029951124
12	0x3ed23fa7	0.41064188
13	0xba4217b8	-0.0007404047
14	0xbf7b580a	-0.9818121
15	0xbea5742b	-0.32315192
16	0x3f3bcd66	0.7336029
17	0xba166e7b	-0.0005738509
18	0xb5e2b0f5	-1.6889813e-06
19	0x3ea10fd0	0.31457376
20	0x3f35938e	0.70928276
21	0xb8187df7	-3.6356938e-05
22	0x3e332487	0.17494403
23	0xb80fd3f9	-3.429127e-05
24	0x3e81da2f	0.25361773
25	0xba2b8efe	-0.000654444
26	0xb8c6136e	-9.444995e-05
27	0x39c7f0ac	0.00038135552
28	0xbe821503	-0.25406656
29	0xbf32e4d5	-0.6988042
30	0xba326b8c	-0.0006806187
31	0xba33f682	-0.00068650406
32	0x3e22788b	0.15866296
33	0xbc5cea8e	-0.013483657
34	0x39389fe5	0.00017607173
35	0x3f2654fb	0.6497342
36	0x3c08f8e6	0.008360123
37	0x3806340c	3.1996562e-05
38	0x3835870d	4.327954e-05
39	0x3d8cc1eb	0.068729244
40	0xbf3095e1	-0.689787
41	0x3d2f65c8	0.042821676
42	0x38ffd07f	0.00012198183
43	0xbefd2a16	-0.49446172
44	0x3835efa8	4.337696e-05
45	0x3f96bb76	1.1775959
46	0x32103634	8.3942275e-09
47	0xb8dc1ba4	-0.00010495566
48	0x3ef40da6	0.47666663
49	0x362d502f	2.5825682e-06
50	0x3b994dea	0.0046784775
51	0x3d14ddc6	0.036344312
52	0x39f20e9c	0.00046168722
53	0x3b232d93	0.002489899
54	0xbf16b07d	-0.5886305
55	0xbec7e5d0	-0.3904252
56	0x38e705ed	0.00011016042
57	0x39f6737d	0.00047006822
58	0x39788e45	0.00023704123
59	0x3e7da804	0.24771124
60	0x38879856	6.4656764e-05
61	0x3b1380eb	0.002250726
62	0x2eb18759	8.073071e-11
63	0xb99e48c5	-0.00030190326
64	0xb5a68aa7	-1.2408317e-06
65	0xbcfab592	-0.030604158
66	0x394b04de	0.00019361402
67	0xbf1b54a9	-0.60676056
68	0xbd3ac303	-0.045596134
69	0xbef23f3c	-0.4731387
70	0xbf01e639	-0.50741917
71	0x36ff768d	7.6133933e-06
72	0x3a70a86a	0.0009180369
73	0x3f17f7e4	0.59362626
74	0x3a0b582b	0.0005315567
75	0xbe918db2	-0.28428417
76	0xbeb4bd73	-0.35300788
77	0x3966dfb8	0.00022017851
78	0x3f8adca4	1.0848584
79	0xb734e58f	-1.0782284e-05
80	0xbe9c5191	-0.3053098
81	0x3af03cdc	0.0018328684
82	0xba8df6f1	-0.001083104
83	0xbeeab9eb	-0.4584497
84	0x37a2902d	1.9379042e-05
85	0xbf0dfead	-0.5546673
86	0xb6701d99	-3.5780015e-06
87	0xbe8e756e	-0.27823967
88	0x3ac5bd86	0.001508639
89	0x3c6ad6fb	0.014333482
90	0xbedf9c52	-0.4367395
91	0xbf1446d4	-0.57920575
92	0x3e823bba	0.25436193
93	0x3f1029d2	0.5631381
94	0xba85f4d8	-0.0010220064
95	0x3a05fda3	0.0005111342
96	0xb906f2b4	-0.0001286965
97	0x39358f5b	0.00017314909
98	0xb6be4d0d	-5.671411e-06
99	0x34289222	1.5699382e-07
100	0x3f12b575	0.5730813
101	0x3c020d6d	0.007937771
102	0xbead656b	-0.33866438
103	0x3d093163	0.033494364
104	0xb9583c01	-0.00020621718
105	0x35aad3fd	1.2727684e-06
106	0xb6710dba	-3.5919788e-06
107	0xbe3bfde5	-0.18358572
108	0x3ebd94d4	0.3702761
109	0x2ae3a1af	4.043549e-13
110	0x3a1bc5ef	0.0005942275
111	0xbebd7cba	-0.3700922
112	0x3775eea3	1.46587e-05
113	0xbea11b45	-0.31466118
114	0x3afe483e	0.0019400192
115	0xb87caf09	-6.0244496e-05
116	0xbe3bc75d	-0.1833777
117	0xbcf14cfc	-0.029455654
118	0x3f80db36	1.0066898
119	0xbd78992b	-0.060692947
120	0xb8c8d2c0	-9.5759984e-05
121	0xb6a25604	-4.8379898e-06
122	0x39b05e8a	0.00033639773
123	0x3f8e95ac	1.1139426
124	0xb9f6061b	-0.00046925325
125	0xbf958487	-1.1681069
126	0x39e77160	0.00044144224
127	0xbf579d62	-0.8422452
128	0xbaac87cf	-0.0013163033
129	0xb3c36037	-9.0978965e-08
130	0x3e661e17	0.22472416
131	0x3b6bbe13	0.0035971447
132	0xbf425ce3	-0.75922984
133	0xbe533275	-0.20624717
134	0x3a3f61bb	0.0007300635
135	0x3e0bd38e	0.1365492
136	0xbe98daaa	-0.29854327
137	0xb7638e5b	-1.3563399e-05
138	0xbdb32a96	-0.08748357
139	0x3f041801	0.5159913
140	0x3854b14a	5.0709852e-05
141	0x3a216e09	0.0006158059
142	0xba177840	-0.00057781115
143	0x3908b48c	0.0001303723
144	0xac81b06e	-3.685988e-12
145	0x3f20dfc3	0.62841433
146	0x3d93d234	0.072178274
147	0xbede27d7	-0.4338977
148	0x373b784d	1.1174078e-05
149	0xbed2d533	-0.41178283
150	0x3ea6e2f4	0.32595026
151	0xbd0b1277	-0.033953156
152	0x39c5e2b2	0.0003774367
153	0x3f00b363	0.5027372
154	0x3d150b4b	0.036387723
155	0xbf1df9bb	-0.61709183
156	0x3ebbd6fe	0.36687464
157	0x385f5ebf	5.3255582e-05
158	0x388975bd	6.5545995e-05
159	0xbd8b02d4	-0.06787649
160	0xb8d1fb4f	-0.000100127065
161	0x3f398041	0.72461325
162	0x3aa73a3a	0.0012758442
163	0x3f492253	0.78568
164	0x38fc6a83	0.00012036136
165	0xbd50a464	-0.050938025
166	0xbe93e6e8	-0.28887105
167	0xbdef4c35	-0.11684457
168	0x3dfe7766	0.12425117
169	0xba5068cb	-0.00079501857
170	0x3ac4554e	0.0014979036
171	0x3d5d2d76	0.053998433
172	0xb9e55c17	-0.00043746896
173	0x3f0e1bca	0.5551115
174	0x3e187126	0.14886913
175	0xad47dc2e	-1.136073e-11
176	0xb8885387	-6.5005435e-05
177	0xb8dc5a0f	-0.00010507192
178	0xb94effcb	-0.00019740981
179	0xbf57a769	-0.8423982
180	0x3952c510	0.00020100572
181	0xbe3378b8	-0.1752652
182	0x3ee88191	0.4541135
183	0x3e08a541	0.1334429
184	0x3cff3d3f	0.031157134
185	0xb76d08f4	-1.4128385e-05
186	0xbebc5ecd	-0.36791077
187	0xb6b2c0f9	-5.3272784e-06
188	0x3e7ced66	0.24699935
189	0x3cb64e3f	0.022254108
190	0xbf076b6f	-0.52898306
191	0xb5064bc4	-5.0029143e-07
192	0xb8ae35b5	-8.30697e-05
193	0x3ee16e59	0.440295
194	0xb97e6190	-0.00024259673
195	0x369ee236	4.7351014e-06
196	0x3799f42a	1.8352719e-05
197	0x3f290c8c	0.6603477
198	0xbe471f89	-0.19445623
199	0xb6aff762	-5.2442056e-06

mu.2.weight f4 [5, 200]
0	0xbd06f4cf	-0.03294831
1	0xbbfa3d78	-0.007636722
2	0xbc1d6bab	-0.00960819
3	0x3c62bbdf	0.013838737
4	0x3cb6f5b4	0.022333957
5	0xbba735ca	-0.0051028477
6	0x3c07b7b5	0.008283545
7	0xbc450284	-0.012024526
8	0xba368960	-0.00069632195
9	0x3cb59619	0.022166299
10	0xb4b7313d	-3.4122232e-07
11	0x380b0c2a	3.315151e-05
12	0x3b6137f4	0.0034365626
13	0xba368678	-0.00069627864
14	0xbb2a543e	-0.0025990154
15	0x3cb5c2ac	0.022187553
16	0xbc667901	-0.0140669355
17	0xbb0deb8f	-0.0021655296
18	0x36b257bd	5.3150275e-06
19	0x3b9d21c1	0.0047952835
20	0xbba3e82f	-0.0050020437
21	0x3a57a91a	0.0008226797
22	0xbc700529	-0.014649668
23	0xb94df8ca	-0.00019643005
24	0x3c249f06	0.01004768
25	0xb94070d5	-0.0001835258
26	0x39d1016f	0.00039864655
27	0x3aa3be46	0.0012492619
28	0xbcdd3096	-0.027000707
29	0x3c6959b4	0.014242578
30	0xbaaa57ea	-0.0012996171
31	0xb97dcf95	-0.0002420529
32	0xbccbcd52	-0.024878178
33	0x3bd1a2be	0.006397574
34	0x3a87f8b1	0.0010373798
35	0x3be4d747	0.006983671
36	0x3bebb75a	0.007193488
37	0x3902a4e0	0.00012459187
38	0xba798fd8	-0.00095200306
39	0xbbf00643	-0.007324965
40	0x3cac0301	0.020997526
41	0x3aec7d49	0.0018042709
42	0x3a5214f2	0.00080139854
43	0xbb280886	-0.0025639846
44	0xb9263f12	-0.00015854489
45	0xbbc73c01	-0.006080151
46	0xb3020d8a	-3.0280297e-08
47	0xba0d3956	-0.0005387267
48	0xbc09c953	-0.008409816
49	0x36a7d019	5.0012136e-06
50	0x3bcfa76e	0.006337098
51	0x3b05233c	0.002031519
52	0x39a48cd0	0.0003138543
53	0xbb7f87bf	-0.0038990823
54	0x38d2e9e7	0.00010057148
55	0xb9ff415d	-0.0004868609
56	0xba22a72e	-0.0006204721
57	0x3b29f5d7	0.0025933885
58	0x399a2aa8	0.0002940495
59	0x3cbc8a34	0.02301512
60	0x3a8ea72b	0.001088356
61	0x3b1e0a1c	0.0024114912
62	0xad2ce541	-9.827973e-12
63	0xba9986ce	-0.0011713149
64	0xb5cf3244	-1.5437331e-06
65	0x3def7464	0.116921216
66	0xba40793e	-0.0007342285
67	0x3b221348	0.002473073
68	0xbcb2da51	-0.021832617
69	0xbc087690	-0.008329049
70	0xbc18d586	-0.009328252
71	0x3a11a257	0.00055555016
72	0x3b21b138	0.002467228
73	0xbc5a02ce	-0.013306333
74	0x38a26352	7.743262e-05
75	0x3cc67005	0.024223337
76	0x3ccc39d1	0.024929913
77	0x38d62aa2	0.00010212256
78	0xbcaa32aa	-0.020776112
79	0xb7049c7a	-7.904246e-06
80	0xb9ae3aed	-0.0003323177
81	0x3b6cdc79	0.0036142154
82	0xbab26d68	-0.0013612928
83	0xbb8d2079	-0.0043068496
84	0xb8b533a7	-8.6403736e-05
85	0x3bba0b95	0.00567765
86	0x38854294	6.354335e-05
87	0xbca2eec6	-0.019889247
88	0x3b6b4737	0.0035900602
89	0xbba37628	-0.0049884506
90	0x3c135378	0.0089920685
91	0x3c31adf5	0.010844697
92	0x3c062dfd	0.008189675
93	0x3c1344d3	0.008988577
94	0x396aca7a	0.00022391407
95	0x3a8b03c7	0.0010605984
96	0xba88a915	-0.0010426367
97	0x3a8a8fbe	0.0010571403
98	0xb7704ddc	-1.4323243e-05
99	0xb6884735	-4.0614054e-06
100	0x3c48c9b9	0.012255126
101	0x39cf3b95	0.0003952651
102	0x3baf1cf6	0.0053440286
103	0x3bb59a9d	0.005542113
104	0x37f55968	2.9247909e-05
105	0xb7309b82	-1.05266245e-05
106	0xb7b60cc1	-2.170203e-05
107	0xbc0b3868	-0.008497335
108	0x3a66338d	0.00087814854
109	0x2d0bf854	7.956375e-12
110	0x3a88fa28	0.0010450529
111	0xbce9f9d7	-0.028561516
112	0x399e9377	0.00030245978
113	0xba2bdb20	-0.00065557845
114	0x3aaaae11	0.0013021847
115	0xb90202d2	-0.00012398817
116	0x3b8a8de6	0.0042283414
117	0xbc217e62	-0.009856792
118	0x3bceef01	0.0063151126
119	0x3bbebec8	0.0058210827
120	0xb9b44f99	-0.0003439158
121	0xb5929050	-1.0919848e-06
122	0x3ac4f6b8	0.0015027141
123	0xbaf53281	-0.0018707068
124	0xbab8710a	-0.0014071774
125	0xba7cb17e	-0.00096394855
126	0x3a664071	0.0008783406
127	0xbc86b751	-0.016444834
128	0xbb59f41e	-0.0033257077
129	0xb4f85d42	-4.6261454e-07
130	0x3c591512	0.013249652
131	0x3baa6e38	0.0052011274
132	0x3c016b22	0.007899078
133	0x3c3fb882	0.011701705
134	0x3a96c6fa	0.0011503391
135	0xbd61b914	-0.055108145
136	0x3c664d30	0.014056489
137	0x3903acac	0.00012557459
138	0xbbf8b108	-0.007589463
139	0x3b87fd73	0.0041500865
140	0x36bb06e0	5.5738346e-06
141	0x39bf107c	0.0003644264
142	0xb9c46e94	-0.0003746642
143	0xb9989767	-0.00029104503
144	0xae2b68da	-3.8974025e-11
145	0xbb3ea785	-0.0029091549
146	0x3df881fd	0.12134168
147	0xbb83636d	-0.004009655
148	0x3901bb43	0.00012372159
149	0xbc48b2e3	-0.012249681
150	0xbc213c39	-0.009841018
151	0xbc01f87a	-0.007932777
152	0x39cebd43	0.00039432393
153	0xbc0b820a	-0.00851489
154	0x3d44f12c	0.048081562
155	0x3c440471	0.01196395
156	0x3c90f49e	0.017694768
157	0xb9e13cdd	-0.0004296069
158	0xba3a1dac	-0.00070997584
159	0xbc453471	-0.012036429
160	0x3a4b5e1e	0.000775786
161	0xba8e157c	-0.0010840143
162	0xb90382ba	-0.00012541833
163	0x3ba0b3fb	0.004904268
164	0x3abf7af9	0.0014608792
165	0x3b929b4f	0.0044740806
166	0x3b669183	0.0035181947
167	0x3cad1469	0.021127896
168	0xbb357e89	-0.002769383
169	0xbb1100e2	-0.002212577
170	0x3b8b699a	0.004254532
171	0xbd75d301	-0.060015682
172	0x3961cc99	0.0002153389
173	0xbb5f739a	-0.0034096004
174	0xbc656f2a	-0.014003554
175	0x2c298eb4	2.409556e-12
176	0xbaa56daf	-0.0012621189
177	0xba38fade	-0.0007056425
178	0xba327246	-0.0006807189
179	0x3c467348	0.012112446
180	0xb97603b4	-0.00023461768
181	0x3a1ac834	0.00059044664
182	0x3c145898	0.0090543255
183	0xba2cecd5	-0.000659657
184	0x3c07f88d	0.008299005
185	0xba8436eb	-0.0010087168
186	0x3b222c0b	0.002474549
187	0xba7291a8	-0.0009253272
188	0x3bd0d9b0	0.0063736066
189	0xb980db26	-0.0002457734
190	0x3c2a4aef	0.010393842
191	0xb5d52c39	-1.5882607e-06
192	0xb71078d7	-8.611204e-06
193	0x3a85789c	0.0010183039
194	0x3a979589	0.0011564951
195	0x37299b38	1.0109325e-05
196	0xba157b49	-0.000570227
197	0x3c0d8757	0.008638225
198	0x3c65b13d	0.014019308
199	0xbac406ea	-0.0014955674
200	0xbef14d83	-0.4712945
201	0xbc0d7360	-0.008633465
202	0x3e3a09c3	0.18167786
203	0x3e2044fd	0.15651317
204	0x3e22f37d	0.15913196
205	0xbe0cc198	-0.13745725
206	0x3e4b3ad6	0.19846663
207	0x3ecb765a	0.39738733
208	0xbc0bffe8	-0.0085448995
209	0x3ec3d652	0.3824945
210	0x358a147c	1.0287763e-06
211	0xbafb4f9b	-0.0019173505
212	0xbe889fad	-0.26684323
213	0x38f26ff6	0.000115603136
214	0xbe3065df	-0.1722636
215	0x3df79b4f	0.1209017
216	0xbe589b61	-0.21153022
217	0xbc0de39e	-0.008660225
218	0x37970a26	1.8005328e-05
219	0x3e52e23c	0.20594114
220	0xbd070048	-0.032959253
221	0xba8e80ed	-0.0010872163
222	0xbe29c27a	-0.16578093
223	0xb9a7444c	-0.00031903607
224	0x3bcc9524	0.006243365
225	0x3b7b3853	0.0038333132
226	0xbaf0fb1d	-0.0018385384
227	0x3ba1bc03	0.004935743
228	0xbe012a85	-0.12613876
229	0x3e8fa3cd	0.28054658
230	0x3b92f34d	0.00448457
231	0x3a509b64	0.00079577253
232	0xbece42ba	-0.40285283
233	0x3e0b5b73	0.13609104
234	0xbb2f01a9	-0.002670387
235	0x3e618c83	0.22026257
236	0xbe83b676	-0.25725144
237	0xb9cb78ca	-0.00038809172
238	0xbb8b9be4	-0.004260527
239	0xbe78436d	-0.24244471
240	0x3e76a633	0.24086837
241	0xbeb69826	-0.35662955
242	0x3ab9293b	0.0014126668
243	0xbf10ae9a	-0.5651642
244	0x3b38ccb8	0.0028198194
245	0x3d1101df	0.035402175
246	0x32988cb4	1.7759113e-08
247	0xbb5ed37b	-0.0034000564
248	0xbdd993a5	-0.10623864
249	0xb650ac1d	-3.1094598e-06
250	0xbba753f3	-0.005106443
251	0x3e8d1b0f	0.27559707
252	0xbcb7fb49	-0.02245869
253	0x3be10452	0.00686697
254	0xbe0f46a2	-0.13991788
255	0x3d0710c4	0.032974973

mu.2.bias f4 [5]
0	0x3bcfa8c7	0.0063372585
1	0x3e840643	0.25786027
2	0xbc8e12dc	-0.017342977
3	0x3c7dc589	0.015488991
4	0x3de228a6	0.11042909

reward_fun.0.weight f4 [200, 6]
0	0x3f464f29	0.7746454
1	0xbe4b91d3	-0.19879846
2	0x3fd4fabf	1.6639022
3	0xbf0cb0b3	-0.5495712
4	0xbef9b63d	-0.4877185
5	0x3f10ad30	0.56514263
6	0xbd41f1be	-0.047349684
7	0xbebd7e5a	-0.3701046
8	0xbf1c2a4a	-0.6100203
9	0x3e92895c	0.28620422
10	0x3e1cdb3e	0.1531801
11	0xbf4461c6	-0.7671169
12	0x3ea1b7b0	0.31585455
13	0xbca2bcfd	-0.019865507
14	0xbde819b5	-0.11333028
15	0x3e5e0288	0.21680653
16	0xbc033158	-0.00800737
17	0xbe69c42a	-0.22828737
18	0xbf14e51e	-0.58162105
19	0xbec506d3	-0.3848177
20	0xbf323a6e	-0.69620407
21	0xbfcec7b7	-1.6154698
22	0x3dd3c1ea	0.103397205
23	0x3e60e214	0.21961242
24	0x3f8ee7d4	1.1164498
25	0xbf11769e	-0.5682162
26	0x3f212da8	0.6296029
27	0x3fd4618e	1.6592271
28	0xbdf80873	-0.121109866
29	0xbf1e84df	-0.61921495
30	0x3f0b3a4b	0.54385823
31	0x3f829e17	1.0204495
32	0xbf73fcec	-0.95307803
33	0x3f666ee5	0.9001296
34	0xbcbf79bd	-0.023373479
35	0x3eaffc68	0.34372258
36	0xbe1ca006	-0.15295419
37	0xbdf90cfc	-0.1216068
38	0x3fe92a32	1.8216002
39	0x3fd4ecb4	1.6634736
40	0x3f478061	0.77930266
41	0xbee99944	-0.45624745
42	0xbf997da8	-1.1991472
43	0xbeec092f	-0.46100757
44	0x3faa7f60	1.3320122
45	0xbfdea0a1	-1.739277
46	0x3dc46358	0.09589261
47	0xbe9f5f21	-0.31127265
48	0xbf3956cb	-0.7239806
49	0xbedda520	-0.43290043
50	0x3e0373cf	0.12837146
51	0xbdf239ec	-0.11827454
52	0x3e77a969	0.24185719
53	0xbf84fa80	-1.0388947
54	0x3d15f6ec	0.036612436
55	0x3ea44974	0.3208729
56	0xbec9882e	-0.3936171
57	0x3f3d363c	0.7391088
58	0xbbf4058e	-0.0074469512
59	0xbe857ef4	-0.2607342
60	0xbe7c9499	-0.2466606
61	0x3f00b535	0.502765
62	0x3feee652	1.8664038
63	0xbf40f51d	-0.75374013
64	0xbf040350	-0.51567554
65	0xbe1dc6db	-0.15407889
66	0xbf7bc1cd	-0.9834259
67	0xbf82ed2a	-1.0228627
68	0xbd93c296	-0.07214849
69	0xbf580f31	-0.8439818
70	0x3e96f5b7	0.2948434
71	0xbf2c3e23	-0.67282313
72	0x3d26d405	0.04072954
73	0x3d22a400	0.039707184
74	0xbec733de	-0.3890676
75	0x3f0a8cb1	0.5412093
76	0x3af59fec	0.0018739677
77	0xbdb602a9	-0.08887226
78	0x3ff9b3bb	1.9507974
79	0x3d5eb449	0.054371152
80	0xbf0e7ba2	-0.556574
81	0x3e4266d6	0.18984541
82	0x3d0a2c28	0.033733517
83	0xbe971e70	-0.2951541
84	0x3ef6ff0c	0.4824146
85	0xbf755bb2	-0.9584304
86	0x3f63aa96	0.8893217
87	0x3ed005b8	0.40629363
88	0x3e7fb9be	0.24973199
89	0xbecf6a78	-0.40510917
90	0x3e8e1d2c	0.2775663
91	0x3db552bb	0.0885367
92	0xbde0252d	-0.10944591
93	0x3d873cda	0.066034034
94	0x3c2ae0e2	0.010429593
95	0xbd99b67c	-0.07505509
96	0xbea2628e	-0.31715816
97	0xbe7de030	-0.24792552
98	0xbee10698	-0.43950343
99	0x3dba2bbd	0.09090374
100	0x3db1615b	0.08661147
101	0xbf0c9fd4	-0.5493138
102	0xbeb57399	-0.35439757
103	0x3f670a3f	0.9025001
104	0xbfd6f3ef	-1.6793193
105	0x3d87621d	0.066105105
106	0xbe1eabe0	-0.15495253
107	0x3eaf3154	0.34217322
108	0x3e866d79	0.26255396
109	0x3e3f54e8	0.18684733
110	0xbeb06326	-0.34450644
111	0xbe44fdf0	-0.19237494
112	0xbbc4601c	-0.0059929024
113	0xbe456559	-0.19276942
114	0x3fb7e3bf	1.4366378
115	0x3f436068	0.7631898
116	0x3f0a4718	0.5401473
117	0x3f22606e	0.6342839
118	0xbe93796c	-0.28803575
119	0x3f750334	0.9570801
120	0xbd28e85d	-0.041237224
121	0x3db601af	0.0888704
122	0xbe6f1439	-0.23347558
123	0x3ebf4a50	0.37361383
124	0x39374171	0.00017476619
125	0xbe717d51	-0.2358296
126	0x3db5e314	0.08881202
127	0x3f04402a	0.51660407
128	0x400e9cd1	2.2283213
129	0x40133d7e	2.3006282
130	0x3e901a5b	0.28145108
131	0x3e87a4de	0.2649297
132	0x3f511879	0.8167797
133	0x3f102a64	0.5631468
134	0xbf372962	-0.7154752
135	0xbed5a7b5	-0.41729513
136	0xbe2068e6	-0.15665016
137	0x3f00e1be	0.50344455
138	0x3dc8fe70	0.09814155
139	0x3e7435f7	0.23848711
140	0x3fa601a1	1.2969247
141	0x4002a73a	2.0414567
142	0x3ebd33bc	0.36953533
143	0xbe5ac16b	-0.21362846
144	0x3dec6122	0.11541964
145	0x3d9c3f39	0.07629246
146	0xbe8fdd6d	-0.28098622
147	0x3d940028	0.07226592
148	0x3b518c0f	0.003197435
149	0xbe8f04fe	-0.27933496
150	0x3f2bbd2b	0.6708552
151	0xbe43629b	-0.19080584
152	0x3fb767e9	1.4328586
153	0x3fc06121	1.5029641
154	0x3ddf1e24	0.10894421
155	0xbfa300c2	-1.2734606
156	0x3f2468f3	0.6422264
157	0xbb76a6ee	-0.003763612
158	0xbf77cd00	-0.9679718
159	0xbf8df017	-1.1088895
160	0x3e5699cc	0.20957106
161	0xbf5db2dd	-0.8660105
162	0xbfe7380d	-1.806398
163	0xbeea2529	-0.45731476
164	0x3d85d67e	0.06535052
165	0xbea7e09a	-0.32788545
166	0x3e7bd5f6	0.24593338
167	0xbfb44913	-1.40848
168	0xbf0ee4b1	-0.55817705
169	0xbe98d213	-0.29847774
170	0x4003bc38	2.058363
171	0xbf2d2ad3	-0.6764347
172	0xbefa1095	-0.48840776
173	0xbe4c18ea	-0.19931379
174	0x3db379f0	0.08763492
175	0xbeabbe13	-0.33543453
176	0x3fe3d0b5	1.7798067
177	0xbe841810	-0.25799608
178	0xbecd9a5f	-0.40156838
179	0x3c1bdb3f	0.009512722
180	0xbef686de	-0.4814977
181	0xbf84b2a9	-1.0367023
182	0x3f571707	0.8401951
183	0x3f6706e6	0.902449
184	0xbe749c06	-0.23887643
185	0xbe980bff	-0.29696652
186	0x3fd72fbf	1.6811446
187	0x3ee4f47c	0.44717777
188	0xbf43d4a1	-0.7649632
189	0x3c9ff705	0.019526968
190	0xbbdd3d7f	-0.0067517157
191	0xbf208cf1	-0.6271506
192	0x3e4cc27e	0.19996068
193	0x3d8b7533	0.06809463
194	0xbe802cce	-0.25034183
195	0xbdc6a4c0	-0.09699392
196	0xbb72deac	-0.0037058992
197	0xbe9c8d12	-0.30576378
198	0x3f3e450d	0.74324113
199	0x3f986368	1.1905336
200	0xbf8157ef	-1.010496
201	0x3f87891e	1.058872
202	0xbd87147e	-0.065957054
203	0x3e97a947	0.29621336
204	0xbf82e424	-1.0225873
205	0xbf174e65	-0.59103996
206	0xbdbd0eee	-0.09231363
207	0xbfe64b7a	-1.7991784
208	0x3dfe5aa1	0.1241963
209	0xbf00b985	-0.5028308
210	0x3d27ff4f	0.041014966
211	0x3dbcb6a9	0.09214527
212	0xbe5c6821	-0.21524097
213	0x3da333a7	0.07968836
214	0xbaff95be	-0.0019499583
215	0xbe7ffe3b	-0.24999325
216	0xbddd963a	-0.10819669
217	0x3c5b9e73	0.013404476
218	0xbedb15de	-0.4279012
219	0x3eeeef1a	0.46666795
220	0x3d162eef	0.036665853
221	0xbe601e00	-0.21886444
222	0xbcfe814d	-0.031067515
223	0x3eee5f57	0.46557114
224	0xbf372f33	-0.71556395
225	0xbd29c1c1	-0.041444544
226	0xbcc8f962	-0.024532977
227	0xbea77757	-0.32708237
228	0xbfb4920e	-1.4107072
229	0x3e9472fd	0.2899398
230	0x3fc31d2e	1.524328
231	0x3ddd45b0	0.108043075
232	0x3efe8acb	0.49715266
233	0xbe815186	-0.2525751
234	0xbdbb6693	-0.09150424
235	0x3f92620e	1.1436174
236	0x3ebdc26d	0.37062398
237	0x3e3acc3f	0.18241976
238	0xbe4a9931	-0.19785
239	0x3f004ef8	0.50120497
240	0x3ebaaecc	0.36461484
241	0x3fc18424	1.5118451
242	0xbf07b2c2	-0.5300714
243	0xbe8569dc	-0.26057327
244	0xbed2c3c1	-0.41164973
245	0x3f6cfc8f	0.92572874
246	0x3f07bcef	0.53022665
247	0x3ebb8857	0.36627457
248	0x400d9c78	2.212675
249	0x3eb79f5f	0.35863778
250	0x3f135412	0.57550156
251	0x3f29b0a3	0.6628515
252	0x3e0bbf68	0.13647234
253	0xbdde2294	-0.10846439
254	0xbe7faf7f	-0.2496929
255	0x3d3d8092	0.046265192

reward_fun.0.bias f4 [200]
0	0xc01171db	-2.2725742
1	0xbf9a3652	-1.2047827
2	0xbf557059	-0.83374554
3	0xbf15e33f	-0.58549875
4	0xbfc3cdad	-1.5297142
5	0xbfddba71	-1.7322522
6	0xbf913e92	-1.134722
7	0xbf319b64	-0.6937773
8	0xbefad115	-0.48987642
9	0xbfbbefc7	-1.4682549
10	0xbfcd10df	-1.6020774
11	0xbf05de38	-0.52292204
12	0xbf48860b	-0.78329533
13	0xbfa7356c	-1.3063178
14	0xbfcaf2bb	-1.5855325
15	0xbf206ae4	-0.626631
16	0xbf87df70	-1.0615063
17	0xbf9bbae1	-1.2166406
18	0xbf880bac	-1.0628562
19	0xbfca6f98	-1.5815306
20	0xbf4119e7	-0.7543015
21	0x3d19cfdb	0.037551742
22	0xbf93588d	-1.1511399
23	0xbfc18a51	-1.5120336
24	0xbf27f5bd	-0.6560934
25	0x3d093ae1	0.033503417
26	0xbfe0cbf9	-1.7562248
27	0xbf90d9a8	-1.1316423
28	0xc03973d8	-2.8976955
29	0xc007719a	-2.1163087
30	0xbfd324e4	-1.6495633
31	0xbf8d497a	-1.1038048
32	0xbf448e29	-0.7677942
33	0xc01e79a7	-2.476175
34	0xbfabfd6c	-1.3436713
35	0xbf1dea8d	-0.6168602
36	0xbf77b944	-0.9676707
37	0xbfa1271a	-1.2590058
38	0xbf61f5a3	-0.88265437
39	0xbfe20ff2	-1.7661116
40	0xc0005a0e	-2.0054965
41	0xbfc8d83c	-1.569099
42	0xbf21bd58	-0.6317954
43	0xbfe18dc7	-1.7621392
44	0xbf6865c8	-0.90780306
45	0xbf36ddad	-0.71432
46	0xbeea5a90	-0.4577222
47	0xbf8af9e2	-1.0857508
48	0xbfd00ac0	-1.6253281
49	0xbec38da5	-0.38194004
50	0xbeece27e	-0.4626655
51	0xbf8f3fd3	-1.1191353
52	0xbf797ffa	-0.974609
53	0x3eb93bd6	0.36178464
54	0xbf70c8ad	-0.94056207
55	0xbf97bca3	-1.1854442
56	0xbf14f9db	-0.5819375
57	0xbf6a621d	-0.9155596
58	0xbf929294	-1.1450982
59	0xbfa51953	-1.2898353
60	0xbfb7aac9	-1.4348994
61	0xc00c4dde	-2.1922526
62	0xbef0cd7e	-0.47031778
63	0xbf0e02c7	-0.5547299
64	0xbee06b5a	-0.43831903
65	0xbf8c57e8	-1.0964327
66	0xbee8c3a5	-0.45461765
67	0xbe551af8	-0.20811069
68	0x3ed95cd1	0.42453626
69	0xbd896f91	-0.06710733
70	0xbf809fce	-1.0048769
71	0xbfae7bd5	-1.363154
72	0xbf4013ef	-0.75030416
73	0x3ee3cb67	0.4449112
74	0xbf910384	-1.1329198
75	0xbeb34a6e	-0.35017723
76	0xbf85715d	-1.0425221
77	0xbfb103d4	-1.3829293
78	0xbf77d913	-0.96815604
79	0xc00a15a4	-2.1575708
80	0xbfc07858	-1.5036726
81	0xc030d5e6	-2.7630553
82	0xbfa12cc6	-1.2591789
83	0x3f108d3c	0.56465507
84	0xbfb2e3bd	-1.397575
85	0xbf7c3c89	-0.9852987
86	0xbef6fa6e	-0.48237938
87	0xbe8e254b	-0.27762827
88	0xbfafbb0e	-1.372896
89	0xbfaa0eb0	-1.3285732
90	0xbf268770	-0.6505041
91	0xbfedbcf9	-1.8573295
92	0xbfcd329c	-1.603107
93	0xbf52ff43	-0.8242075
94	0x3f091c4e	0.53558815
95	0xbf32d745	-0.69859725
96	0xbfbeb930	-1.4900265
97	0xbf968543	-1.1759418
98	0xbf7e0513	-0.9922649
99	0xbf9df9e6	-1.2341888
100	0xbf1cc4f9	-0.61238056
101	0xc002dc21	-2.0446856
102	0xbeef1a35	-0.46699682
103	0xbfec16b4	-1.8444428
104	0xbf813a88	-1.0095987
105	0xbfd787cd	-1.6838318
106	0xc0065747	-2.099077
107	0xbf967838	-1.1755438
108	0xbf6ebe21	-0.93258864
109	0xbf565146	-0.83717763
110	0xc00631b1	-2.096783
111	0xbf5d4509	-0.86433464
112	0xbf89f2a1	-1.077717
113	0xbfda6c94	-1.7064385
114	0xbf135f1d	-0.57567006
115	0xc010489e	-2.2544322
116	0xbf8ec6ca	-1.1154416
117	0xbf20fb6e	-0.6288365
118	0xbf8dc0df	-1.1074485
119	0xbf942a24	-1.157536
120	0xbf98d13e	-1.1938856
121	0xbfb34ee9	-1.4008456
122	0xc00c662a	-2.1937356
123	0xc008c6ec	-2.1371412
124	0xbf878cab	-1.0589803
125	0xbf9f5ffd	-1.2451168
126	0xbf64db68	-0.8939729
127	0xbf668ee1	-0.90061766
128	0xbfbabc5b	-1.4588732
129	0xbf6579c6	-0.89638937
130	0xbedac686	-0.42729586
131	0xbf93f212	-1.1558249
132	0xbf77df94	-0.9682553
133	0xbf2ab420	-0.666811
134	0x3e38a2ba	0.18030825
135	0xbfeb2e3b	-1.8373483
136	0xbfa5ad71	-1.2943555
137	0xbf9a5271	-1.2056409
138	0xbf63b63b	-0.88949937
139	0xbf756794	-0.9586117
140	0xbff9cc0f	-1.9515399
141	0xbf353114	-0.7077801
142	0xc017642c	-2.365489
143	0xbf9c925f	-1.2232169
144	0xbfa9c4a2	-1.3263133
145	0xbffefb20	-1.9920387
146	0xbf84649a	-1.0343201
147	0xbf45d59c	-0.7727907
148	0xc00fcef3	-2.2470062
149	0xbf516e58	-0.81808996
150	0x3ee48e1c	0.4463967
151	0xbf2ca72e	-0.67442596
152	0xbf3683f1	-0.71295077
153	0xbfe7a832	-1.8098204
154	0xc006dcf8	-2.1072369
155	0xbf78cc8e	-0.97187126
156	0xbfbe6074	-1.4873185
157	0xbf818fd5	-1.0122019
158	0xbf261960	-0.6488247
159	0xbf78a8a5	-0.9713233
160	0xbf2c903d	-0.6740759
161	0xbfe49296	-1.7857234
162	0xbfb19cb3	-1.3875946
163	0xbf8d868e	-1.1056688
164	0xbfe61253	-1.7974342
165	0xbfd06283	-1.6280063
166	0xbfe4ac79	-1.7865134
167	0xc012c79a	-2.2934327
168	0xbfa37ab1	-1.2771817
169	0xbf5963c4	-0.84917855
170	0xbe2c13ec	-0.16804475
171	0xc000ceb4	-2.0126162
172	0xbf8b55ba	-1.0885537
173	0xbeaa13b6	-0.33218163
174	0xc013b928	-2.308176
175	0x3d560679	0.052252267
176	0xbfeda8b3	-1.8567108
177	0xbf716637	-0.9429659
178	0xbf98ef92	-1.1948111
179	0xbf8da872	-1.106703
180	0xbf9fb06b	-1.2475713
181	0xbf15eb37	-0.58562034
182	0xbf855037	-1.0415105
183	0xbf0309f6	-0.51187074
184	0xbf43c196	-0.76467264
185	0xbfb9d6d3	-1.4518684
186	0xbf08e9bd	-0.53481656
187	0xbf8b71c2	-1.0894091
188	0xbf4f603d	-0.8100622
189	0xbef0a9ed	-0.47004643
190	0xc004f71b	-2.0775821
191	0xbf9c18b8	-1.2195044
192	0xbe3dd52b	-0.18538348
193	0xbf87da25	-1.0613447
194	0xbf5d19c2	-0.8636743
195	0xbeb58612	-0.3545385
196	0xbf50c964	-0.815573
197	0xbf7c6d17	-0.9860396
198	0xbf677f88	-0.9042897
199	0xbf4112a6	-0.7541908

reward_fun.2.weight f4 [200, 200]
0	0x3e85a5cd	0.26103058
1	0xbf9e2999	-1.2356445
2	0x3dbbc776	0.091689035
3	0xbdc56c90	-0.09639847
4	0x3eeff6ad	0.46867886
5	0xbf8f5db9	-1.1200477
6	0x3f8476d4	1.0348763
7	0xc007a39c	-2.119361
8	0x3e356f32	0.17718199
9	0x3e80cc5f	0.25155923
10	0xbee9a790	-0.45635653
11	0xbf04c91f	-0.51869386
12	0xbe0d1d9c	-0.13780826
13	0x3ef9480e	0.48687786
14	0x3e8a3742	0.26995283
15	0xbe56315f	-0.20917271
16	0xbe4751f9	-0.19464864
17	0xbefda975	-0.49543348
18	0xbe986151	-0.29761747
19	0xbea24fa2	-0.3170138
20	0x3e189121	0.14899112
21	0xbca48433	-0.020082569
22	0xbf5b68f5	-0.85707027
23	0x3f592298	0.8481841
24	0xbe9291de	-0.28626913
25	0xbd23a4d0	-0.0399521
26	0xbf20d389	-0.6282278
27	0x3fae0be5	1.359738
28	0xc088be33	-4.2732177
29	0xbfbfbf0d	-1.4980179
30	0x3fd75575	1.6822954
31	0xbf92a06c	-1.1455207
32	0xbe888763	-0.26665792
33	0x3e9a156e	0.30094475
34	0x3de90a86	0.1137896
35	0xbe153d6a	-0.14574209
36	0x3d716bf0	0.058940828
37	0xbf63c4c4	-0.88972116
38	0x3eec7d2d	0.46189252
39	0xbf89eb24	-1.0774884
40	0xbf7d8ffa	-0.99047816
41	0x3f0898f5	0.53358394
42	0xbdcf5efb	-0.10125538
43	0x3e953212	0.29139763
44	0xbecf88c9	-0.40534046
45	0x3d838fe7	0.064239316
46	0x3d2185c3	0.039434206
47	0xc039662a	-2.8968606
48	0xbf85220f	-1.0401019
49	0xbf6801e1	-0.90627867
50	0x3e16ff34	0.1474579
51	0x3db22cc4	0.086999446
52	0xbe3ba9cf	-0.18326496
53	0x3e898904	0.26862347
54	0x3d83509b	0.06411859
55	0x3f02cae2	0.51090825
56	0xbea8849b	-0.3291367
57	0xbe7dc3cc	-0.24781722
58	0xbf1ef896	-0.6209806
59	0xbf363f51	-0.71190363
60	0x3f666bd4	0.9000828
61	0xc05beb79	-3.436247
62	0xbf8df3cb	-1.1090025
63	0xbf3ea2f6	-0.7446741
64	0xbccb6e39	-0.024832832
65	0x3e743e8d	0.23851986
66	0x3df58357	0.11987942
67	0x3e8f35e8	0.27970815
68	0x3f562ebe	0.8366507
69	0x3f3dd8de	0.7415904
70	0x3e9dfa45	0.30855003
71	0xbf5b15bb	-0.85580033
72	0xbe9ca246	-0.30592555
73	0x3de6020f	0.112308614
74	0x3cd31fb3	0.025771951
75	0x3f2b2e1d	0.6686724
76	0xbf8b25f5	-1.0870959
77	0x3e6534db	0.22383444
78	0xbfb73ecd	-1.431604
79	0xbfa86a9c	-1.3157535
80	0x3f74fca1	0.9569798
81	0xc09055cb	-4.510473
82	0xbea23db5	-0.31687704
83	0x3f15ac99	0.5846649
84	0xbf5f1903	-0.8714754
85	0xbf121ac4	-0.5707209
86	0xbf920baf	-1.1409816
87	0x3ea185ae	0.31547302
88	0xc01807f0	-2.3754845
89	0xbcaa6157	-0.020798368
90	0xbeaffae6	-0.34371108
91	0x3ea7b44e	0.3275475
92	0xbfb2db7a	-1.3973229
93	0x3df4096f	0.11915862
94	0xbe88fff7	-0.26757786
95	0xbf3085f3	-0.6895439
96	0x3eef8e0f	0.4678807
97	0xbf003fb3	-0.500972
98	0xbf0d5d28	-0.5522027
99	0xbe21f3d4	-0.1581567
100	0x3d9e5d20	0.07732606
101	0x3f5f0361	0.8711453
102	0x3c82bb24	0.015958376
103	0xbfdf7205	-1.7456671
104	0xbf073411	-0.5281382
105	0x3f038592	0.5137569
106	0xc0c875ba	-6.264371
107	0xbf41c714	-0.75694394
108	0x3f301851	0.68787104
109	0x3f1296b7	0.5726122
110	0xbf422348	-0.75835085
111	0xbd2ffdd9	-0.042966697
112	0xbe749193	-0.23883657
113	0x3e7ae440	0.24501133
114	0xbeacb3e9	-0.3373101
115	0xc00ecb5d	-2.2311623
116	0xbef6dcac	-0.48215234
117	0xbf31b562	-0.69417393
118	0xbf0f444e	-0.559636
119	0xbeee0b04	-0.4649278
120	0x3da7c993	0.08192744
121	0xbeaf3019	-0.34216383
122	0xc006e482	-2.107697
123	0xbd836987	-0.06416612
124	0xbdb9a858	-0.09065312
125	0xbec44ed4	-0.3834139
126	0xbdf30b65	-0.11867408
127	0xbf1fd6c5	-0.6243709
128	0xbdcfbd5a	-0.10143538
129	0xbe6dcc77	-0.23222528
130	0x3f1859a7	0.595118
131	0xbf208c8d	-0.62714463
132	0x3e09aaa5	0.13444002
133	0xbd025125	-0.031815667
134	0xbf61ab94	-0.8815243
135	0x3e52d3cd	0.20588608
136	0x3ef32c85	0.47494903
137	0xbee8226b	-0.4533876
138	0xbe33ea32	-0.17569807
139	0xbe802134	-0.25025332
140	0x3edb7d35	0.42868963
141	0xbd4e15f2	-0.050313897
142	0xbdb22e84	-0.087002784
143	0x3e96d7a7	0.29461405
144	0xbfb74ea1	-1.4320871
145	0xbfe66ab3	-1.8001312
146	0x3d7f2fb5	0.062301356
147	0x3c2e2f9f	0.010631471
148	0x3ee7fd50	0.4531045
149	0xbedc14aa	-0.42984515
150	0x3efc4e58	0.49278522
151	0x3e0082f0	0.12549949
152	0x3dc24dac	0.09487471
153	0x3ea9835a	0.33108026
154	0x3db6e983	0.089312576
155	0xbed3035d	-0.41213503
156	0xbf13a777	-0.57677406
157	0xbe0a4eff	-0.13506697
158	0xbe39d1fa	-0.18146506
159	0xbeca3895	-0.39496294
160	0xbed843c3	-0.42239198
161	0xbf200562	-0.62508214
162	0xbf5c8fca	-0.86156905
163	0xbf8a4c12	-1.0804465
164	0xbd1d1779	-0.038352463
165	0x3db0be71	0.08630074
166	0xbf32e5ed	-0.6988209
167	0x3df85707	0.12125974
168	0xbf4a4fa7	-0.7902779
169	0x3f6cba3c	0.9247167
170	0x3e0a8a79	0.13529386
171	0x3dc9e724	0.0985854
172	0x3f15a56b	0.5845553
173	0x3d1e854d	0.038701344
174	0xbf01e814	-0.5074475
175	0x3ceede78	0.029158816
176	0xbff214f0	-1.891264
177	0xbf5900ae	-0.8476666
178	0xbdd2c116	-0.102907345
179	0xbe11b18b	-0.14227884
180	0x3e3525de	0.17690226
181	0xbf0030bf	-0.5007438
182	0xbe86e69e	-0.26347822
183	0xbf7729a3	-0.9654791
184	0x3bde7d14	0.006789813
185	0x3f2f710b	0.68531865
186	0x3db679df	0.08909964
187	0xbf01b51e	-0.5066699
188	0xbf1f8af4	-0.623214
189	0x3f25ad2d	0.6471737
190	0xbffeb3ee	-1.989866
191	0xbf0dd89c	-0.55408645
192	0x3f066c5b	0.5250909
193	0xc021b42f	-2.5266225
194	0x3db1f6dc	0.08689663
195	0xbface889	-1.3508464
196	0x3f28d7fb	0.6595456
197	0xbd7f61d0	-0.06234914
198	0x3e39c136	0.1814011
199	0xbfc78a66	-1.5589111
200	0x3f12e81f	0.5738544
201	0xbfc1ed98	-1.5150633
202	0x3d290079	0.041260216
203	0xbf06c19f	-0.5263919
204	0xbf115d42	-0.56782925
205	0x3d5db270	0.05412525
206	0xbede88a4	-0.43463624
207	0x3e95193f	0.29120824
208	0xbf8c35b4	-1.0953889
209	0xbddd9ac8	-0.10820538
210	0x3ed3e573	0.41385993
211	0xbece2a48	-0.40266633
212	0xbd9a4810	-0.07533276
213	0xbe8bac0f	-0.27279708
214	0xbe8a85cb	-0.270552
215	0x3e968333	0.29396972
216	0x3ec131d0	0.37733316
217	0xbee2b7b3	-0.44280776
218	0xbdeef733	-0.11668243
219	0x3f512d12	0.81709397
220	0xbefabe5e	-0.48973364
221	0xbfa02217	-1.2510403
222	0xbf744d23	-0.954302
223	0x3e0f854c	0.14015692
224	0x3d2a94ea	0.04164592
225	0xbdc3a8da	-0.0955369
226	0x3f0afcf5	0.5429223
227	0xbf70cca0	-0.9406223
228	0xbd878b9c	-0.06618425
229	0x3f597f8b	0.8496024
230	0xbeda3f3c	-0.4262637
231	0xbf2ace8c	-0.66721416
232	0xbf41dbd4	-0.75726056
233	0xbe40d3ab	-0.18830745
234	0x3e8406e7	0.25786516
235	0x3ce262a4	0.027634926
236	0xbe8f8ad1	-0.28035596
237	0xbd168471	-0.0367474
238	0xbff012e9	-1.8755771
239	0x3e67e9c9	0.22647776
240	0xbe223269	-0.15839542
241	0x3d214962	0.039376624
242	0x3ea2f134	0.31824648
243	0xbfeea7d6	-1.864497
244	0x3b3c55e5	0.002873772
245	0xbebe91f1	-0.3722072
246	0xbd06e741	-0.032935385
247	0x3f03aa73	0.5143196
248	0x3f3b18a8	0.730845
249	0xbf70e7c4	-0.94103646
250	0xbeb535a7	-0.35392496
251	0xbf6c0e6f	-0.92209524
252	0x3cbc5c3f	0.022993205
253	0xbefc2d4b	-0.49253306
254	0xbe412029	-0.18859924
255	0xbe2eaea0	-0.17058802

reward_fun.2.bias f4 [200]
0	0x3f0fbb4b	0.5614516
1	0xbefe57ce	-0.49676365
2	0x3e5bbec7	0.21459495
3	0xbe5c5df5	-0.21520217
4	0xbe96e4de	-0.29471487
5	0xbe8ae85e	-0.27130407
6	0xbe139764	-0.1441322
7	0x3da78868	0.08180314
8	0xbd7af1e2	-0.061265834
9	0xbe5a88fb	-0.21341316
10	0x3f269081	0.65064245
11	0xbd90c61e	-0.07069038
12	0xbe2e8584	-0.1704312
13	0xbe7f0ec8	-0.24907982
14	0xbdead960	-0.11467242
15	0xbf88ae80	-1.0678253
16	0xbe13cb7f	-0.14433096
17	0x3dc17105	0.09445385
18	0xbe2bb53d	-0.16768356
19	0xbdb85c21	-0.09001947
20	0xbdb5314e	-0.08847295
21	0xbda3fcd7	-0.0800721
22	0x3e9cea0c	0.30647314
23	0xbe07286e	-0.13199016
24	0xbd62b625	-0.055349488
25	0xbe35476c	-0.17703027
26	0xbd76db79	-0.0602679
27	0x3f81abd2	1.013056
28	0xbe1f4c36	-0.15556416
29	0xbe877ce8	-0.26462483
30	0xbef43ae3	-0.47701177
31	0xbf3b167d	-0.7308119
32	0xbcd9d5f2	-0.026591275
33	0xbf29f6a6	-0.6639198
34	0x3f603e8a	0.8759543
35	0xbe648fae	-0.22320434
36	0xbce9413c	-0.028473489
37	0xbbb9d84a	-0.0056715356
38	0xbe6d7cfa	-0.23192206
39	0xbdb4de2b	-0.08831438
40	0xbd079aa7	-0.033106472
41	0xbe5967a5	-0.21230944
42	0xbe94f9b0	-0.29096746
43	0xbdd86973	-0.10566988
44	0xbd9cf2e7	-0.076635174
45	0x3f2c1a8e	0.6722802
46	0x3e1e458f	0.15456222
47	0x3e990e29	0.29893616
48	0x3dc34a9c	0.09535715
49	0xbf0bee81	-0.54660803
50	0xbcb0ac1f	-0.021566449
51	0xbc4a0ee8	-0.0123326555
52	0x3c858122	0.016296927
53	0xbde44944	-0.11146787
54	0xbad00b07	-0.0015872427
55	0xbedf6ce1	-0.43637756
56	0x3f6e8f4c	0.93187404
57	0xbe219df8	-0.15782917
58	0x3f650b00	0.8946991
59	0xbe28f936	-0.16501316
60	0xbe62915d	-0.22125764
61	0x3d01810a	0.031617202
62	0x3f8dba5c	1.1072497
63	0xbdc1972d	-0.094526626
64	0xbdabf89d	-0.083970286
65	0xbe8de354	-0.277125
66	0x3eb0e317	0.34548256
67	0xbd2746be	-0.04083895
68	0xbd416b07	-0.04722121
69	0x3dacc9d8	0.08436936
70	0x3e763fbc	0.2404775
71	0x3d3bdad5	0.04586299
72	0x3f8abfda	1.0839798
73	0x3e1bc94c	0.15213507
74	0x3bb0a0f7	0.0053902823
75	0xbd7d8b83	-0.061900627
76	0x3beb8b65	0.007188248
77	0xbe7e4b2e	-0.24833366
78	0xbd696512	-0.056981154
79	0x3e19985d	0.14999528
80	0x3f3675cb	0.7127349
81	0xbd0061de	-0.031343333
82	0xbe131b43	-0.14365868
83	0xbeec9d22	-0.46213633
84	0xbcca20ed	-0.024673903
85	0xbd1f585b	-0.03890262
86	0x3f262f7b	0.649162
87	0xbcf5b705	-0.029994497
88	0xbd974d68	-0.07387811
89	0x3c84793e	0.016171094
90	0xbe0a0e93	-0.13482122
91	0x3c5c27a3	0.0134371845
92	0x3f109086	0.56470525
93	0xbebb9f70	-0.3664508
94	0x3cdf0dd7	0.027228279
95	0xbd966e6d	-0.07345281
96	0xbcd08e2e	-0.025458422
97	0x3eb26782	0.34844595
98	0xbf072125	-0.5278495
99	0xbe26ed6a	-0.16301504
100	0xbe3c8ddf	-0.18413495
101	0x3de76b74	0.11299792
102	0xbc935fd7	-0.017990036
103	0xbf06be41	-0.52634054
104	0xbccb0b51	-0.02478567
105	0xbda718a3	-0.08158996
106	0x3e2b1873	0.16708545
107	0xbed72e97	-0.42027733
108	0xbe88eae6	-0.26741713
109	0xbdb6cec1	-0.08926154
110	0xbd996845	-0.07490591
111	0xbe3531be	-0.17694756
112	0xbea59204	-0.32337964
113	0xbe167106	-0.14691553
114	0x3ee65178	0.4498403
115	0xbd839a41	-0.06425906
116	0x3e9124d5	0.28348413
117	0x3e6f0fca	0.23345867
118	0xbd664635	-0.0562193
119	0xbdc1360b	-0.09434136
120	0xbd0e2928	-0.03470722
121	0xbf11974d	-0.5687149
122	0x3f528170	0.82228756
123	0x3ee512c8	0.4474089
124	0x3e430d53	0.19048052
125	0x3def3d54	0.11681619
126	0xbf04f4a4	-0.5193579
127	0xbcce06cd	-0.025149727
128	0xbe87c4a5	-0.26517215
129	0xbe3072f0	-0.17231345
130	0xbdacad02	-0.08431436
131	0xbe80a740	-0.25127602
132	0xbd05995e	-0.032616965
133	0x3dba3c37	0.09093516
134	0xbd4c3476	-0.04985472
135	0x3fc525b9	1.5402137
136	0xbe070d7a	-0.13188735
137	0xbe9b2111	-0.30298665
138	0x3e8c4d7c	0.27402866
139	0xbdf270d8	-0.118379295
140	0x3e13eacd	0.14445038
141	0xbcc92c8b	-0.024557373
142	0xbd0c4843	-0.0342486
143	0xbdecb67c	-0.11558244
144	0x3f18bf15	0.5966657
145	0xbd9f9276	-0.07791607
146	0xbe8da273	-0.27663
147	0xbef6dd08	-0.48215508
148	0x3e941185	0.28919616
149	0xbe9f7391	-0.31142858
150	0x3e2502ab	0.16114299
151	0xbcabe113	-0.020981347
152	0x3dd8e652	0.10590805
153	0x3fb313cd	1.3990418
154	0x3f1ee531	0.6206847
155	0x3e8d18a0	0.2755785
156	0x3dec0b87	0.11525636
157	0xbc932340	-0.017961144
158	0xbd85672d	-0.0651382
159	0xbdd20fbf	-0.102569096
160	0xbde098b7	-0.10966628
161	0xbce4b79a	-0.02791958
162	0x3eb2ee42	0.349474
163	0xbe37a06b	-0.17932288
164	0xbebac0d8	-0.36475253
165	0xbe366fd8	-0.17816103
166	0xbdc7eb50	-0.09761679
167	0x3ca6892a	0.020329077
168	0xbd8dd0ca	-0.06924589
169	0x3f3424fc	0.70368934
170	0x3cce38ac	0.025173508
171	0xbeaa6e2e	-0.33287185
172	0xbdd21e74	-0.10259715
173	0xbd1e17c7	-0.038596895
174	0xbdf6a280	-0.12042713
175	0x3cf7a2cb	0.030228993
176	0xbf0d455a	-0.5518395
177	0xbdb1df0b	-0.0868512
178	0xbd0906ab	-0.033453625
179	0xbe0a4592	-0.13503101
180	0xbd158272	-0.036501355
181	0xbc47a9c6	-0.012186473
182	0xbf901d90	-1.1259022
183	0x3b0495bf	0.0020230857
184	0xbdae69a4	-0.08516243
185	0xbc098c27	-0.008395231
186	0xbf3890c5	-0.720959
187	0xbd213332	-0.039355464
188	0xbd34f6e8	-0.04418078
189	0xbf1295a2	-0.5725957
190	0xbdf0e082	-0.117615715
191	0xbe3991aa	-0.18121973
192	0x3f146d16	0.5797895
193	0x3cf563bf	0.02995479
194	0x3ecec1aa	0.4038213
195	0xbd6e22a3	-0.0581385
196	0xbf17f36d	-0.59355813
197	0xbb37d61e	-0.0028051208
198	0x3d16e99f	0.036843892
199	0x3c6872d3	0.0141875325

reward_fun.4.weight f4 [1, 200]
0	0x3e0f8c31	0.14018323
1	0xbee41e7d	-0.4455451
2	0xbe5803ac	-0.2109515
3	0x3cc12406	0.023576748
4	0x3d5c5de4	0.05380048
5	0x3ccb6e4d	0.024832869
6	0x3ce642da	0.02810805
7	0x3d0b05e1	0.033941153
8	0x3d514ca0	0.051098466
9	0x3d1e89b5	0.038705546
10	0x3e668a28	0.2251364
11	0xbd98a4e0	-0.074533224
12	0xbedce118	-0.43140483
13	0x3c49d6a0	0.012319237
14	0x3bf36426	0.00742771
15	0x3e6979dc	0.22800392
16	0x3db53bfa	0.0884933
17	0x3def4428	0.11682922
18	0x3dc57450	0.096413255
19	0x3c2a4dff	0.010394572
20	0x3d2dce50	0.042433083
21	0xbdb0d089	-0.08633525
22	0x3edf2f83	0.43590936
23	0xbc493a23	-0.012281927
24	0x3c33ae1e	0.010966806
25	0x3da146f5	0.07874862
26	0xbbdd8403	-0.006760122
27	0xbea1eb85	-0.31625
28	0x3c7a21b7	0.015266827
29	0xbd925178	-0.07144445
30	0x3eaa5e86	0.3327524
31	0x3e2067b1	0.15664555
32	0xbd46128b	-0.048357528
33	0x3f4219a3	0.7582037
34	0xbdc0d2f3	-0.09415235
35	0x3d42ee3a	0.04759047
36	0xbb53f20d	-0.0032340318
37	0x3c8b06c2	0.016970996
38	0x3d65df17	0.05612096
39	0x3ccecdda	0.025244642
40	0xbca95083	-0.020668274
41	0x3d9d5ca5	0.07683686
42	0xbfd6650b	-1.6749586
43	0xba2f4eff	-0.00066874916
44	0x3c328b42	0.010897459
45	0xbcf66389	-0.030076759
46	0xbf84091e	-1.0315282
47	0xbebe9feb	-0.37231383
48	0xbdf7dee4	-0.1210306
49	0xbeddb40c	-0.43301427
50	0x3db95023	0.09048488
51	0x3d26855d	0.04065453
52	0x3e5f382e	0.21798775
53	0x3d85a088	0.065247595
54	0xbbdec73f	-0.0067986543
55	0xbdb51ab2	-0.08842982
56	0xbe7bdf9b	-0.24597017
57	0x3dafbbdd	0.08580754
58	0xbf01cc83	-0.50702685
59	0xbf8d1daf	-1.1024684
60	0x3c75098e	0.014955891
61	0x3d37f7c0	0.044914007
62	0x3f0ee297	0.558145
63	0x3ce00cd3	0.027349865
64	0xbc8267a1	-0.015918555
65	0x3e3632b6	0.17792782
66	0xbdda5bf6	-0.106620714
67	0xbf0f09da	-0.5587441
68	0xbc6ee03e	-0.014579831
69	0x3d9dc0df	0.07702803
70	0xbf2da2a3	-0.6782629
71	0x3f331a7c	0.69962287
72	0xbe399abf	-0.18125437
73	0xbeb0d670	-0.34538603
74	0xbe8f1920	-0.27948856
75	0x3e29a717	0.16567646
76	0xbd1f06de	-0.03882491
77	0x3d7d001a	0.061767675
78	0xbc025fbf	-0.007957398
79	0xbd044b79	-0.03229854
80	0xbeab6cbd	-0.33481398
81	0x3d2e5704	0.042563453
82	0xbd4feda8	-0.050763756
83	0x3e5402ff	0.20704268
84	0x3aac3d14	0.0013140761
85	0x3c3978f2	0.0113203395
86	0xbfd636b6	-1.6735446
87	0xbe2f2d6d	-0.17107172
88	0x3d74e854	0.059791878
89	0x3b3fcbce	0.0029265764
90	0x3d95dddb	0.07317706
91	0x3d2a2773	0.041541528
92	0xbe13b99b	-0.14426272
93	0x3d2de7a3	0.042457234
94	0xba9001cf	-0.0010986867
95	0xbc7c09e3	-0.015383217
96	0x3cbaab52	0.02278677
97	0x3e0a0e95	0.13482125
98	0x3d4a801e	0.04943859
99	0x3d747eb8	0.05969116
100	0xbcc1428f	-0.023591308
101	0xbd96ae1e	-0.07357429
102	0xbd3c6132	-0.04599113
103	0xbc70bd12	-0.014693515
104	0x3cb6f1d3	0.022332108
105	0xbd88e1b4	-0.066836745
106	0x3b3be2d7	0.0028669143
107	0x3e084928	0.13309157
108	0xbe41f7b7	-0.18942152
109	0xbc9fdc7e	-0.019514319
110	0xbf1ab904	-0.6043856
111	0x3da1e06a	0.07904132
112	0xbd2993b1	-0.041400615
113	0xbc1d203a	-0.009590203
114	0x3f04b020	0.51831245
115	0x3d1980e8	0.03747645
116	0x3eff5337	0.49868175
117	0xbe27b1ec	-0.16376466
118	0xbd9325c1	-0.07184935
119	0x3c522cfe	0.01282811
120	0xbc8ff45c	-0.017572574
121	0x3d638ca0	0.055554032
122	0xbec96688	-0.39336038
123	0xbe518f7b	-0.2046489
124	0x3efa4750	0.48882532
125	0x3e4c9e66	0.19982299
126	0xbeb8e417	-0.3611152
127	0x3d0a501d	0.03376781
128	0x3e6e03af	0.23243593
129	0xbdaf26f9	-0.08552355
130	0xbb895cd5	-0.0041919746
131	0xbe068804	-0.13137823
132	0xbb1535f5	-0.0022767757
133	0xbc8e99ad	-0.017407263
134	0xbc90a3ce	-0.017656233
135	0x3e82ece7	0.25571367
136	0x3cd462f3	0.025926089
137	0xbe60ac20	-0.2194066
138	0xbd8cdb56	-0.068777725
139	0x3e9fe52b	0.3122953
140	0x3d600fd8	0.05470261
141	0x3e09749a	0.13423386
142	0x3d18171a	0.037131406
143	0xbcc03407	-0.023462309
144	0xbfd1e799	-1.6398803
145	0xbd7af78b	-0.06127123
146	0x3e9cd8ee	0.30634254
147	0x3c72d847	0.014822072
148	0xbf012d0d	-0.5045937
149	0xbcae99da	-0.021313597
150	0x3de230fe	0.11044501
151	0x3ca43ad5	0.020047585
152	0xbd69b727	-0.057059433
153	0xbed4453a	-0.41459066
154	0xbf06b216	-0.5261549
155	0x3e3ac559	0.18239345
156	0xbb9565e9	-0.004559268
157	0x3d3f8eac	0.046766922
158	0x3c51b17a	0.012798661
159	0x3d0b3402	0.033985145
160	0xbd2db467	-0.042408373
161	0x3f254d89	0.64571434
162	0xbe92cff3	-0.28674278
163	0xbc52b382	-0.012860181
164	0x3d10f7aa	0.03539244
165	0x3df77e49	0.12084634
166	0x3cb2d6ff	0.021831034
167	0xbc29d30d	-0.01036526
168	0x3c267aeb	0.010161142
169	0xbff72443	-1.9307941
170	0x3e075cb8	0.13218963
171	0x3dbb12c1	0.091344364
172	0x3d4919fe	0.049097054
173	0x3d35edd5	0.044416267
174	0xbd3d4c9c	-0.04621564
175	0xbc9de990	-0.01927641
176	0x3bdc7af3	0.006728524
177	0x3da565c3	0.0807605
178	0x3bc01727	0.005862135
179	0xbe80f1de	-0.2518453
180	0xbb2c6810	-0.0026307143
181	0x3bb90005	0.0056457543
182	0xbef1345b	-0.47110257
183	0x3cd5e4cb	0.026110074
184	0xbb539886	-0.0032286956
185	0x3bce633f	0.006298452
186	0x3e27db04	0.16392142
187	0x3d781fd0	0.060577214
188	0x3c573251	0.013134555
189	0x3eadb200	0.33924866
190	0xbd20639d	-0.0391575
191	0xbd95a521	-0.073068865
192	0x3edffafc	0.43746173
193	0x3d64e5a5	0.05588307
194	0xbea99155	-0.33118692
195	0x3d406984	0.046975628
196	0xbf64f971	-0.8944312
197	0xbb6aad7c	-0.003580897
198	0x3cde75ef	0.027155844
199	0xbc8a0d4c	-0.016852044
