HybridLearning-master/data/hlt_stoch/InvertedPendulumBulletEnv/seed_666/model_final.pt (torch, 180913 bytes, 10 tensors)

log_std f4 [1, 5]
00000000: e46c 9dc0 8105 16c0 02d9 97c0 8dba 93c0
00000010: fd1a e0bf
-4.9195423 -2.344086 -4.74524 -4.6165223 -1.7508236

mu.0.weight f4 [200, 6]
00000000: 44be 3b3f d3c6 1cbb 51f0 0ebf 6759 68bf
00000010: dbbe 82be efb2 0bbf 8ac3 093e 0418 28be
00000020: 9dc9 0cbe ab7d d9be ba69 b3bc f39b c83d
00000030: 9586 d63a 6a71 cab9 49c5 67ba 2e20 613a
00000040: e39d 943a 08c8 d03a f1e4 aabd bce6 10be
00000050: 2904 b0bf bd57 653f e3e6 103d b963 003e
00000060: 3c15 07be 3ede 2ebc c514 ef3d 48cf a6bf
00000070: c470 e2bd 6660 4b3e be6f 15bf 14ee 9a3e
00000080: 3aa2 86bd 504c b2bf a6bd f13e 8213 6f3d
00000090: f95b 223f a055 453e 3015 d03d a138 61bf
000000a0: 3d5c 2a3e a6bb 1b3f c7e4 2e3c 4c54 4d3b
000000b0: 3570 9a3a 6fde 223b 113b 643a 4a24 823b
000000c0: d43d ab3b a980 633a e458 a53a 68b9 683a
000000d0: 4ff3 9db9 2e98 443a fcaf ce3d 0e54 083e
000000e0: 4049 ebbe fd58 a03f 8668 01be 7c77 69be
000000f0: 1ce6 0bbb 943c 6a3a 082c 80ba afd9 4e3b
00000100: 66bf 2cba a941 e1b9 5239 9dbb 1586 a4bb
00000110: b16d 38bc 6e94 ca3b 8625 a73a b4bc 43bc
00000120: 6d2e b3bc 0e14 db3d 30e8 01bf 4bb2 11bf
00000130: f229 3cbc c7e8 13be ffa3 9639 76db 0637
00000140: 54a8 0f39 0b03 c0b7 9d77 5d38 967b fa38
00000150: 10df 473c fe6f 7aba 0833 bcbf c094 bbbe
00000160: 192e b43d 4437 fbbc fdf7 aaba 8cd4 23bb
00000170: 7206 50bc 232c a93b 1c8c 953b b086 5a3b
00000180: e017 b7bc 8093 1dbd f07e 13bf 1ba1 8fbf
00000190: fa1b d63d e8a1 973e 272b 33bb 5ab7 81ba
000001a0: 57f9 8cba 4109 0238 b19c 5637 757f eeba
000001b0: 4566 053c dd04 baba 3841 00ba 3e60 b03a
000001c0: c591 0a3b fdfa d23b d7a2 34bc e406 433e
000001d0: 04bc 8bbe 8523 54bf cb5c c23e 9988 29be
000001e0: bb36 4cbf 687c 0fbf 162b 93be 4c6b c2bf
000001f0: 7129 63be cc77 423f 6d8e fd3b c471 31ba
00000200: d2d5 d0bb 650f 073c c319 b63a 87ba 44bc
00000210: 7bad 39bf 88e4 ae3e 9ca3 38be ce88 22bd
00000220: 3a9d 193e fa0d 753e 7582 28bc 739e 5eba
00000230: c808 5f3b 63f7 0dbc 56ce d039 1dc4 503c
00000240: bad2 1e3a 1ee8 10b9 fc75 c6b9 af35 a239
00000250: ab90 0b3a 7753 1b3a ffa9 27ba 3376 6fba
00000260: 84fb 22bb 273e 5c3a ae75 fa39 88dd dcb9
00000270: 8e8b 84ba 77b8 b6b8 af39 08b9 15f1 79b9
00000280: c8bd 4fb9 80a9 d939 6f83 943b 6dea 6439
00000290: 6c1b 423a 110f 753a 1409 503a 1602 c1b9
000002a0: b072 f0b8 6078 5cb7 4b88 0db7 e4e8 89b7
000002b0: 9111 0db8 2830 c0b6 1057 89bf fdc5 afbe
000002c0: 5fc5 f63e a84c 40bf 41da b13e e060 1a3e
000002d0: 6de0 c4b9 42fa 10b9 4a18 b3b9 2f4f 3f35
000002e0: d0f5 a1b8 45cf 0239 ac0a 083c ffcb f13a
000002f0: 3db8 893b 4e25 013b f50d 173a 58cb d6ba
00000300: 09fb b7bf 30a1 aebe 318e 443f 3a43 463f
00000310: d7b2 a03e 7958 0c3f 16f5 60bf 3604 21bf
00000320: ec18 a0bd 80b1 e9bf 66d2 e5bc a367 9fbe
00000330: cb0c 9dbc 1059 89bb dd52 cd3a 17e6 2cbc
00000340: d31e fd3a 6ee8 3a3c 75e3 053f 8ca7 403d
00000350: 1be2 31bf 9d2b b43f 73b2 c5be 1409 01be
00000360: 56a8 1bbb 2ffa 123a 43d8 e13a b593 92ba
00000370: 462b a9ba 6f64 25bb 9a60 3f37 659b f1b7
00000380: 4792 0fb9 1c1f 8e38 b2cf 6838 512c 0537
00000390: 3175 84bb b671 5b3b ed2a 453c 0b03 1fbc
000003a0: acc4 56bb 7d3e 523c e592 7cbf 06e6 c73d
000003b0: b2a9 2f3d c753 9e3e a4d7 193f d113 05bf
000003c0: c303 4c3f 3d4e 903d 4d2f 693f 6cf4 83bf
000003d0: c212 123d 14fe 19bd f6ba 9b3c 9abd d63a
000003e0: 3f4d adbb 0d41 3a3c 03b7 0fbb a5ed 6dbc
000003f0: a262 32bc 9ec8 933a a7f8 ca3b 4336 8dbb
0.733372 -0.002392222 -0.55835444 -0.9076142 -0.25536236 -0.54569906 0.13453498 -0.16415411
-0.13748784 -0.4247869 -0.021901 0.0979537 0.0016367013 -0.00038612942 -0.00088413485 0.0008587864
0.0011338558 0.0015928755 -0.08344448 -0.14150518 -1.375127 0.89587003 0.03537644 0.12538041
-0.13191694 -0.010673104 0.11673883 -1.3032007 -0.110566646 0.19860992 -0.5837363 0.30259764
-0.06573911 -1.3929539 0.47215003 0.058368213 0.6342159 0.19270945 0.10160291 -0.87977034
0.16636749 0.60833204 0.010674662 0.0031330762 0.0011782708 0.002485182 0.00087063113 0.003971611
0.0052258763 0.00086785347 0.0012614992 0.00088777253 -0.00030126653 0.0007499483 0.1009216 0.13313314
-0.45954323 1.2527157 -0.12637529 -0.22799486 -0.0021346873 0.00089354184 -0.0009778747 0.0031562855
-0.00065898 -0.00042964265 -0.004798093 -0.0050208666 -0.011256621 0.006182245 0.0012752272 -0.011946846
-0.021872723 0.106971845 -0.50744915 -0.5691268 -0.01148461 -0.14444266 0.00028732416 8.03812e-06
0.0001370025 -2.28896e-05 5.2801905e-05 0.000119439486 0.012199178 -0.00095534313 -1.4703074 -0.36636925
0.08797855 -0.030666001 -0.0013043877 -0.0024998514 -0.012696849 0.005162732 0.0045638215 0.003334444
-0.022350252 -0.038470745 -0.57615566 -1.122104 0.10454555 0.29615712 -0.0027338953 -0.0009896562
-0.0010755461 3.1003034e-05 1.27918765e-05 -0.0018195944 0.008142059 -0.0014192123 -0.0004892531 0.0013456417
0.0021144014 0.0064386115 -0.011025152 0.19045597 -0.27291882 -0.828667 0.3796142 -0.16556014
-0.7977101 -0.56049204 -0.2874381 -1.5188994 -0.22183777 0.75964046 0.0077379257 -0.00067689666
-0.0063731456 0.008243416 0.0013893176 -0.012007362 -0.72530335 0.3415873 -0.18031162 -0.03968125
0.15001383 0.23931113 -0.01028501 -0.00084922387 0.0034032334 -0.008664939 0.00039826584 0.01274207
0.00060586224 -0.0001381938 -0.00037853408 0.00030939045 0.00053239864 0.0005925218 -0.0006395876 -0.00091347395
-0.0024869153 0.00084015954 0.00047771394 -0.00042126724 -0.0010112391 -8.7127955e-05 -0.0001299146 -0.000238363
-0.00019811757 0.00041515753 0.0045322697 0.00021831105 0.0007404599 0.00093482534 0.0007935923 -0.00036813383
-0.00011465454 -1.3141049e-05 -8.435988e-06 -1.644012e-05 -3.363338e-05 -5.727652e-06 -1.0729694 -0.3433074
0.48197457 -0.7511697 0.34736827 0.15076017 -0.00037551243 -0.00013826138 -0.00034159637 7.126827e-07
-7.7228644e-05 0.0001247498 0.008303326 0.0018447636 0.004202871 0.0019706073 0.00057622726 -0.0016387505
-1.4373485 -0.3410735 0.76779467 0.7744633 0.31386444 0.548225 -0.8787397 -0.6289705
-0.078172535 -1.8257294 -0.028054427 -0.31133756 -0.01917114 -0.0041915253 0.0015664954 -0.010552905
0.0019311554 0.011407955 0.52300197 0.047034785 -0.69485635 1.407581 -0.38612708 -0.1260112
-0.002375146 0.0005606738 0.0017230589 -0.0011182936 -0.0012906573 -0.0025236865 1.1406979e-05 -2.88018e-05
-0.00013692035 6.776882e-05 5.550654e-05 7.937736e-06 -0.0040422906 0.0033484525 0.01203416 -0.009705315
-0.0032771034 0.012832281 -0.98661643 0.0976067 0.042886443 0.30923292 0.60094666 -0.5198336
0.7969324 0.07046173 0.910878 -1.0308967 0.03566242 -0.037595823 0.019010048 0.001638341
-0.0052887495 0.011368048 -0.0021929152 -0.014521991 -0.010887774 0.0011274999 0.0061941925 -0.004309447

mu.0.bias f4 [200]
00000000: ea6a b3be 0957 033e 6104 8d3a 7415 b83f
00000010: dcd0 2f3f 2394 84bd d68c 55be 6f15 873b
00000020: 7654 a23a 2c52 2b3f fb03 5d3a 6464 0f3c
00000030: c7cc 003f 42af c037 2307 a8bf 5c81 ef3b
00000040: 9e71 4d3f 0249 9639 79ba 723b 9389 b83e
00000050: 8f33 1d3f 7da7 473c 4967 8e3e 85da 42bc
00000060: 1fb8 003a 2230 a73a a3f9 55ba 8582 e33a
00000070: d232 28b8 041e 1fbf fa7a 0db9 0b20 643b
00000080: 684f 853e 4aa1 12bc 2914 5ebc ee10 433f
00000090: 5572 ddba 8594 cb38 c76c 57bc 9bdf 853d
000000a0: 6677 75bf 02b9 7b3c d45f 1cbc 6f40 74be
000000b0: ce8c 273c 1344 af3f 776b 45bc 821c 71b9
000000c0: 8d29 663e 0260 8dba 564f e7ba 4a73 0f3d
000000d0: ff3b 123b 6481 c8ba 342b 42bf 84ff 37bf
000000e0: 8ab4 d43a 2505 54bc 9384 3d36 d9ae e938
000000f0: 3fd4 5b3c c36e 7f3a c0c3 0c3a 45d6 34ba
00000100: 2804 5c3c a960 753d f61b b83a 3ddd 3cbf
00000110: 080a a1bd 2eaa d7be f550 26bf 8436 a1bb
00000120: 9bff 6335 76f7 183f c21f 803a 5d0d acba
00000130: a180 fabe 69df 143c d17c b13f eaf0 feba
00000140: b52d b6bb db71 0bbc 6338 4aba 769a f6be
00000150: b53b 2dbb fb7a 05bf aa20 a0ba b710 8abe
00000160: 3228 58ba 7fbb 853d 56e1 b1be b567 13bf
00000170: df5c b9b8 f6b0 f03e 2301 1237 de24 ca36
00000180: bd87 c139 2aab bc3b c1b9 fab7 abf7 aebb
00000190: 8321 f43e 84b4 dfba e43f 6fbe 9533 02bd
000001a0: 017c 853b 7238 b5ba 5a8b 153a 3739 9cbe
000001b0: dc79 043f 3445 faba 6436 cb39 dd61 adbe
000001c0: e49f 2c3a 5789 08be e777 a0bb 4fdc a03a
000001d0: 3077 56bd 6768 caba df7f 643f 5186 c0bd
000001e0: 4913 83bb ff14 113c d9db a4ba 1799 b53f
000001f0: b004 1bbb dfe7 9fbf 1fb7 513b 9d85 68bf
00000200: 7b57 323c 3b63 7e39 0988 4d3a 0ed3 343c
00000210: be91 e5be cbfb 19bc be22 46bc 9f26 173e
00000220: 5f78 c2bb ced5 593c 857c 2abd bc51 c43e
00000230: a12b 4d38 4f7b 85ba 24f9 0fba f2ca 413c
00000240: 050b 3b3c 6245 e63e 3874 e13d 57bc 1abf
00000250: d13f 063c 3d1e f1be e9a5 693e d8d8 15bb
00000260: a6fb d2bb 959a 0e3f 59bd 893c dee3 4bbf
00000270: a03a 2cbb 59c4 6abb 2d35 223c 2500 e03d
00000280: edc5 c43a c439 863f b3ec 2abc 386f 9d3f
00000290: 0a12 0ebc 5271 c83d d3d1 7dbe fb2b e73b
000002a0: 349d 113e 708a e637 711d 25bb 3b71 323d
000002b0: 557e 89b8 37fd 263f 5af9 4b3e 5b48 42bc
000002c0: 6982 663b f039 41b9 026f b8b8 43f3 4bbf
000002d0: b474 7e3b 1ca4 8cb8 61e0 633e 2b64 7b3e
000002e0: c0e6 32be fd5c 8d3a b3c2 ecbd d83f 7f3a
000002f0: 2de3 d33e 6757 35bc 71fd e7be 500b 53b9
00000300: 8012 fb3b 62ad 0e3f 7e51 0939 eb39 c0bb
00000310: 0314 b239 1ba0 223f 581c 18be b62f 2ebc
-0.35042506 0.1282617 0.0010758751 1.4381547 0.6867807 -0.06473567 -0.20854506 0.004122428
0.001238479 0.6692226 0.0008431074 0.008751962 0.50312465 2.2969794e-05 -1.3127178 0.007309122
0.8025149 0.00028664625 0.0037037416 0.3604246 0.614068 0.012185928 0.27813175 -0.011892919
0.00049102487 0.0012755434 -0.0008162504 0.0017357623 -4.010165e-05 -0.62155175 -0.0001349262 0.0034809138
0.26037145 -0.008949587 -0.013554611 0.7619771 -0.0016895036 9.707458e-05 -0.013148493 0.0653679
-0.9588531 0.0153639335 -0.009544332 -0.23852704 0.010226442 1.369265 -0.012049547 -0.00022994171
0.22476788 -0.0010786059 -0.0017647545 0.035022058 0.0022313592 -0.001529735 -0.7584717 -0.7187426
0.0016228121 -0.01294068 2.8240363e-06 0.00011142874 0.013417303 0.0009743983 0.0005369745 -0.0006898384
0.013428725 0.059906635 0.0014046419 -0.7377508 -0.078632414 -0.42122024 -0.6496728 -0.004919829
8.4936045e-07 0.59752595 0.000977509 -0.0013126541 -0.4892626 0.009086468 1.3866216 -0.001945046
-0.005559648 -0.008511032 -0.0007714091 -0.4816472 -0.0026433293 -0.5214078 -0.0012216766 -0.26965877
-0.00082457357 0.06529903 -0.3474223 -0.5758012 -8.838786e-05 0.4701001 8.702543e-06 6.024361e-06
0.00036912962 0.005757709 -2.988882e-05 -0.005339583 0.47681817 -0.0017067348 -0.23364216 -0.031787474
0.0040736203 -0.0013826026 0.0005704664 -0.305124 0.5174844 -0.001909411 0.000387597 -0.33863726
0.0006585105 -0.13333641 -0.004897106 0.0012272688 -0.05235976 -0.0015442491 0.89257616 -0.09400619
-0.0040001017 0.0088551035 -0.0012577727 1.4187344 -0.0023653917 -1.2492636 0.0032000018 -0.9082888
0.010885115 0.00024260294 0.00078404 0.0110366475 -0.44837755 -0.009398411 -0.012093244 0.14760827
-0.0059347595 0.013295604 -0.041622657 0.38343608 4.891644e-05 -0.0010183844 -0.0005492142 0.011828171
0.0114162015 0.4497481 0.11008495 -0.60443634 0.008193926 -0.47093382 0.22817196 -0.0022864845
-0.0064386902 0.55704623 0.01681392 -0.7964457 -0.002628006 -0.0035822599 0.009900373 0.109375276
0.00150126 1.0486379 -0.01043241 1.2299566 -0.008671293 0.09787239 -0.24787073 0.0070548034
0.14220124 2.7482602e-05 -0.002519455 0.043565016 -6.5562e-05 0.65230125 0.19919339 -0.011858071
0.0035172945 -0.00018427498 -8.7944805e-05 -0.7966806 0.0038826885 -6.706288e-05 0.22253563 0.2454993
-0.17470837 0.0010785159 -0.115605734 0.00097369915 0.4138426 -0.011068202 -0.45310548 -0.00020126742
0.0076621175 0.5573331 0.00013095696 -0.0058662794 0.00033965716 0.6352555 -0.14854562 -0.010631492

mu.2.weight f4 [5, 200]
00000000: 1f7f 69bc 646a c2bc 95c2 053a 5cf3 8c3c
00000010: 00f4 32ba a066 bdba 53d7 583b b92f 70ba
00000020: 8500 6fba d2c1 d13b bf28 a5b8 9efa b53a
00000030: 8871 c93c c77c 8338 d960 86bb a5ed 1739
00000040: 2de3 113a 88a8 313a 39af f63a 7e66 c5ba
00000050: a7a9 ca3b 6daa cc3a 1cec a9bc d00d e5b9
00000060: c908 5039 89ea 0339 48bf 5bb9 48c3 2b3a
00000070: 0ff3 89b7 37d8 d03c b908 87b8 6200 683a
00000080: e80a 4fbc da1d d03a 911f 123b db52 5f3c
00000090: 5ae0 e2b9 79f6 3037 d484 29bb c21a dfbb
000000a0: cf46 ac3c 86c1 36bb 7efc 1abb f29d 18ba
000000b0: 17d2 1cbc d79c 0eba 8d59 1cba e355 113a
000000c0: 1116 183b 3504 0238 f450 1eba 14c2 a33b
000000d0: a129 d639 84be 9bb6 3c40 1dbb e8f4 e83b
000000e0: 51da 2638 d844 393b b912 d238 c63f beb9
000000f0: bf7c 14bc 0a8f 51ba 936a 023a a3ae 75b9
00000100: b6e4 30bb 0d82 d83d 1279 c639 41da 2fbb
00000110: de11 60bb 6d8a dfbb 77a5 e83a 2c97 d13a
00000120: 96a8 2e3a 1421 0ebc 577c b439 0262 a739
00000130: 2200 fd3c 6a2e 04bc c1ca 67bb f64a c4b9
00000140: 4549 bd3a 52ac 0abb c81d a338 41d4 633b
00000150: 530d 9a3a da07 34bb f2c9 8c37 4192 f0bb
00000160: 870e 04ba 0d23 353d 08b7 6abb 6da0 743b
00000170: d11b 39b8 efe9 73ba fc8d 0437 923f 4936
00000180: cf05 c139 8f4d d0ba 27c6 e337 b5aa a838
00000190: 73e6 cf3b 7bab afb9 9057 c7bb efb7 31bb
000001a0: 8191 61ba c6a8 b2ba eefe ca38 4de9 4dbb
000001b0: 94c1 a3ba 08a5 c03a a9cc 8238 efe5 b3bc
000001c0: 3cdc 3eb9 2594 00bc 8223 1dbb acc9 48ba
000001d0: fffe 413c 4e04 17bd 8c4b 2cba 3338 d73a
000001e0: eda9 a4ba 5a17 593a c1ac a9ba b501 94bb
000001f0: be23 bbb7 affa c8ba ec77 a63a 0d81 48bc
00000200: 31ca a53a 1992 21b9 780d 6638 e671 2c3b
00000210: 25c5 763b 3c58 34ba f415 e73b 1b23 8bbd
00000220: c41c 14bb 1460 ccb9 d15b 9ebb c807 bc3a
00000230: 8b7c 2638 00d4 8c37 5de9 573a c2d3 3b3b
00000240: 0c92 1b3a 0bbb 2d39 5479 033e 560f 6cbb
00000250: afd3 da3a a1e1 f4bc 820f 313c 89c8 8fba
00000260: da2a 9b39 ec2a debb f00c 863d d9ca a83b
00000270: 9212 983c 4e41 c5ba ba30 233a 6c1c 31bc
00000280: f2cf efba 8a31 343b bf7e 2ebb 455c b9ba
00000290: 2c93 f23b 57bd 57bb 2eb6 a0bc 0146 853c
000002a0: 0d5f 34bb 6e46 9936 eb0a fe39 c813 68bd
000002b0: deec d3b7 5890 65b9 7365 9bbc f2dd db3b
000002c0: deeb 093b e661 42b8 9a9e 7038 5e62 813c
000002d0: 82af 423a 46e9 14b8 6daa 2c38 c2d7 f53b
000002e0: 4ad3 cf3b 1341 693a 9f39 b03b f09e f238
000002f0: 3c80 8b3b f5a2 3cbb 1f69 6a3c 4479 a5ba
00000300: 6fd5 283b a8df 263c bf1c a338 b2c8 183b
00000310: bc92 88b9 dfe8 bb3a 7cde 5f38 dc94 0f3b
00000320: d4da c3be 343a 4b3e 4036 403a 9e5a 8e3e
00000330: c4c6 343d cc8f b4bd 6bf2 a43e 53bb dabb
00000340: e447 d2bb 03fe 023f 899b 52bc 3305 81bc
00000350: 26a4 9dbe f359 09b9 06ed f0bd f2f7 f73b
00000360: 205b 07be 9890 9c3a 7d23 743a c9eb ae3c
00000370: a0b9 3e3d e0cb fabc 2bdf 59be 7dfb 1a3d
00000380: 0b64 fcb6 4862 183a 02ec 2b3b 9aaf c3bb
00000390: fbc9 9838 9afc 083f 8e3b 873a 10bb b1bc
000003a0: 5a7b a9be 0325 233d e4be 333d 2702 763e
000003b0: b15f ebba 95ef ba36 8ca7 913c 9035 4dbe
000003c0: b0a8 b23e 0281 33bd a0b5 023c 5316 1abf
000003d0: 1d66 16bd 4ced 1f3e bd09 093d 210d d3bb
000003e0: f629 64bd 8bfd 2bbb d646 953b bf76 c23e
000003f0: 66fe 403b d566 c43b 9b57 d0bd a548 073c
-0.014251499 -0.023732372 0.00051025423 0.017205887 -0.000682652 -0.001445014 0.0033087328 -0.00091623847
-0.0009117204 0.006401279 -7.875403e-05 0.0013883894 0.024590269 6.2698084e-05 -0.0041009006 0.00014489012
0.0005565163 0.0006777127 0.0018820531 -0.0015060452 0.006184775 0.0015614756 -0.020742469 -0.00043688575
0.00019839699 0.00012580505 -0.00020956725 0.00065522315 -1.6444856e-05 0.025493724 -6.438926e-05 0.00088501547
-0.012636878 0.0015878037 0.0022296647 0.013630594 -0.00043273234 1.0547804e-05 -0.0025866525 -0.0068086097
0.021029858 -0.0027886345 -0.0023649032 -0.00058218755 -0.009571574 -0.0005440241 -0.0005964272 0.0005544109
0.0023206512 3.0998333e-05 -0.00060392846 0.004997501 0.00040848277 -4.641539e-06 -0.0023994585 0.007109273
3.9780807e-05 0.0028269794 0.00010017068 -0.0003628714 -0.009062945 -0.0007994032 0.0004974987 -0.00023430078
-0.002699179 0.1057168 0.00037855707 -0.002683297 -0.0034190337 -0.0068219216 0.0017749508 0.0015990487
0.00066626945 -0.008674879 0.00034424916 0.00031925744 0.030883852 -0.008067707 -0.0035368653 -0.00037439883
0.0014441392 -0.002115984 7.777993e-05 0.0034763964 0.0011753239 -0.00274705 1.6783339e-05 -0.0073416536
-0.0005037565 0.04422288 -0.0035814662 0.0037327067 -4.4133343e-05 -0.0009304573 7.900871e-06 2.9988337e-06
0.00036816156 -0.0015892255 2.715278e-05 8.042661e-05 0.0063446104 -0.00033506364 -0.0060834363 -0.002711769
-0.00086047506 -0.0013630621 9.679595e-05 -0.0031419576 -0.0012493604 0.0014697621 6.237004e-05 -0.021960227
-0.00018201856 -0.00784782 -0.0023977463 -0.0007659446 0.011840581 -0.03686934 -0.00065725367 0.0016419947
-0.0012562849 0.0008281373 -0.0012945161 -0.004516805 -2.230878e-05 -0.0015333499 0.0012700534 -0.012237799
0.0012648759 -0.00015408582 5.4848817e-05 0.0026313006 0.0037654128 -0.0006879603 0.0070521776 -0.06793805
-0.0022600153 -0.00038981496 -0.0048327227 0.0014345581 3.9693474e-05 1.678802e-05 0.0008236373 0.0028660153
0.00059345434 0.00016568245 0.12839252 -0.0036019883 0.0016695167 -0.029892744 0.01080692 -0.0010969798
0.0002959583 -0.006780019 0.065454364 0.0051511344 0.018563543 -0.001504937 0.00062252174 -0.010809999
-0.0018296225 0.0027495348 -0.002662584 -0.0014141878 0.007402798 -0.0032919252 -0.01961812 0.016268732
-0.0027522475 4.5679544e-06 0.0004845479 -0.05665949 -2.526346e-05 -0.00021892914 -0.018969273 0.0067098076
0.0021045129 -4.634438e-05 5.736817e-05 0.015793975 0.00074266654 -3.5503203e-05 4.1166717e-05 0.007502527
0.0063423263 0.00088979414 0.0053779627 0.00011569064 0.00425723 -0.0028783653 0.014307289 -0.0012624641
0.0025761982 0.01018516 7.7778e-05 0.0023312983 -0.00026049267 0.0014336369 5.3374548e-05 0.0021908795
-0.3825289 0.19846421 0.00073323026 0.2780351 0.04413487 -0.088164896 0.322162 -0.006675163
-0.0064172614 0.5116884 -0.012854465 -0.01574955 -0.30789298 -0.00013098847 -0.11763959 0.007567399
-0.13218355 0.0011944948 0.00093131495 0.021352665 0.046563745 -0.030614793 -0.21276538 0.037837494
-7.521832e-06 0.0005812985 0.00262332 -0.005971861 7.2855466e-05 0.5351044 0.0010317431 -0.021695644
-0.33101922 0.03983022 0.04388322 0.24024259 -0.0017957595 5.571123e-06 0.017780088 -0.20039964
0.34894323 -0.043824203 0.007977873 -0.60190314 -0.036718477 0.15617865 0.033456553 -0.006440774
-0.05570408 -0.0026243653 0.0045555634 0.3798122 0.0029448508 0.005993704 -0.101729594 0.008257066

mu.2.bias f4 [5]
00000000: af36 b5bb a054 2b3e ff7c 3cbd 7c11 053c
00000010: beb2 013e
-0.0055302004 0.167315 -0.046017643 0.008121844 0.12665841

reward_fun.0.weight f4 [200, 6]
00000000: d305 6e3f 65e1 51be 3965 f83f 9e1b 3bbe
00000010: ab8c 09bf b0cd f03e c952 953e cdf5 84be
00000020: 3dd5 3ebf 15ea 553f d3ee 613d 2339 7dbf
00000030: b0b7 a13e fdbc a2bc b519 e8bd 8802 5e3e
00000040: 5831 03bc 2ac4 69be 40d4 4abf 2a15 fdbe
00000050: fdab 54bf 0282 04c0 d1fe 1bbd 2a2c 703d
00000060: 56be c83f 8991 2bbf 234e 3e3f 7051 c53f
00000070: 24e7 77be 6d0f 64bf d67b 2e3e 8431 923f
00000080: 367c bbbf 0c1c 863f 7f84 a1bd 4a19 233f
00000090: 84e9 d4bd 02d3 52be b2ad 0740 ab24 0b40
000000a0: ece2 603f 6b62 23bf 797a e7bf f340 fabe
000000b0: 0157 b73f e1da 8abf 7123 a63e 3328 acbe
000000c0: 5f83 4ebe c048 64be d999 ee3b 03c7 353f
000000d0: b794 7e3e 5310 b7bf ecf6 153d 7449 a43e
000000e0: 2e88 c9be 3c36 3d3f 8e05 f4bb f47e 85be
000000f0: f45c 78be 96bd 103f b490 0e40 ce1d 77bf
00000100: fc7b 03bf c117 eebe 2e30 56bf cab5 aabf
00000110: b3f5 53be 6d89 52bf 5a3d b03e 63fb 69bf
00000120: 05d4 263d 00a4 223d de33 c7be b18c 0a3f
00000130: ec9f f53a a902 b6bd c1f8 fe3f 2ced c03e
00000140: 034e 95be 8f9d ea3e f9dd 1bbe aff1 173e
00000150: 3a6a 1e3f d11e 97bf b802 853f 7099 913e
00000160: e1ea 623e 8663 14bf 0a09 983d 9846 513d
00000170: 9846 0cbe 5955 0c3f 8231 85b9 c199 083e
00000180: f323 46be 1cb4 dcbe ddfa 2dbf 00fc 813d
00000190: ca3c 5c3e 68ee 6dbf 6c18 f6be dc8f 803f
000001a0: f3c1 fbbf 0aac 73be 652e 78be 0ef1 0d3f
000001b0: 796d 863e e854 3f3e 2663 b0be f0fd 44be
000001c0: 1c60 c4bb 5965 45be 6975 f83f fcb5 0c3f
000001d0: a314 f83e a04e 2f3f 5615 a6be 27de 883f
000001e0: 5de8 28bd af01 b63d 3914 6fbe 504a bf3e
000001f0: 7141 3739 517d 71be 0855 a639 7740 193f
00000200: fde6 2840 7a99 2040 da3c b03e 4bd5 cc3e
00000210: b539 4ebe 4aa5 943e 0359 0abe fb2d 08bf
00000220: 6d43 cebd ceac 553f 6a92 9c3e 3515 903e
00000230: 3d24 d83f 79fb 2640 70a9 d03e 0973 a1be
00000240: 2261 ec3d 393f 9c3d 6ddd 8fbe 2800 943d
00000250: 0f8c 513b fe04 8fbe b8b2 063f af8b b1bc
00000260: b354 973f 5fe3 e43f 868e 853d 5119 ccbf
00000270: 442b 833f 35c6 19be 0ab0 55bf b477 52bf
00000280: 1969 093e d1aa 6bbf 17e7 02c0 9a3e 19bf
00000290: 9f99 85bd 6c43 18bf 460c a23e 4b8a d0bf
000002a0: 15c6 dfbe 15fe c0be 4b3b 1240 3c43 b2be
000002b0: 0615 11bf 5dd9 4abe ed2b 28bd 5c01 0abf
000002c0: ac79 0e40 4e94 723e 89eb fabe 7506 80be
000002d0: 5f3e 01bf 7adf a4bf f987 633f 903e 593f
000002e0: 8b09 7ebe 150b 9c3d 72a8 f03f 35ee bb3e
000002f0: d0b1 84bf 9974 5e3d 87f8 a93d 3282 72bf
00000300: 7ec2 4c3e 3375 8b3d ce2c 80be c0a4 c6bd
00000310: acde 72bb 128d 9cbe bae0 d63e 4007 d73f
00000320: e997 c8bf 507d 973f dd96 8bbd c448 0a3f
00000330: d207 95bf a774 3abf 45b7 0dbf 6100 ebbf
00000340: bde7 0f3e 9074 8cbf 4fff 273d a9b6 bc3d
00000350: 2168 5cbe a733 a33d be95 ffba 3bfe 7fbe
00000360: b4e5 113e 6a1e 153d d6c6 2abe 0b37 353f
00000370: 183c 4f3d 6645 2abf d075 4c3e 6a94 033d
00000380: 681d a2bf 4be2 1e3f c039 9c39 f517 fbbc
00000390: ee0c d4bf fb1d 853d 3aba d33f 15c6 773e
000003a0: 54c4 133f beab 66be 2a9c e4be 7d25 803f
000003b0: a4fe 153e 00ce 613c ceac bbbe dd4e 1d3f
000003c0: eaa6 1c3e badd c03f 7aa4 51bf 5fe2 5fbf
000003d0: 94d4 c9be 83d2 883f f357 333e 1689 9c3e
000003e0: 659e 1a40 785b c43e 7e1f 0d3f 62d8 4b3f
000003f0: 36d6 033f 9393 4fbe dc54 a53d 27ce 613e
0.9297764 -0.20496137 1.9405891 -0.18272254 -0.5373027 0.47031927 0.29164723 -0.2596878
-0.74544126 0.83560306 0.0551594 -0.9891531 0.31585455 -0.019865507 -0.11333028 0.21680653
-0.00800737 -0.22828737 -0.7923012 -0.4943021 -0.83074933 -2.070435 -0.03808481 0.058635868
1.5683086 -0.67018944 0.7433798 1.5415478 -0.24209267 -0.8908604 0.17039427 1.1421361
-1.4647281 1.0477309 -0.078866 0.63710463 -0.10396102 -0.20588306 2.1199765 2.174113
0.87846255 -0.6382205 -1.8084251 -0.48877677 1.4323426 -1.0848047 0.32448915 -0.3362442
-0.20167302 -0.22293377 0.0072815237 0.7100679 0.24861418 -1.4301857 0.036612436 0.3208729
-0.3936171 0.7391088 -0.0074469512 -0.2607342 -0.24254209 0.56539285 2.227582 -0.96529853
-0.5136106 -0.46502498 -0.83667266 -1.3336728 -0.20699196 -0.82240945 0.34421808 -0.9139921
0.04072954 0.039707184 -0.3890676 0.5412093 0.0018739677 -0.08887226 1.9919664 0.37680948
-0.2916108 0.45823333 -0.15221395 0.14838289 0.6188084 -1.180628 1.0391455 0.28437376
0.22159912 -0.5796436 0.07423599 0.051092714 -0.13698804 0.5481773 -0.00025404623 0.13339902
-0.19349651 -0.43106163 -0.6796091 0.06346893 0.21507564 -0.92941904 -0.48065507 1.0043902
-1.9668564 -0.23796096 -0.24236448 0.55445945 0.26255396 0.18684733 -0.34450644 -0.19237494
-0.0059929024 -0.19276942 1.9410831 0.54965186 0.48453245 0.6847935 -0.32438153 1.0692796
-0.041237224 0.0888704 -0.23347558 0.37361383 0.00017476619 -0.2358296 0.0003172534 0.5986399
2.6390984 2.5093675 0.34421426 0.4000648 -0.20139201 0.29032356 -0.13510518 -0.5319516
-0.10071454 0.83466804 0.30580455 0.2814118 1.6886059 2.6090987 0.4075427 -0.31533077
0.11541964 0.07629246 -0.28098622 0.07226592 0.003197435 -0.27933496 0.52616453 -0.021673052
1.1822723 1.7881888 0.06521325 -1.5945226 1.0247579 -0.15017016 -0.8347174 -0.822139
0.13418998 -0.9205752 -2.0453546 -0.5986115 -0.065234415 -0.5947788 0.3164999 -1.6292204
-0.43705812 -0.3769385 2.284869 -0.3481692 -0.56672704 -0.1980948 -0.041057516 -0.53908324
2.2261763 0.23689386 -0.49007824 -0.25004926 -0.50485796 -1.28807 0.8887935 0.8486109
-0.24808328 0.07619301 1.8801405 0.36705175 -1.0366764 0.054310415 0.08299356 -0.9472991
0.19996068 0.06809463 -0.25034183 -0.09699392 -0.0037058992 -0.30576378 0.41968328 1.6799088
-1.5671359 1.1835117 -0.06815884 0.5401728 -1.1643012 -0.7283425 -0.5535777 -1.8359491
0.14053245 -1.0973072 0.041014966 0.09214527 -0.21524097 0.07968836 -0.0019499583 -0.24999325
0.14247781 0.03640596 -0.16677412 0.70787114 0.05059442 -0.66512144 0.19966817 0.03212396
-1.2665224 0.62064046 0.00029797666 -0.030651072 -1.6566446 0.06499859 1.6541207 0.24196656
0.5772145 -0.22526452 -0.44650394 1.001144 0.14647919 0.013782024 -0.36655277 0.6144846
0.15298048 1.5067666 -0.81891596 -0.8745479 -0.39419997 1.0689243 0.17514019 0.30573338
2.4159176 0.38351035 0.5512618 0.7962705 0.51498735 -0.20271139 0.08072826 0.22051297

reward_fun.0.bias f4 [200]
00000000: cbe1 38c0 4795 d9bf 5970 55bf 04ae 46bf
00000010: a741 febf 3240 23c0 2fd0 b0bf bcd0 fabe
00000020: ca4e 6cbf c7ef bbbf 2261 f3bf cc24 31bf
00000030: 0b86 48bf d462 edbf a607 fcbf 3475 58bf
00000040: c765 c5bf 95dc bcbf ac0b 88bf 1596 eebf
00000050: e719 41bf 16d2 ca3d 559b eebf 06f3 f6bf
00000060: bdf5 27bf 682f 12bf 9bc4 08c0 89cd babf
00000070: 3e3d 61c0 cbd7 1bc0 01d5 fcbf 84d2 b0bf
00000080: 298e 44bf 48f2 4bc0 a240 cabf 8dea 1dbf
00000090: 5827 92bf 5540 d1bf b4b1 9cbf d798 14c0
000000a0: ba8d 24c0 7957 e8bf e9dd 7dbf a275 e5bf
000000b0: a233 e1bf addd 36bf 7f90 1ebf 24eb c6bf
000000c0: 374e 0bc0 6fef 12bf 6888 a8be 7dfa a9bf
000000d0: fa7f 79bf 4ee9 dc3e be07 8dbf 8650 dcbf
000000e0: 3cd3 41bf eb4f 9ebf a370 d3bf b08e e5bf
000000f0: 33d2 fbbf ad38 3ec0 5a97 24bf 8613 65bf
00000100: 594e 10bf e857 8cbf a5c3 e8be 4b0f 2cbe
00000110: ca95 093f 861d 99be c5d5 81bf 9369 d3bf
00000120: 401a 79bf 4cfb 993d 8403 91bf 390d ffbe
00000130: 423c 9dbf 20ec d8bf d0b5 a0bf 7567 24c0
00000140: b923 eabf 773a 47c0 bade b7bf cfd1 3a3f
00000150: eea1 e5bf 1232 bebf cd38 39bf 89cc 29bf
00000160: efc3 04c0 7593 ccbf 7087 26bf 8431 11c0
00000170: af46 02c0 a479 abbf ce82 073f b4e8 3ebf
00000180: 9cce e6bf 719b f8bf 1305 7ebf 9d50 d6bf
00000190: f9c4 1cbf 43bf 07c0 4106 25bf 3972 18c0
000001a0: f97b c2bf e8b2 11c0 f7af 2ec0 10a2 fabf
000001b0: c600 8bbf 7b3f b8bf d923 15c0 1013 a3bf
000001c0: 7110 afbf a173 0ec0 4065 aabf 0558 17c0
000001d0: cac6 8ebf 407b c2bf cb09 cabf 4ece 93bf
000001e0: eee1 c2bf a6f5 d4bf d2a0 1bc0 5159 16c0
000001f0: 3777 cdbf f8ff c3bf 68db 64bf e18e 66bf
00000200: 5bbc babf 0517 9dbf 7ea1 59bf de66 aebf
00000210: ee64 84bf 20b4 2abf d47e 88be 66f2 06c0
00000220: 1939 e2bf 2990 d9bf 707c 87bf 9467 75bf
00000230: ad5f 16c0 1248 94bf 1cbd 33c0 f76a c9bf
00000240: 3353 f4bf 9606 0dc0 482c dcbf 9cd5 45bf
00000250: 21e8 15c0 8fae d2bf 968f 77bd 00c6 b1bf
00000260: 6f74 81bf d97a 23c0 c8f7 2bc0 8ecc 78bf
00000270: 7a50 ecbf 378e 92bf 64ce 69bf a5a8 78bf
00000280: af0f 56bf f990 10c0 18ef f4bf f12e aebf
00000290: 609a 0dc0 d011 d7bf b7c4 1ac0 3283 26c0
000002a0: d5db d4bf 62a7 80bf c651 2fbf 098c 1ec0
000002b0: e7ef e2bf f0bb 97bf 3d1b 32c0 02f8 02bf
000002c0: a470 0ec0 8340 c2bf 92ef 98bf 184a 03c0
000002d0: 6bb0 9fbf 37eb 15bf 3750 85bf d33b 41bf
000002e0: c52e 75bf 5443 fabf bde9 08bf 3478 93bf
000002f0: 32e4 b6bf b817 7cbf 3988 14c0 7f0b c6bf
00000300: 1de9 b7be c4c8 b1bf 7637 76bf 84f9 3dbf
00000310: 9441 68bf ef01 b7bf 887f 67bf e971 a4bf
-2.8887813 -1.6998681 -0.83374554 -0.77609277 -1.9863786 -2.5507932 -1.3813533 -0.48987377
-0.9230772 -1.4682549 -1.9014018 -0.6919677 -0.78329533 -1.8545785 -1.9689834 -0.8455384
-1.5421685 -1.4754816 -1.0628562 -1.8639551 -0.7543015 0.09903352 -1.8641154 -1.9292915
-0.6560934 -0.57103586 -2.1369998 -1.4593974 -3.519363 -2.435046 -1.9752504 -1.3814244
-0.7677942 -3.1866627 -1.5800974 -0.6168602 -1.1418257 -1.6347758 -1.2241731 -2.3218286
-2.5711503 -1.8151695 -0.99166733 -1.7926524 -1.7593882 -0.71432 -0.61939234 -1.5540509
-2.1766489 -0.57396597 -0.3291657 -1.3279568 -0.974609 0.43146747 -1.1017988 -1.7212074
-0.75712943 -1.2368139 -1.6518749 -1.793417 -1.9673523 -2.9722092 -0.64293444 -0.89482915
-0.5636955 -1.0964327 -0.45461765 -0.16802709 0.53744185 -0.29905337 -1.0143362 -1.6516594
-0.9730568 0.07518634 -1.1329198 -0.49814776 -1.2284014 -1.694706 -1.2555485 -2.5688145
-1.8292152 -3.1129434 -1.4364846 0.7297639 -1.7940042 -1.485903 -0.72352296 -0.6632772
-2.0744588 -1.59825 -0.6505041 -2.2686472 -2.0355642 -1.3396497 0.5293397 -0.74573827
-1.8031802 -1.9422437 -0.9922649 -1.6743351 -0.61238056 -2.1210487 -0.6446267 -2.3819716
-1.5194083 -2.2765446 -2.72949 -1.9580708 -1.0859611 -1.4394373 -2.330313 -1.2740192
-1.3676893 -2.2258074 -1.3312149 -2.3647473 -1.1154416 -1.5193863 -1.5784239 -1.1547334
-1.5225198 -1.6637466 -2.4316907 -2.3492014 -1.6052006 -1.531249 -0.8939729 -0.90061766
-1.4588732 -1.227265 -0.8501204 -1.3625143 -1.0343301 -0.666811 -0.26659262 -2.1085448
-1.7673675 -1.6997119 -1.058485 -0.9586117 -2.3495896 -1.1584494 -2.8084173 -1.5735768
-1.908789 -2.203527 -1.7201014 -0.7727907 -2.342293 -1.6459521 -0.06043967 -1.388855
-1.0113658 -2.554373 -2.6869984 -0.97187126 -1.846206 -1.144965 -0.9133055 -0.9713233
-0.8361768 -2.2588484 -1.9135466 -1.3608075 -2.2125473 -1.6802311 -2.4182565 -2.6017575
-1.6629587 -1.0051081 -0.6848415 -2.477297 -1.7729462 -1.1854229 -2.7829125 -0.5115968
-2.225625 -1.5175937 -1.1948111 -2.0513973 -1.2475713 -0.58562034 -1.0415105 -0.7548191
-0.9577449 -1.9551797 -0.53481656 -1.1521058 -1.428839 -0.9847369 -2.3208144 -1.5472258
-0.3592004 -1.3889394 -0.96178377 -0.74208856 -0.90725064 -1.4297465 -0.9042897 -1.2847263

reward_fun.2.weight f4 [200, 200]
00000000: b427 8abe 5e33 62bf 76c7 bb3d cbf4 4ebe
00000010: 4e4f dd3e 6cba 38c0 7394 893f 66a2 f2bf
00000020: 17d6 313f 5fcc 803e 6227 81be 9489 58bf
00000030: 9c1d 0dbe b592 603e 0945 a73f e53d debe
00000040: 20ae 53bf a2d0 6ebe 5161 98be f1bc 07bf
00000050: 2191 183e 87f4 223e d4b8 f0be ffdb 1cbf
00000060: de91 92be 7365 86bd 8379 9c3e 5388 a83f
00000070: 6a48 b9c0 534d b5bf 2154 d43f bd12 bfbe
00000080: 6387 88be 43fa 41c0 67ae 6b3e 6a3d 15be
00000090: 1e43 403e 2d54 8dbf f619 9e3e f3e4 7ebf
000000a0: 9e0b 58bf e5ea 2d3f 93bd c33d f901 a93f
000000b0: 4a22 88bf e78f 833d 7cde 61bd 945c 44c0
000000c0: 7bb4 dabf 3212 bdbf 13e1 d03e f81a 123f
000000d0: cfa9 3bbe 7e98 a73e 16a7 0fbc 6761 2f3f
000000e0: 9b84 a8be df4a d3be 3cf1 5fbf f596 2cbf
000000f0: fbe9 923f 5a7a b7c0 a708 8fbf df29 24bf
00000100: 3526 ea3e 8d3e 743e 5783 f53d be80 a53e
00000110: 5a27 803f 7bb1 5b3f 6dd6 c93e cab8 bdbf
00000120: 0fda 7fbf 531f 073e b31f d33c c58d 773f
00000130: d7b3 89bf 2d6b 803f a41f f5bf b4a5 a0bf
00000140: 18e1 b93e a290 b9c0 70e4 b7be a947 3a3f
00000150: a1b8 b1bf 077f 19bf f1b6 3abf 4bdd 533f
00000160: b9b2 05c0 e056 3b3d e6fa afbe da0a 213f
00000170: 50d1 00c0 1ab1 21be 89d7 14be da14 47bf
00000180: c253 763f f4e3 a5be 285d 0dbf f687 18bf
00000190: 205d 9e3d a0cf 2d3f f0f4 a23d 9945 e8bf
000001a0: 35d5 c4be ad05 683f dadc f7c0 9c7b 1bbf
000001b0: c144 2c3f 3c96 ba3f 47a5 65bf 649f b13c
000001c0: e819 01bf caf9 293f 1362 da3d 2b69 4e3e
000001d0: acdc f6be ef27 a5bf 8608 efbc 684d 4fbf
000001e0: 11ca 0b3f 7421 b5be af2b 0bc0 8948 d03e
000001f0: 25d8 093f 1cf4 cbbe 650b f3bd c5d6 1fbf
00000200: 5abd cfbd 99b2 12bf 1166 133f de2c 7bbf
00000210: c812 38be 2551 02bd a97b cebe 0e86 063f
00000220: 1375 babe 81c5 233e 7e8f 8abe 3421 80be
00000230: ae7c 253f 9d04 ad3d a5e6 94be 77c6 9b3f
00000240: fe91 a6bf f21a 0bc0 2bab 933e 9f2f 2e3c
00000250: 50fd e73e 586f 86be 132d 213e c2b8 023f
00000260: 3abd f03e 4623 03bc 15e8 a03e 5d03 d3be
00000270: 86b8 19bf 742b 863e 893d 5bbe 9538 cabe
00000280: 6995 a7be fbf6 96be 8bfc a4bd 7175 e3bf
00000290: c766 c6be 740c 21bf 09c9 babe f822 fa3e
000002a0: d3bf 85bf 0a18 823f e4d8 0cbe f9ab 5b3e
000002b0: a349 ab3f 885d 323d 25c0 96be 3ed4 d03e
000002c0: ba8f f9bf ceed cebf 16c1 d2bd 674c 73be
000002d0: de25 353e bf30 00bf 9ee6 86be fb44 a1bd
000002e0: 3b76 9bbc 8b06 f33e df79 b63d 73a7 10bf
000002f0: 9114 f83d f022 8e3f 251f 16c0 ade0 81bf
00000300: 7563 2d3f 683d 28c0 0d2f d83e d459 7bbf
00000310: 529b fb3e 578b 103f 36c1 393e cc20 f5bf
00000320: 4191 713f 98ed c1bf 7900 293d 4bc3 81bf
00000330: 32c4 f5bf 70b2 5d3d 5f95 03bf a9fa b63d
00000340: a382 91bf c89a ddbd d303 c93e 8345 9fbf
00000350: 1048 9abd 6e5f a1bf b4fd afbf 3383 963e
00000360: d031 c13e b3b7 e2be 33f7 eebd 21f2 6f3f
00000370: 5ebe fabe ec58 b1be ecd7 92bf 4c85 0f3e
00000380: ea94 2a3d 4f82 ea3d a275 c83d a0cc 70bf
00000390: ad0b 8fbf d722 473f b1bf e5be 62cd debf
000003a0: d4db 41bf abd3 40be d5db f73d a462 e23c
000003b0: d18a 8fbe 7184 16bd e912 f0bf 6b01 b03e
000003c0: 5737 5fbe 3bb3 08be 34f1 a23e d6a7 eebf
000003d0: fe8f 19bc f191 bebe 41e7 06bd 950a 023f
000003e0: 4df5 b5be 6f61 31bf 7e8c afbe 67d5 73bf
000003f0: 3f5c bc3c a358 47bd e436 d53e e352 10be
-0.26983416 -0.8835963 0.091689035 -0.20210569 0.43224567 -2.8863783 1.0748428 -1.895581
0.694673 0.25155923 -0.2522536 -0.8458493 -0.13780826 0.21930964 1.3067943 -0.43406597
-0.8268757 -0.23321775 -0.29761747 -0.53022677 0.14899112 0.15913592 -0.47016013 -0.6127319
-0.28626913 -0.06562319 0.30561456 1.3166603 -5.7900896 -1.4164222 1.6588174 -0.37318984
-0.26665792 -3.0308998 0.23015748 -0.14574209 0.18775603 -1.1041313 0.30879182 -0.995681
-0.84392726 0.67936546 0.09557643 1.3203727 -1.0635464 0.064239316 -0.05514382 -3.0681505
-1.7086328 -1.4771178 0.40796718 0.570724 -0.18326496 0.3273353 -0.008767864 0.68508
-0.3291367 -0.4126806 -0.8747747 -0.6741784 1.1477655 -5.7336855 -1.1174515 -0.6412639
0.45732275 0.23851986 0.11987942 0.32324785 1.0012009 0.8581769 0.39421406 -1.4822018
-0.99942106 0.13195543 0.025771951 0.967007 -1.0758008 1.0032707 -1.9150281 -1.2550569
0.36304545 -5.7989054 -0.3591647 0.72765595 -1.3884469 -0.59959453 -0.72935396 0.8275954
-2.0890334 0.045737147 -0.34371108 0.62907183 -2.0127754 -0.15790215 -0.14535345 -0.7776619
0.96221554 -0.32400477 -0.5522027 -0.5958246 0.07732606 0.67894936 0.07956874 -1.814624
-0.38443914 0.9063366 -7.7457094 -0.6073549 0.6729241 1.4577098 -0.8970532 0.021682449
-0.50430155 0.6639677 0.106632374 0.20157306 -0.48215234 -1.2902812 -0.029178869 -0.8097749
0.54605204 -0.35377085 -2.1745412 0.4068034 0.53845435 -0.39834678 -0.11867408 -0.6243709
-0.10143538 -0.5730377 0.57577616 -0.98115337 -0.17975914 -0.031815667 -0.4032872 0.525483
-0.36417446 0.1599331 -0.270626 -0.25025332 0.6464337 0.084481455 -0.29082218 1.2169942
-1.3013303 -2.1735196 0.28841528 0.010631471 0.4531045 -0.26256824 0.1573985 0.5106317
0.47019368 -0.008004015 0.31427065 -0.41213503 -0.60047185 0.26205027 -0.21410193 -0.39496294
-0.32731178 -0.29485306 -0.08055981 -1.7770215 -0.38750288 -0.62909627 -0.36481503 0.48854804
-1.0449165 1.0163586 -0.13754612 0.21452321 1.3381847 0.04354623 -0.2944347 0.40786928
-1.9496987 -1.6166322 -0.102907345 -0.23759614 0.17690226 -0.5007438 -0.26347822 -0.07874485
-0.018977275 0.4746593 0.08909964 -0.5650551 0.12113298 1.1104412 -2.345651 -1.0146691
0.67729884 -2.628748 0.42223397 -0.9818394 0.49141937 0.56462616 0.1814011 -1.9150634
0.94362265 -1.5150633 0.041260216 -1.0137724 -1.9200499 0.05412525 -0.513998 0.089345284
-1.1367992 -0.10820538 0.3926073 -1.2443088 -0.07533276 -1.2607248 -1.3749299 0.29396972
0.37733316 -0.44280776 -0.11668243 0.93728834 -0.48973364 -0.34638155 -1.1472144 0.14015692
0.04164592 0.11450636 0.09788062 -0.9406223 -1.1175438 0.77787536 -0.4487281 -1.7406428
-0.75726056 -0.18830745 0.121024765 0.027634926 -0.28035596 -0.0367474 -1.8755771 0.34376082
-0.21798454 -0.13349621 0.31824648 -1.864497 -0.009372709 -0.3722072 -0.032935385 0.50797397
-0.35538712 -0.69289297 -0.34286875 -0.952475 0.022993205 -0.048668515 0.4164344 -0.14094119

reward_fun.2.bias f4 [200]
00000000: b973 733f 828f dfbe 21fe c23e f55d 5cbe
00000010: 8da4 c7be af27 99be 0a23 3bbe 6888 a73d
00000020: e2f1 7abd 9105 043e 4da0 223f 1ec6 90bd
00000030: 369a 043e c80e 7fbe 60d9 eabd 722c ccbf
00000040: 7fcb 13be d448 c5be 3db5 2bbe 215c b8bd
00000050: 4e31 b5bd d7fc a3bd ffe6 4b3e 06c6 59be
00000060: 25b6 62bd 6c47 35be 79db 76bd 3f53 a23f
00000070: 3c94 2fbe 8416 96be af83 2cbf fe80 54bf
00000080: f2d5 d9bc 3c83 74bf 0156 653f ae8f 64be
00000090: 0242 fcbd 0bd0 1dbd fa7c 6dbe 061a b1be
000000a0: a79a 07bd 2df9 c7be ce4f a7be 7369 d8bd
000000b0: e7f2 9cbd bccc 713e 111a 783d b38e 103e
000000c0: 9c4a c33d 9570 15bf 1fac b0bc 846d dbbd
000000d0: 5efb eabd 4449 e4bd 070b d0ba 5a20 78be
000000e0: 6754 b13f f89d 21be 77b3 743f 24ea 37be
000000f0: 5d91 62be 0a81 013d f65c da3f 2d97 c1bd
00000100: 9df8 abbd 3600 e5bd 89d1 973e e4dc 813e
00000110: 076b 41bd fc95 32bc 1d77 2c3f 26b9 bb3e
00000120: d0e7 a93f c6b8 1d3f fa23 613e 838b 7dbd
00000130: 658b eb3b 90ff 29bf a340 1bbe e5d9 fabc
00000140: 6dee 163f de61 00bd 431b 13be 5010 7dbe
00000150: ed20 cabc 5b58 1fbd ac72 383f 7182 3dbe
00000160: 684d 97bd 3e79 843c 930e 0abe 9aeb a6bd
00000170: 91a6 453f 709f bbbe c558 c0bd 9e17 2cbe
00000180: 1dfa f6bd dbfe 913f 0ace 1fbf 6aed 26be
00000190: df8d 3cbe 3c66 57bd d350 4ebe 8bec 19bf
000001a0: 510b cbbc a318 a7bd 3dab 95be 1619 03bf
000001b0: e6ea 88be c1ce b6bd 122b 92bd be31 35be
000001c0: a03b 20bf 2c26 74be 3d72 9f3f 419a 83bd
000001d0: 1a54 2f3e 9abe 113f 3546 66bd 0b36 c1bd
000001e0: 2829 0ebd 77a3 28bf 0b6a a83f 96da 063f
000001f0: 4e86 7c3e 9539 2d3d 5f8e 38bf cd06 cebc
00000200: 434b 953e f072 30be 02ad acbd a463 50bf
00000210: 8a94 0dbf 876e 573b 7634 4cbd a209 0b40
00000220: 7a0d 07be 1121 9bbe d26e 9c3d 7680 bcbd
00000230: b86b 4d3d 8b2c c9bc 4348 0cbd 7cb6 ecbd
00000240: c4fa 283f 7692 9fbd b9a4 a9be 6c03 03bf
00000250: 2d97 c13e 0ed3 aebe 68f1 293e 13e1 abbc
00000260: 52e6 d83d f803 e83f 368f 8abe d6dd 8d3e
00000270: 894d 49be 4023 93bc 0116 24be bf0f d2bd
00000280: b798 e0bd e0b3 58be 0c5c 533f 6481 7c3d
00000290: 5191 e3be a209 8bbe 50eb c7bd 2a89 a63c
000002a0: cad0 8dbd d8f9 383f ac38 ce3c 2e6e aabe
000002b0: 741e d2bd c717 1ebd 80a2 f6bd 076f 913e
000002c0: 5529 3cbf 0bdf b1bd 1faf a73e ed93 b1bf
000002d0: 1fb6 e03c c6a9 47bc fa53 e8bf bf95 043b
000002e0: a469 aebd 278c 09bc 7dde 72bf e8d1 09be
000002f0: e8f6 34bd 24f9 2abf 82e0 f0bd aa91 39be
00000300: 8ba9 8a3f 0349 63be 0517 433e 2c7e 23be
00000310: 8704 61bf 1ed6 37bb e238 55bd 2c29 7cbd
0.95098454 -0.43664175 0.3808451 -0.21520217 -0.3899273 -0.2991309 -0.18275085 0.08180314
-0.061265834 0.12892748 0.6352585 -0.07069038 0.12949452 -0.24907982 -0.11467242 -1.5951064
-0.14433096 -0.38532126 -0.16768356 -0.09001947 -0.08847295 -0.0800721 0.19912337 -0.21266946
-0.055349488 -0.17703027 -0.0602679 1.2681655 -0.1714639 -0.29314053 -0.67388433 -0.83009326
-0.026591275 -0.9551275 0.89584357 -0.22320434 -0.123172775 -0.038528483 -0.23192206 -0.34590167
-0.033106472 -0.39057294 -0.32678074 -0.10566988 -0.076635174 0.23613256 0.060571734 0.14116935
0.09535715 -0.5837491 -0.021566449 -0.10714248 -0.11473726 -0.11146787 -0.0015872427 -0.24231091
1.3853883 -0.15782917 0.9558634 -0.17960411 -0.22125764 0.031617202 1.705962 -0.094526626
-0.083970286 -0.11181681 0.2965205 0.2536384 -0.04722121 -0.010900017 0.6736925 0.36664695
1.3273869 0.61610067 0.2198638 -0.061900627 0.007188248 -0.6640558 -0.15161376 -0.030621478
0.5895756 -0.031343333 -0.14365868 -0.24713254 -0.024673903 -0.03890262 0.72049975 -0.1850679
-0.07387811 0.016171094 -0.13482122 -0.08150406 0.77207285 -0.3664508 -0.093919314 -0.16805884
-0.12059424 1.1405901 -0.62423766 -0.16301504 -0.18413495 -0.052587733 -0.2014802 -0.6012656
-0.02478567 -0.08158996 -0.29232207 -0.51210153 -0.26741713 -0.08926154 -0.07137121 -0.17694756
-0.6259098 -0.23842686 1.2456738 -0.06425906 0.17121926 0.5693146 -0.0562193 -0.09434136
-0.03470722 -0.6587443 1.3157362 0.52677286 0.24660608 0.042291243 -0.7209224 -0.025149727
0.29158983 -0.17231345 -0.08431436 -0.8140204 -0.5530478 0.0032872276 -0.04985472 2.172463
-0.13188735 -0.30298665 0.07638325 -0.092041895 0.050151557 -0.024557373 -0.0342486 -0.11558244
0.6600764 -0.07791607 -0.33133486 -0.51177096 0.3781065 -0.34145397 0.16595995 -0.020981347
0.10590805 1.8126211 -0.27062386 0.2770831 -0.19658484 -0.017961144 -0.16024019 -0.102569096
-0.10966628 -0.21162367 0.8256233 0.061646834 -0.44446805 -0.27155787 -0.09761679 0.020329077
-0.06924589 0.7225623 0.025173508 -0.33287185 -0.10259715 -0.038596895 -0.12042713 0.2840502
-0.7350057 -0.0868512 0.32750794 -1.3873268 0.027430592 -0.012186473 -1.8150628 0.0020230857
-0.08516243 -0.008395231 -0.9487074 -0.13458979 -0.04418078 -0.6678641 -0.117615715 -0.18121973
1.083299 -0.2219582 0.1905175 -0.159661 -0.87897533 -0.0028051208 -0.0520562 -0.061562702

reward_fun.4.weight f4 [1, 200]
00000000: 25ef 3f3e 9395 1cbf 77ef d1be 0624 c13c
00000010: 68a8 08bd 5808 c93c 9dbd fdbc e105 0b3d
00000020: a04c 513d 3ffe e23f 055a 3a3e e0a4 98bd
00000030: f6f3 f6be a0d6 493c 2664 f33b adf1 633e
00000040: fa3b b53d 104c 113d 5074 c53d ff4d 2a3c
00000050: 53ce 2d3d 89d0 b0bd 1af1 d13e cc87 9b3d
00000060: 1eae 333c f546 a13d 0384 ddbb 2556 cdbe
00000070: a1ea 3b3c 6703 8bbc 7323 d63e 5e37 3d3e
00000080: 8b12 46bd e743 3e3f 202e 3abe 3aee 423d
00000090: 9a86 b53d 602a bc3d 17df 653d 4487 923d
000000a0: 8350 a9bc 7bc2 12bd 15a5 00c0 ff4e 2fba
000000b0: 428b 323c 3b04 3ebe f87f 7dbf 8413 17bf
000000c0: e4de f7bd e68a adbe 2350 b93d 6b33 0dbd
000000d0: 7181 f53e 88a0 853d 3fc7 debb c5b8 9cbe
000000e0: e7fb 87be ddbb af3d ba0d 0fbf 8769 a4bf
000000f0: 8e09 753c c0f7 373d 411d db3e d30c e03c
00000100: a167 82bc 476c ea3e 161a fcbd 59a1 23bf
00000110: 3ee0 6ebc 3812 94bc 92b2 35bf 9018 483f
00000120: abae 99be f4ab 48bf 37ba 25bf 17a7 293e
00000130: de06 1fbd ecde 663d e98a b23d 2866 bf3d
00000140: 1b63 26bf 0457 2e3d a8ed 4fbd ba61 3b3f
00000150: 143d ac3a f278 393c e0bf 03c0 0935 7f3d
00000160: 54e8 743d cecb 3f3b dbdd 953d 3623 51bd
00000170: ecda e7be a3e7 2d3d ceaa 2f3c 64ad 823d
00000180: cc2b 94bd d1d1 fb3d dc93 66bb b87e 743d
00000190: 8f42 c1bc 074f 033e c284 ab3d 2137 26bb
000001a0: d3f1 b63c b4e1 88bd 615f 13bc 31f9 e53d
000001b0: b7f7 41be 7edc 9fbc 1ce2 2fc0 6ae0 a13d
000001c0: 3eb1 8ebd 4b56 8f3d aad1 f63e e880 193d
000001d0: 6723 503f 0f38 50be c125 93bd fe2c 523c
000001e0: 5cf4 8fbc 0632 1ebd 7238 00bf 24e1 adbe
000001f0: 4892 303f ca1d 863f 3126 38bf 1d50 0a3d
00000200: bc45 373e f926 afbd d55c 89bb bd21 8dbe
00000210: 5e18 11bd ecf9 38bb cea3 90bc 2c2f 543e
00000220: f362 d43c 20ac 60be 2480 d9bd e28c 853e
00000230: b7bb 10bd 9a74 093e 1a17 183d 0734 c0bc
00000240: 8370 ddbf 8bf7 7abd 3b5b 3b3e 5341 d83b
00000250: c4b8 e6be 53b1 99bc 1bc1 853d d53a a43c
00000260: 27b7 69bd dcf7 aabe b608 c3be af01 c2bd
00000270: f154 ae3c ac8e 3f3d f979 a8bd 0234 0b3d
00000280: 67b4 2dbd ed22 793f 40de cdbe 2865 c5b9
00000290: 31ad 0f3d 37c4 bf3d ffd6 b23c 0dd3 29bc
000002a0: eb7a 263c 1124 c9bf b85c 073e c112 bb3d
000002b0: fe19 493d d5ed 353d 9c4c 3dbd 53fe 953c
000002c0: e25b 583d c365 a53d 0800 3f3f 9ece 70be
000002d0: 0642 3a3d 0500 b93b 8dba 80be cbe4 d53c
000002e0: 8698 53bb 3f63 ce3b 9961 a73d f067 09bd
000002f0: 5132 573c 4cdf 793e 9d63 20bd 21a5 95bd
00000300: 1ba1 bc3e e42c 06bd 4741 f2be ed72 643c
00000310: 9a06 b0bf 7cad 6abb 503e c03b 4762 6abb
0.1874357 -0.6116573 -0.4100301 0.023576748 -0.03336373 0.024540111 -0.030974204 0.033941153
0.051098466 1.773384 0.18198402 -0.074533224 -0.48233002 0.012319237 0.00742771 0.2226016
0.0884933 0.03547293 0.096413255 0.010394572 0.042433094 -0.08633525 0.41004258 0.075942606
0.010966806 0.07874862 -0.006760122 -0.40104786 0.011469514 -0.016969396 0.4182392 0.18478152
-0.048357528 0.7432236 -0.18181658 0.04759047 0.08863564 0.0918777 0.05612096 0.07154706
-0.020668274 -0.035830002 -2.0100758 -0.00066874916 0.010897459 -0.18556301 -0.9902339 -0.59014153
-0.1210306 -0.33895034 0.09048488 -0.034472864 0.47950318 0.065247595 -0.0067986543 -0.30609718
-0.26559374 0.08580754 -0.5588032 -1.2844704 0.014955891 0.044914007 0.42795756 0.027349865
-0.015918555 0.45785734 -0.12309663 -0.6391807 -0.014579831 -0.018075094 -0.709756 0.7816248
-0.30016074 -0.7838738 -0.64737266 0.16567646 -0.03882491 0.05636494 0.08717901 0.09345657
-0.6499497 0.042563453 -0.050763756 0.73195994 0.0013140761 0.0113203395 -2.0585861 0.062306438
0.059791878 0.0029265764 0.07317706 -0.05105897 -0.45284212 0.042457234 0.010721875 0.06380728
-0.07234916 0.12295879 -0.0035183346 0.05969116 -0.023591308 0.12823115 0.08374931 -0.002536245
0.022332108 -0.066836745 -0.008994908 0.1122917 -0.18942152 -0.019514319 -2.7481756 0.07904132
-0.069674 0.06998881 0.48206836 0.03747645 0.8130402 -0.20333885 -0.07184935 0.01282811
-0.017572574 -0.038621925 -0.5008613 -0.3396083 0.6897321 1.0477841 -0.71933275 0.03376781
0.17897695 -0.08552355 -0.0041919746 -0.27564803 -0.03542363 -0.0028225137 -0.017656233 0.2072112
0.025926089 -0.2194066 -0.10620144 0.26084048 -0.03533527 0.13423386 0.037131406 -0.023462309
-1.7299961 -0.06127123 0.1829652 0.006599584 -0.4506284 -0.018761313 0.065309726 0.020047585
-0.057059433 -0.33392227 -0.38092583 -0.09472977 0.021280738 0.046766922 -0.082263894 0.033985145
-0.042408373 0.9731892 -0.40208626 -0.00037650135 0.035077278 0.09363597 0.021831034 -0.01036526
0.010161142 -1.5714132 0.13218963 0.091344364 0.049097054 0.044416267 -0.04621564 0.018309748
0.052822 0.0807605 0.7460942 -0.23516318 0.04547312 0.0056457543 -0.25142327 0.026110074
-0.0032286956 0.006298452 0.08172912 -0.03354639 0.013134555 0.24401587 -0.0391575 -0.073068865
0.36841664 -0.032757655 -0.47315428 0.013943416 -1.3752015 -0.003580897 0.005866803 -0.0035764144
