HybridLearning-master/data/hlt_stoch/InvertedPendulumBulletEnv/seed_666/model_1000.pt (torch, 180898 bytes, 10 tensors)

log_std f4 [1, 5]
00000000: afe6 87c0 cdd5 c7bf 6884 8cc0 8b1d 7bc0
00000010: e1d4 56bf
-4.2469096 -1.5612122 -4.391163 -3.9236782 -0.8391858

mu.0.weight f4 [200, 6]
00000000: ecac 843d e1ef 0cbe 89de debe 008d 32bf
00000010: 32f0 bbbb 5e03 2ebf d061 493d 1b48 96be
00000020: b1d9 053e 5fe2 3bbf 7606 d9bd f4f2 cb3d
00000030: ed5e 8a3e a00f 8dbe a1b8 d83e 3a31 053f
00000040: a54a 8c3c 5374 fdbe 048d f5bc bf7d 87be
00000050: a1b4 9ebf 32d9 5d3e e95e 80bd 8ca3 833e
00000060: cfb4 10be 7b69 e83d 994c 973e 6300 49bf
00000070: 8dc1 09be 02e7 9e3e c94b a5bf b65e 293e
00000080: 1577 dabe ae3f 2fbf 5e11 1d3f a9b3 fe3e
00000090: 8f7e ae3e ddeb af3e 648d 23bf 4b79 50bf
000000a0: 9fe9 9e3e 6e3b 8d3f 2ebc 1fbc 6d32 e4be
000000b0: 3257 95bd fd29 7a3e 72c2 1ebd 5b43 98bd
000000c0: a025 9538 0f17 1739 6056 d738 12ab f8b9
000000d0: 9654 48b8 ec01 90b9 6cca d23c 8c15 a7bd
000000e0: 0550 b23d fbb1 333f 221f fbbd 4c13 55bd
000000f0: 30b1 d638 2d5f f5b7 b4e8 a0b9 8e04 b439
00000100: d455 f0b7 2596 d139 cf77 83be db88 293e
00000110: a381 093e 8d8a 803e 08a1 2e3c 7c31 0c3d
00000120: ad9b 1e3e cad3 da3d dbc6 9abe 71de 14bf
00000130: 9324 d2bd 8515 b0be 6a71 66be 74d0 763d
00000140: c29f c1bc f052 8abe 65ff 4c3d 95b5 6639
00000150: 399f b1bd 4cb7 683e d0a2 46bf 7020 23be
00000160: 0b91 2b3e 7d5a 1dbe c0e4 86be b362 233d
00000170: d9ce 843e 76de 58bd 2f62 80be 7096 21bd
00000180: 911e b7be f32f 733e 0dcc 1ebf fcc3 40bf
00000190: 724f a63d b200 023f 95f6 61be 4f6c a93d
000001a0: acb7 703d ca00 0e3e 7371 413c b01f 7a3d
000001b0: e43b 6f3d fe11 adbd ccf6 193b f931 34be
000001c0: aca0 0e3c fe90 13be b8a4 473e 3eb7 a03e
000001d0: 5fc1 febc 270b 96bf 675d 913e 4c72 8e3d
000001e0: c20e c4be 7685 9bbe e42f 39be db00 2dbf
000001f0: 8f90 98be c548 503e 221b 4ebe d700 613c
00000200: c8c4 293e 55d9 bbbe d794 cb3c 88d8 8cbe
00000210: 5ff7 46be e269 c13e af42 24be 765d a9be
00000220: a076 933e 4d8d a33e 6a43 3a37 3032 1138
00000230: 0582 a136 a4b3 8ab7 dac8 3e35 5583 35b8
00000240: 9b19 4e3d 203a f13e 3138 20be 2b05 0b3f
00000250: 7946 d6bd 056a 48be 464a d1bc 26a4 bd3b
00000260: df1f 88bc 6d64 8b3c 3d58 8a38 5117 623c
00000270: 2bb3 a5b8 7b18 8c39 67d1 a9b7 b948 bcb7
00000280: b420 3a37 d062 80b9 da93 c1bc 8df4 dabd
00000290: 3bfb 3c3e 2442 7fbd 941c b23c 7ed8 f7bd
000002a0: 8c70 123e d35b d4bd 161a 96be 9836 d2be
000002b0: 49a0 b8bd 8fa0 67bd ee94 c6be 04ae c03d
000002c0: a1fc 27bf 5d7b 1dbf f612 8f3e ed1a 093f
000002d0: 66ce 933b 2937 623a c2cf ed38 a3a8 91ba
000002e0: 0504 b3b9 fc71 82ba 1194 383d 0525 0b3e
000002f0: 78d0 a53d d6cf 3fbc 7d3e f63c 5ea6 803b
00000300: 7bc5 babe d051 1ebf e49f 293f 5a47 52bd
00000310: c4e8 273e 6adc 653f 2e6a cabe b0f0 a0be
00000320: e7de 2fbf 9452 31bf 38ef 5fbe b845 96bf
00000330: 1ace 683d dd6c e9bb 223f 8f3d 75a1 823c
00000340: 6914 b63b 4423 a4bd aff3 70bd 3b14 99bd
00000350: 3991 17be 8d29 de3e 98f8 e9be 2449 af3d
00000360: bae2 a63e af41 6c3d e27d 87be cd00 18bf
00000370: a6af 95bc 65d7 093d b6ed 13b8 064d a338
00000380: 2794 98b6 4c99 6ab8 2d8d 07b6 6f2b 81b8
00000390: 84b4 de35 2a4f e634 aeb6 2734 032e b9b5
000003a0: 2cd3 26b4 7bf4 afb5 a35d 2abf 6f9c 24be
000003b0: 44ec 1b3f e2b0 603f c9ca 323f c07c d23d
000003c0: 78d8 fb3e 8cba 363e 7142 133f 0219 49be
000003d0: c35c 453e 5115 89bd 53be a53e f9e0 15bb
000003e0: 0bf9 dc3e 610c 1a3f 20a1 32be 33dc f53e
000003f0: da14 dbbd d84c 1c3d 5888 96bd e152 633d
0.06478295 -0.13763382 -0.43529156 -0.697464 -0.0057354206 -0.6797389 0.049165547 -0.29351887
0.13071324 -0.7339229 -0.105969355 0.09958449 0.27025548 -0.27550983 0.4232836 0.5202824
0.017125437 -0.4950281 -0.029974468 -0.26463124 -1.2398874 0.21664885 -0.06268103 0.25710714
-0.14131473 0.11348244 0.29550627 -0.78516215 -0.1345274 0.3103562 -1.2913753 0.16540036
-0.42668977 -0.6845654 0.61354625 0.49746445 0.34080932 0.34359637 -0.6388762 -0.8143508
0.31037614 1.1033762 -0.009749455 -0.44569722 -0.07292022 0.2443008 -0.038759656 -0.07434722
7.111882e-05 0.00014409072 0.000102680875 -0.00047429703 -4.7762493e-05 -0.00027467252 0.025731288 -0.081584066
0.08706669 0.7019345 -0.122617975 -0.052020356 0.00010237319 -2.9250596e-05 -0.00030690955 0.0003433567
-2.8650196e-05 0.00039975453 -0.25677344 0.16556112 0.13428359 0.25105706 0.01065851 0.03422688
0.15489073 0.10684927 -0.3022984 -0.5815192 -0.10260882 -0.34391418 -0.22504202 0.06025739
-0.023635749 -0.270164 0.05004825 0.00022002154 -0.086729474 0.22726172 -0.7759218 -0.15930343
0.16754548 -0.1536655 -0.26346397 0.03988905 0.25939062 -0.05294653 -0.25074908 -0.03945011
-0.35765508 0.2374876 -0.62030107 -0.7529905 0.08120622 0.5078231 -0.2206672 0.08272611
0.058768913 0.13867489 0.011806834 0.061065376 0.058406726 -0.08450697 0.002349305 -0.17597188
0.008705299 -0.14410779 0.19496429 0.31389803 -0.031098066 -1.1722153 0.28391573 0.06955394
-0.3829251 -0.3037526 -0.18084675 -0.6757943 -0.2979779 0.2034026 -0.20127538 0.01373311
0.16578972 -0.3668925 0.024851246 -0.2750895 -0.19430302 0.37776095 -0.16041063 -0.33079118
0.2880144 0.3194374 1.110216e-05 3.4617435e-05 4.81331e-06 -1.6534534e-05 7.1072793e-07 -4.3276075e-05
0.050317388 0.47114658 -0.15646435 0.5430476 -0.1046266 -0.19571693 -0.025548112 0.0057873903
-0.01661676 0.01701566 6.5967884e-05 0.013799504 -7.901186e-05 0.0002672112 -2.024388e-05 -2.244521e-05
1.1094078e-05 -0.00024487684 -0.023630071 -0.106911756 0.18455212 -0.062318936 0.021742143 -0.121018395
0.14300746 -0.103690766 -0.29316777 -0.41057277 -0.09014947 -0.056549605 -0.387855 0.09408191
-0.65619856 -0.6151636 0.27944154 0.5355671 0.0045106886 0.00086294353 0.000113397386 -0.001111288
-0.00034144535 -0.0009952183 0.045063082 0.1358834 0.08096403 -0.011707267 0.030059094 0.0039260825
-0.3647879 -0.61843586 0.662596 -0.051337577 0.16397387 0.8978945 -0.39534134 -0.3143363
-0.68699497 -0.6926663 -0.21868598 -1.1740026 0.05683718 -0.007123573 0.069944635 0.01594613
0.0055566323 -0.08014539 -0.058826145 -0.07474562 -0.14801492 0.43391076 -0.45697474 0.08558872
0.32594854 0.05767983 -0.26463228 -0.5937622 -0.018272232 0.03365268 -3.5268917e-05 7.7867924e-05
-4.5472e-06 -5.5932716e-05 -2.0198743e-06 -6.1592895e-05 1.6592826e-06 4.2898438e-07 1.5619545e-07 -1.3796965e-06
-1.5536779e-07 -1.3109669e-06 -0.6654913 -0.160753 0.6090739 0.877699 0.69840676 0.102777004
0.4918859 0.178446 0.57523257 -0.19638446 0.19273667 -0.06693519 0.32371768 -0.002286969
0.43158755 0.6017514 -0.17444277 0.4801956 -0.106973365 0.03815922 -0.07350224 0.05549896

mu.0.bias f4 [200]
00000000: 5637 89bc baad 963e 3039 003f 70de ac3f
00000010: 2114 183f 8bf3 b6be 6b13 1dbf 3465 1bbe
00000020: a22e fa38 b893 f93e 090a f938 fddd 063e
00000030: 54ef a63e d21a 903e cb16 14bf db91 9dbe
00000040: d676 123f ffc7 023e 0413 1b3d 999c b63e
00000050: e683 9d3e f377 cb3d 1b6f 2cbe 149b 9cb6
00000060: 695c 7e3e dc84 0f3c f840 eb38 defd 1d3e
00000070: 2579 dfbe b7b2 67bf e290 c5ba 969a e03d
00000080: 86b6 473e 5bf0 da3e cacb cf3c 9752 1d3f
00000090: 144c 50be f698 c237 c6cb 67b5 ed23 febd
000000a0: bf77 a0be 04f9 893e c420 91ba 956a 06bf
000000b0: 450b 7cba 50cc 283f 25d0 8f3e 2c17 9637
000000c0: 1927 493f 96c3 853a 3236 84bd b979 45bd
000000d0: 8142 e9bd 6193 9db6 7265 10bf db76 b1be
000000e0: 329f 2dbe be34 2cbe 5cb5 d23d e765 023e
000000f0: b076 8b3d 7e75 1238 cb0e 7a3d c5b6 1aba
00000100: 05f7 3e3e cf45 50be c172 54b8 c048 bdbc
00000110: 18fd 5d3e 8dc5 b2be 514d 6abe 67cc 83b9
00000120: f0e2 553b ca90 f23e fa97 80be 7410 a3be
00000130: 3a1f efbe a0e2 87bc 3c7c 4e3f 6173 c33d
00000140: 59e7 01bf 06d6 8e3e c463 5b39 e099 a9be
00000150: 0bff e53d efdf 46bf 6a19 14be ba59 05bf
00000160: 0b1d 13be 2ee9 dd3b 9e36 73be abb8 f3be
00000170: 9261 f13e d692 f13e 2dde cc37 7bb0 bd3d
00000180: 3d18 453d a38a 1ebe 7c2f 773e 1bf3 5738
00000190: 8a00 0d3f 0768 0839 0143 3fbe 892c 333e
000001a0: a558 793e 1d92 c7bb 9684 883e 7c49 a0be
000001b0: 2efd 09bd 3d6f d538 e6cd 38be 3e03 d9be
000001c0: d49f 643d e7e2 9ebe 0ef6 7a35 a9aa cc3e
000001d0: b1ad b13c c923 9cbd 7ef3 2d3f 16cb 36bd
000001e0: d107 62ba 1d04 dc3e 915d 61bb 7069 393f
000001f0: 958e 0bbe a04e 66bf 1f1e ae3e 4d2a 35bf
00000200: a4d8 413d e3a0 52bd d5d5 cf3e b7da d33c
00000210: 96b6 bdbf bd0e 8bbb 39e3 cc36 4225 a53e
00000220: 3a77 bebe c675 be3b 2be7 b1be fa0a 1a3f
00000230: 5cca 8939 2fa3 84bb cc6f 9e3c 7105 80b7
00000240: cf81 0abb 7041 253f cbed b03d 6652 12bf
00000250: 636a 833e 9547 32bc 2e08 cf3e 9b53 03bd
00000260: 80ac 90b8 2077 0d3f a839 59be d30d 9abe
00000270: 5bb4 043f c800 36b7 42ee 52be 132d 8cbe
00000280: c869 433c b302 0b3f cc3c 9a3e fba3 023f
00000290: 4fc6 5d36 2bfe 80be 45ea 3abe 668e 103d
000002a0: fd12 ae3e 5382 53bc 0f0f cd3c dea0 1a3f
000002b0: d140 413d 5f16 b83e addb ae3c 06de e7be
000002c0: 028a ceb8 fe49 66bd 632a dcba 2cf9 3fbf
000002d0: 79a3 8bb9 bba7 d5be 0273 c53e 73c3 2c3d
000002e0: d1b5 6cbe 6055 5a3c 759f 63bf f15c ea38
000002f0: 1e2b 0f3f 8e7e 183e c1ef b6be 8a5b 35bb
00000300: 4ead 223d 583f d53e e396 b5b7 ac7d 4938
00000310: 9df1 53bd b12c e53e 4d19 c03b 0917 c03b
-0.016750019 0.29429418 0.5008726 1.3505383 0.59405714 -0.35732684 -0.61357754 -0.15175325
0.00011929615 0.48745513 0.000118751144 0.1317062 0.32604468 0.28145462 -0.5784728 -0.3077534
0.5721258 0.12771605 0.03785993 0.3566635 0.30764693 0.09934988 -0.16839258 -4.6672158e-06
0.24839939 0.0087597035 0.000112177746 0.15428874 -0.43647113 -0.9050707 -0.0015073086 0.10966985
0.19503221 0.42761502 0.025365729 0.6145415 -0.20341522 2.319783e-05 -8.6350735e-07 -0.12409196
-0.3134136 0.26947796 -0.0011072387 -0.5250638 -0.00096147164 0.65936756 0.2808849 1.7892184e-05
0.78575283 0.0010205384 -0.064556494 -0.048211787 -0.11389638 -4.696122e-06 -0.56404793 -0.34660992
-0.1695526 -0.16816995 0.10288498 0.12734185 0.06809747 3.4918536e-05 0.061049264 -0.00059018686
0.18648918 -0.2033913 -5.065161e-05 -0.023105979 0.21678579 -0.34916344 -0.22881056 -0.0002513856
0.0032636486 0.4737609 -0.2511595 -0.3184849 -0.4670351 -0.016587555 0.80658317 0.09543491
-0.50743634 0.27897662 0.00020922633 -0.3312521 0.11230286 -0.77685446 -0.1446282 -0.52090037
-0.14366548 0.006772182 -0.23751304 -0.47601828 0.47144753 0.4718234 2.4422154e-05 0.092621766
0.04811882 -0.15482573 0.24139208 5.1486404e-05 0.5507895 0.00013008724 -0.18677904 0.17497458
0.24350221 -0.006090416 0.26663655 -0.31306064 -0.033688717 0.00010177351 -0.18047294 -0.42385286
0.055816486 -0.31032488 9.3490314e-07 0.39973953 0.021689268 -0.07624013 0.67949665 -0.04462727
-0.00086223806 0.42971888 -0.0034388045 0.7242651 -0.1362861 -0.8996372 0.34007356 -0.7076767
0.047325745 -0.051422965 0.40592828 0.025861127 -1.4821346 -0.0042437003 6.106126e-06 0.32254988
-0.37200338 0.0058123795 -0.3474668 0.60173 0.00026281446 -0.0040477733 0.019340418 -1.5261323e-05
-0.00211345 0.64552975 0.086391054 -0.5715698 0.25667104 -0.010881324 0.40435928 -0.032062154
-6.898586e-05 0.55259895 -0.212134 -0.30088672 0.518377 -1.0848227e-05 -0.205987 -0.2737814
0.011927076 0.54300994 0.3012451 0.51031464 3.3046997e-06 -0.25193915 -0.18253429 0.03529205
0.33998862 -0.01290949 0.025031595 0.60401714 0.047180954 0.35954568 0.021344984 -0.45286578
-9.8485514e-05 -0.05622291 -0.00167973 -0.7498958 -0.00026633943 -0.4172953 0.38564306 0.042178582
-0.23116232 0.013326019 -0.8891519 0.00011175301 0.55925167 0.14892027 -0.35729793 -0.002767297
0.039716057 0.4164989 -2.1647144e-05 4.8039175e-05 -0.051744092 0.4476066 0.005862391 0.005862121

mu.2.weight f4 [5, 200]
00000000: af76 e2bc be32 98bc 8203 143c 2ebc 09ba
00000010: 928c 7a3c f010 84bc 89d1 2b3c 8c7d e03b
00000020: 71d1 33b8 30ad 943b 6deb 0539 0559 b43c
00000030: 8f5f f13b 6584 243d 5517 00bb 6ff8 c4ba
00000040: 4ba7 1abc 5d56 6f3c 0cd9 cfbb 2ffc 13bc
00000050: 8cc3 1c3b 4ea8 1b3c f0f3 953c a321 e9b6
00000060: 6b01 d8ba d058 f836 3888 a8b7 c39a 6dbc
00000070: c1e4 3dbd 7321 12bb 6708 0038 da4f 0b3d
00000080: 39d2 14bc e24d f13a 3a7c bfb9 f50e ac3b
00000090: 3578 74bb a95d cbb6 3a45 f1b4 aa40 80bc
000000a0: 6bac 353c 7d6e 303b d648 5f3b b868 463c
000000b0: 8cb6 28ba 03e0 cebb a351 b23a 7ad0 f236
000000c0: 9a9e 18bc 3dd7 bcb9 5423 a93c b1cf 353b
000000d0: 1ee7 61bc d21a d1b6 15d8 eb3c f22d f4b9
000000e0: 86c5 f53c 4558 85bc 9132 003d fa05 f2bb
000000f0: 51cc 72bc bf3f 03b7 9d44 b73c 26fa fd39
00000100: 3a61 81bc 5209 473d fa22 5437 1531 263c
00000110: 0276 c73a c071 b1bc 8f3c 84bc 08db 64b9
00000120: d636 2e3b d4fb a6bc e94e 99bb 066d 9a3c
00000130: 29f2 9b3b b10a d7b9 eef3 e7bb 905c dcb8
00000140: 8279 c7bb 07bc 0d3d 5c5e 9939 ab82 19bc
00000150: 86c3 71bb 0044 8e3b 1bfb 15bc 3ac9 9cbb
00000160: fefd ce3b d152 efbb 4e98 323c 5122 603c
00000170: 5e21 5cbb 1ede 683b 4d82 d8b6 990f 7fbc
00000180: 419a e7bb b7be a43b 511f 883c a7f7 84b8
00000190: 683e 383c de61 9bb8 7c7e 92ba f97f ae3c
000001a0: 2cd6 65bc 07c1 6d38 26b2 19bc 7db0 f8bb
000001b0: 091e 9d3b e6d3 ce38 460c c7bc 1b4a 99bc
000001c0: fdd3 4bbb ff26 263c 442e 80b6 fb9c 123c
000001d0: 8fa2 97bc b81b 043c 67e8 d93c 0eab 053d
000001e0: 6033 7136 ba8a 88bb 6147 9638 aa61 5738
000001f0: 8138 aa3b 861b 2ebc 3810 8fbc dc15 833b
00000200: 4c90 243a bfda f23b 3076 0bbc bd79 523b
00000210: 8ae6 37bb 7245 383c 4484 92b7 e546 b4bb
00000220: db71 a43c 48ab 97b8 36b4 24bc af67 eb3b
00000230: 57b2 9d38 9304 e737 b436 bf3a 4324 8936
00000240: bdc5 b538 d263 d73a 6f78 223d fd09 27bc
00000250: 01e4 e63b 519b 6bbb cb84 26bd 553c b5bb
00000260: cfbe d9ba 3bca c1bc 7e51 c53c 3ae7 17bb
00000270: 68f9 e53b f02d 17b4 a842 0abc 90ca debb
00000280: 989c 8fbb ce50 883b 8e92 9d3b 864e 93bc
00000290: 9a2a b4b5 6548 103c 21a3 12bc c462 973c
000002a0: 4a85 9c36 657d 383b d534 b6ba 9905 83bc
000002b0: 1dda 2c3c 409f 8dbc 3a38 f43a 9639 b93b
000002c0: 7342 8937 d771 78bb 4460 8337 92d5 ab3c
000002d0: 1bab a5ba b124 e1bc 7b2d 3c3b 212a e03b
000002e0: 816b 4e3c 7933 eeb9 ee3e bb3b e658 3fb7
000002f0: 8179 083c 048b 0c3d 9cb2 e7bb 8d84 98b9
00000300: 3499 723a 8740 a6bc 1063 44b6 4159 9539
00000310: ee19 1ebb e070 073c 4a97 1c3d 524e 8fb9
00000320: ea53 eebd c3dd 8b3d ed6e 793d 2c55 d73c
00000330: 4d81 663c ba2c 53be 466f 193e a759 513e
00000340: d01e c2ba fb21 803d 2d54 9b39 4c58 133e
00000350: 4dfa 62be f57e 1f3e 5b92 073d f28c 1f3c
00000360: dca7 9fbd d05e 4b3e 28dd 65bc bd92 e2bd
00000370: 6bd5 7a3d babc 853d 0347 173c 4d4a 0c37
00000380: 623b 8a3c a46f 903d 7b57 a7b7 3b3b ce3d
00000390: 3e2a 9b3d 8d1f bebc 734b ddbc bdcc 14be
000003a0: eda7 56be 5127 0a3d 1d0c ddbd 9ec8 413c
000003b0: 63f5 3ebe 6f09 c0b8 f060 ea35 f269 acbe
000003c0: 909b 09bd 10b8 f5bd d4b0 303e c688 e9bd
000003d0: 0871 81ba 474a c2bd e90f 713e 80af bf36
000003e0: 1140 15be bb4c d4ba b4dc 693c 13d5 143e
000003f0: 5178 a5be 9ab9 b037 bb8c 823c 721e 9abd
-0.027644483 -0.018578883 0.009034039 -0.0005254176 0.015292304 -0.016121358 0.010486969 0.006850904
-4.2871983e-05 0.004537247 0.00012771571 0.022015104 0.007366128 0.040165324 -0.0019545157 -0.0015027652
-0.0094393 0.014607993 -0.0063430127 -0.009032293 0.0023920266 0.009500576 0.018304795 -6.947857e-06
-0.0016479915 7.401315e-06 -2.0090592e-05 -0.01450223 -0.046360735 -0.002229777 3.0525403e-05 0.0340117
-0.009083324 0.0018410052 -0.00036522915 0.0052508065 -0.0037303094 -6.060775e-06 -4.4940117e-07 -0.015655834
0.011088471 0.0026921325 0.0034070513 0.012109928 -0.0006435893 -0.0063133254 0.0013604652 7.236432e-06
-0.009315157 -0.0003601852 0.020646729 0.0027742202 -0.013788013 -6.2318077e-06 0.02878956 -0.0004657354
0.030001413 -0.016277442 0.031298224 -0.0073859664 -0.014819221 -7.8230505e-06 0.022371585 0.00048442296
-0.015793432 0.048592873 1.2644328e-05 0.010143538 0.0015217664 -0.021660686 -0.016142158 -0.0002182537
0.0026582978 -0.020383753 -0.0046785963 0.018850815 0.0047590923 -0.0004101596 -0.007078639 -0.000105076586
-0.006087483 0.034603145 0.00029252737 -0.009369533 -0.0036890223 0.0043416023 -0.0091541065 -0.0047847303
0.0063168993 -0.0073035737 0.01090057 0.013680057 -0.0033589224 0.0035532783 -6.4524706e-06 -0.015567684
-0.007067949 0.005027618 0.016616495 -6.340379e-05 0.011245348 -7.409205e-05 -0.0011176611 0.021301256
-0.014028113 5.6684974e-05 -0.009380853 -0.0075893984 0.0047948402 9.8623146e-05 -0.024297845 -0.018712094
-0.0031101697 0.010141133 -3.8200833e-06 0.00894856 -0.018510131 0.008063249 0.026600076 0.032633834
3.5941703e-06 -0.004166928 7.165853e-05 5.135095e-05 0.005194724 -0.010626679 -0.017463788 0.0040004086
0.00062776054 0.0074113305 -0.008512065 0.0032116019 -0.0028060996 0.011247026 -1.7466147e-05 -0.0055016153
0.020073822 -7.232145e-05 -0.010052731 0.007183991 7.519562e-05 2.7539476e-05 0.0014588446 4.0871396e-06
8.667584e-05 0.0016432947 0.039665636 -0.0101952525 0.007046223 -0.003595073 -0.040653985 -0.005530874
-0.0016612652 -0.023656001 0.02408671 -0.0023178593 0.007018257 -1.4079683e-07 -0.008438744 -0.0067990497
-0.004382681 0.0041600233 0.0048087304 -0.017981779 -1.3423444e-06 0.008806323 -0.008950026 0.018479712
4.664679e-06 0.0028150913 -0.0013901243 -0.01599388 0.010550049 -0.01728785 0.001863248 0.0056526167
1.6362615e-05 -0.003790965 1.5661244e-05 0.020975862 -0.0012639494 -0.027483316 0.0028713632 0.0068409597
0.012598873 -0.00045433248 0.005714289 -1.1405185e-05 0.00832975 0.034312263 -0.0070708524 -0.00029090457
0.00092543964 -0.02029444 -2.9263938e-06 0.00028485994 -0.0024124342 0.008266658 0.038230218 -0.0002733344
-0.11637099 0.06829407 0.060896803 0.02628573 0.014068914 -0.2062253 0.14983854 0.20444356
-0.0014810208 0.06256481 0.0002962662 0.14389151 -0.22165795 0.15575774 0.03309856 0.009738194
-0.077956885 0.19860387 -0.014029779 -0.11063144 0.061238687 0.06530137 0.009233239 8.36195e-06
0.016874019 0.07052544 -1.9948688e-05 0.10069891 0.075764164 -0.023208404 -0.027013516 -0.14531226
-0.20962496 0.0337289 -0.10793326 0.011827616 -0.18648295 -9.1570306e-05 1.7462571e-06 -0.3367458
-0.03359562 -0.11997998 0.17254955 -0.114030406 -0.0009875605 -0.094868235 0.23541225 5.7126745e-06
-0.1457522 -0.0016197184 0.014273811 0.14534406 -0.32318357 2.1067262e-05 0.015936246 -0.07525338

mu.2.bias f4 [5]
00000000: 9ff8 8cb9 7ecd a83d 17ef 0e3c 212a f93c
00000010: 8cce db3d
-0.00026888118 0.082423195 0.008723996 0.030415596 0.10732755

reward_fun.0.weight f4 [200, 6]
00000000: d115 4c3e 56ac 97be 375e 9a3f 8cec 18bf
00000010: 006d dabe 0b10 92bc 0248 06bf faa1 2dbe
00000020: 0bd8 21bf efcb c63b d7c4 e63d d2f2 45bd
00000030: b50e 613c 806b f03d 2b8c c9be c5b9 ef3d
00000040: ba61 763d 4be9 9cbe 0a04 b4be b950 943e
00000050: 7ff7 6ebf 1830 0bbe 10a3 33bd 9613 d83e
00000060: 4284 a73e 30b9 7a3d cffe 11bf da18 b53e
00000070: a05a a5bc 6e43 843d b20f 263e 9e1b fb3d
00000080: ab48 b0be be63 873e 8c24 26be c6fb 1fbf
00000090: 7d1a 013e 53a4 313d b744 b33f abdf ec3e
000000a0: 10e7 bd3e 693c 01be de93 39bf 3c8f 0dbf
000000b0: c998 263f 4ee4 75be 0139 5abe 1783 f3bd
000000c0: 890c 98bf 014c d0be e5ee abbd 95d7 55be
000000d0: 09b6 aa3e 1e5b b1be a8a2 44be 5d29 8e3e
000000e0: 72fa f8be 57dc 823d bec0 353d 314d ab3d
000000f0: 8372 a5bd 8c76 0b3f 7b69 a63f b9c4 abbe
00000100: 1385 ddbe cf0f 1b3c f7ed 6ebf 706a a4be
00000110: 8348 873e 24ff 56bf 4adf 813d 6c36 073e
00000120: 3bf2 af3d 5853 1f3c 78a3 25bf c5c2 393e
00000130: b02e 22bc 3037 48be 3058 ca3f 303b bfbe
00000140: b47e 44bf d3a1 0f3f a567 a43d a116 aa3e
00000150: 4bb6 4b3e 477e c1be c00f a03e 6680 333e
00000160: f21f 253e c267 f03d 2008 e43c 3e80 333e
00000170: 8ecb 91be a9ad 593e dd8c 9abe c3a7 18bd
00000180: b17d 17bf 4f5a a33d 50b5 2dbf 66eb a2bc
00000190: c366 b73d 7fec a83e c68b cf3e 7763 193f
000001a0: f020 72bf 3c5b 393d 4674 05be 38a6 f33e
000001b0: c059 04be b624 02bc 2426 4fbf e4ea adbd
000001c0: 2a90 263d 61fe 803d 8ad5 173f 3f5e 563f
000001d0: b2ed f53e 6c1d 24be 5e9b fabd 3212 c93c
000001e0: 05b3 153c 9648 5f3e e9b4 69be 053a 1bbe
000001f0: db0c 2bbd c23c 2bbe d61d 4f3e 6fde b83e
00000200: 16c7 dc3f 6c91 8b3f fb72 c93d 54f1 773d
00000210: 775a de3e ef49 153e 2829 ebbd ba94 9d3d
00000220: e0f1 31be a476 1c3e 9eb9 92be e9b7 593f
00000230: 834b 913e 499d 873e 40c5 ae3e 06d6 b83e
00000240: 191b 663e fa37 0c3d 62e1 76be 23ea e63d
00000250: 84e0 bab8 ac2f 08be ad04 ee3e 14cf 35bf
00000260: 394f ad3f fe0f 543f 545b 733e 296e 0fbf
00000270: d18c b73e 3d0f cdbe f9d6 56be 146f b4bc
00000280: cc98 5d3d 89bb 55bf 22c5 87bf c62e 96be
00000290: f85c 7abd 130a 7fbe 0338 0f3e 179d 40bf
000002a0: fe47 57be 015a 79be 27fe d73f 2243 30bf
000002b0: be0c a2be 0f8f a43e b69c febd cb68 1fbf
000002c0: 6563 4d3f 9814 e3be 0ee2 a7be a54e 143c
000002d0: a46d b1be 3455 02bf bf20 5d3f d2d2 9d3e
000002e0: 92d5 8d3c 8601 e43e d530 933e 3059 023e
000002f0: 7fc5 23bf cdc1 d83e 7008 9b3c 67e6 6fbe
00000300: ef5c dd3d 6b61 2ebd 4cc0 6bbf b102 17bd
00000310: a2d5 c33d 3dde 05be 3f02 81be f4d7 e43e
00000320: 1065 59bd 8772 61be 39dd 8e3d cf80 a5be
00000330: 2e9f a7be 7259 ba3c 4496 d2be e730 c7be
00000340: c713 48bb 042a 8b3e ae92 48bd 1d3a 27bd
00000350: 9ab5 2cbf c3ad 97bc 21ac 173d 5cb4 793c
00000360: 0c9b 813d df6c 933c 5f8e 11bf 6d52 c3bd
00000370: 40e6 df3b 1ac3 c03d 6c30 5f3e 6ce2 50be
00000380: c43b fcbe 4579 373d 8fb6 133d 0e3f 28be
00000390: a277 353d f1eb 0d3f a2c4 603f e996 acbe
000003a0: 12cc 0a3e 6b5f 87bd 2931 d13c 61db fb3e
000003b0: c9a9 843d a80c 703e d14d 68be 1878 fb3d
000003c0: 40c8 be3e e6af 8b3f 5b1b 693e ffe0 413e
000003d0: 7ff0 aebe 8a6b b33d 69e4 343f 5e70 35bd
000003e0: f7ff b93f 8415 563d f4a7 f03e 2c85 bf3e
000003f0: baf2 273e baad 63be 61f5 bebe 96c8 ef3d
0.19930197 -0.2962367 1.2060002 -0.5973594 -0.42661285 -0.017829916 -0.52453625 -0.1695632
-0.6322028 0.0060667912 0.11268013 -0.048327275 0.013736417 0.11739254 -0.39364752 0.117053546
0.060151793 -0.30646738 -0.35159332 0.28967836 -0.933464 -0.13592565 -0.04385668 0.42202443
0.32718092 0.061211765 -0.5702943 0.35370523 -0.020184815 0.06458174 0.16216925 0.12261127
-0.3443044 0.26443285 -0.16224879 -0.6249355 0.1260776 0.043369602 1.4005345 0.46264395
0.3709035 -0.12620701 -0.7249125 -0.55296683 0.6507688 -0.24012873 -0.21310808 -0.11890238
-1.1878825 -0.40682986 -0.08395175 -0.2088302 0.33342007 -0.3463983 -0.19202673 0.27765933
-0.48628575 0.06389683 0.044373266 0.083643325 -0.08078482 0.54477763 1.300094 -0.33548525
-0.4326559 0.009464218 -0.93331856 -0.32112455 0.2642251 -0.83983064 0.06341417 0.13204354
0.08591124 0.009724461 -0.6470256 0.18140705 -0.0098988265 -0.19552302 1.5808163 -0.37349844
-0.76755834 0.561063 0.08027581 0.3322039 0.19893758 -0.37791654 0.31262016 0.17529449
0.16125467 0.1173854 0.027835906 0.1752939 -0.28475612 0.21257652 -0.30185595 -0.037269365
-0.59176165 0.07976209 -0.67854786 -0.019887637 0.08955147 0.32992932 0.40536326 0.59917396
-0.9458151 0.045253024 -0.13032636 0.47587752 -0.12924862 -0.007943323 -0.8091757 -0.084920675
0.04066483 0.06298519 0.5931021 0.8373756 0.4803291 -0.16026849 -0.12236665 0.024544809
0.00913692 0.21805033 -0.22822918 -0.15158851 -0.041760307 -0.16722396 0.20226225 0.36107203
1.7248256 1.0903754 0.09836384 0.060532883 0.43428394 0.14578985 -0.11482459 0.07694383
-0.17377424 0.15279633 -0.2865724 0.8504625 0.28377923 0.26487187 0.34134865 0.36100787
0.22471274 0.03423307 -0.24109414 0.11275127 -8.9109904e-05 -0.13299435 0.46487942 -0.710191
1.3539802 0.828369 0.23765308 -0.56027466 0.35849622 -0.40050688 -0.20980443 -0.022025622
0.054100797 -0.8348928 -1.0607035 -0.2933256 -0.06112382 -0.24906187 0.1398621 -0.752397
-0.21023557 -0.2435074 1.6874436 -0.68852437 -0.31650347 0.32140395 -0.12432234 -0.62269276
0.8022979 -0.4435165 -0.32789654 0.009051953 -0.34653962 -0.5091126 0.8637809 0.30824906
0.017313752 0.44532412 0.28748193 0.12729335 -0.6397323 0.42335358 0.018924922 -0.23427735
0.10808741 -0.042573374 -0.92090297 -0.0368678 0.095622316 -0.13073058 -0.25197026 0.4469601
-0.053074896 -0.22016345 0.069757886 -0.32324836 -0.32738632 0.022747729 -0.4113027 -0.38904497
-0.0030529366 0.27180493 -0.04896801 -0.040826906 -0.674646 -0.018515473 0.03702939 0.015240755
0.06328401 0.01799625 -0.56857866 -0.09537206 0.006832868 0.09412213 0.21795815 -0.20398873
-0.49264348 0.044793386 0.036062773 -0.16430303 0.044303544 0.55438143 0.8780004 -0.33708885
0.13554409 -0.066099964 0.025536137 0.4919081 0.064776964 0.23442328 -0.22685935 0.122787654
0.37262154 1.0913055 0.22764342 0.18933485 -0.3416786 0.08760746 0.70661026 -0.044296615
1.4531239 0.052266613 0.47003138 0.3740629 0.16401187 -0.2223424 -0.37296584 0.117081806

reward_fun.0.bias f4 [200]
00000000: e227 bfbf 7199 e93d 570c b2be 275e b8bc
00000010: d66d 0abf cff6 cebe 5d27 17bf c620 abbd
00000020: 54f6 9fbd 62c3 c4be 06f6 91bf fe9b 01bf
00000030: bd83 ea3e 057e 21bf 3120 05bf c8d9 fabd
00000040: 2755 80bc 723d c8be bfaf b63d 5136 06bf
00000050: e875 50be dd82 aabe 85e6 8dbe 3eb2 4fbf
00000060: 0cd0 3fbe a7c8 cf3d 8813 76bf b4d4 e0be
00000070: 0a36 ddbf 921e a3bf 9097 83bf 6965 3fbd
00000080: 7990 473f e779 5bbf 4b80 09bf 3207 9f3e
00000090: a895 283e 58a9 a23e 4e8d 26bf b159 67bf
000000a0: da6c 6ebf d9b2 81bf 9c7f f8be 0290 a0bf
000000b0: 6d44 023f d686 67be 905a eabe 6fcb 1abf
000000c0: a5af 49bf 7943 64bc 4fad 043e 284f 16bf
000000d0: 8347 bb3e 9630 b9bd e3b0 863d 4a89 81bd
000000e0: dbf9 14bf 224f 833d bcc4 263f 9e1b d4be
000000f0: feb4 febe 2fc0 95bf 81cf a4bd 75f2 1f3e
00000100: 64c6 3dbe ceec 87be c01f 94be 936d 033e
00000110: b107 663e 9314 c13e 9b45 21bf df80 69bf
00000120: 61f0 d3be 7ab8 7a3f 4e07 5cbf c3b3 d23d
00000130: 6d95 56bf ce6f 2bbf ccdd 9abe c7c9 92bf
00000140: 60d7 4cbf aec8 cdbf 856d 25be 79b0 da3e
00000150: b890 72bf 64c0 903e 9f1a 62be 9bab 02bf
00000160: daca bfbe 94f3 b1bb dee8 9a3d b58b 31bf
00000170: 307c debe 969f 15be d491 48be 8a0b 75be
00000180: d9f0 28bf 0e7c e0bd dab5 15bd 590b fabe
00000190: e555 793c be88 66bf 954b 8cbe f7c1 23bf
000001a0: a001 c9be 2364 53bf f82c 98bf 0f50 3b3e
000001b0: e47c 90be 5b51 31be b85d 5cbf 2335 abbe
000001c0: dc68 2abf 5a36 70bf 3b2b 373f 25e4 d4bf
000001d0: 37aa 693c f59f 213f 219b f73e d4b6 ad3e
000001e0: 59ce 063f f6ea 41bf 2795 a4bf 18ce 38bf
000001f0: 31fb b2be 5ed7 2ebf 2fda 763e efc6 3b3e
00000200: c0e9 a6be 5e36 f03e ed77 debe a041 7b3d
00000210: f80c 68bf 20b4 2abf ab4f b33e 61c9 60bf
00000220: 432a e53c 080a 993e 1561 be3e 7b00 b23e
00000230: f1af 90bf 3007 453f 0a70 90bf d04a d6be
00000240: 3905 843e 880b b4bf ae08 0abe 6ea7 1cbf
00000250: 73cb a9bf 7ce7 853d 9bb6 cf3e 0c7b 4ebe
00000260: 853d 81be 3a23 93bf 172b a0bf 1a36 253e
00000270: 02ff dfbe 882a 08bf 8f5c afbe c5e0 d83e
00000280: f031 c53d bf36 36bf f656 38bf ea2b 6fbf
00000290: 7a42 46bf adce 32bf cd84 c4be 7d63 bebf
000002a0: f8b6 28be ff76 02bf 8532 5dbd 72e2 9fbf
000002b0: 3d80 a73d 3965 5e3f aca6 a9bf 9a80 333f
000002c0: dddb 66bf ab27 c53e 10a3 b73d 143c 983e
000002d0: b807 01bc 90fb a63e f4c1 ac3e afd3 963d
000002e0: 96c1 43bf 45ca 52bf bde9 08bf b0eb b93e
000002f0: 8421 803c b1b5 4ebe 04f1 e0bf 7f07 1bbf
00000300: 7363 793d c370 36bf 10cf 233e 9445 c13e
00000310: 8503 62bf b957 35bf 696b f2be 13c3 81be
-1.4934046 0.1140622 -0.3477504 -0.022505833 -0.54073846 -0.40422675 -0.5904444 -0.083558604
-0.07810655 -0.38430315 -1.1403205 -0.5062865 0.45803633 -0.63082916 -0.52002245 -0.1224857
-0.015665604 -0.3910938 0.0892024 -0.5242663 -0.20357478 -0.33302966 -0.27714935 -0.8113135
-0.18731707 0.10145693 -0.9612355 -0.4391228 -1.7282116 -1.2743704 -1.0280628 -0.04672757
0.7795482 -0.85732883 -0.53711385 0.31060177 0.1646334 0.31769824 -0.65059364 -0.90371233
-0.93134844 -1.0132705 -0.48534858 -1.2543948 0.5088566 -0.2261003 -0.4577222 -0.60466665
-0.7878364 -0.013932102 0.12956737 -0.5871453 0.36577997 -0.0904247 0.06576707 -0.06325014
-0.5819375 0.06411578 0.6514394 -0.4142732 -0.4974746 -1.1699275 -0.08047391 0.15619834
-0.18532711 -0.26547855 -0.28930473 0.12834768 0.22463872 0.3771101 -0.62996835 -0.91212267
-0.41394332 0.9793774 -0.85948646 0.10288193 -0.83821756 -0.66967475 -0.30247343 -1.1467828
-0.80016136 -1.6076868 -0.1615506 0.42712763 -0.94752073 0.28271782 -0.22080468 -0.510431
-0.3745945 -0.005430648 0.07563947 -0.693538 -0.43454123 -0.14611658 -0.19586879 -0.23930183
-0.65992504 -0.109611616 -0.03655038 -0.48836783 0.015218233 -0.900524 -0.27401415 -0.6396784
-0.39259052 -0.8257467 -1.1888723 0.18292259 -0.28220284 -0.17316191 -0.86080503 -0.33438978
-0.6656625 -0.93832934 0.7155034 -1.6632124 0.014261774 0.631347 0.4836054 0.3392855
0.5265861 -0.75749147 -1.2858018 -0.72189474 -0.3495727 -0.68297374 0.24106668 0.18337606
-0.32600212 0.4691648 -0.4345087 0.06134188 -0.9064479 -0.666811 0.3502172 -0.8780728
0.027974254 0.29890466 0.37183443 0.34765992 -1.1303693 0.7696409 -1.1284192 -0.41853952
0.25785235 -1.4066019 -0.13479874 -0.6119298 -1.3265213 0.06538293 0.40569004 -0.20164126
-0.25242248 -1.1495125 -1.251315 0.1613392 -0.43749243 -0.531899 -0.34250304 0.42358986
0.096286654 -0.71177286 -0.7200769 -0.9342638 -0.77445185 -0.6984661 -0.3838257 -1.4874111
-0.16476047 -0.50962824 -0.054003257 -1.2490981 0.081787564 0.86873204 -1.3253989 0.70118105
-0.90179235 0.38506827 0.089666486 0.29733336 -0.007875375 0.32613802 0.33741724 0.07364594
-0.76467264 -0.8233989 -0.53481656 0.36312628 0.015640981 -0.20186497 -1.7573552 -0.60558313
0.060885858 -0.7126581 0.15996957 0.37748396 -0.8828662 -0.7083698 -0.47347572 -0.25344142

reward_fun.2.weight f4 [200, 200]
00000000: b397 293d 5e05 afbe 6b69 803e 959e 72be
00000010: 2069 a43e 087e 9ebc 656e 293f dfa8 04c0
00000020: 9fcf 9cbd 44af 023f 0a5b 1ebe cbca 293d
00000030: 53b7 26be 507f 263f 3b93 df3d cb33 9bbe
00000040: cae7 59be 7445 15b9 1d17 d3bd fcb2 783e
00000050: a59b f33d 46b5 a1bd c06b 9a3e b75c cdbd
00000060: 0467 58be 30ac e73e 9488 a33d c1a4 2c3e
00000070: 0e6a 9cbf 7aee 3fbf d03e ea3d 1cb3 0f3d
00000080: 5c7c 9abc f11d 123f 6215 81be d7fb 31be
00000090: 73e9 cdbd 2537 a8be f554 533d 42c3 39be
000000a0: b255 b1be f5b0 2a3f 33db dfbd 5f74 243e
000000b0: 6795 afbe 0732 6dbd c385 213d 0852 5abf
000000c0: 7b61 e23e 6ed4 acbe b89d c73e 6e2f e7be
000000d0: 3b78 1cbd 6bb2 243e 2de1 a0be 9817 56bd
000000e0: 9b84 a8be 1e05 b1bd 0f7e cfbd cc84 65be
000000f0: 8e3a 723e 4719 debe c8bf 443e 9cab 9cbe
00000100: f802 04bf 96f0 45bd 63a4 083e a48f 73bd
00000110: 07c0 e93e 816c c03e 8b7e c6be b0fe dabf
00000120: 4949 34bf 06b8 90be b14a 903e 6db4 103e
00000130: 1745 8abf 648a 59be 5360 b8be 15cd 4cbf
00000140: 32bd ca3d 4f38 89be 17a0 1bbe 5d75 a13e
00000150: 566c fb3d a182 853b 57a5 80bf a36c 0f3e
00000160: 943a 1ebf 60c2 223f fea9 3dbe e5a0 5a3f
00000170: 91ad bd3d f2f9 b1bd 3969 27bc e995 72bf
00000180: 1a35 9d3e 1431 043f 1fb1 db3c 3e53 213f
00000190: 9f9f dfbd e659 dbbe b394 bfba 8e20 2ebf
000001a0: 0dbd fabe a3d8 5a3f 089f 7dbf 813a 34be
000001b0: 20b8 3d3f 99d7 d33e 14f1 7ebe 2888 c63e
000001c0: 121d 87bc 6ba5 dd3e 664b 783d 6ea5 9fbf
000001d0: 2d54 5cbe 0406 09be 91ac b9bd e998 84be
000001e0: 632a 943e e97a ecbe 7f94 0cbf 08a9 82bb
000001f0: 1f49 1abc 75a8 96be d231 91bd d78a 74be
00000200: 7c97 c6bd 2bd7 053e 783e 043f 0896 94be
00000210: 9ddf 8c3d 2551 02bd f3f5 8cbf 81a8 083e
00000220: e98d eabd b3b3 5ebe ef7d e3bb 99e5 07bf
00000230: 967f 903e 5fbb 3abb 93cd e53e 3fd1 53be
00000240: 9fe3 48be aa96 07c0 8818 48bf aae8 d53b
00000250: e92a fe3e 2297 fabe eeed 9d3e a8f1 abbe
00000260: 7ed5 213d 3515 29be c43f 973e 99e8 70be
00000270: 5ab8 48be 01c1 413e a3ea 11be 8277 ffbe
00000280: b3ef e5bb 7a77 47bf e306 77bf f55f 5dbe
00000290: c937 9abe f7b1 cb3d 819b a83e 0f5b c9be
000002a0: 92c8 0abe 8601 223f daad 93be bc7f b3be
000002b0: a6d2 71bd 721d 833b e6fc 0abf 2a84 98be
000002c0: 9a51 4ebd 8e03 c8bc edab 47be baa0 373d
000002d0: 485d c9bd d360 afbe 597f e8bc 8a87 98be
000002e0: 147d de3b 12f6 1f3e df79 b63d adba cabe
000002f0: cb31 62bf 349e 983e 7dd2 a4bf e904 f63d
00000300: 46c8 2b3f 2147 52bf 21b8 f3bd 60d2 b2bf
00000310: 031a 23bf 9f88 d9bc e47c a03e 167b 5cbe
00000320: 0b9a 903d 7c79 ddbc a84e 91bb 5122 8bbd
00000330: 21da cfbd 9c8a 25bc d8fa 92bd 98e1 4e3c
00000340: 9673 903c 5788 b83c 930a 77bd bd9e 22bc
00000350: 9db9 1d3c 95be babd ed5e d9bd 861c a23c
00000360: 3c5a 253d ca51 e7bc 67ef 783c 7783 063d
00000370: ce83 51bd ce6d 893d b3a0 cdbd bdab a0ba
00000380: bddf 2d3c 43e4 87bd 476f 863c b374 163d
00000390: 12e9 66bc 24f4 c83b 070c bc3c 6fa2 2cbd
000003a0: 0306 42bc 6c2c 88bd a2c5 dbbc b76a 57bd
000003b0: 9527 8c3b a9d5 a8bd 647a 04bd 46b5 843d
000003c0: 18de c13c cc2c 863d bbf7 87bd 0bc9 33bd
000003d0: fc10 bbbb 7363 01ba 41e7 06bd b731 543c
000003e0: 0ac2 973c 4266 c23c b575 27bd af2f 8abd
000003f0: 7455 95bd 50c7 85bd cd4c 0ebd 71af e4bb
0.041404437 -0.34183782 0.25080428 -0.23693307 0.32111454 -0.019347206 0.66184074 -2.072807
-0.07656788 0.51048684 -0.15464416 0.041453164 -0.1628087 0.65038013 0.10916754 -0.30312952
-0.21279827 -0.0001423562 -0.10307143 0.24287027 0.11894921 -0.07895903 0.30160332 -0.100274496
-0.21133047 0.45248556 0.079850346 0.16859724 -1.2219865 -0.7497326 0.11437762 0.03508292
-0.018858127 0.57076937 -0.25211626 -0.17381226 -0.100542925 -0.32854572 0.051594693 -0.18140891
-0.34635693 0.66676265 -0.10930481 0.16060017 -0.34293672 -0.057909038 0.039434206 -0.8528142
0.44214997 -0.3375582 0.38987517 -0.45153373 -0.0382006 0.16083686 -0.31421795 -0.052268595
-0.3291367 -0.08643554 -0.10131466 -0.22413939 0.2365515 -0.4337866 0.19213784 -0.30599678
-0.5156703 -0.048325144 0.13343959 -0.05946316 0.45654318 0.37582782 -0.3876842 -1.7108974
-0.70424324 -0.282654 0.28181985 0.14131327 -1.0802335 -0.21244198 -0.3601099 -0.8000043
0.098993674 -0.26800773 -0.15197788 0.31534854 0.12276523 0.00407441 -1.0050458 0.14006285
-0.61808133 0.6357784 -0.18521878 0.85401756 0.09261621 -0.086902514 -0.010217958 -0.94759995
0.30704576 0.5163739 0.026817856 0.6301764 -0.10919117 -0.42842025 -0.0014616459 -0.68018425
-0.4897236 0.8548681 -0.9907079 -0.17600442 0.7410908 0.41375425 -0.24896652 0.38775754
-0.016493354 0.43290266 0.06061878 -1.247236 -0.21516486 -0.13381201 -0.090661176 -0.2589791
0.28938589 -0.46187523 -0.5491409 -0.0039874353 -0.0094168475 -0.29425398 -0.070895806 -0.23881088
-0.09696862 0.13070361 0.5165782 -0.29020715 0.06878588 -0.031815667 -1.1012558 0.13345529
-0.114528485 -0.21748237 -0.0069425027 -0.53084713 0.2822234 -0.002849303 0.44883403 -0.2068529
-0.1961808 -2.1185708 -0.7816243 0.00652798 0.49642113 -0.4894343 0.30845588 -0.33582807
0.039510243 -0.16511996 0.29540837 -0.23526229 -0.19601575 0.18921281 -0.14249663 -0.49895865
-0.0070170998 -0.7791668 -0.96494883 -0.21618636 -0.30120686 0.099460535 0.3293114 -0.39327285
-0.13553074 0.63283575 -0.28843576 -0.3505839 -0.05903878 0.004001313 -0.5429214 -0.29788333
-0.05037079 -0.024415758 -0.19499178 0.044831015 -0.09832245 -0.3425356 -0.028381037 -0.29790908
0.006789813 0.15621212 0.08909964 -0.39595547 -0.8835723 0.298082 -1.2876736 0.12012655
0.6710247 -0.82139784 -0.11900354 -1.3970451 -0.63711566 -0.026554404 0.31345284 -0.21531329
0.07060631 -0.027035467 -0.0044344254 -0.06793655 -0.10149027 -0.010103848 -0.07176751 0.012627028
0.01763324 0.02252595 -0.06031282 -0.0099255415 0.009626773 -0.09118382 -0.10613809 0.019788992
0.040369257 -0.028237242 0.015193797 0.03284022 -0.05115109 0.06710397 -0.100404166 -0.0012258213
0.010612425 -0.06635334 0.016410483 0.036732387 -0.014093654 0.0061326195 0.022954954 -0.042147096
-0.011842254 -0.06649098 -0.026827637 -0.052592006 0.0042771795 -0.082438774 -0.032343283 0.06479888
0.023665473 0.06551513 -0.06639048 -0.0438929 -0.005708812 -0.00049357786 -0.032935385 0.012951306
0.018525142 0.023730401 -0.04088374 -0.06747376 -0.072916895 -0.065321565 -0.03474121 -0.006978922

reward_fun.2.bias f4 [200]
00000000: 26e2 493d 87ec 19bd 7624 7d3e e957 423e
00000010: cec1 053e f1bb 9dbd 473e dbbc 6888 a73d
00000020: e2f1 7abd a289 1d3d 500c 8f3e 285c 68bc
00000030: 8f2f 66bd d541 8c3d 60d9 eabd 7f3e 483e
00000040: c462 4cbd 33e1 083e fd0f 803e bb16 92bd
00000050: ee03 1d3e a771 493c 2c79 913e 6e28 07be
00000060: e11b 4abd 6c47 35be 9996 56bd 45ea e43e
00000070: c2de 5fbd 2c1a 033d 19ed a2bd eef0 d5bd
00000080: 5d0f 8c3d e4c5 47bd baee 193f 0266 b53c
00000090: 3c41 e9bc 4ad8 b9bb 0aa0 dfbd f86b 283e
000000a0: a79a 07bd a567 59be 5d44 d0bc 7369 d8bd
000000b0: c917 0bbd 8dd3 d03e b025 bc3e d5e5 1b3e
000000c0: 0f0f 6f3e 30bc 19bd 1fac b0bc e80e 4abc
000000d0: 2a3c f13c d3dc 87bc a32a 193e 75ae bf3c
000000e0: 8fdf a33e 0ae7 81bd ab4e b53e 5c3b 373e
000000f0: ea0f 74bd 1f19 063d 8a1f 393e 2d97 c1bd
00000100: 9df8 abbd 1211 053d b86a fd3e 2588 2f3d
00000110: 076b 41bd 841d 193e a5d7 05be 03c1 0f3e
00000120: ca69 d83e 848a c23d a15f 863e 1177 373e
00000130: a928 073e 2fa8 283d 2e8d 67bd 5b30 f63d
00000140: 1801 b23e 5e0f f1bc dfc2 46bd 9619 36be
00000150: 6907 ee3d ac95 1f3c d092 c63d d2bb 0b3e
00000160: 917a 8cbd 308f 923c 1d70 22bd a327 5c3c
00000170: f77a dd3e 78e0 66be 7b08 003d 6d6e 96bd
00000180: 2e8e d0bc ea9b 9dbd 235c f6bc 15c8 a13c
00000190: 5dcf 22be ae3a 683e 46c4 8b3c 4292 dabd
000001a0: 510b cbbc a318 a7bd a0dc 82bd 953b b9bc
000001b0: 05cb 85be 9a38 12bd 238d 4abd 5f96 a7bd
000001c0: 82ba a8bd 4cff 0ebd a378 423e d558 a0bb
000001d0: 152f d93d cc23 523e 6d98 453c 0b36 c1bd
000001e0: 35db 193e 5ab0 7abe de37 9a3e b49c a63e
000001f0: 8d39 6d3d e2d0 7a3e 2b8b 843d 0d15 603e
00000200: aa1b 09be 3cf4 9fbd 02ad acbd 02fc 993e
00000210: 5e99 05bd 289b 343e 7634 4cbd 7b35 263f
00000220: 5335 d0bc ebe5 8abe b6b7 853e 0a49 ab3c
00000230: cdea 133e 8b2c c9bc 4348 0cbd bf9d a7bd
00000240: 74c5 b73d 0e38 6bbb 2da5 0a3d 04ae cfbc
00000250: 570c 663d 66f2 273d 22aa 47be 7399 c13c
00000260: 138d 233e fef1 023f 0ff3 8f3e 6f72 4a3e
00000270: e95a db3e 4023 93bc 2d67 85bd f130 46bc
00000280: da60 6ebc 7397 993e e479 8b3e 6ba0 37be
00000290: 7190 b33d 0ffc ca3c 50eb c7bd 2a89 a63c
000002a0: c8c9 7d3e 5583 cb3e ac38 ce3c 22b3 7abe
000002b0: 741e d2bd c717 1ebd 91bb b3bc 2569 7d3d
000002c0: 8d37 9ebe 44c6 ff3b 72db 3d3e c299 533e
000002d0: 7282 15bd 5cbe a2bb fe82 21be 8872 383e
000002e0: a469 aebd ac36 a1bb f2bc 32bd 31d6 e83d
000002f0: e8f6 34bd 1900 cdbd 9d2f 033e 4028 b0bd
00000300: f790 0a3e 3d1f a03e 63d5 803e ec04 b63d
00000310: b0d1 683d bf5a 063b 9fe9 163d d372 683c
0.049287938 -0.037579086 0.2472094 0.18978848 0.13062212 -0.077018626 -0.026763095 0.08180314
-0.061265834 0.038461335 0.2793908 -0.014182128 -0.0561977 0.06848494 -0.11467242 0.1955509
-0.049898878 0.13367157 0.25012198 -0.07133242 0.1533353 0.012295163 0.2841276 -0.13199016
-0.049342994 -0.17703027 -0.052389715 0.44709983 -0.054655798 0.03200738 -0.07955379 -0.10446344
0.06838868 -0.048772708 0.6012989 0.022143368 -0.028473489 -0.0056715356 -0.10919197 0.16447437
-0.033106472 -0.21230944 -0.025423223 -0.10566988 -0.03395823 0.407864 0.36747503 0.15224393
0.23345588 -0.037532985 -0.021566449 -0.0123326555 0.029447634 -0.01658479 0.14957671 0.023398617
0.320065 -0.06342895 0.3541158 0.17893738 -0.05958549 0.0327388 0.18078437 -0.094526626
-0.083970286 0.032486983 0.49495482 0.042854447 -0.04722121 0.14952666 -0.13070543 0.14038472
0.4226821 0.09499076 0.26244834 0.17916514 0.13199104 0.041176017 -0.056531124 0.12020942
0.3476646 -0.029426273 -0.048525687 -0.17783198 0.11622507 0.009740274 0.09695971 0.13645867
-0.06859315 0.017890543 -0.0396577 0.0134371845 0.43257877 -0.22546566 0.031258088 -0.07345281
-0.025458422 -0.07695754 -0.030073231 0.019748727 -0.15899415 0.22678635 0.017061364 -0.10672428
-0.02478567 -0.08158996 -0.06389737 -0.022611419 -0.26131454 -0.03569851 -0.049451005 -0.08182978
-0.082386985 -0.03491144 0.18991332 -0.004893402 0.10604683 0.20521468 0.012060267 -0.09434136
0.15025027 -0.24481335 0.30120748 0.3254143 0.057916213 0.24493745 0.06471857 0.2188303
-0.13389459 -0.07810256 -0.08431436 0.3007508 -0.032616965 0.17637312 -0.04985472 0.64925355
-0.025416052 -0.27128538 0.26116723 0.020908851 0.14445038 -0.024557373 -0.0342486 -0.081843846
0.08973208 -0.0035891565 0.03384893 -0.025351532 0.056164112 0.041002654 -0.19498494 0.02363274
0.15971784 0.511505 0.28115126 0.19770215 0.42842796 -0.017961144 -0.0651382 -0.0120966295
-0.014549458 0.2999836 0.27241433 -0.17932288 0.087677844 0.024778394 -0.09761679 0.020329077
0.24784005 0.39748636 0.025173508 -0.24482396 -0.10259715 -0.038596895 -0.021940025 0.06186785
-0.30901757 0.0078056175 0.18540743 0.20664123 -0.036501355 -0.0049665403 -0.15772626 0.1801244
-0.08516243 -0.0049198475 -0.043637224 0.11368979 -0.04418078 -0.10009784 0.12811132 -0.08601427
0.13531862 0.31273833 0.251628 0.088876575 0.0568406 0.0020500866 0.036843892 0.0141875325

reward_fun.4.weight f4 [1, 200]
00000000: 7417 b63d 637f d7bc 284d 5cbd 42be b9bc
00000010: 0e96 96bc 384c 8f3c cc79 493d e105 0b3d
00000020: a04c 513d 5347 f33b 507d 4c3e e73d 9abd
00000030: 9082 6c3d dd31 5dbd 2664 f33b d0bc 9e3d
00000040: eb8e d6bb f254 183d d127 23bd bace 2e3c
00000050: dce9 06bd 068e 0b3c b1ae cebd 233a 49bc
00000060: b8f4 4c3c f546 a13d 4516 ba3b 2e7e 46bd
00000070: 398f d13c 9849 0b3c 3f1b a23d 8f4b 943c
00000080: 518d dc3c f32b 823d de4b 23be bd98 d23c
00000090: 0df2 53bb c206 8b3c 3d73 3cbb 577e 63bc
000000a0: 8350 a9bc a55c 9d3d 5d27 06be ff4e 2fba
000000b0: 3303 333c 9198 9fbd 68c7 f4bd e208 b6bc
000000c0: 8597 a3bc c29f 1a3d 2350 b93d 5d85 263d
000000d0: 61aa a1bd 7383 75bc 10db e13b 015a 9fbb
000000e0: a8a5 88bd 8194 90bb 3a71 1abe a2bc 0e3c
000000f0: c158 8a3c 7403 383d 0036 683e d30c e03c
00000100: a167 82bc 76cd a23c 2c42 a6bc 58e4 c0bd
00000110: 3ee0 6ebc 3e54 633d 9820 93bd 6b56 ebbc
00000120: e8f8 9bbd de9b 72bc 6090 943b f3d0 f83c
00000130: ef1f c0bb 4e11 2cbb a0be 03bc 8d36 da3c
00000140: ef13 a9bd 6e63 313d 817e 223d 57b6 20bd
00000150: 54dd 2bbc 66f5 ac3c 6dc7 d7bc 62a3 543c
00000160: 9f1c 463d fdf1 043c 94d9 b3bc 7327 2a3d
00000170: a5ab a6bc 8945 b3bc a1dd f5ba e309 7cbc
00000180: 52ab ba3c a9d3 923d d38f 4abc 234a f33c
00000190: 86da c1bc 321a 2cbd 6c2c 3ebd 0211 0bbc
000001a0: d3f1 b63c b4e1 88bd 641d 4c3c 2f5b 9bbb
000001b0: a011 67be b785 a2bc 8d86 e8be a7a3 80bc
000001c0: 5fb0 06bc 0f26 8cbc 20ed 173f 5a15 06bd
000001d0: 151e 853c 68c2 9bbd 7b41 bd3a fe2c 523c
000001e0: 5693 d5bc a052 63bc 88c2 7cbc 7419 85bd
000001f0: 663b 993c cae2 39bd d462 de3c 8545 a4bc
00000200: fdc5 ab3d 5eb3 0b3c d55c 89bb 3816 24bd
00000210: f535 15bb 591a aabc cea3 90bc 1224 c43e
00000220: 70b2 463d 8056 5cbe e139 8cbd 9140 2d3d
00000230: d80f 603d 9a74 093e 1a17 183d a8d7 2c3b
00000240: ffb8 0ebd 5abd 7ebd cc1a c9bc e6b9 c8bc
00000250: 1206 933c 31d1 4bbb d5c7 8e3d a9d8 62bc
00000260: 92d2 acbc 5a84 81be 31d0 c5bd 7558 22bd
00000270: 1a4a 38bd ac8e 3f3d 7ab1 513c 911e 113d
00000280: 72ae eb3c 2f36 4eb9 1857 2bbd 82b3 52bc
00000290: 58f4 34be ba56 46bd ffd6 b23c 0dd3 29bc
000002a0: d37c f8bc 3be6 dfbe b85c 073e 980c 1b3e
000002b0: fe19 493d d5ed 353d 3a2a 1b3d b59b 96bc
000002c0: 9bb1 b33d 11f3 54bc 33a4 9e3c 8b0c c0bd
000002d0: 1068 2cbb 9b24 cc3b dc76 9ebe c51e 58bc
000002e0: 8698 53bb e37c 003c c733 413d eebc 6a3d
000002f0: 5132 573c ad5b 843d bb83 113c bc37 b33c
00000300: 67da fa3d 76e3 b9bd d715 abbd 07dc febc
00000310: 827a a7bd 03fb 443b ef75 de3c 4c0d 8abc
0.08891192 -0.02630586 -0.05378452 -0.02267373 -0.018382099 0.017492399 0.04918842 0.033941153
0.051098466 0.007424274 0.19969678 -0.07531338 0.0577417 -0.05400263 0.00742771 0.07750857
-0.006547799 0.037190385 -0.039832894 0.010669405 -0.03293787 0.008517748 -0.100919135 -0.012281927
0.012509517 0.07874862 0.0056789243 -0.048460178 0.02558099 0.008501433 0.07915353 0.018102435
0.026922854 0.06356039 -0.1594691 0.025707597 -0.0032340318 0.016970996 -0.002875521 -0.013885102
-0.020668274 0.07683686 -0.13100953 -0.00066874916 0.010926056 -0.077927716 -0.11952096 -0.022221033
-0.019969711 0.037750013 0.09048488 0.04065453 -0.07893825 -0.014984953 0.0068925694 -0.004863024
-0.066722214 -0.0044122343 -0.15082255 0.008711966 0.016888024 0.04492517 0.2267685 0.027349865
-0.015918555 0.019873362 -0.020295225 -0.09418553 -0.014579831 0.05550026 -0.07183951 -0.02872773
-0.076158345 -0.014807669 0.0045338124 0.030373072 -0.005863182 -0.0026255432 -0.008041054 0.02663734
-0.08255755 0.043307714 0.039671425 -0.039236393 -0.01048978 0.021113109 -0.02634021 0.012978407
0.04836714 0.008114335 -0.021954335 0.041541528 -0.020345518 -0.021883743 -0.0018758067 -0.015383217
0.02278677 0.07169277 -0.012363392 0.029698437 -0.02366377 -0.04201717 -0.046429083 -0.008487942
0.022332108 -0.066836745 0.012458179 -0.0047410945 -0.22565317 -0.01983915 -0.45415154 -0.015703036
-0.008220761 -0.017107992 0.593462 -0.032735206 0.016249696 -0.076054394 0.001443907 0.01282811
-0.026071232 -0.01387468 -0.015427239 -0.064989954 0.018705081 -0.0453823 0.027146734 -0.02005268
0.08387373 0.008526651 -0.0041919746 -0.040060252 -0.0022767757 -0.020764517 -0.017656233 0.3830877
0.048510015 -0.21517372 -0.06846977 0.042297903 0.05470261 0.13423386 0.037131406 0.0026373658
-0.034844395 -0.0621923 -0.02454891 -0.024502706 0.01794723 -0.003110003 0.06971709 -0.013845601
-0.021096501 -0.2529629 -0.0965885 -0.03963514 -0.044992544 0.046766922 0.012798661 0.03542954
0.028769705 -0.00019665876 -0.041831106 -0.012860181 -0.17671335 -0.048422553 0.021831034 -0.01036526
-0.030332958 -0.4373034 0.13218963 0.15141523 0.049097054 0.044416267 0.037882067 -0.018384794
0.0877411 -0.012997405 0.019365406 -0.093773924 -0.0026307143 0.0062299496 -0.30950058 -0.01319093
-0.0032286956 0.007842275 0.04716852 0.057309084 0.013134555 0.06462798 0.008881505 0.021877162
0.12248688 -0.09076588 -0.08353775 -0.031110777 -0.081776634 0.0030056841 0.027155844 -0.016852044
