HybridLearning-master/data/hlt_stoch/InvertedPendulumBulletEnv/seed_666/model_7000.pt (torch, 180898 bytes, 10 tensors)

log_std f4 [1, 5]
-4.849023 -2.3340757 -4.8406663 -4.657336 -1.7323501
00000000: 322b 9bc0 7f61 15c0 bde6 9ac0 e608 95c0
00000010: a6bd ddbf

mu.0.weight f4 [200, 6]
0.42684388 -0.06535911 -0.56260276 -0.8823639 -0.20871346 -0.73149544 0.16254015 -0.1906595
-0.0715414 -0.9896207 -0.14283495 0.030576043 0.0002126489 0.00029082998 5.1827512e-05 0.00057234365
-2.088215e-05 -0.00025075642 0.008976597 -0.1496006 -1.4091651 0.8411206 -0.0015434489 0.14783657
-0.13888913 0.03158367 0.18029751 -1.1478088 -0.11537537 0.2319507 -1.0139599 0.40968034
-0.19710734 -1.7425103 0.6251913 0.018357288 0.73268193 0.31029814 0.046512477 -0.79311514
0.15604581 0.8239476 0.00034187132 -3.347082e-05 -0.00018969986 0.00015369357 -0.00027234384 -0.00054606417
-0.0025328875 0.002166696 0.0019300317 -0.000438733 0.0019598298 0.0046288148 0.15538807 0.10290853
-0.20820434 1.1789838 -0.16121493 -0.25225553 -0.0011172091 3.9829047e-05 0.0007408897 0.00012942139
-0.00036950863 0.0011980527 1.866164e-06 -6.3253215e-06 -1.4914527e-06 -1.6820102e-06 -2.7269705e-06 -3.8855605e-06
0.17894267 0.10009394 -0.5076659 -0.5507969 -0.068112515 -0.22395074 3.5330595e-06 -1.3507156e-06
-1.7698013e-06 1.485925e-06 -7.7428336e-07 -3.1670995e-06 0.019180577 0.021199547 -1.3461587 -0.21511833
0.12510574 -0.0495848 -7.084001e-05 -0.00030637402 -0.000110782734 0.00016506464 0.00037536153 -0.0007290087
-0.034700114 0.14071846 -0.6627404 -1.075485 0.06924028 0.4519995 0.0004676219 9.605144e-05
-0.00018086346 0.0002934932 -0.00021803776 -0.0005089469 0.0006157256 -0.0018492655 -0.0009612955 -0.00056179054
-0.00035764193 -0.0022093444 0.07738278 0.3370692 -0.14891654 -0.74466014 0.34070534 0.029020026
-0.7198476 -0.60545564 -0.24076429 -1.5758092 -0.35524753 0.88742745 -0.0049301265 0.0008028855
0.004100424 0.001173096 0.0057494873 0.009127887 -0.6832003 0.4110974 -0.16980286 0.06871086
0.16754042 0.31900448 -0.013768548 0.0024478345 0.009711027 -0.006020807 0.0081041185 0.019330435
0.10607149 0.34546492 -0.114170216 0.2927546 -0.021174842 -0.34463382 3.7394773e-05 7.729699e-06
-2.4210894e-05 -2.5137954e-06 -3.9822065e-05 -5.6133216e-05 -0.0069856117 0.010865945 0.006087291 0.0026986862
0.008075793 0.011169888 0.0024823984 -0.013737423 -0.0027103638 -0.0028614243 -0.00560822 -0.008572375
0.2532699 -0.09683476 0.028875172 -0.20944355 -0.013529619 -0.003919851 -0.8379876 -0.3377116
0.21022032 -0.7182782 0.3566402 0.12003207 -0.002539638 0.0037025493 0.0028534748 0.0002922583
0.0024975354 0.007059041 -0.0005501058 -0.00013230632 0.00020383505 -0.00037127495 0.00026292182 0.00055483566
-1.2352494 -0.33003318 0.6696595 0.6098758 0.28325 0.65773404 -1.2297976 -0.61556953
-0.25290775 -1.3048216 -0.08241751 -0.6834741 -0.00016154682 -7.215124e-05 3.45052e-05 -0.00014141476
3.458744e-05 0.00014784274 0.40077582 -0.013808068 -0.5985733 1.0321591 -0.40115637 0.03744086
0.0005385002 -0.0006944785 -0.00063754583 -0.000102484555 -0.00060910673 -0.0014386739 -0.0002785634 -0.0012557091
-0.00041902522 -0.00020760116 0.0001433056 -0.0014686625 -0.0016763294 0.002070943 0.0006899317 -2.821092e-05
0.00068757357 0.0014092494 -0.99195606 0.13425772 -0.07143368 0.5647884 0.60959524 -0.4312393
0.802918 0.14793678 0.84078974 -0.7618955 0.06232763 -0.10869871 -0.0053229057 0.010819868
0.0012499385 -0.010527934 0.0010755756 0.016687395 0.00011435757 0.00010959557 0.00018204669 0.00036572857
00000000: 488b da3e ffda 85bd bc06 10bf 9ae2 61bf
00000010: fbb8 55be 4943 3bbf ed70 263e 3e3c 43be
00000020: 4c84 92bd c857 7dbf 5343 12be 9c7a fa3c
00000030: 81fa 5e39 8a7a 9839 5e61 5938 5509 163a
00000040: 132c afb7 f577 83b9 9412 133c e630 19be
00000050: 865f b4bf ae53 573f 8d4d caba 7862 173e
00000060: f438 0ebe e15d 013d e99f 383e 66eb 92bf
00000070: ec49 ecbd 7c84 6d3e 70c9 81bf 9fc1 d13e
00000080: 82d6 49be 940a dfbf 890c 203f 0662 963c
00000090: 0b91 3b3f 66df 9e3e de83 3e3d 9809 4bbf
000000a0: 79ca 1f3e 3bee 523f 313d b339 0563 0cb8
000000b0: 2bea 46b9 ce28 2139 5fc9 8eb9 bf25 0fba
000000c0: cdfe 25bb 20ff 0d3b 1ef9 fc3a bf05 e6b9
000000d0: 7d70 003b 50ad 973b 0d1e 1f3e b5c1 d23d
000000e0: 8533 55be f1e8 963f 8715 25be a327 81be
000000f0: 516f 92ba 1d0e 2738 4438 423a 4ab5 0739
00000100: 9cba c1b9 fa07 9d3a e878 fa35 193e d4b6
00000110: ed2d c8b5 6ec1 e1b5 ff00 37b6 b660 82b6
00000120: bf3c 373e 0dfe cc3d 64f6 01bf 0701 0dbf
00000130: 937e 8bbd 5853 65be 8019 6d36 3c4a b5b5
00000140: e989 edb5 ff6f c735 59d8 4fb5 5b8a 54b6
00000150: 9620 9d3c acaa ad3c ee4e acbf fb47 5cbe
00000160: b81b 003e 6e19 4bbd f18f 94b8 d3a0 a0b9
00000170: 0754 e8b8 3415 2d39 2ccc c439 f21a 3fba
00000180: b521 0ebd 8018 103e 5ba9 29bf 7ea9 89bf
00000190: d9cd 8d3d 7a6c e73e 262b f539 396f c938
000001a0: 2aa6 3db9 fedf 9939 11a1 64b9 d96a 05ba
000001b0: a568 213a 0e63 f2ba 73ff 7bba 2045 13ba
000001c0: e381 bbb9 a6ca 10bb dd7a 9e3d 5694 ac3e
000001d0: 947d 18be 0ca2 3ebf ee70 ae3e 68bb ed3c
000001e0: ef47 38bf 24ff 1abf ea8a 76be 1eb4 c9bf
000001f0: 01e3 b5be 722e 633f e68c a1bb bc78 523a
00000200: d95c 863b 92c2 993a 3266 bc3b 228d 153c
00000210: 37e6 2ebf 5c7b d23e cde0 2dbe 48b8 8c3d
00000220: b78f 2b3e 8e54 a33e 7a95 61bc d96b 203b
00000230: 001b 1f3c 314a c5bb 23c7 043c dc5a 9e3c
00000240: 023c d93d c7e0 b03e 13d2 e9bd eee3 953e
00000250: dd76 adbc d873 b0be 55d8 1c38 ceae 0137
00000260: 8018 cbb7 adb2 28b6 9e06 27b8 9570 6bb8
00000270: 8fe7 e4bb 1407 323c e677 c73b 71dc 303b
00000280: 5550 043c e801 373c bcaf 223b ee12 61bc
00000290: 5ca0 31bb bc86 3bbb 29c5 b7bb 2673 0cbc
000002a0: 98ac 813e 4d51 c6bd a08b ec3c 5f78 56be
000002b0: 56ab 5dbc 1872 80bb 5b86 56bf 89e8 acbe
000002c0: ff43 573e 15e1 37bf 8b99 b63e 60d3 f53d
000002d0: 0e70 26bb 78a6 723b 5d01 3b3b 3f3a 9939
000002e0: b1ad 233b 874f e73b fa34 10ba b5bb 0ab9
000002f0: 8ebc 5539 aea7 c2b9 c5d8 8939 6472 113a
00000300: a71c 9ebf 1cfa a8be ce6e 2b3f d220 1c3f
00000310: 2506 913e 4261 283f 026a 9dbf f795 1dbf
00000320: 207d 81be 6504 a7bf 83ca a8bd 29f8 2ebf
00000330: e564 29b9 e74f 97b8 adb9 1038 bc48 14b9
00000340: fb11 1138 3c06 1b39 7d32 cd3e 3c3b 62bc
00000350: 1a3c 19bf ca1d 843f 5e64 cdbe 965b 193d
00000360: 232a 0d3a aa0d 36ba fa20 27ba faec d6b8
00000370: 76ac 1fba e391 bcba 260c 92b9 9b96 a4ba
00000380: 9db0 dbb9 83af 59b9 4e44 1639 2380 c0ba
00000390: 48b8 dbba a8b8 073b 88dc 343a 7da6 ecb7
000003a0: 483e 343a 90b6 b83a d5f0 7dbf db7a 093e
000003b0: d24b 92bd f995 103f 6f0e 1c3f 66cb dcbe
000003c0: 098c 4d3f bd7c 173e ff3d 573f 950b 43bf
000003d0: 424b 7f3d 6e9d debd c56b aebb d145 313c
000003e0: fad4 a33a 5b7d 2cbc 54fa 8c3a 01b4 883c
000003f0: 41d3 ef38 acd6 e538 c9e3 3e39 42bf bf39

mu.0.bias f4 [200]
-0.3198647 0.26986748 -1.0062267e-05 1.4013056 0.6665718 0.16158052 -0.18406884 -7.4397025e-07
-0.00025654127 0.6391582 -0.0005087973 2.6665958e-07 0.43597686 6.1943524e-07 -1.1266563 6.218934e-05
0.7713956 4.605279e-05 0.00015686128 0.21680143 0.688624 0.0007608203 0.22030587 -0.0037530651
0.18296903 -4.550983e-06 0.00034202106 -0.000765044 -0.08262695 -0.66674286 -0.0002642215 -6.176213e-05
0.13220398 0.026149383 -1.6608623e-05 0.7555445 7.4519776e-05 2.6144164e-05 -0.0004078343 0.15482368
-0.8351726 -0.0017818302 -0.00014442297 -0.43013394 -0.010732431 1.2692454 0.00083009375 -0.001116681
0.35520494 -4.8866383e-05 1.7384884e-05 -0.023472842 0.0009227993 -0.00014174554 -0.6326326 -0.6005752
-2.99389e-06 3.2094144e-06 2.0910924e-05 -4.152929e-06 -0.0019463408 0.00085269805 0.00066862983 7.781708e-07
7.952561e-05 0.020223409 5.467796e-05 -0.6245456 -0.09033525 -0.48880625 -0.554294 0.00038872086
6.072866e-07 0.60366327 0.00074201904 -0.1546043 -0.3986975 -0.00038525613 1.2078788 0.00017502824
-0.17778273 0.00076123443 -0.00019464866 -0.40467116 -4.91986e-05 -0.47789976 -0.0009825694 -0.29378006
-1.8573989e-07 0.030963946 -0.40850624 -0.5943098 0.00014090532 0.4522349 -9.384337e-07 2.8245853e-05
0.00025476894 -3.8821117e-06 -8.636685e-06 -0.0004938184 0.54107285 0.0005205707 -0.2768333 -0.020987343
0.0004431556 -1.2734961e-05 5.6872127e-06 -0.23146412 0.4249774 3.0878177e-06 0.00026308233 -0.34152946
-0.0001033695 -0.25643015 -3.0050483e-05 0.0002419011 -0.05611758 -0.0057119583 1.0283312 -0.0594399
0.0013616668 2.6767887e-06 0.0008745013 1.2648866 0.00034640857 -1.2194865 -8.6691483e-07 -0.8958228
3.71016e-06 1.6759483e-05 0.14717689 2.7785845e-05 -0.58180004 -0.19640593 0.00010634956 0.15473987
-0.09106085 1.4841801e-06 -0.019197794 0.43477628 -4.072319e-06 2.7942255e-05 4.4599733e-06 0.00015617991
0.002749123 0.44610435 0.12455767 -0.5179621 -1.5195393e-05 -0.357502 0.25567716 1.546041e-08
-8.4301944e-05 0.50335306 0.042908143 -0.7731154 0.27706233 -0.0010516886 -5.4664633e-07 -0.013574029
-0.00023778084 0.8461971 -0.00042280447 0.9752312 -1.4081412e-05 -0.009354628 -0.3475322 -0.12659574
0.19362548 0.00039940936 7.838545e-05 0.09924913 0.0018786011 0.76229167 0.13569517 6.6177796e-05
-0.0002673989 -1.6136718e-07 5.7839283e-05 -0.8019627 -0.0028421192 -0.00095119135 0.3577552 0.20297183
-0.05571411 -0.00014343037 -0.28424147 0.00093157834 0.5021793 -4.3220625e-05 -0.55034286 -6.12616e-06
-6.0780974e-07 0.51876277 -0.00032551694 1.5036115e-05 0.00026383894 0.7067233 -0.26770052 1.8123093e-05
00000000: 4ec5 a3be 122c 8a3e 1cd1 28b7 fb5d b33f
00000010: 73a4 2a3f 5d75 253e 8b7c 3cbe 3fb5 47b5
00000020: 6380 86b9 df9f 233f cf60 05ba 6a29 8f34
00000030: 5c38 df3e 4447 2635 4636 90bf a66b 8238
00000040: 2f7a 453f cf28 4138 217b 2439 3201 5e3e
00000050: aa49 303f c971 473a dd97 613e fcf5 75bb
00000060: 3c5c 3b3e a5b4 98b6 4a51 b339 3c8d 48ba
00000070: 5238 a9bd a9af 2abf 3687 8ab9 4b86 81b8
00000080: 7b60 073e 3b37 d63c bf52 8bb7 5d6b 413f
00000090: 8047 9c38 2a50 db37 98d2 d5b9 198a 1e3e
000000a0: dfcd 55bf 4d8c e9ba 3f70 17b9 843a dcbe
000000b0: 14d7 2fbc a276 a23f a69a 593a 995d 92ba
000000c0: 6cdd b53e e1f5 4cb8 c1d5 9137 1e4a c0bc
000000d0: 03e8 713a 87a1 14b9 36f4 21bf 4cbf 19bf
000000e0: a3ea 48b6 5261 5736 de69 af37 6359 8bb6
000000f0: 5c1c ffba 9987 5f3a fd46 2f3a 7de3 5035
00000100: fdc6 a638 90ab a53c 0356 6538 38e2 1fbf
00000110: b001 b9bd d044 fabe 36e6 0dbf 3bcd cb39
00000120: 6b04 2335 ad89 1a3f 0e84 423a 9750 1ebe
00000130: 1422 ccbe 34fc c9b9 c69b 9a3f c987 3739
00000140: ad0c 36be 948d 473a 9a1a 4cb9 0f31 cfbe
00000150: 985a 4eb8 47af f4be 8fc9 80ba 576a 96be
00000160: cb6f 47b4 1aa8 fd3c bb27 d1be b024 18bf
00000170: fcbf 1339 558b e73e ace8 7bb5 82f1 ec37
00000180: 8292 8539 1643 82b6 48e6 10b7 9873 01ba
00000190: c083 0a3f e976 083a 18bd 8dbe a6ed abbc
000001a0: 5657 e839 3ea8 55b7 c9d4 be36 ee04 6dbe
000001b0: a396 d93e 4e38 4f36 50ee 8939 f3dc aebe
000001c0: 14c8 d8b8 d04a 83be ec14 fcb7 d5a6 7d39
000001d0: 8cdb 65bd 612b bbbb 5ba0 833f 4177 73bd
000001e0: f579 b23a e1a2 3336 ca3e 653a cee7 a13f
000001f0: 2c9e b539 2218 9cbf efb5 68b5 a554 65bf
00000200: 10fc 7836 b796 8c37 8ab5 163e a615 e937
00000210: d9f0 14bf a31e 49be fc07 df38 2174 1e3e
00000220: 1c7e babd 0a34 c735 b144 9dbc ff9a de3e
00000230: f4a4 88b6 8965 ea37 e1a6 9536 3ac4 2339
00000240: a12a 343b ca67 e43e 1718 ff3d 2a99 04bf
00000250: b7ef 7eb7 810a b7be 1ee8 823e cdcd 8432
00000260: 43cb b0b8 bfdb 003f 73c0 2f3d e4ea 45bf
00000270: 1ddb 8d3e d0d8 89ba 40bd 12b5 9b65 5ebc
00000280: cf54 79b9 60a0 583f dbab ddb9 c0a8 793f
00000290: 343f 6cb7 2744 19bc beef b1be 50a2 01be
000002a0: c245 463e d167 d139 de62 a438 2143 cb3d
000002b0: 653b f63a 8c25 433f adf3 0a3e efc8 8a38
000002c0: ac31 8cb9 4644 2db4 7598 7238 6d4d 4dbf
000002d0: d942 3abb 5f59 79ba b12b b73e d9d7 4f3e
000002e0: 7b34 64bd cc65 16b9 1988 91be 2a35 743a
000002f0: d38e 003f cb47 35b8 45e3 0cbf 508f cdb6
00000300: 5e28 23b5 a3cd 043f 25aa aab9 9f43 7c37
00000310: dd53 8a39 d1eb 343f 0b10 89be 0c07 9837

mu.2.weight f4 [5, 200]
-0.022781286 -0.01469785 0.00013558601 0.02001783 0.015460726 -0.0061007356 0.012679624 0.00010139344
-0.0010440284 0.022743687 0.00038435066 2.6915964e-06 0.0060976064 6.842264e-07 -0.006909266 3.3942815e-05
-0.013247586 6.0401773e-05 0.00048695473 0.004843694 -0.0026671982 0.00011932289 -0.015446317 -0.0032003135
0.012728659 6.4695973e-07 -0.003292219 0.005433827 -0.013193632 0.014473994 -0.0016231214 -7.735299e-05
-0.019922152 0.007821853 -2.7708913e-05 0.00536589 0.00014855954 0.0004982999 -0.0009502521 -0.011761593
0.020914752 -0.0056197457 0.0005475004 -0.006860784 0.004022473 -0.009976437 -0.0012960087 -0.00193302
-0.0086034825 0.00015897471 5.267923e-05 0.011367496 0.0012451896 1.5611604e-05 -0.004772452 -0.00018215559
-5.9282743e-06 -2.106486e-05 9.660785e-06 -5.3576273e-06 0.0015784483 -0.0023416232 0.0005700439 6.7674578e-06
-0.00029191427 0.114108406 0.0006324062 -1.0270496e-05 -0.023761986 -0.00758481 -0.004919558 -0.0022367495
-8.633104e-06 -0.0153171625 -0.0003742216 0.024790633 0.034489844 -0.00037991963 -0.020264884 0.0007008485
0.0011834824 0.005994837 -0.00015717818 -0.0049858885 -0.00022938848 7.4529285e-05 -0.00401061 -0.02073914
1.7597159e-06 0.0061628893 0.0049690693 0.0024570425 7.0040434e-05 0.0017823933 2.6055532e-06 -0.00013855466
-0.0007106656 7.2459325e-06 4.6682337e-05 -0.0010994197 0.010596969 -0.004821983 -0.0012610493 -0.0021546544
-0.001969327 -2.80418e-05 0.00010235136 -0.011428029 -0.002159231 0.00016726048 4.876672e-05 -0.026781498
-0.0009765146 -0.00493345 9.130765e-06 -0.00031166498 0.011206971 -0.019159846 0.0012155841 0.003546552
-0.0052142465 -4.5028122e-05 -0.0021316106 -0.007718807 -0.004589701 -0.0015216928 1.3674914e-05 -0.0117601575
3.5127094e-05 4.7670746e-05 0.026456209 -0.00012662902 0.012067318 0.00010606423 0.000110027104 -0.06321742
0.0032708447 -1.7574199e-05 -0.00855734 0.011787476 8.860479e-05 0.00028456148 -1.1364614e-05 0.0005551617
-0.00035310193 -0.0016479283 0.12557322 -0.007854318 -2.3681605e-05 -0.011734845 -0.011293728 -1.4068132e-07
-2.5838346e-05 -0.012027698 0.057066914 0.009993969 0.021472298 -0.0048416555 2.3474553e-07 -0.009528392
-0.00035097543 0.00020416848 0.0005541286 0.0045768674 -5.7335266e-05 0.0047749053 0.007589379 0.013639788
-0.00068388146 -0.004627833 0.0014827373 -0.06056149 0.0053451625 -0.00024149436 -0.017958727 -0.0027823597
0.00090403494 5.1664597e-07 0.0006149914 0.016007816 -0.003473737 -2.5370271e-05 0.0040828837 -0.0015880105
0.0069324467 0.00045807826 -0.0024063194 0.0011302781 0.0056214663 -0.00046290515 0.007165524 -1.0027524e-05
-1.6343532e-07 0.0057202736 0.00096897176 0.00010247101 0.0025935182 0.0064995554 0.007914228 -4.984693e-06
-0.46585426 -0.0005676218 -0.00012540995 0.2985264 0.09241469 -0.10171306 0.27480283 -0.0001511741
-0.00044825836 0.50783855 0.00019182789 3.9912393e-06 -0.24748324 -5.67055e-07 -0.19850288 0.0011560066
-0.2634094 -0.00029962914 0.0017790602 0.17575744 -0.004329226 0.005214464 -0.1917736 0.0024933289
-0.037182327 -3.3537464e-05 0.0009923212 0.0072206967 -0.07833989 0.4365174 -0.0027726605 0.00038542817
-0.41029277 0.10485035 7.2862014e-05 0.24349271 -9.419788e-05 0.0025737921 -0.0015781978 -0.26246998
0.2632695 -0.0028460098 -0.000664401 -0.5975391 0.041474804 0.016653929 -0.004050623 -0.0031944998
-0.10992585 0.0011905109 1.9158457e-05 0.37655425 0.0029670163 -0.00014253617 -0.14454333 0.015187896
00000000: d29f babc 40cf 70bc 182c 0e39 6ffc a33c
00000010: fc4e 7d3c aee8 c7bb 33be 4f3c 30a3 d438
00000020: c8d7 88ba f850 ba3c ac82 c939 46a1 3436
00000030: 6ece c73b aeab 3735 2067 e2bb d25d 0e38
00000040: 670c 59bc e957 7d38 f54d ff39 dab7 9e3b
00000050: 29cc 2ebb fd3c fa38 8d12 7dbc 5abc 51bb
00000060: de8b 503c bcaa 2d35 45c2 57bb 3f0e b23b
00000070: 1a2a 58bc 5524 6d3c ebbe d4ba 9238 a2b8
00000080: c833 a3bc 3b27 003c 7070 e8b7 59d4 af3b
00000090: a6c6 1b39 57a0 023a 571a 79ba b2b3 40bc
000000a0: 6a55 ab3c d825 b8bb 2186 0f3a 6dd0 e0bb
000000b0: f3ce 833b 3674 23bc d6de a9ba 635d fdba
000000c0: 9ff5 0cbc 73b2 2639 e4f3 5c38 bc3e 3a3c
000000d0: a135 a33a aaf5 8237 3b62 9cbb 0501 3fb9
000000e0: 7deb c6b6 71b4 b0b7 c114 2237 abc5 b3b6
000000f0: f0e3 ce3a eb75 19bb 006f 153a 0514 e336
00000100: 120c 99b9 abb1 e93d 10c8 253a 724f 2cb7
00000110: 7fa8 c2bc ff89 f8bb 3e34 a1bb 6e96 12bb
00000120: e6d6 10b7 d6f4 7abc 2c33 c4b9 ba15 cb3c
00000130: 3945 0d3d f32f c7b9 8b02 a6bc 26b9 373a
00000140: 141f 9b3a 5670 c43b 32d0 24b9 aa60 a3bb
00000150: 0088 70b9 9b4c 9c38 6f6b 83bb 21e5 a9bc
00000160: 612f ec35 10f2 c93b 93d3 a23b 5506 213b
00000170: ace2 9238 329f e93a 10db 2e36 fc48 11b9
00000180: f64b 3aba 1622 f336 c7cc 4338 671a 90ba
00000190: e99e 2d3c ba01 9ebb cb49 a5ba 1a35 0dbb
000001a0: d30f 01bb 4f3b ebb7 78a5 d638 a13c 3bbc
000001b0: e381 0dbb a562 2f39 de8a 4c38 df64 dbbc
000001c0: c9fc 7fba c7a8 a1bb 5630 1937 f766 a3b9
000001d0: 719d 373c 1cf5 9cbc 3c54 9f3a 456d 683b
000001e0: 45dc aabb 94dc 3cb8 7eb2 0bbb 0cee fcbb
000001f0: 3465 96bb 8a73 c7ba 4f6d 6537 adad 40bc
00000200: 6e55 1338 13f2 4738 b1ba d83c b8c7 04b9
00000210: 00b6 453c cd6e de38 5abe e638 2278 81bd
00000220: ab5b 563b 4e6c 93b7 1634 0cbc 4220 413c
00000230: 56d1 b938 3231 9539 a5aa 3eb7 4588 113a
00000240: 8a20 b9b9 4cff d7ba 4496 003e 66af 00bc
00000250: dca7 c6b7 8243 40bc 5409 39bc 300e 17b4
00000260: 6dbf d8b7 d20f 45bc ffbe 693d bfbd 233c
00000270: ace6 af3c c0a6 9ebb 5c0e 7c34 f91c 1cbc
00000280: 2003 b8b9 0f16 5639 f142 113a 8cf9 953b
00000290: 467b 70b8 cf76 9c3b 53b0 f83b 6b79 5f3c
000002a0: 8246 33ba 14a5 97bb 6858 c23a 530f 78bd
000002b0: 7926 af3b a639 7db9 2e1e 93bc 4058 36bb
000002c0: c2fc 6c3a a4af 0a35 6037 213a d322 833c
000002d0: a3a7 63bb 3ed2 d4b7 b6c9 853b ca24 d0ba
000002e0: 9429 e33b 392a f039 57b3 1dbb d725 943a
000002f0: 4734 b83b 14b2 f2b9 c6cc ea3b e33b 28b7
00000300: c27c 2fb4 2271 bb3b 9802 7e3a b4e5 d638
00000310: 04f8 293b 39fa d43b aeaa 013c 3042 a7b6
00000320: 7384 eebe 74cc 14ba 7a80 03b9 74d8 983e
00000330: ea43 bd3d f04e d0bd f5b2 8c3e 7d84 1eb9
00000340: 3804 ebb9 b501 023f 6825 4939 7cec 8536
00000350: 3f6c 7dbe b937 18b5 5744 4bbe 2585 973a
00000360: 99dd 86be 8b17 9db9 5b2f e93a c2f9 333e
00000370: 2edc 8dbb 18de aa3b 4c60 44be 1e67 233b
00000380: 7f4c 18bd 94aa 0cb8 c610 823a 989b ec3b
00000390: aa70 a0bd 357f df3e 86b5 35bb 4b13 ca39
000003a0: e511 d2be c8bb d63d 7fcd 9838 2756 793e
000003b0: 1a8c c5b8 11ad 283b 88db ceba 7762 86be
000003c0: 43cb 863e 1f84 3abb 322b 2eba 53f8 18bf
000003d0: 7ce1 293d d26d 883c 17bb 84bb d05a 51bb
000003e0: ce20 e1bd eb0a 9c3a 79b6 a037 b8cb c03e
000003f0: 4672 423b c375 15b9 2b03 14be a7d6 783c

mu.2.bias f4 [5]
0.010759579 0.2521856 -0.020578455 0.0040462525 0.07315064
00000000: f248 303c 791e 813e 2694 a8bc 6d96 843b
00000010: 01d0 953d

reward_fun.0.weight f4 [200, 6]
0.7064419 -0.15617782 1.9447625 -0.26392123 -0.45344955 0.4485811 0.15704113 -0.18200186
-0.40893108 0.58165544 0.1342483 -0.7153153 0.31585455 -0.019865507 -0.11333028 0.21680653
-0.00800737 -0.22828737 -0.6274755 -0.44391176 -0.78819525 -1.8370177 -0.042317994 0.1858099
1.3481667 -0.5738797 0.7468463 1.5031805 -0.19502914 -0.99642986 0.27659893 1.1137294
-1.3142797 1.1620026 -0.060854398 0.43913415 -0.060700756 -0.23566496 1.9186232 1.9094621
0.83778846 -0.5517537 -1.3492947 -0.5579952 1.3437178 -1.8331033 0.16531688 -0.4798862
-0.7253837 -0.299692 0.031877942 0.29383117 0.24530995 -1.1611369 0.036612436 0.3208729
-0.3936171 0.7391088 -0.0074469512 -0.2607342 -0.16794097 0.4698185 1.9724338 -0.8754591
-0.52560806 -0.28119472 -1.0601822 -1.1179794 -0.09569336 -0.9151119 0.33162916 -0.75181854
0.04072954 0.039707184 -0.3890676 0.5412093 0.0018739677 -0.08887226 2.0732324 0.20344156
-0.47335806 0.07406521 -0.038128227 -0.0995656 0.5446644 -1.1180676 0.8756835 0.29859504
0.270872 -0.3736038 0.2775663 0.0885367 -0.10944591 0.066034034 0.010429593 -0.07505509
-0.23701268 -0.3363848 -0.46765727 -0.27416617 0.06537992 -0.7703807 -0.49776438 0.8654814
-1.8335901 -0.1742948 -0.17973033 0.29072672 0.26255396 0.18684733 -0.34450644 -0.19237494
-0.0059929024 -0.19276942 1.5342983 0.76208514 0.6334624 0.8118042 -0.34822685 0.9923153
-0.041237224 0.0888704 -0.23347558 0.37361383 0.00017476619 -0.2358296 0.055960253 0.5784114
2.4430394 2.4549751 0.3100391 0.27254277 0.39518785 0.48489156 -0.39489385 -0.6369358
-0.08828568 0.28949714 0.22192672 0.17227939 1.5123351 2.2573287 0.35687727 -0.22725756
0.11541964 0.07629246 -0.28098622 0.07226592 0.003197435 -0.27933496 0.68626904 -0.08358925
1.3196279 1.5643146 0.095312454 -1.3920546 0.871913 -0.08360371 -1.0181165 -1.1246936
0.16294838 -0.9104403 -1.9158138 -0.56134427 -0.003410801 -0.36412016 0.26896945 -1.547405
-0.5123183 -0.4182919 2.2932527 -0.50419015 -0.51344085 -0.22708641 0.04902501 -0.42948103
2.0106566 0.040810872 -0.44834805 -0.068036824 -0.5633065 -1.1492875 0.8350453 0.89728886
-0.2546499 -0.017289268 1.8155382 0.5021957 -0.8390189 0.1961492 0.046400215 -0.7060073
0.19996068 0.06809463 -0.25034183 -0.09699392 -0.0037058992 -0.30576378 0.5912529 1.5596713
-1.3016359 1.0561312 -0.06262125 0.37260827 -1.1591243 -0.75498116 -0.1369589 -1.8151597
0.0810237 -0.8315257 0.041014966 0.09214527 -0.21524097 0.07968836 -0.0019499583 -0.24999325
-0.10819669 0.013404476 -0.4279012 0.46666795 0.036665853 -0.21886444 0.18989822 0.44434077
-1.1074874 -0.016211385 -0.04731501 -0.13388894 -1.6296409 0.1820757 1.5833197 0.14661159
0.5242489 -0.27351987 -0.32146755 1.185562 0.42266354 0.2625717 -0.23273607 0.38799554
0.1885473 1.4891694 -0.61817104 -0.56284314 -0.40912056 1.0350491 0.49668723 0.34138608
2.3988643 0.44086096 0.57463354 0.66681457 0.13647234 -0.10846439 -0.2496929 0.046265192
00000000: 60d9 343f 14ed 1fbe faed f83f af20 87be
00000010: 8a2a e8be 6cac e53e 64cf 203e b25e 3abe
00000020: 6a5f d1be 5fe7 143f 6378 093e e71e 37bf
00000030: b0b7 a13e fdbc a2bc b519 e8bd 8802 5e3e
00000040: 5831 03bc 2ac4 69be 3ca2 20bf 6748 e3be
00000050: 2ac7 49bf 6523 ebbf a255 2dbd f344 3e3e
00000060: ba90 ac3f c8e9 12bf 5231 3f3f 3868 c03f
00000070: b8b5 47be 0716 7fbf 609e 8d3e af8e 8e3f
00000080: 513a a8bf 80bc 943f 7642 79bd 31d6 e03e
00000090: 5ba1 78bd 2852 71be 7295 f53f 4169 f43f
000000a0: 4e79 563f bb3f 0dbf b0b5 acbf c6d8 0ebf
000000b0: f2fe ab3f 21a3 eabf d448 293e a5b3 f5be
000000c0: bfb2 39bf 3b71 99be 7292 023d 0a71 963e
000000d0: 8832 7b3e 22a0 94bf ecf6 153d 7449 a43e
000000e0: 2e88 c9be 3c36 3d3f 8e05 f4bb f47e 85be
000000f0: b8f8 2bbe 0d8c f03e b678 fc3f 161e 60bf
00000100: 408e 06bf c1f8 8fbe 0db4 87bf f319 8fbf
00000110: e1fa c3bd c644 6abf 4ccb a93e 2e77 40bf
00000120: 05d4 263d 00a4 223d de33 c7be b18c 0a3f
00000130: ec9f f53a a902 b6bd d7af 0440 fc52 503e
00000140: fd5b f2be 80af 973d 582c 1cbd 0de9 cbbd
00000150: 206f 0b3f d71c 8fbf cb2c 603f 73e1 983e
00000160: bcaf 8a3e ff48 bfbe 2c1d 8e3e bb52 b53d
00000170: 2d25 e0bd da3c 873d e2e0 2a3c 7cb6 99bd
00000180: 74b3 72be a13a acbe c670 efbe 825f 8cbe
00000190: e8e5 853d ab37 45bf f9da febe 3090 5d3f
000001a0: 15b3 eabf 567a 32be 3a0b 38be 22da 943e
000001b0: 796d 863e e854 3f3e 2663 b0be f0fd 44be
000001c0: 1c60 c4bb 5965 45be e363 c43f 0318 433f
000001d0: 982a 223f 66d2 4f3f ca4a b2be 6008 7e3f
000001e0: 5de8 28bd af01 b63d 3914 6fbe 504a bf3e
000001f0: 7141 3739 517d 71be 9436 653d c512 143f
00000200: c25a 1c40 501e 1d40 72bd 9e3e ba8a 8b3e
00000210: 1056 ca3e b543 f83e 872f cabe 390e 23bf
00000220: 1fcf b4bd f838 943e c240 633e 026a 303e
00000230: 3294 c13f 1378 1040 9eb8 b63e 35b6 68be
00000240: 2261 ec3d 393f 9c3d 6ddd 8fbe 2800 943d
00000250: 0f8c 513b fe04 8fbe 54af 2f3f d730 abbd
00000260: 91e9 a83f 763b c83f 2d33 c33d d82e b2bf
00000270: b135 5f3f 6c38 abbd a451 82bf f6f5 8fbf
00000280: f1db 263e 9e12 69bf 6339 f5bf 42b4 0fbf
00000290: bf87 5fbb f56d babe 5db6 893e 5e11 c6bf
000002a0: 4b27 03bf 5b2a d6be a7c4 1240 9b12 01bf
000002b0: dc70 03bf 5789 68be 73ce 483d f0e4 dbbe
000002c0: 99ae 0040 4d29 273d e08d e5be e456 8bbd
000002d0: db34 10bf da1b 93bf 87c5 553f b9b4 653f
000002e0: 7961 82be 39a2 8dbc 8e63 e83f e68f 003f
000002f0: f1c9 56bf 56db 483e 270e 3e3d e5bc 34bf
00000300: 7ec2 4c3e 3375 8b3d ce2c 80be c0a4 c6bd
00000310: acde 72bb 128d 9cbe 5a5c 173f 4fa3 c73f
00000320: 019c a6bf 4f2f 873f 923f 80bd 83c6 be3e
00000330: 2f5e 94bf 7246 41bf f43e 0cbe 2757 e8bf
00000340: c1ef a53d dede 54bf 4fff 273d a9b6 bc3d
00000350: 2168 5cbe a733 a33d be95 ffba 3bfe 7fbe
00000360: 3a96 ddbd 739e 5b3c de15 dbbe 1aef ee3e
00000370: ef2e 163d 001e 60be ae74 423e a280 e33e
00000380: 26c2 8dbf bdcd 84bc 62cd 41bd 2f1a 09be
00000390: 1398 d0bf 0d72 3a3e 38aa ca3f 5921 163e
000003a0: 2d35 063f cc0a 8cbe 6597 a4be 7fc0 973f
000003b0: 5b67 d83e cc6f 863e 5d52 6ebe 5aa7 c63e
000003c0: 8b12 413e 1a9d be3f 7540 1ebf 7d16 10bf
000003d0: 4078 d1be 7d7c 843f ca4d fe3e 28ca ae3e
000003e0: fe86 1940 87b8 e13e 2f1b 133f 5cb4 2a3f
000003f0: 68bf 0b3e 9422 debd 7faf 7fbe 9280 3d3d

reward_fun.0.bias f4 [200]
-2.55877 -1.5834652 -0.83374554 -0.61439365 -1.6664337 -2.087597 -1.2409496 -0.7233408
-0.69657105 -1.4682549 -1.757494 -0.58815783 -0.78329533 -1.4965557 -1.7553331 -0.626631
-1.2553726 -1.3730907 -1.0628562 -1.6839586 -0.7543015 0.09059363 -1.6034157 -1.7004249
-0.6560934 -0.19619296 -1.8802252 -1.3026896 -3.122455 -2.287267 -1.7580705 -1.2363468
-0.7677942 -2.7621965 -1.435867 -0.6168602 -0.9676707 -1.6551752 -0.9526233 -1.9906834
-2.2921588 -1.6172417 -0.6317954 -1.7205397 -1.3713417 -0.71432 -0.4577222 -1.2753196
-1.8875679 -0.5135375 -0.35706246 -1.195151 -0.974609 0.46742892 -1.038258 -1.354788
-0.5819375 -1.081025 -1.3529643 -1.5841424 -1.667643 -2.6244168 -0.59248364 -0.6266912
-0.54788053 -1.0964327 -0.45461765 -0.32153076 0.54635686 -0.17195153 -1.1290317 -1.5482203
-0.83035886 0.24182525 -1.1329198 -0.3734345 -1.0425221 -1.3721637 -1.1211026 -2.365788
-1.6144191 -3.007091 -1.2591789 0.65730923 -1.5942099 -1.485903 -0.47827652 -0.40498692
-1.6066402 -1.5693727 -0.6505041 -2.0349073 -1.848301 -1.248245 0.5968598 -0.69859725
-1.4913878 -1.6064231 -0.9922649 -1.3726418 -0.61238056 -2.0027072 -0.46699682 -2.1120865
-1.1705368 -1.9315714 -2.3966055 -1.6200833 -0.9940292 -1.1669805 -2.2061217 -1.2740192
-1.2735802 -1.927671 -0.9023851 -2.2907174 -1.1154416 -1.1050731 -1.3560268 -1.1091743
-1.4412048 -1.45263 -2.3047462 -2.4011402 -1.2685219 -1.2889694 -0.8939729 -0.90061766
-1.4588732 -1.227265 -0.6085271 -1.3947201 -0.9182151 -0.666811 0.0788431 -1.986985
-1.5102403 -1.4135228 -0.88949937 -0.9586117 -2.0523996 -1.1584494 -2.600881 -1.3566704
-1.6587267 -2.0210688 -1.2883976 -0.7727907 -2.2470062 -1.1659102 0.26011705 -0.96468014
-0.8330791 -2.1262293 -2.179216 -0.97187126 -1.6010281 -1.1666723 -0.6488247 -0.9713233
-0.6740759 -1.9479243 -1.7050612 -1.245157 -1.9428995 -1.7907712 -2.1414652 -2.4867685
-1.4860108 -0.89771175 -0.39563864 -2.1274798 -1.3403032 -0.89338434 -2.5059497 -0.09906209
-1.9822541 -1.1868155 -1.1948111 -1.7039478 -1.2475713 -0.58562034 -1.0415105 -0.57571495
-0.76467264 -1.6884303 -0.53481656 -1.1521058 -1.1674677 -0.5617375 -2.1784608 -1.3494868
-0.36490056 -1.2302256 -0.8636743 -0.4575031 -0.8625758 -1.2135226 -0.9042897 -1.0928042
00000000: e3c2 23c0 fdae cabf 5970 55bf e748 1dbf
00000010: b34d d5bf 309b 05c0 70d7 9ebf dd2c 39bf
00000020: 7b52 32bf c7ef bbbf 90f5 e0bf 8391 16bf
00000030: 0b86 48bf 238f bfbf c1ae e0bf e46a 20bf
00000040: 0db0 a0bf 70c1 afbf ac0b 88bf f58b d7bf
00000050: e719 41bf 2789 b93d ba3c cdbf 86a7 d9bf
00000060: bdf5 27bf cfe6 48be 38ab f0bf 88be a6bf
00000070: 4dd6 47c0 9562 12c0 7408 e1bf 9d40 9ebf
00000080: 298e 44bf d4c7 30c0 7dca b7bf 8dea 1dbf
00000090: 44b9 77bf c8dc d3bf 1fdf 73bf b7ce febf
000000a0: bbb2 12c0 c701 cfbf 58bd 21bf a53a dcbf
000000b0: 2088 afbf addd 36bf 905a eabe ac3d a3bf
000000c0: d39b f1bf 3277 03bf e4d0 b6be b5fa 98bf
000000d0: fa7f 79bf d852 ef3e a3e5 84bf b169 adbf
000000e0: dbf9 14bf 075f 8abf ef2d adbf 2ec5 cabf
000000f0: 5375 d5bf 72f6 27c0 02ad 17bf d66e 20bf
00000100: e641 0cbf e857 8cbf a5c3 e8be ae9f a4be
00000110: 0bde 0b3f 1014 30be 1c84 90bf 152c c6bf
00000120: 6692 54bf 0aa1 773e 8403 91bf cf32 bfbe
00000130: 5d71 85bf 0fa3 afbf 4a80 8fbf 1269 17c0
00000140: 49a5 cebf 2e74 40c0 c62c a1bf 6b45 283f
00000150: 120f ccbf 1232 bebf a9e0 f4be 725a cfbe
00000160: 63a6 cdbf 34e1 c8bf 7087 26bf ec3b 02c0
00000170: 2195 ecbf 7ec6 9fbf cecb 183f 45d7 32bf
00000180: cce5 bebf 469f cdbf 1305 7ebf bab2 afbf
00000190: f9c4 1cbf 5b2c 00c0 351a efbe 6d2c 07c0
000001a0: 26d4 95bf bb3d f7bf fc61 19c0 e45e cfbf
000001b0: b378 7ebf 9e5f 95bf 1931 0dc0 1013 a3bf
000001c0: ad04 a3bf ecbd f6bf b602 67bf 1d9b 12c0
000001d0: cac6 8ebf 0973 8dbf 4992 adbf 6cf9 8dbf
000001e0: 6679 b8bf c8ef b9bf f680 13c0 48ac 19c0
000001f0: ed5e a2bf f3fc a4bf 68db 64bf e18e 66bf
00000200: 5bbc babf 0517 9dbf 6fc8 1bbf 3086 b2bf
00000210: 2510 6bbf 20b4 2abf 7e78 a13d 8655 febf
00000220: 8e4f c1bf 51ee b4bf 3bb6 63bf 9467 75bf
00000230: 845a 03c0 1248 94bf d674 26c0 60a7 adbf
00000240: 2851 d4bf 3159 01c0 36ea a4bf 9cd5 45bf
00000250: f3ce 0fc0 8c3c 95bf 102e 853e 47f5 76bf
00000260: ac44 55bf 2414 08c0 4678 0bc0 8ecc 78bf
00000270: 7dee ccbf 8555 95bf 6019 26bf a5a8 78bf
00000280: 3d90 2cbf 9555 f9bf 723f dabf 4e61 9fbf
00000290: eeb0 f8bf fe37 e5bf c40d 09c0 3727 1fc0
000002a0: 9a35 bebf 70d0 65bf 2691 cabe a128 08c0
000002b0: 0e8f abbf d6b4 64bf 7b61 20c0 11e1 cabd
000002c0: 81ba fdbf 92e9 97bf 92ef 98bf f61a dabf
000002d0: 6bb0 9fbf 37eb 15bf 3750 85bf 0e62 13bf
000002e0: 96c1 43bf 7c1e d8bf bde9 08bf 3478 93bf
000002f0: 956f 95bf 07ce 0fbf e76b 0bc0 fcbb acbf
00000300: 3fd4 babe 0878 9dbf c219 5dbf d93d eabe
00000310: c5d1 5cbf b554 9bbf 887f 67bf 02e1 8bbf

reward_fun.2.weight f4 [200, 200]
0.01177913 -0.9521867 0.091689035 -0.25139743 0.57865626 -2.4437819 0.9670843 -1.961393
0.18203706 0.25155923 -0.55926937 -0.7260646 -0.13780826 0.2508553 0.7291973 -0.20917271
-0.86731714 -0.43421295 -0.29761747 -0.113591515 0.14899112 0.058315586 -0.672624 0.46377486
-0.28626913 0.06523832 -0.37302724 1.0380301 -5.1243777 -1.442787 1.7662638 -0.85615915
-0.26665792 -1.6883513 0.5212479 -0.14574209 0.058940828 -1.4959314 0.56025535 -1.0372899
-0.7695488 0.558215 -0.10125538 0.6951918 -0.80864364 0.064239316 0.039434206 -3.240316
-1.271738 -1.3547645 0.22381559 0.35974836 -0.18326496 0.21330765 0.050632603 0.5253682
-0.3291367 -0.28390864 -1.0209191 -0.8455929 0.7879094 -5.2547283 -0.9897043 -0.7764985
0.11542526 0.23851986 0.11987942 0.37272057 1.0122019 0.84612083 0.34240088 -0.9074369
-0.65451455 0.0021346111 0.025771951 0.84700245 -1.0870959 0.4896804 -1.7107402 -1.2551711
0.72578 -5.0695896 -0.31687704 0.7142472 -1.7677604 -0.59959453 -0.95235354 0.70154077
-1.8845276 -0.31807068 -0.34371108 -0.21179911 -1.9176722 -0.26923546 -0.26995072 -0.6895439
0.78904974 -0.91778576 -0.5522027 -0.64536035 0.07732606 0.9482893 0.015958376 -1.9147049
-0.69491833 0.7137908 -6.670054 -0.64516735 0.5970647 0.9956693 -1.0671586 0.021682449
-0.21698989 0.3237941 0.1284771 -1.1168045 -0.48215234 -0.950691 -0.337669 -0.7941754
0.23451526 -0.21847016 -2.1584105 0.057661273 0.07608855 -0.2908274 -0.11867408 -0.6243709
-0.10143538 -0.5730377 0.7097942 -1.1065369 -0.22766973 -0.031815667 -0.6113167 0.42830783
0.47494793 -0.088443145 -0.17569807 -0.25025332 0.50617474 0.084481455 -0.24355708 0.8011733
-1.2133893 -1.0622369 0.15773253 0.010631471 0.4531045 -0.26208323 0.30538705 0.41412836
0.14226799 0.19135593 0.2661085 -0.41213503 -0.6204055 0.0921832 -0.18146506 -0.39496294
-0.42239198 -0.6206798 -0.46920657 -1.2478871 0.024294592 -0.5624783 -0.81455755 0.30383933
-0.7138036 0.9425251 -0.019413827 0.08189851 1.0515258 0.01637618 -0.35863075 0.0048916466
-1.8497293 -1.220147 -0.102907345 -0.16296032 0.17690226 -0.5007438 -0.26347822 -0.567924
0.006789813 0.6362629 0.08909964 -0.5650551 -0.69449073 0.8351562 -2.1095235 -0.541088
0.39003223 -2.6818354 0.08689663 -1.3574533 0.5433754 0.08460842 0.1814011 -1.7256002
0.8267673 -1.5150633 0.041260216 -1.0176417 -1.7810276 0.05412525 -0.41902143 0.34931457
-1.1367992 -0.10820538 0.40279517 -0.97748893 -0.07533276 -1.0615883 -1.0801961 0.29396972
0.37733316 -0.44280776 -0.11668243 1.0146257 -0.48973364 -0.5964198 -1.1472144 0.14015692
0.04164592 0.08837529 0.16703765 -0.9406223 -0.7177706 0.7735935 -0.40183556 -1.4318533
-0.75726056 -0.18830745 0.11535809 0.027634926 -0.28035596 -0.0367474 -1.8755771 0.41712505
-0.17796017 0.056536388 0.31824648 -1.864497 0.004428337 -0.3722072 -0.032935385 0.49834353
-0.08075917 -0.6480669 -0.21224543 -1.0501376 0.022993205 -0.2209702 0.13232793 -0.14094119
00000000: 41fd 403c 82c2 73bf 76c7 bb3d 2ab7 80be
00000010: d122 143f ec66 1cc0 d692 773f ed0e fbbf
00000020: ec67 3a3e 5fcc 803e 472c 0fbf 5fdf 39bf
00000030: 9c1d 0dbe 1b70 803e adac 3a3f 5f31 56be
00000040: 7f08 5ebf 2951 debe 5161 98be aba2 e8bd
00000050: 2191 183e 53dc 6e3d 1631 2cbf e673 ed3e
00000060: de91 92be ab9b 853d 6dfd bebe 2cde 843f
00000070: e7fa a3c0 3fad b8bf ef14 e23f 3f2d 5bbf
00000080: 6387 88be e51b d8bf 8170 053f 6a3d 15be
00000090: f06b 713d ae7a bfbf e56c 0f3f eac5 84bf
000000a0: 2601 45bf 2ee7 0e3f fb5e cfbd 17f8 313f
000000b0: 4503 4fbf e78f 833d c385 213d 5661 4fc0
000000c0: 50c8 a2bf ec68 adbf ea2f 653e f030 b83e
000000d0: cfa9 3bbe 526d 5a3e 2264 4f3d 887e 063f
000000e0: 9b84 a8be 795c 91be 7aad 82bf c778 58bf
000000f0: 6eb4 493f bc26 a8c0 435d 7dbf 9bc8 46bf
00000100: 1464 ec3d 8d3e 743e 5783 f53d 3bd5 be3e
00000110: d58f 813f 609b 583f 2b4f af3e c94d 68bf
00000120: 448e 27bf d5e4 0b3b b31f d33c 27d5 583f
00000130: f525 8bbf 64b7 fa3e 89f9 dabf 72a9 a0bf
00000140: b8cc 393f 143a a2c0 b53d a2be e8d8 363f
00000150: f945 e2bf 077f 19bf 71cd 73bf 2d98 333f
00000160: 3338 f1bf 29da a2be e6fa afbe dee1 58be
00000170: 4876 f5bf 3bd9 89be fb36 8abe f385 30bf
00000180: 2aff 493f 02f4 6abf 285d 0dbf 5636 25bf
00000190: 205d 9e3d 16c3 723f 24bb 823c 0d15 f5bf
000001a0: 2be6 31bf feba 363f 1571 d5c0 b029 25bf
000001b0: 3bd9 183f 2fe4 7e3f a798 88bf 649f b13c
000001c0: 9932 5ebe 57c8 a53e 808f 033e 73f3 8ebf
000001d0: acdc f6be 7c60 73bf f3e2 acbe 144f 4bbf
000001e0: c524 703e a4b6 5fbe 6623 0ac0 3a2e 6c3d
000001f0: 50d4 9b3d 54e7 94be 650b f3bd c5d6 1fbf
00000200: 5abd cfbd 99b2 12bf 13b5 353f 00a3 8dbf
00000210: 4122 69be 2551 02bd 407f 1cbf 2a4b db3e
00000220: 602c f33e ae21 b5bd 32ea 33be 3421 80be
00000230: ab94 013f 9d04 ad3d 0767 79be b219 4d3f
00000240: 5750 9bbf 61f7 87bf a384 213e 9f2f 2e3c
00000250: 50fd e73e c62f 86be b15b 9c3e a208 d43e
00000260: b3ae 113e cff2 433e 603f 883e 5d03 d3be
00000270: e5d2 1ebf 8cca bc3d fad1 39be 9538 cabe
00000280: c343 d8be dfe4 1ebf d83b f0be c4ba 9fbf
00000290: 7405 c73c 94fe 0fbf d886 50bf d490 9b3e
000002a0: d5bb 36bf 5349 713f bf09 9fbc 68ba a73d
000002b0: 6698 863f 5727 863c 739e b7be 1b4a a03b
000002c0: eec3 ecbf c72d 9cbf 16c1 d2bd 12df 26be
000002d0: de25 353e bf30 00bf 9ee6 86be 7863 11bf
000002e0: 147d de3b 20e2 223f df79 b63d 73a7 10bf
000002f0: 25ca 31bf cccc 553f 6f02 07c0 be84 0abf
00000300: 4eb2 c73e 31a3 2bc0 dcf6 b13d 08c1 adbf
00000310: a61a 0b3f 2e47 ad3d 36c1 393e 78e0 dcbf
00000320: 06a7 533f 98ed c1bf 7900 293d 1542 82bf
00000330: b6f8 e3bf 70b2 5d3d fa89 d6be 5cd9 b23e
00000340: a382 91bf c89a ddbd 2b3b ce3e b73c 7abf
00000350: 1048 9abd 20e2 87bf de43 8abf 3383 963e
00000360: d031 c13e b3b7 e2be 33f7 eebd 41df 813f
00000370: 5ebe fabe f8ae 18bf ecd7 92bf 4c85 0f3e
00000380: ea94 2a3d 1bfe b43d eb0b 2b3e a0cc 70bf
00000390: d0bf 37bf 390a 463f 64bd cdbe f846 b7bf
000003a0: d4db 41bf abd3 40be dd40 ec3d a462 e23c
000003b0: d18a 8fbe 7184 16bd e912 f0bf 6a91 d53e
000003c0: 313b 36be b392 673d 34f1 a23e d6a7 eebf
000003d0: 951b 913b f191 bebe 41e7 06bd e226 ff3e
000003e0: 1065 a5bd b6e7 25bf de56 59be e96a 86bf
000003f0: 3f5c bc3c 0346 62be f980 073e e352 10be

reward_fun.2.bias f4 [200]
0.7760913 -0.44335955 0.26666465 -0.21520217 -0.3899273 -0.2991309 -0.19463673 0.08180314
-0.061265834 0.050747722 0.5938186 -0.07069038 -0.083706945 -0.24907982 -0.11467242 -1.3365285
-0.14433096 -0.043079663 -0.16768356 -0.09001947 -0.08847295 -0.0800721 0.33139965 -0.21266946
-0.055349488 -0.17703027 -0.0602679 1.0956131 -0.1714639 -0.29314053 -0.6355441 -0.6452081
-0.026591275 -0.82690454 0.88849694 -0.22320434 -0.028473489 0.0077989493 -0.23192206 -0.2536502
-0.033106472 -0.25243923 -0.2972615 -0.10566988 -0.076635174 0.32163203 0.09240302 0.36593944
0.09535715 -0.60575485 -0.021566449 -0.0123326555 0.034192294 -0.11146787 -0.0015872427 -0.30557516
1.0392565 -0.15782917 0.8084101 -0.27532706 -0.22125764 0.031617202 1.3934641 -0.094526626
-0.083970286 -0.4702966 0.3489384 0.12781549 -0.04722121 0.08436936 0.46707296 0.1605118
1.1622862 0.3244391 0.18708755 -0.061900627 0.007188248 -0.5579277 -0.056981154 0.06610587
0.67839223 -0.031343333 -0.14365868 -0.3379884 -0.024673903 -0.03890262 0.6723675 0.008799847
-0.07387811 0.016171094 -0.13482122 -0.08150406 0.52718765 -0.3664508 0.0013363207 -0.16805884
-0.12059424 0.69597346 -0.56212765 -0.16301504 -0.18413495 -0.030348454 -0.11319191 -0.6012656
-0.02478567 -0.08158996 -0.192866 -0.62658525 -0.26741713 -0.08926154 -0.13429551 -0.17694756
-0.5632338 -0.23842686 0.81366855 -0.06425906 0.25228283 0.44630995 -0.0562193 -0.09434136
-0.03470722 -0.5687149 0.9856951 0.4352912 0.11192965 0.11740474 -0.6628392 -0.025149727
-0.068983905 -0.17231345 -0.08431436 -0.6445737 -0.28403693 0.0032872276 -0.04985472 1.8488337
-0.13188735 -0.30298665 0.16696571 -0.05840603 0.14445038 -0.024557373 -0.0342486 -0.11558244
0.68822354 -0.07791607 -0.2832674 -0.51177096 0.27777302 -0.34145397 0.16110776 -0.020981347
0.10590805 1.4782083 0.21897818 0.21298616 -0.180582 -0.017961144 -0.0651382 -0.102569096
-0.10966628 -0.14570086 0.45506403 -0.17932288 -0.44446805 -0.18606764 -0.09761679 0.020329077
-0.06924589 0.6513543 0.025173508 -0.33287185 -0.10259715 -0.038596895 -0.12042713 0.030228993
-0.6414939 -0.0868512 0.18636775 -0.5830581 -0.036501355 -0.012186473 -1.3633718 0.0020230857
-0.08516243 -0.008395231 -0.8438557 -0.13458979 -0.04418078 -0.5725957 -0.117615715 -0.18121973
0.78997016 -0.16772762 0.06640598 -0.13486919 -0.7597864 -0.0028051208 0.036843892 -0.061562702
00000000: ebad 463f 0600 e3be 4588 883e f55d 5cbe
00000010: 8da4 c7be af27 99be da4e 47be 6888 a73d
00000020: e2f1 7abd d8dc 4f3d 7f04 183f 1ec6 90bd
00000030: 8c6e abbd c80e 7fbe 60d9 eabd 5e13 abbf
00000040: 7fcb 13be 4d74 30bd 3db5 2bbe 215c b8bd
00000050: 4e31 b5bd d7fc a3bd 37ad a93e 06c6 59be
00000060: 25b6 62bd 6c47 35be 79db 76bd 0d3d 8c3f
00000070: 3c94 2fbe 8416 96be 05b3 22bf 5c2c 25bf
00000080: f2d5 d9bc 04b0 53bf 8974 633f ae8f 64be
00000090: 3c41 e9bc 548e ff3b fa7c 6dbe 70de 81be
000000a0: a79a 07bd b73f 81be a932 98be 7369 d8bd
000000b0: e7f2 9cbd f4ac a43e cb3d bd3d 6a5c bb3e
000000c0: 9c4a c33d c012 1bbf 1fac b0bc e80e 4abc
000000d0: 380d 0c3d 4449 e4bd 070b d0ba 5974 9cbe
000000e0: 5b06 853f f89d 21be f7f3 4e3f abf7 8cbe
000000f0: 5d91 62be 0a81 013d 085d b23f 2d97 c1bd
00000100: 9df8 abbd b7ca f0be 0ea8 b23e 10e2 023e
00000110: 076b 41bd d8c9 ac3d 3024 ef3e 355d 243e
00000120: cbc5 943f e21c a63e e193 3f3e 838b 7dbd
00000130: 658b eb3b 5ad4 0ebf 1265 69bd 8462 873d
00000140: 1dab 2d3f de61 00bd 431b 13be d10c adbe
00000150: ed20 cabc 5b58 1fbd 4720 2c3f 3c2d 103c
00000160: 684d 97bd 3e79 843c 930e 0abe 9aeb a6bd
00000170: c5f5 063f 709f bbbe 7b27 af3a 9e17 2cbe
00000180: 1dfa f6bd 512b 323f 99e7 0fbf 6aed 26be
00000190: df8d 3cbe 529d f8bc 29d1 e7bd 8bec 19bf
000001a0: 510b cbbc a318 a7bd aa7e 45be e467 20bf
000001b0: e6ea 88be c1ce b6bd c384 09be be31 35be
000001c0: 1730 10bf 2c26 74be 954c 503f 419a 83bd
000001d0: 372b 813e bd82 e43e 3546 66bd 0b36 c1bd
000001e0: 2829 0ebd 4d97 11bf 8456 7c3f 7dde de3e
000001f0: 5f3b e53d e571 f03d d4af 29bf cd06 cebc
00000200: 6f47 8dbd f072 30be 02ad acbd c802 25bf
00000210: 4a6d 91be 876e 573b 7634 4cbd 95a6 ec3f
00000220: 7a0d 07be 1121 9bbe 0ff9 2a3e 293b 6fbd
00000230: cdea 133e 8b2c c9bc 4348 0cbd 7cb6 ecbd
00000240: 6b2f 303f 7692 9fbd 6d08 91be 6c03 03bf
00000250: 4438 8e3e 0ed3 aebe 6ff9 243e 13e1 abbc
00000260: 52e6 d83d ee35 bd3f d13b 603e 0b19 5a3e
00000270: 7dea 38be 4023 93bc 2d67 85bd bf0f d2bd
00000280: b798 e0bd 9b32 15be 27fe e83e 6ba0 37be
00000290: 5191 e3be 8488 3ebe 50eb c7bd 2a89 a63c
000002a0: cad0 8dbd 28bf 263f ac38 ce3c 2e6e aabe
000002b0: 741e d2bd c717 1ebd 80a2 f6bd cba2 f73c
000002c0: f238 24bf 0bdf b1bd 30d7 3e3e 4c43 15bf
000002d0: 7282 15bd c6a9 47bc f882 aebf bf95 043b
000002e0: a469 aebd 278c 09bc ed06 58bf e8d1 09be
000002f0: e8f6 34bd a295 12bf 82e0 f0bd aa91 39be
00000300: 7c3b 4a3f cac0 2bbe dcff 873d 261b 0abe
00000310: 5d81 42bf 1ed6 37bb 9fe9 163d 2c29 7cbd

reward_fun.4.weight f4 [1, 200]
0.159903 -0.82599515 -0.27205703 0.023576748 -0.03336373 0.024540111 -0.0309448 0.033941153
0.051098466 0.5564993 0.2118684 -0.074533224 -0.4512026 0.012319237 0.00742771 0.26075724
0.0884933 0.045317806 0.096413255 0.010394572 0.042433094 -0.08633525 0.44130534 0.075942606
0.010966806 0.07874862 -0.006760122 -0.37888563 0.011469514 -0.016969396 0.57250834 0.1826884
-0.048357528 0.6863749 -0.095722914 0.04759047 -0.0032340318 0.0049927942 0.05612096 0.0089323735
-0.020668274 -0.000639519 -1.7819549 -0.00066874916 0.010897459 -0.13398375 -1.037917 -0.6826056
-0.1210306 -0.34955066 0.09048488 0.04065453 0.43219888 0.065247595 -0.0067986543 -0.18315692
-0.27496397 0.08580754 -0.6361954 -1.284874 0.014955891 0.044914007 0.4604699 0.027349865
-0.015918555 0.08156728 -0.13132198 -0.789829 -0.014579831 0.07702803 -0.68105775 0.77217585
-0.26070765 -0.7276774 -0.3825082 0.16567646 -0.03882491 0.25211668 -0.007957398 -0.0012507549
-0.5107274 0.042563453 -0.050763756 0.57229304 0.0013140761 0.0113203395 -2.0383215 0.015792526
0.059791878 0.0029265764 0.07317706 -0.05105897 -0.22576344 0.042457234 0.100252256 0.06380728
-0.07234916 0.12258511 0.04102142 0.05969116 -0.023591308 0.003185567 0.04887025 -0.002536245
0.022332108 -0.066836745 -0.016063008 0.08300015 -0.18942152 -0.019514319 -2.0777965 0.07904132
-0.15950964 0.06998881 0.51796204 0.03747645 0.70343673 -0.24454828 -0.07184935 0.01282811
-0.017572574 0.055554032 -0.38868546 -0.22025418 0.48177066 0.7068203 -0.44914258 0.03376781
0.25341833 -0.08552355 -0.0041919746 -0.24626774 0.002659059 -0.0028225137 -0.017656233 0.23255634
0.025926089 -0.2194066 -0.060066454 0.3820347 0.05470261 0.13423386 0.037131406 -0.023462309
-1.7249655 -0.06127123 0.11783196 0.006599584 -0.81099564 -0.018761313 0.09686916 0.020047585
-0.057059433 -0.42808416 -0.51566243 0.067389056 0.035521027 0.046766922 0.012798661 0.033985145
-0.042408373 0.91726655 -0.3161235 -0.012860181 0.035077278 0.12058664 0.021831034 -0.01036526
0.010161142 -1.5575365 0.13218963 0.091344364 0.049097054 0.044416267 -0.04621564 -0.01927641
-0.04032753 0.0807605 0.281776 -0.3015734 -0.0026307143 0.0056457543 -0.35129938 0.026110074
-0.0032286956 0.006298452 0.1710338 -0.03354639 0.013134555 0.33924866 -0.0391575 -0.073068865
0.4122262 -0.034385927 -0.46558136 0.058612738 -1.3040174 -0.003580897 0.027155844 -0.0035764144
00000000: 9dbd 233e 6b74 53bf 0f4b 8bbe 0624 c13c
00000010: 68a8 08bd 5808 c93c f37f fdbc e105 0b3d
00000020: a04c 513d bd76 0e3f 08f4 583e e0a4 98bd
00000030: 0704 e7be a0d6 493c 2664 f33b f981 853e
00000040: fa3b b53d 2a9f 393d 5074 c53d ff4d 2a3c
00000050: 53ce 2d3d 89d0 b0bd c6f2 e13e cc87 9b3d
00000060: 1eae 333c f546 a13d 0384 ddbb 4cfd c1be
00000070: a1ea 3b3c 6703 8bbc e88f 123f ab12 3b3e
00000080: 8b12 46bd 44b6 2f3f 600a c4bd 3aee 423d
00000090: 0df2 53bb 989a a33b 17df 653d 1759 123c
000000a0: 8350 a9bc 65a5 27ba 1917 e4bf ff4e 2fba
000000b0: 428b 323c 0933 09be 77da 84bf 3ebf 2ebf
000000c0: e4de f7bd 4ef8 b2be 2350 b93d 5d85 263d
000000d0: 2c49 dd3e 88a0 853d 3fc7 debb 7d8d 3bbe
000000e0: 14c8 8cbe ddbb af3d b4dd 22bf c076 a4bf
000000f0: 8e09 753c c0f7 373d b6c2 eb3e d30c e03c
00000100: a167 82bc bf0c a73d 4579 06be 3c32 4abf
00000110: 3ee0 6ebc dfc0 9d3d cd59 2ebf 51ad 453f
00000120: 797b 85be 1149 3abf 1dd8 c3be 17a7 293e
00000130: de06 1fbd 7015 813e bf5f 02bc 5ff0 a3ba
00000140: 08bf 02bf 0457 2e3d a8ed 4fbd cc81 123f
00000150: 143d ac3a f278 393c dc73 02c0 545f 813c
00000160: 54e8 743d cecb 3f3b dbdd 953d 3623 51bd
00000170: 882e 67be a3e7 2d3d 0e51 cd3d 64ad 823d
00000180: cc2b 94bd e70d fb3d 1406 283d b87e 743d
00000190: 8f42 c1bc f2c4 503b 2c2c 483d 2137 26bb
000001a0: d3f1 b63c b4e1 88bd 9296 83bc fcfb a93d
000001b0: b7f7 41be 7edc 9fbc 9efa 04c0 6ae0 a13d
000001c0: 7f56 23be 4b56 8f3d 2999 043f e880 193d
000001d0: 6e14 343f dd6a 7abe c125 93bd fe2c 523c
000001e0: 5cf4 8fbc a08c 633d c801 c7be 508a 61be
000001f0: a5aa f63e 2df2 343f 04f6 e5be 1d50 0a3d
00000200: 0cc0 813e f926 afbd d55c 89bb 9c2d 7cbe
00000210: 9b43 2e3b ecf9 38bb cea3 90bc 4023 6e3e
00000220: f362 d43c 20ac 60be 3e08 76bd 0d9a c33e
00000230: d80f 603d 9a74 093e 1a17 183d 0734 c0bc
00000240: abcb dcbf 8bf7 7abd e251 f13d 5341 d83b
00000250: 699d 4fbf 53b1 99bc 5763 c63d d53a a43c
00000260: 27b7 69bd d92d dbbe 7402 04bf 4603 8a3d
00000270: 7f7e 113d ac8e 3f3d 7ab1 513c 0234 0b3d
00000280: 67b4 2dbd fbd1 6a3f f0da a1be 82b3 52bc
00000290: 31ad 0f3d 21f6 f63d ffd6 b23c 0dd3 29bc
000002a0: eb7a 263c 5b5d c7bf b85c 073e c112 bb3d
000002b0: fe19 493d d5ed 353d 9c4c 3dbd 90e9 9dbc
000002c0: 7b2e 25bd c365 a53d f244 903e d467 9abe
000002d0: 1068 2cbb 0500 b93b 83dd b3be cbe4 d53c
000002e0: 8698 53bb 3f63 ce3b 7c23 2f3e f067 09bd
000002f0: 5132 573c 00b2 ad3e 9d63 20bd 21a5 95bd
00000300: 500f d33e 42d8 0cbd ae60 eebe e913 703d
00000310: 0bea a6bf 7cad 6abb ef75 de3c 4762 6abb
