HybridLearning-master/data/hlt_stoch/InvertedPendulumBulletEnv/seed_666/model_8000.pt (torch, 180898 bytes, 10 tensors)

log_std f4 [1, 5]
0	0xc09b71a9	-4.8576245
1	0xc0184590	-2.3792458
2	0xc09b042c	-4.8442593
3	0xc09512e2	-4.658555
4	0xbfe27ac2	-1.7693713

mu.0.weight f4 [200, 6]
0	0x3f0416b8	0.51597166
1	0xbd825499	-0.06363792
2	0xbf0d1575	-0.55110866
3	0xbf5b17a1	-0.8558293
4	0xbe605bb4	-0.21909982
5	0xbf33ac8e	-0.7018517
6	0x3e3d22ef	0.18470357
7	0xbe59628d	-0.21229
8	0xbe00de6f	-0.12584852
9	0xbf655bcb	-0.8959319
10	0xbdae849c	-0.08521387
11	0x3dd32abe	0.10310887
12	0xb8b28668	-8.5127365e-05
13	0x386f643b	5.7075387e-05
14	0xb889ddd5	-6.5739885e-05
15	0x386d3e86	5.6563433e-05
16	0xb88a142f	-6.584112e-05
17	0x388dc95b	6.760909e-05
18	0xbbe06835	-0.00684836
19	0xbe28770c	-0.16451663
20	0xbfb1024d	-1.3828827
21	0x3f5e50ea	0.86842215
22	0x3b99e6aa	0.0046966868
23	0x3df0e992	0.117633
24	0xbe134a40	-0.14383793
25	0x3cd06b78	0.02544187
26	0x3e1f507f	0.1555805
27	0xbf997111	-1.198763
28	0xbdf00d67	-0.11721306
29	0x3e6c478d	0.2307417
30	0xbf755882	-0.9583818
31	0x3eccfb2c	0.4003538
32	0xbe892dd2	-0.2679277
33	0xbfebc2b9	-1.84188
34	0x3f25b261	0.6472531
35	0x3dd13e51	0.10216964
36	0x3f4265ef	0.7593679
37	0x3e9518be	0.2912044
38	0x3d4fa3b5	0.050693233
39	0xbf494036	-0.78613603
40	0x3e09b53c	0.13448042
41	0x3f3a4355	0.7275899
42	0x3c365f4d	0.01113112
43	0x3abb55bc	0.0014292519
44	0xba7b5068	-0.00095868716
45	0xbc897657	-0.016780062
46	0xbb4b9835	-0.0031066064
47	0x3b728fa2	0.0037011881
48	0xb9ee41e4	-0.0004544399
49	0x3b1244c2	0.0022318815
50	0xbacf20a5	-0.0015802576
51	0xbb32500d	-0.0027208359
52	0xbb058290	-0.002037201
53	0x3b4bd9b6	0.0031105108
54	0x3e1a1cb9	0.1505002
55	0x3df093b6	0.117469236
56	0xbe9527b0	-0.29131842
57	0x3f9d4ade	1.2288473
58	0xbe2c2b60	-0.16813421
59	0xbe67f4d6	-0.22651991
60	0xbbda7393	-0.0066666096
61	0xbabbb7c7	-0.0014321738
62	0xbafb02e1	-0.0019150638
63	0x3c01da23	0.007925543
64	0x3b1625c4	0.0022910694
65	0x3bb80503	0.005615832
66	0xbc07f93d	-0.008299169
67	0x3ad23391	0.0016037097
68	0x3a345204	0.00068786764
69	0x3bfb63ba	0.0076718004
70	0xbb72c8a7	-0.0037045868
71	0xbbf93f59	-0.0076064286
72	0x3e272da3	0.16326003
73	0x3dfe1d86	0.12407975
74	0xbefe54a1	-0.49673942
75	0xbf125ca4	-0.5717261
76	0xbd879e02	-0.066219345
77	0xbe2cda62	-0.16880181
78	0x3aa88d03	0.0012859408
79	0x3b2ff930	0.0026851408
80	0x398cdb25	0.00026866156
81	0xbb95be28	-0.0045697875
82	0xbb30fec1	-0.0027007314
83	0xba278911	-0.0006390969
84	0x3cbaf168	0.02282019
85	0x3be7ff39	0.0070799855
86	0xbfb232d1	-1.3921758
87	0xbe8c4ee5	-0.27403942
88	0x3e05610b	0.130253
89	0xbcaed73d	-0.021342868
90	0xbb14f3a1	-0.0022728222
91	0x384685ce	4.7331494e-05
92	0x383fcf55	4.573104e-05
93	0x3b4c686c	0.003119017
94	0x38fbce68	0.00012007059
95	0xbab4a73c	-0.001378275
96	0x3cb42d80	0.021994352
97	0x3de33f0a	0.11096008
98	0xbf24caf4	-0.6437218
99	0xbf86fbaa	-1.0545552
100	0x3d828494	0.063729435
101	0x3edf9b54	0.43673193
102	0x38e1f161	0.000107737964
103	0x393ef291	0.00018210175
104	0x37f5f1da	2.9318897e-05
105	0xb9a0eb56	-0.00030692917
106	0xb94f8968	-0.00019792246
107	0xb83bf0b7	-4.4808457e-05
108	0x39525aba	0.00020060959
109	0xb9bee5cd	-0.0003641084
110	0x3914af11	0.00014179597
111	0x393f7b20	0.00018261047
112	0x393e1a74	0.00018129667
113	0xb9388e66	-0.00017600655
114	0x3dabf357	0.08396023
115	0x3e8bd4cd	0.27310792
116	0xbe29b1d9	-0.1657175
117	0xbf41fe6a	-0.7577883
118	0x3eb2b272	0.34901768
119	0x3c955f75	0.018233994
120	0xbf3c74e2	-0.7361585
121	0xbf0fd96f	-0.5619115
122	0xbe9416fa	-0.2892378
123	0xbfd33566	-1.6500671
124	0xbeb4ae67	-0.35289308
125	0x3f4b153f	0.79329294
126	0x3a31f2c6	0.000678819
127	0x3b0107f7	0.0019688585
128	0x39548804	0.00020268565
129	0xbb28e28a	-0.0025769793
130	0xbb0ea382	-0.0021764939
131	0xba1d60f2	-0.00060035207
132	0xbf2d1942	-0.67616665
133	0x3ecda3d1	0.40164044
134	0xbe25c5a9	-0.16188683
135	0xbb347a77	-0.0027538815
136	0x3e217133	0.15765838
137	0x3e69d664	0.2283569
138	0x3ad75b07	0.0016430327
139	0xba324bd4	-0.00068014604
140	0x390a36fe	0.00013181192
141	0xba9b707b	-0.0011859083
142	0x39f33cee	0.00046393968
143	0x3a93554e	0.0011240633
144	0x3d3cb7bf	0.04607367
145	0x3df92fcf	0.12167322
146	0xbd78a0aa	-0.060700096
147	0x3e2a7807	0.1664735
148	0xbade0ea4	-0.0016941619
149	0xbda46554	-0.08027139
150	0xbc0a0798	-0.008424662
151	0x3b4f4abb	0.0031630236
152	0x3b82dcf0	0.003993623
153	0x3c842643	0.016131526
154	0xbc34ee1b	-0.011043097
155	0xbcf4b000	-0.02986908
156	0xbbc7948b	-0.0060907057
157	0xbb1da15b	-0.0024052474
158	0xbb493b15	-0.0030705382
159	0x3cc08b4f	0.023503928
160	0x3a053eb4	0.0005082891
161	0xba66d20e	-0.00088051043
162	0x395c2ea5	0.00020998211
163	0xb8f8cea5	-0.00011864052
164	0x3919ef71	0.00014680416
165	0xb911ec4e	-0.00013916308
166	0x38b8cf98	8.812471e-05
167	0xb8b54104	-8.642863e-05
168	0x35c47a32	1.4638701e-06
169	0xb59ce1b2	-1.1688592e-06
170	0x3524e4e8	6.1427863e-07
171	0xb5fec51d	-1.8981842e-06
172	0xb4d1f6c8	-3.910884e-07
173	0x363a5396	2.7764813e-06
174	0xbf62d837	-0.8861117
175	0xbeb1c721	-0.34722236
176	0x3ea2174f	0.31658408
177	0xbf3876f9	-0.7205654
178	0x3eb6462e	0.35600418
179	0x3e084cfe	0.1331062
180	0x36c316aa	5.8140913e-06
181	0xb725c9fa	-9.881793e-06
182	0x36830867	3.9050824e-06
183	0x36b3a0b8	5.353326e-06
184	0xb73b25d3	-1.1154875e-05
185	0x37082e7e	8.1170565e-06
186	0xb812d8c9	-3.501101e-05
187	0x3702d50b	7.798207e-06
188	0xb67f01d4	-3.7999025e-06
189	0x3725cfef	9.88318e-06
190	0x37d9a7d9	2.5946576e-05
191	0xb7c88fc9	-2.3908813e-05
192	0xbfab78ff	-1.33963
193	0xbeae0a1c	-0.33992088
194	0x3f36e693	0.7144558
195	0x3f217849	0.63074166
196	0x3e90e3df	0.28298852
197	0x3f1b5376	0.60674226
198	0xbf9167ce	-1.1359804
199	0xbf2cb8a7	-0.6746926
200	0xbe417401	-0.18891908
201	0xbfbdebfa	-1.4837639
202	0xbd6baab7	-0.057535853
203	0xbf2824f3	-0.6568138
204	0xbb569777	-0.0032744089
205	0x3ba64194	0.0050737355
206	0xbb209a7c	-0.0024506142
207	0x3bc11350	0.005892195
208	0xbb5ee78f	-0.0034012531
209	0x3ab1ddba	0.0013570108
210	0x3ee31fc8	0.44360185
211	0xbad415dd	-0.0016180832
212	0xbf312e4e	-0.6921128
213	0x3f9081eb	1.1289648
214	0xbed40fca	-0.41418296
215	0x3d3b331b	0.045703035
216	0xba808cbf	-0.0009807571
217	0x3a7d7190	0.0009668106
218	0xb9d7e7a3	-0.00041180578
219	0xba4479cb	-0.0007494955
220	0xb9da283e	-0.00041610183
221	0x3a44b88a	0.0007504305
222	0xbce8d08b	-0.028419754
223	0xbb89c9b3	-0.0042049526
224	0xbb988f37	-0.0046557444
225	0xbcf4ff40	-0.029906869
226	0xbc251864	-0.010076616
227	0x3d28a017	0.0411683
228	0xbc3eb17d	-0.011638996
229	0x3b7174c9	0.003684329
230	0xbaf517ee	-0.0018699148
231	0x3c54bf38	0.012985043
232	0x39878366	0.00025847106
233	0x3bb1fadb	0.0054315156
234	0xbf869183	-1.0513157
235	0x3e082191	0.13294055
236	0xbdaacf81	-0.083403595
237	0x3f08f164	0.5349333
238	0x3f1d65a0	0.6148319
239	0xbefc86cc	-0.49321592
240	0x3f4ed6b3	0.80796355
241	0x3e0d311a	0.13788262
242	0x3f5db381	0.86602026
243	0xbf59a83c	-0.8502233
244	0x3d5acc41	0.053417448
245	0xbdc33353	-0.09531274
246	0x3c4f7a4e	0.012663437
247	0x3c9049c6	0.017613303
248	0x3aa4b224	0.0012565297
249	0xbabfeee8	-0.0014643343
250	0xbac1a84a	-0.0014774885
251	0xbca8d105	-0.02060748
252	0xbba824e2	-0.00513135
253	0xbcacf239	-0.021111595
254	0xbb928c77	-0.004472311
255	0xbc5d1c57	-0.013495526

mu.0.bias f4 [200]
0	0xbeacaa1e	-0.3372354
1	0x3e66a9c8	0.22525704
2	0x3813aa19	3.5205947e-05
3	0x3fb58629	1.4181567
4	0x3f2a2090	0.66455936
5	0x3e7b0295	0.24512704
6	0xbe3920bd	-0.18078895
7	0x3a9cf86e	0.0011975893
8	0x38d45230	0.000101242564
9	0x3f2bf0f4	0.6716454
10	0xb9a57454	-0.00031557924
11	0xbb3e9d0b	-0.0029085304
12	0x3ee29aed	0.44258824
13	0xba0f68da	-0.0005470641
14	0xbf97dd30	-1.1864376
15	0xb9d4e197	-0.0004060387
16	0x3f4cad94	0.7995236
17	0xb8386447	-4.396241e-05
18	0x37d256c5	2.5074356e-05
19	0x3e740430	0.23829722
20	0x3f375e06	0.71627843
21	0xba102440	-0.0005498566
22	0x3e758a17	0.23978458
23	0x39b88dc0	0.00035200827
24	0x3dbb8d0e	0.091577634
25	0xbbce1268	-0.0062888153
26	0xb9eb6845	-0.0004490038
27	0xb8ef3b8b	-0.00011407499
28	0xb58c3d18	-1.0448593e-06
29	0xbf24f770	-0.6444006
30	0xb6b8fc60	-5.5130076e-06
31	0x3791cded	1.7381239e-05
32	0x3e108bcb	0.14115827
33	0x3cabf01c	0.020988517
34	0x390a2dba	0.0001317774
35	0x3f4b0022	0.7929708
36	0xb8d69e6a	-0.00010233822
37	0xbbed8708	-0.007248763
38	0xba2e5aab	-0.0006651084
39	0x3e19ba55	0.15012486
40	0xbf646be3	-0.8922712
41	0xbb9fa037	-0.004871394
42	0x3bbadada	0.0057023587
43	0xbebe622b	-0.3718427
44	0xb8804f05	-6.118234e-05
45	0x3fa6096e	1.2971628
46	0x38331183	4.2693235e-05
47	0xba0c2d77	-0.0005347351
48	0x3ea54898	0.32281947
49	0xbaf2533b	-0.0018487939
50	0x3731658b	1.0573664e-05
51	0xbc93db8d	-0.018049026
52	0xb80729e9	-3.222554e-05
53	0x399045d4	0.00027517846
54	0xbf296b30	-0.6617918
55	0xbf35cf83	-0.7101976
56	0xb9a6602e	-0.00031733647
57	0xb78e802b	-1.6987402e-05
58	0x3b88e5bf	0.0041777785
59	0xb759883d	-1.2965928e-05
60	0xbac03490	-0.0014664102
61	0x3aaa4873	0.0012991562
62	0xbc2fc99b	-0.010729219
63	0xb95bd814	-0.00020965963
64	0x32953f06	1.7374543e-08
65	0x3d358939	0.04432032
66	0x3b3a12f9	0.0028392656
67	0xbf2bf999	-0.6717773
68	0xbddb9dca	-0.10723455
69	0xbef93034	-0.4866959
70	0xbf1b9f35	-0.60789806
71	0x38807911	6.126066e-05
72	0x39d39048	0.00040352554
73	0x3f1d5847	0.61462826
74	0x394c1c28	0.00019465445
75	0xbd5b5ebb	-0.05355714
76	0xbed8bda5	-0.42332187
77	0xb7999fe9	-1.8313485e-05
78	0x3fa0bb6a	1.2557194
79	0x3b585419	0.003300911
80	0xbe04c944	-0.12967402
81	0x394fb462	0.00019808256
82	0xba80645e	-0.0009795537
83	0xbed18ddf	-0.40928552
84	0xb81ba6f1	-3.7110356e-05
85	0xbee7e7ad	-0.45293942
86	0xbac453a5	-0.0014978541
87	0xbe8bf1d8	-0.2733295
88	0x381b7aa5	3.70691e-05
89	0x3d64c37e	0.0558505
90	0xbed88e92	-0.42296273
91	0xbf18578e	-0.595086
92	0xb683a6d9	-3.923528e-06
93	0x3edd41ce	0.43214267
94	0x33068f63	3.1329716e-08
95	0x3a74b10c	0.00093342434
96	0x39ba5c23	0.00035545332
97	0xb9308296	-0.00016833315
98	0xb77f3eb0	-1.521378e-05
99	0x322c4e53	1.00295265e-08
100	0x3f06533d	0.5247076
101	0xb77e41af	-1.5154873e-05
102	0xbe7c3eae	-0.24633285
103	0xbd5dcf86	-0.054152988
104	0x37855382	1.5893722e-05
105	0xb6f3e55d	-7.2686657e-06
106	0xbaf5b926	-0.0018747195
107	0xbe8bbef1	-0.27294114
108	0x3ed74d56	0.4205119
109	0x3890ec58	6.9104775e-05
110	0x362d9c22	2.586989e-06
111	0xbeae33e9	-0.3402398
112	0xbcb4104a	-0.021980423
113	0xbe61f333	-0.2206543
114	0xba127849	-0.0005587382
115	0xba32d416	-0.00068217644
116	0xbcca0d46	-0.024664532
117	0x3c277afa	0.010222191
118	0x3f7fe41d	0.9995745
119	0xbdc68970	-0.09694183
120	0xb522154c	-6.0380694e-07
121	0xbb451280	-0.0030070841
122	0x362fee4f	2.6215746e-06
123	0x3fac1c8a	1.344621
124	0x3b1031f6	0.0022002435
125	0xbf9e7364	-1.2378964
126	0x3a5ab46d	0.00083429256
127	0xbf693a80	-0.9110489
128	0xba55ddf1	-0.0008158377
129	0x3b193dee	0.002338286
130	0x3dc71302	0.09720422
131	0xb7d902b7	-2.586968e-05
132	0xbf0842f7	-0.5322718
133	0xbc1e43e6	-0.009659743
134	0xba0dbba2	-0.00054066826
135	0x3e280c86	0.16411027
136	0xba03a454	-0.000502174
137	0x3a9a629a	0.0011778653
138	0xbc2ba53e	-0.0104764085
139	0x3ecd4dc3	0.4009839
140	0xbac72d66	-0.0015196025
141	0xb3d6a11d	-9.994458e-08
142	0x32486acb	1.1665814e-08
143	0x38cef3d5	9.868263e-05
144	0x3a111286	0.0005534071
145	0x3ed96770	0.4246173
146	0x3df1e564	0.11811331
147	0xbf067225	-0.5251792
148	0xb7b1054f	-2.1102516e-05
149	0xbeaf968e	-0.34294552
150	0x3e7f4efe	0.24932477
151	0x38ced055	9.86165e-05
152	0x3acdf99c	0.0015714648
153	0x3f02c828	0.51086664
154	0x3cda9d12	0.026686225
155	0xbf4d89a3	-0.8028814
156	0x3e5080b1	0.20361592
157	0xb7a38c7d	-1.9496534e-05
158	0x38275b8e	3.990117e-05
159	0xbc324386	-0.010880357
160	0x393fd24b	0.0001829352
161	0x3f693e8b	0.9111106
162	0xbb2a1d87	-0.002595754
163	0x3f8846c7	1.06466
164	0xb812dff8	-3.50177e-05
165	0x3d8a91aa	0.067660645
166	0xbeb0a23b	-0.34498772
167	0xbd91eedf	-0.07125639
168	0x3e41e855	0.18936284
169	0x3831d469	4.239791e-05
170	0xb8704977	-5.728888e-05
171	0x3db3f135	0.08786241
172	0xb12c797b	-2.5098348e-09
173	0x3f3ce371	0.7378455
174	0x3e113b47	0.14182769
175	0x37cab998	2.41667e-05
176	0xb6998cdf	-4.576155e-06
177	0x3ba562c0	0.0050471723
178	0xbc569e97	-0.013099334
179	0xbf4996b7	-0.787456
180	0x3a467e24	0.0007571897
181	0xb88e522f	-6.7863955e-05
182	0x3ea214ee	0.31656593
183	0x3e808a60	0.25105572
184	0xbd8256a8	-0.063641846
185	0xbafa813a	-0.0019111999
186	0xbe8e388e	-0.27777523
187	0x379ae9db	1.8467128e-05
188	0x3f04e0a4	0.51905274
189	0xb33e735d	-4.4342745e-08
190	0xbf0cd839	-0.5501743
191	0xb89c557e	-7.454584e-05
192	0x380e8b01	3.3984896e-05
193	0x3f0e7d24	0.556597
194	0xbaabd34a	-0.0013109234
195	0xb91bb524	-0.00014849432
196	0x37e55038	2.7336282e-05
197	0x3f3eeaa4	0.74576783
198	0xbe937276	-0.28798264
199	0xb9ba0cc4	-0.00035486196

mu.2.weight f4 [5, 200]
0	0xbcb2a470	-0.021806926
1	0xbcabbc80	-0.020963907
2	0xb86939c7	-5.560534e-05
3	0x3c9ad617	0.018900914
4	0x3c67b341	0.014141859
5	0xbb4d0ab0	-0.0031286888
6	0x3be2be33	0.006919646
7	0x3bc854c1	0.006113619
8	0x398b025e	0.0002651391
9	0x3c94cdec	0.018164597
10	0xbb764ca0	-0.0037582293
11	0xbb522a0b	-0.0032068517
12	0x3c5eabbc	0.013590749
13	0x3aea5ef8	0.0017881086
14	0xbbd114f1	-0.0063806702
15	0xba69b6c5	-0.00089154794
16	0xbc708137	-0.014679245
17	0x39059364	0.00012738776
18	0xb87d495f	-6.0388233e-05
19	0xba0db229	-0.0005405271
20	0xbaf3fc35	-0.0018614592
21	0x3a9c36ea	0.0011918221
22	0xbcae3031	-0.021263214
23	0x39e6c956	0.00044019026
24	0x3c29e435	0.01036935
25	0xbb9ec1c3	-0.0048448755
26	0xbba90ab5	-0.005158747
27	0x38e128ec	0.00010736458
28	0x34e8e659	4.3380967e-07
29	0x3cadd467	0.021219445
30	0xb70ae807	-8.279464e-06
31	0x37947dfd	1.7701643e-05
32	0xbc98e2c3	-0.018662816
33	0x3b9d047f	0.0047917957
34	0x3a857f93	0.0010185115
35	0x3b10ec92	0.0022113663
36	0x396a2076	0.00022328072
37	0xbbac53ed	-0.005259028
38	0xbb819b9b	-0.003955317
39	0xbc247e2e	-0.010039849
40	0x3c995cc8	0.018721
41	0x3bce027c	0.0062869173
42	0xbba8b201	-0.005148173
43	0xbbb15829	-0.005412121
44	0x37ab59ec	2.0426662e-05
45	0xbc0f77a8	-0.008756556
46	0x37dc6c05	2.6276344e-05
47	0xb9d11e51	-0.00039886174
48	0xbc004672	-0.0078292955
49	0xbb9cb37f	-0.00478214
50	0xb8222287	-3.8655966e-05
51	0x3c3c6008	0.011497505
52	0x37a97fc7	2.020587e-05
53	0x39c0f08a	0.0003680031
54	0x39639e6f	0.00021707428
55	0xba03e782	-0.0005031751
56	0x390e2240	0.00013554934
57	0xb701407b	-7.704012e-06
58	0x3bc657aa	0.006052931
59	0xb7c3c947	-2.3339539e-05
60	0xbae732bb	-0.001763902
61	0xbc453b4b	-0.012038062
62	0x3b25912e	0.0025263536
63	0xbb0123ff	-0.0019705293
64	0x33133103	3.427068e-08
65	0x3de6e9aa	0.11275037
66	0xbbef451b	-0.007301939
67	0x3bec4bec	0.007211199
68	0xbcb96836	-0.0226327
69	0xbc27a76b	-0.010232787
70	0xba934561	-0.0011235886
71	0xb880cb01	-6.141328e-05
72	0x38bd41d6	9.024485e-05
73	0xbc46f37a	-0.01214301
74	0xb94b5e3a	-0.00019394691
75	0x3c44ffc6	0.012023872
76	0x3d2d0805	0.042243976
77	0x37ecbed6	2.8222257e-05
78	0xbc8d0778	-0.017215475
79	0xbab9cfb1	-0.0014176277
80	0x3ab86cfa	0.0014070563
81	0xba1551ae	-0.000569607
82	0x3b3e8ba1	0.0029074925
83	0xbb72646f	-0.0036986133
84	0xb7c52075	-2.3499344e-05
85	0xba10f191	-0.000552916
86	0xbbdb27d1	-0.006688096
87	0xbc813fa2	-0.015777413
88	0x3832b593	4.260761e-05
89	0x3c820f49	0.01587643
90	0xba8a0453	-0.0010529853
91	0x3c094efc	0.008380648
92	0x36b3eab6	5.3619397e-06
93	0xba798353	-0.0009518165
94	0x32d58dcb	2.4860944e-08
95	0x3b8786eb	0.0041359565
96	0x3abc1e8b	0.0014352364
97	0x3aa29094	0.0012402707
98	0xb86260df	-5.3972817e-05
99	0x31f64e56	7.168448e-09
100	0x3c22e3e9	0.009942033
101	0x368385a5	3.9196625e-06
102	0xb95352cc	-0.00020153372
103	0xbc066d5b	-0.008204783
104	0xba39d7e4	-0.000708936
105	0xb703f0ec	-7.8643025e-06
106	0xbbb6e93c	-0.005582003
107	0xbbe1f3af	-0.0068955044
108	0xbb53cc1e	-0.0032317708
109	0x38441e38	4.6758185e-05
110	0x3689d17a	4.1073044e-06
111	0xbcccb901	-0.02499056
112	0xbbd6e5dc	-0.006558163
113	0xbbc7bff5	-0.006095881
114	0x3a884e69	0.0010399345
115	0x3c11e09e	0.008903651
116	0x3c2f9108	0.0107157305
117	0xbce5507d	-0.027992481
118	0x3a12fae8	0.0005606846
119	0x3bc343c0	0.005959004
120	0xb5c146fc	-1.440028e-06
121	0xbb7544ae	-0.003742497
122	0x380dab06	3.3776298e-05
123	0xbbe8561b	-0.0070903427
124	0x3aaac493	0.0013028554
125	0xbb1b12d7	-0.0023662352
126	0xbaf1cad6	-0.0018447291
127	0xbc4ab5b9	-0.012372428
128	0x3ba75ae1	0.005107269
129	0x3bfbba8d	0.0076821507
130	0x3ceb7fba	0.028747428
131	0x38fb8a19	0.000119943354
132	0x3b06b038	0.0020551812
133	0xb9ba4cf2	-0.00035534013
134	0xbada29f0	-0.0016644578
135	0xbd9048c5	-0.0704513
136	0xb97f5965	-0.00024351997
137	0x3c07efc4	0.008296911
138	0xbb9e33e6	-0.004827964
139	0x3c589c32	0.013220834
140	0xb9b9c574	-0.00035433064
141	0xb460d21e	-2.0938066e-07
142	0x34389b71	1.7192885e-07
143	0xb97abd6f	-0.00023912427
144	0x3b4502a2	0.0030061384
145	0x3667dbd2	3.4549635e-06
146	0x3e0267d4	0.1273492
147	0xbbac2938	-0.005253937
148	0xb738da44	-1.1018074e-05
149	0xbcd56f2e	-0.026053991
150	0xbb97b74d	-0.0046300055
151	0x39de4fa4	0.00042402477
152	0x3a81c35c	0.000990014
153	0xbbebb7df	-0.00719355
154	0x3d827e54	0.063717514
155	0x3c022460	0.007943243
156	0x3cbcd55b	0.023050955
157	0x381e67c2	3.7766767e-05
158	0xb912b1c2	-0.00013989865
159	0xbc4d3a78	-0.012526147
160	0xb9b56b85	-0.0003460312
161	0x3a5a8109	0.0008335268
162	0xbb13f5e5	-0.0022576984
163	0x3b9d2589	0.0047957343
164	0x3815186d	3.5547117e-05
165	0x3b813106	0.0039426116
166	0x3ae83a10	0.0017717499
167	0x3c7106a8	0.01471106
168	0xbaa535ad	-0.0012604498
169	0xba186f20	-0.0005814899
170	0xb8324f05	-4.25121e-05
171	0xbd76835e	-0.060183875
172	0xb1127907	-2.1314592e-09
173	0x3b12f348	0.002242284
174	0xbc870e92	-0.01648644
175	0x37f10c6b	2.8735221e-05
176	0x388710b7	6.440415e-05
177	0xbba3595d	-0.004985018
178	0xbb40b919	-0.0029407202
179	0x3c847ad9	0.01617186
180	0x3a67532f	0.0008824346
181	0x3c8b14fe	0.016977783
182	0x3bfb9885	0.007678094
183	0x3b8a6552	0.004223504
184	0x3c19a3e1	0.009377451
185	0xba337829	-0.00068462134
186	0x3b10228f	0.0021993255
187	0x38b985f2	8.846437e-05
188	0x3b9e5ef2	0.0048330957
189	0xb4e509d4	-4.2661725e-07
190	0x3c48ca64	0.012255285
191	0x38f61776	0.00011734564
192	0xb6547b1d	-3.1662123e-06
193	0x3b671be7	0.0035264434
194	0xb9a3948d	-0.00031200462
195	0x397f2cb2	0.00024335345
196	0xba8793a0	-0.0010343678
197	0x3b94933f	0.0045341547
198	0x3c0729bf	0.008249699
199	0xbae715a5	-0.0017630352
200	0xbee983e1	-0.45608428
201	0x3d857e33	0.06518211
202	0x38c66e6c	9.4619434e-05
203	0x3e946f5e	0.28991216
204	0x3d80921e	0.0627787
205	0xbe017bcd	-0.12644883
206	0x3ea04337	0.3130128
207	0x3b0c94e2	0.0021451046
208	0x3ab61235	0.0013890924
209	0x3f0de60e	0.5542916
210	0xbba4abfa	-0.005025384
211	0x3c347e36	0.011016419
212	0xbe7f99a3	-0.24960952
213	0x3b03aef8	0.0020093303
214	0xbe42b5eb	-0.19014709
215	0x3a9f98ac	0.0012176237
216	0xbe8b44b0	-0.27200842
217	0x390b5047	0.00013285979
218	0x3938f15d	0.00017637522
219	0x3dfd4497	0.12366598
220	0xbac52017	-0.0015039471
221	0x3b055463	0.0020344488
222	0xbe51590a	-0.20444122
223	0xbb0523dc	-0.0020315563
224	0xbdc0e6c3	-0.09419014
225	0x3cda3290	0.026635438
226	0x3c07992c	0.008276265
227	0x38bb3fb7	8.928723e-05
228	0x36b00aaa	5.24645e-06
229	0x3f0436d0	0.5164614
230	0x375f10b7	1.32957275e-05
231	0x3722b95e	9.699112e-06
232	0xbecb1563	-0.39664754
233	0x3deb9d09	0.115045615
234	0x3c5bc0be	0.013412653
235	0x3e716ec3	0.23577408
236	0xb9b5215a	-0.0003454786
237	0x3b266fd1	0.0025396238
238	0xbc15a485	-0.009133463
239	0xbe805982	-0.2506829
240	0x3e89ba80	0.269001
241	0xbbb7e829	-0.0056123924
242	0x3b9eca36	0.0048458828
243	0xbf1e5b0a	-0.61857665
244	0xb9fefc14	-0.00048634468
245	0x3d22dd67	0.039761927
246	0xb7952a78	-1.778196e-05
247	0xbb3d4b16	-0.0028883866
248	0xbdd451a9	-0.10367138
249	0xbc3166c3	-0.010827723
250	0x398dcfc7	0.00027048422
251	0x3ec74397	0.38918754
252	0xb98647b3	-0.00025611892
253	0xbaeacc8c	-0.0017913743
254	0xbe0f7f3b	-0.14013378
255	0x3c9191c8	0.01776971

mu.2.bias f4 [5]
0	0x3c304d21	0.010760576
1	0x3e85173b	0.25994286
2	0xbccaed50	-0.024771363
3	0xbb01375a	-0.001971683
4	0x3d3666b6	0.044531547

reward_fun.0.weight f4 [200, 6]
0	0x3f451e0d	0.7699898
1	0xbe52cd72	-0.20586184
2	0x3ffef619	1.9918853
3	0xbe7dcfe5	-0.24786337
4	0xbef888ab	-0.4854177
5	0x3ebe9d3a	0.3722933
6	0x3ea3b366	0.31972808
7	0xbeaba5d6	-0.3352496
8	0xbf24c1c2	-0.6435815
9	0x3f6daf84	0.9284594
10	0x3e6b8be9	0.2300259
11	0xbf5e9b9a	-0.8695618
12	0x3ea1b7b0	0.31585455
13	0xbca2bcfd	-0.019865507
14	0xbde819b5	-0.11333028
15	0x3e5e0288	0.21680653
16	0xbc033158	-0.00800737
17	0xbe69c42a	-0.22828737
18	0xbf3e1ab0	-0.7425947
19	0xbee9bb81	-0.45650867
20	0xbf4c41fc	-0.79788184
21	0xbff6afdd	-1.9272419
22	0xbc94b1f3	-0.018151259
23	0x3e711e8b	0.23546807
24	0x3fbc7126	1.472203
25	0xbf17ef2e	-0.59349334
26	0x3f3672d2	0.7126895
27	0x3fbb3cb9	1.4627906
28	0xbe470c72	-0.19438341
29	0xbf897afe	-1.0740659
30	0x3edc3228	0.43007016
31	0x3f98cfaf	1.193838
32	0xbfb7c3f1	-1.4356672
33	0x3f8397ed	1.0280739
34	0xbd8d622a	-0.06903489
35	0x3eef93a4	0.46792328
36	0xbd4b3832	-0.04961414
37	0xbe52dd1b	-0.20592158
38	0x40004ea5	2.0048
39	0x40005c4d	2.0056336
40	0x3f5ad94b	0.8548781
41	0xbf112a4a	-0.56705153
42	0xbfe190da	-1.762233
43	0xbed8cee8	-0.42345357
44	0x3f969e26	1.1767013
45	0xbfbd24c0	-1.477684
46	0x3e93b0e6	0.288459
47	0xbeb142bc	-0.34621227
48	0xbf0a35dc	-0.5398843
49	0xbe97e489	-0.29666546
50	0x3d24146f	0.04005855
51	0x3ebdc72d	0.37066022
52	0x3e921b40	0.28536415
53	0xbfa2ed43	-1.2728657
54	0x3d15f6ec	0.036612436
55	0x3ea44974	0.3208729
56	0xbec9882e	-0.3936171
57	0x3f3d363c	0.7391088
58	0xbbf4058e	-0.0074469512
59	0xbe857ef4	-0.2607342
60	0xbe8b9dd4	-0.2726885
61	0x3f06693d	0.5250433
62	0x40047c3a	2.0700822
63	0xbf69b2d4	-0.91288495
64	0xbf0059fa	-0.50137293
65	0xbe6f6698	-0.2337898
66	0xbf5ed462	-0.8704282
67	0xbfa1f980	-1.2654266
68	0xbe0e4efc	-0.13897318
69	0xbf64266e	-0.8912114
70	0x3ea1ebc0	0.31625175
71	0xbf46bc0e	-0.776307
72	0x3d26d405	0.04072954
73	0x3d22a400	0.039707184
74	0xbec733de	-0.3890676
75	0x3f0a8cb1	0.5412093
76	0x3af59fec	0.0018739677
77	0xbdb602a9	-0.08887226
78	0x40078355	2.1173909
79	0x3eb1be1e	0.3471536
80	0xbebc5950	-0.3678689
81	0x3dcb5f3f	0.09930276
82	0xbd5c2bdc	-0.053752765
83	0x3bf24b18	0.007394206
84	0x3f0e9c95	0.55707675
85	0xbf8f019a	-1.1172364
86	0x3f8eb40e	1.1148698
87	0x3e71c6d4	0.23611003
88	0x3e001694	0.12508613
89	0xbed10a6b	-0.4082826
90	0x3e8e1d2c	0.2775663
91	0x3db552bb	0.0885367
92	0xbde0252d	-0.10944591
93	0x3d873cda	0.066034034
94	0x3c2ae0e2	0.010429593
95	0xbd99b67c	-0.07505509
96	0xbe4a235e	-0.19740054
97	0xbeaa974c	-0.33318555
98	0xbebbaf7c	-0.3665732
99	0xbdf9fda8	-0.12206584
100	0x3e647c24	0.22312981
101	0xbf4d912b	-0.80299634
102	0xbf04314d	-0.5163773
103	0x3f6f5439	0.9348789
104	0xbfef5d11	-1.8700277
105	0xbe225f16	-0.15856585
106	0xbe3cfb26	-0.1845518
107	0x3ecd592d	0.40107098
108	0x3e866d79	0.26255396
109	0x3e3f54e8	0.18684733
110	0xbeb06326	-0.34450644
111	0xbe44fdf0	-0.19237494
112	0xbbc4601c	-0.0059929024
113	0xbe456559	-0.19276942
114	0x3fcd6e56	1.6049297
115	0x3f37ab1f	0.71745485
116	0x3f18d2f6	0.596969
117	0x3f65cd82	0.89766705
118	0xbea5d7a1	-0.32391074
119	0x3f830885	1.0236975
120	0xbd28e85d	-0.041237224
121	0x3db601af	0.0888704
122	0xbe6f1439	-0.23347558
123	0x3ebf4a50	0.37361383
124	0x39374171	0.00017476619
125	0xbe717d51	-0.2358296
126	0xbd94824d	-0.072514154
127	0x3f22272e	0.63341033
128	0x4023f2d7	2.5616968
129	0x401c50b6	2.4424262
130	0x3e9a387f	0.30121228
131	0x3e8dda76	0.27705735
132	0x3e510abc	0.20414251
133	0x3eba7af2	0.36421925
134	0xbe292267	-0.1651703
135	0xbf22e087	-0.6362385
136	0xbda32a75	-0.079670824
137	0x3f26ef07	0.65208477
138	0x3e62a5f2	0.22133616
139	0x3e2eeb20	0.1708188
140	0x3fccac24	1.5990033
141	0x401ebc29	2.4802344
142	0x3ea66791	0.3250089
143	0xbe997235	-0.29969946
144	0x3dec6122	0.11541964
145	0x3d9c3f39	0.07629246
146	0xbe8fdd6d	-0.28098622
147	0x3d940028	0.07226592
148	0x3b518c0f	0.003197435
149	0xbe8f04fe	-0.27933496
150	0x3f0ef355	0.55840045
151	0xbd9a2d3a	-0.075281575
152	0x3f9d0943	1.2268451
153	0x3fdff715	1.7497278
154	0x3de62ae8	0.112386525
155	0xbfb5e5ae	-1.4210718
156	0x3f734e5e	0.95041454
157	0xbe0ca62f	-0.13735269
158	0xbf8d7638	-1.1051702
159	0xbf78690e	-0.970353
160	0x3e056780	0.13027763
161	0xbf5fe55d	-0.87459356
162	0xc0000423	-2.0002525
163	0xbf15d2b1	-0.58524615
164	0xbc40dd63	-0.011771533
165	0xbefbf785	-0.4921228
166	0x3e84c220	0.25929356
167	0xbfcb79fa	-1.5896599
168	0xbefca987	-0.4934809
169	0xbeb88009	-0.36035183
170	0x4010095e	2.2505717
171	0xbeeb0437	-0.45901653
172	0xbf0540ab	-0.520518
173	0xbe51543a	-0.20442286
174	0x3d13d1fa	0.03608892
175	0xbeeed154	-0.4664408
176	0x4001e9be	2.0298915
177	0x3df8c054	0.12146059
178	0xbef9b6d9	-0.48772314
179	0xbe42a27e	-0.19007298
180	0xbf02b286	-0.51053655
181	0xbf9bcdd5	-1.217219
182	0x3f581541	0.8440743
183	0x3f5a4922	0.8526784
184	0xbe8355b4	-0.25651324
185	0x3ca2b26e	0.019860473
186	0x3feb640a	1.8389904
187	0x3ef330dd	0.47498217
188	0xbf5a31df	-0.8523235
189	0x3eacea8c	0.33772695
190	0x3d4c558c	0.04988627
191	0xbf7a7624	-0.9783652
192	0x3e4cc27e	0.19996068
193	0x3d8b7533	0.06809463
194	0xbe802cce	-0.25034183
195	0xbdc6a4c0	-0.09699392
196	0xbb72deac	-0.0037058992
197	0xbe9c8d12	-0.30576378
198	0x3f2dd7c4	0.6790736
199	0x3fd26ff9	1.6440421
200	0xbfc8bc97	-1.5682553
201	0x3f9b4ec3	1.2133411
202	0xbda3045c	-0.07959816
203	0x3ed6672f	0.41875598
204	0xbfa573d5	-1.2925974
205	0xbf360b68	-0.71111155
206	0xbe399366	-0.18122634
207	0xbfea579b	-1.8307985
208	0x3daca3fc	0.08429715
209	0xbf6d0678	-0.92587996
210	0x3d27ff4f	0.041014966
211	0x3dbcb6a9	0.09214527
212	0xbe5c6821	-0.21524097
213	0x3da333a7	0.07968836
214	0xbaff95be	-0.0019499583
215	0xbe7ffe3b	-0.24999325
216	0xbddd963a	-0.10819669
217	0x3c5b9e73	0.013404476
218	0xbedb15de	-0.4279012
219	0x3eeeef1a	0.46666795
220	0x3d162eef	0.036665853
221	0xbe601e00	-0.21886444
222	0x3ec5b972	0.38618046
223	0x3cc2631e	0.023728903
224	0xbfc06b86	-1.5032814
225	0x3f202ba8	0.62566614
226	0x3d25f426	0.04051604
227	0xbd4ec803	-0.050483715
228	0xbfd68d86	-1.676194
229	0x3de1425f	0.109989874
230	0x3fcc6c16	1.5970485
231	0x3e1c4ad5	0.15262921
232	0x3f0fe735	0.5621217
233	0xbe9108c0	-0.28326988
234	0xbeee5ba0	-0.4655428
235	0x3f9a0015	1.2031275
236	0x3ea6ff85	0.3261682
237	0x3e1f8aa9	0.15580238
238	0xbea0bf28	-0.3139584
239	0x3f01e39e	0.5073794
240	0x3e791344	0.24323756
241	0x3fc229e4	1.5169034
242	0xbf30c796	-0.69054544
243	0xbf13b6f6	-0.5770105
244	0xbebf95c7	-0.3741896
245	0x3f84d11a	1.0376313
246	0x3ec3dd42	0.38254744
247	0x3ecfeebc	0.40611827
248	0x401b76b0	2.429119
249	0x3ec993b2	0.39370495
250	0x3f1aaf8c	0.60424113
251	0x3f42b197	0.7605223
252	0x3e0bbf68	0.13647234
253	0xbdde2294	-0.10846439
254	0xbe7faf7f	-0.2496929
255	0x3d3d8092	0.046265192

reward_fun.0.bias f4 [200]
0	0xc02bba49	-2.683245
1	0xbfc5c1fb	-1.5449823
2	0xbf557059	-0.83374554
3	0xbf2c6e0f	-0.67355436
4	0xbfdf04e7	-1.7423371
5	0xc00f0afe	-2.235046
6	0xbfa44384	-1.2833104
7	0xbf20734a	-0.6267592
8	0xbf4aaf51	-0.7917376
9	0xbfbbefc7	-1.4682549
10	0xbfe72753	-1.8058876
11	0xbf2a3040	-0.66479874
12	0xbf48860b	-0.78329533
13	0xbfc52695	-1.5402399
14	0xbfe92038	-1.8212957
15	0xbf206ae4	-0.626631
16	0xbfab14c0	-1.3365707
17	0xbfaa3f6c	-1.3300605
18	0xbf880bac	-1.0628562
19	0xbfe13ca3	-1.759663
20	0xbf4119e7	-0.7543015
21	0x3e0c7774	0.13717443
22	0xbfe39054	-1.777842
23	0xbfe00985	-1.7502905
24	0xbf27f5bd	-0.6560934
25	0xbe96d702	-0.29460913
26	0xbffe07fc	-1.9846187
27	0xbfabd187	-1.3423318
28	0xc05451f6	-3.3175025
29	0xc0166725	-2.3500454
30	0xbfe5e382	-1.7960055
31	0xbf9fc3f2	-1.2481673
32	0xbf448e29	-0.7677942
33	0xc0344329	-2.8165991
34	0xbfb8ece7	-1.4447297
35	0xbf1dea8d	-0.6168602
36	0xbf77b944	-0.9676707
37	0xbfafd6a2	-1.3737376
38	0xbf808b9b	-1.0042604
39	0xc00381d2	-2.0547986
40	0xc0170165	-2.35946
41	0xbfca8206	-1.582093
42	0xbf21bd58	-0.6317954
43	0xbfe0bdc5	-1.7557913
44	0xbfb63166	-1.4233825
45	0xbf36ddad	-0.71432
46	0xbeea5a90	-0.4577222
47	0xbfac49dc	-1.346004
48	0xbffc4cb3	-1.9710907
49	0xbf0ab6d2	-0.5418521
50	0xbeaac729	-0.33355072
51	0xbf9aaf8e	-1.2084825
52	0xbf797ffa	-0.974609
53	0x3ef65340	0.4811039
54	0xbf90632d	-1.1280266
55	0xbfbf247f	-1.4933013
56	0xbf14f9db	-0.5819375
57	0xbf94b1b5	-1.1616732
58	0xbfc0adcb	-1.5053037
59	0xbfd5e75b	-1.6711229
60	0xbfe4cd01	-1.7875062
61	0xc0326e5c	-2.7879858
62	0xbf3783d9	-0.7168556
63	0xbf232be9	-0.63738877
64	0xbf10bd14	-0.5653851
65	0xbf8c57e8	-1.0964327
66	0xbee8c3a5	-0.45461765
67	0xbe9a5f54	-0.30150855
68	0x3f0cba87	0.5497212
69	0xbe560fc5	-0.20904453
70	0xbf8ab7fe	-1.08374
71	0xbfd2ced8	-1.6469374
72	0xbf583177	-0.8445048
73	0x3e9288d3	0.28620014
74	0xbf910384	-1.1329198
75	0xbf025860	-0.509161
76	0xbf85715d	-1.0425221
77	0xbfc332f8	-1.524993
78	0xbf8ee231	-1.1162778
79	0xc019cc11	-2.4030802
80	0xbfdc2824	-1.719975
81	0xc0433e36	-3.050672
82	0xbfa12cc6	-1.2591789
83	0x3f33eb0d	0.70280534
84	0xbfdb1aad	-1.7117516
85	0xbfbe3212	-1.485903
86	0xbeee825f	-0.4658384
87	0xbf004a05	-0.50112945
88	0xbfd606a6	-1.6720779
89	0xbfd1e876	-1.6399066
90	0xbf268770	-0.6505041
91	0xc00aeb6e	-2.1706195
92	0xbfee3193	-1.8608879
93	0xbfab79a4	-1.3396497
94	0x3f24944b	0.6428878
95	0xbf32d745	-0.69859725
96	0xbfca9249	-1.5825893
97	0xbfdd5e05	-1.7294317
98	0xbf7e0513	-0.9922649
99	0xbfbb4d2e	-1.4632928
100	0xbf1cc4f9	-0.61238056
101	0xc0043a30	-2.0660515
102	0xbeef1a35	-0.46699682
103	0xc00be4a7	-2.1858308
104	0xbf903caa	-1.1268513
105	0xc0029cec	-2.0408278
106	0xc01f7fc1	-2.4921725
107	0xbfe05306	-1.7525337
108	0xbf83ab03	-1.0286564
109	0xbf9d0158	-1.2266035
110	0xc010820c	-2.2579374
111	0xbfa31310	-1.2740192
112	0xbfa824df	-1.3136252
113	0xc00059a5	-2.0054715
114	0xbf8a8a97	-1.0823544
115	0xc0168a01	-2.352173
116	0xbf8ec6ca	-1.1154416
117	0xbf96d544	-1.1783834
118	0xbfbfd5c6	-1.4987113
119	0xbf98f2b2	-1.1949065
120	0xbfbd949f	-1.481098
121	0xbfc5670c	-1.5422072
122	0xc01368eb	-2.3032787
123	0xc014b6b9	-2.3236525
124	0xbfb9180b	-1.4460462
125	0xbfa77777	-1.3083333
126	0xbf64db68	-0.8939729
127	0xbf668ee1	-0.90061766
128	0xbfbabc5b	-1.4588732
129	0xbf9d1705	-1.227265
130	0xbf2434ec	-0.6414325
131	0xbfa79ef2	-1.3095381
132	0xbf7d9a5c	-0.9906366
133	0xbf2ab420	-0.666811
134	0x3cf021f8	0.029313073
135	0xc003b4f0	-2.0579185
136	0xbfe48fa3	-1.7856334
137	0xbfc38a5d	-1.52766
138	0xbf63b63b	-0.88949937
139	0xbf756794	-0.9586117
140	0xc0096219	-2.1466124
141	0xbf944812	-1.1584494
142	0xc02c445a	-2.6916718
143	0xbfbd7ff0	-1.4804668
144	0xbfd3c20f	-1.6543597
145	0xc004de86	-2.0760818
146	0xbfba8aab	-1.4573568
147	0xbf45d59c	-0.7727907
148	0xc00fcef3	-2.2470062
149	0xbfbdfd29	-1.4842883
150	0x3dcbff18	0.09960765
151	0xbf94cb7c	-1.1624599
152	0xbf630537	-0.8867983
153	0xc0179324	-2.3683558
154	0xc01807e5	-2.3754818
155	0xbf78cc8e	-0.97187126
156	0xbfd9edc0	-1.702568
157	0xbf9a178f	-1.203844
158	0xbf261960	-0.6488247
159	0xbf78a8a5	-0.9713233
160	0xbf2c903d	-0.6740759
161	0xc004e63d	-2.0765526
162	0xbfdedd60	-1.7411308
163	0xbf9aa838	-1.2082586
164	0xc003841f	-2.054939
165	0xbfd56d88	-1.6674051
166	0xc012a1f6	-2.2911353
167	0xc0257b0b	-2.585635
168	0xbfc58713	-1.5431846
169	0xbf550390	-0.8320856
170	0xbee58c24	-0.4483348
171	0xc0098e62	-2.1493154
172	0xbfc3b5c7	-1.5289849
173	0xbf8d99c1	-1.1062547
174	0xc026d45e	-2.6067119
175	0xbe8223b2	-0.25417858
176	0xc005c79b	-2.090308
177	0xbfa7861d	-1.3087803
178	0xbf98ef92	-1.1948111
179	0xbff1a3e2	-1.8878138
180	0xbf9fb06b	-1.2475713
181	0xbf15eb37	-0.58562034
182	0xbf855037	-1.0415105
183	0xbf2c26f6	-0.6724695
184	0xbf43c196	-0.76467264
185	0xbfe4a6c5	-1.7863394
186	0xbf08e9bd	-0.53481656
187	0xbf937834	-1.1521058
188	0xbfa73f9b	-1.3066286
189	0xbf25753d	-0.64632016
190	0xc00d83d4	-2.2111712
191	0xbfa95ac2	-1.3230822
192	0xbeb73b9b	-0.35787663
193	0xbfa871ae	-1.3159692
194	0xbf5d19c2	-0.8636743
195	0xbf072343	-0.5278818
196	0xbf5afae3	-0.8553907
197	0xbf9fe4b2	-1.2491667
198	0xbf677f88	-0.9042897
199	0xbf982167	-1.1885194

reward_fun.2.weight f4 [200, 200]
0	0xbdd5ad04	-0.10433391
1	0xbf1adfa6	-0.6049751
2	0x3dbbc776	0.091689035
3	0xbe9f6599	-0.311322
4	0x3f040e9e	0.51584804
5	0xc0279f54	-2.6190996
6	0x3f701b7d	0.93791944
7	0xc0053ab5	-2.0817082
8	0x3e83a1b5	0.2570931
9	0x3e80cc5f	0.25155923
10	0xbedfad1a	-0.43686754
11	0xbf36c518	-0.7139449
12	0xbe0d1d9c	-0.13780826
13	0x3ea0af19	0.3138359
14	0x3f73df47	0.9526257
15	0xbe56315f	-0.20917271
16	0xbf79c7ac	-0.975703
17	0xbf016031	-0.505374
18	0xbe986151	-0.29761747
19	0xbe385a25	-0.18003137
20	0x3e189121	0.14899112
21	0x3d893de3	0.06701257
22	0xbf14bdd9	-0.58102185
23	0xbd680431	-0.056644622
24	0xbe9291de	-0.28626913
25	0x3d70f084	0.058823124
26	0xbe2db89f	-0.16964959
27	0x3f87a364	1.0596738
28	0xc0b00330	-5.500389
29	0xbfb0e32a	-1.3819325
30	0x3fe4295d	1.7825123
31	0xbf111d73	-0.5668556
32	0xbe888763	-0.26665792
33	0xc016e928	-2.3579807
34	0x3ef38924	0.47565567
35	0xbe153d6a	-0.14574209
36	0x3d716bf0	0.058940828
37	0xbfb962ba	-1.4483254
38	0x3ebf9cb5	0.37424245
39	0xbf6c13b2	-0.9221755
40	0xbf5dedd9	-0.8669105
41	0x3f0c98b0	0.5492048
42	0xbdcf5efb	-0.10125538
43	0x3f8087b1	1.004141
44	0xbf980b1d	-1.1878392
45	0x3d838fe7	0.064239316
46	0x3d2185c3	0.039434206
47	0xc03bce45	-2.9344647
48	0xbfaca4ad	-1.3487755
49	0xbfcd3c7b	-1.6034082
50	0x3e519f1e	0.20470855
51	0x3eb27003	0.34851083
52	0xbe3ba9cf	-0.18326496
53	0x3e803881	0.2504311
54	0x3ce4a108	0.027908817
55	0x3eccf163	0.40027913
56	0xbea8849b	-0.3291367
57	0xbe59df89	-0.21276678
58	0xbf7c69d0	-0.9859896
59	0xbf2a9c1b	-0.6664445
60	0x3f66aece	0.9011048
61	0xc0ae5528	-5.447895
62	0xbf720c8d	-0.945504
63	0xbf5ae50d	-0.85505754
64	0x3e81e252	0.2536798
65	0x3e743e8d	0.23851986
66	0x3df58357	0.11987942
67	0x3e93adbb	0.28843483
68	0x3f82dca2	1.0223582
69	0x3f564af1	0.837081
70	0x3e97e571	0.29667237
71	0xbf7ea4ba	-0.994701
72	0xbf381ad4	-0.71915936
73	0x3d8e2eb1	0.069424994
74	0x3cd31fb3	0.025771951
75	0x3f545982	0.8294908
76	0xbf8b25f5	-1.0870959
77	0x3f1cfd67	0.6132416
78	0xbfe18802	-1.7619631
79	0xbfa0cc7b	-1.2562402
80	0x3f14194d	0.57851106
81	0xc0b44a2b	-5.6340537
82	0xbea23db5	-0.31687704
83	0x3f37b930	0.7176695
84	0xbfc8bcd9	-1.5682632
85	0xbf197f07	-0.59959453
86	0xbf6b9de7	-0.92037815
87	0x3f3eb158	0.74489355
88	0xbfe345b4	-1.7755647
89	0xbca194e1	-0.019724311
90	0xbeaffae6	-0.34371108
91	0x3dd273bd	0.102759816
92	0xbff89d08	-1.9422922
93	0xbe21b11a	-0.15790215
94	0xbe9b2f15	-0.30309358
95	0xbf3085f3	-0.6895439
96	0x3f410c53	0.7540943
97	0xbf453407	-0.7703251
98	0xbf0d5d28	-0.5522027
99	0xbf3ad68f	-0.7298364
100	0x3d9e5d20	0.07732606
101	0x3f67e26b	0.9057986
102	0x3c82bb24	0.015958376
103	0xbff6b0ef	-1.9272746
104	0xbed2caae	-0.41170257
105	0x3f65716d	0.896262
106	0xc0e71cc1	-7.22226
107	0xbeeef076	-0.46667832
108	0x3f087dfc	0.53317237
109	0x3fa36a34	1.2766786
110	0xbf604cf7	-0.8761744
111	0x3cb19f64	0.021682449
112	0xbeca386e	-0.39496177
113	0x3f0ad8d4	0.54237103
114	0xbbf37f4b	-0.007430946
115	0xbf1c1f1d	-0.60984975
116	0xbef6dcac	-0.48215234
117	0xbf74cca3	-0.9562475
118	0xbe16001d	-0.1464848
119	0xbf4ec579	-0.8077007
120	0x3ef98aa5	0.4873859
121	0xbe90613b	-0.2819918
122	0xc00c974a	-2.196734
123	0x3e84e54e	0.25956196
124	0x3e1ea824	0.15493828
125	0xbef0edf4	-0.47056544
126	0xbdf30b65	-0.11867408
127	0xbf1fd6c5	-0.6243709
128	0xbdcfbd5a	-0.10143538
129	0xbf12b299	-0.5730377
130	0x3f2fbe8b	0.6865012
131	0xbf9e227f	-1.2354277
132	0xbe41c48c	-0.18922633
133	0xbd025125	-0.031815667
134	0xbf07da62	-0.530676
135	0x3eabd07f	0.33557507
136	0x3e3a01ff	0.18164824
137	0xbd64ad90	-0.055829585
138	0xbe33ea32	-0.17569807
139	0xbe802134	-0.25025332
140	0x3f3861fc	0.7202451
141	0x3dad049d	0.084481455
142	0xbe430eed	-0.19048662
143	0x3f69d67b	0.91342896
144	0xbf08b71a	-0.5340439
145	0xbfb6eeaa	-1.4291584
146	0x3eab344f	0.33438346
147	0x3c2e2f9f	0.010631471
148	0x3ee7fd50	0.4531045
149	0xbe97a723	-0.29619703
150	0x3ea55a9c	0.32295692
151	0x3ef04beb	0.4693292
152	0x3e4735ef	0.19454168
153	0x3d9a442c	0.07532534
154	0x3e8a1722	0.26970774
155	0xbed3035d	-0.41213503
156	0xbf061e80	-0.5239029
157	0xbd5cb187	-0.05388024
158	0xbe39d1fa	-0.18146506
159	0xbeca3895	-0.39496294
160	0xbed843c3	-0.42239198
161	0xbf0e47c0	-0.5557823
162	0xbeb8e657	-0.36113235
163	0xbfb19d3e	-1.3876112
164	0xbe074acb	-0.13212125
165	0xbf29d0af	-0.6633405
166	0xbe6460ae	-0.22302505
167	0x3e9dd028	0.30822873
168	0xbf262256	-0.6489614
169	0x3f70d618	0.9407668
170	0xbe170911	-0.14749552
171	0x3e024c96	0.12724528
172	0x3f87effc	1.0620112
173	0x3db76d63	0.08956411
174	0xbebc9c66	-0.36838073
175	0x3c818ee1	0.0158152
176	0xbff971c3	-1.9487842
177	0xbfab3a1a	-1.3377106
178	0xbdd2c116	-0.102907345
179	0xbe69182f	-0.22763132
180	0x3e3525de	0.17690226
181	0xbf0030bf	-0.5007438
182	0xbe86e69e	-0.26347822
183	0xbec9c426	-0.39407462
184	0x3bde7d14	0.006789813
185	0x3f2aa5a8	0.6665902
186	0x3db679df	0.08909964
187	0xbf10a773	-0.5650551
188	0xbea51925	-0.32245746
189	0x3f69e553	0.91365546
190	0xc0107d97	-2.2576654
191	0xbf2c6711	-0.67344767
192	0x3f0363b6	0.5132402
193	0xc035dcc6	-2.8416
194	0x3db1f6dc	0.08689663
195	0xbf87c5ec	-1.0607276
196	0x3f0611f0	0.5237112
197	0x3eaad2ab	0.33363852
198	0x3e39c136	0.1814011
199	0xbfe0b2c7	-1.7554559
200	0x3f690086	0.91016424
201	0xbfc1ed98	-1.5150633
202	0x3d290079	0.041260216
203	0xbf84ca1b	-1.0374178
204	0xbfed9c33	-1.8563293
205	0x3d5db270	0.05412525
206	0xbf03955f	-0.513998
207	0x3e38a08b	0.18029992
208	0xbf9182a3	-1.1367992
209	0xbddd9ac8	-0.10820538
210	0x3ecccce7	0.40000078
211	0xbf71a297	-0.9438872
212	0xbd9a4810	-0.07533276
213	0xbf92c7d2	-1.146723
214	0xbf84cb41	-1.0374528
215	0x3e968333	0.29396972
216	0x3ec131d0	0.37733316
217	0xbee2b7b3	-0.44280776
218	0xbdeef733	-0.11668243
219	0x3f751e00	0.957489
220	0xbefabe5e	-0.48973364
221	0xbf0b45d4	-0.54403424
222	0xbf92d7ec	-1.1472144
223	0x3e0f854c	0.14015692
224	0x3d2a94ea	0.04164592
225	0x3db974d0	0.09055483
226	0x3e95a2e1	0.2922583
227	0xbf70cca0	-0.9406223
228	0xbf4a236e	-0.7896031
229	0x3f513902	0.8172761
230	0xbee5bfb1	-0.4487281
231	0xbfbca44c	-1.473764
232	0xbf41dbd4	-0.75726056
233	0xbe40d3ab	-0.18830745
234	0x3e016779	0.12637128
235	0x3ce262a4	0.027634926
236	0xbe8f8ad1	-0.28035596
237	0xbd168471	-0.0367474
238	0xbff012e9	-1.8755771
239	0x3ec7ae60	0.39000225
240	0xbe548960	-0.2075553
241	0xbd1c7c4b	-0.038204473
242	0x3ea2f134	0.31824648
243	0xbfeea7d6	-1.864497
244	0xbc198ffe	-0.009372709
245	0xbebe91f1	-0.3722072
246	0xbd06e741	-0.032935385
247	0x3f020a95	0.50797397
248	0xbe1cd535	-0.15315707
249	0xbf2ef3cf	-0.6834077
250	0xbec1d80d	-0.37860146
251	0xbf8a9d31	-1.0829221
252	0x3cbc5c3f	0.022993205
253	0xbe65767d	-0.22408481
254	0x3e9e8236	0.30958718
255	0xbe1052e3	-0.14094119

reward_fun.2.bias f4 [200]
0	0x3f4ce61c	0.8003862
1	0xbeeb6136	-0.45972604
2	0x3ec6e652	0.38847595
3	0xbe5c5df5	-0.21520217
4	0xbec7a48d	-0.3899273
5	0xbe9927af	-0.2991309
6	0xbe3b230a	-0.18275085
7	0x3da78868	0.08180314
8	0xbd7af1e2	-0.061265834
9	0x3d2aa97b	0.041665535
10	0x3f2237ae	0.6336621
11	0xbd90c61e	-0.07069038
12	0x3da0b796	0.07847516
13	0xbe7f0ec8	-0.24907982
14	0xbdead960	-0.11467242
15	0xbfbfe98c	-1.4993148
16	0xbe13cb7f	-0.14433096
17	0xbdc5594f	-0.09636175
18	0xbe2bb53d	-0.16768356
19	0xbdb85c21	-0.09001947
20	0xbdb5314e	-0.08847295
21	0xbda3fcd7	-0.0800721
22	0x3e96bb6b	0.29439864
23	0xbe59c606	-0.21266946
24	0xbd62b625	-0.055349488
25	0xbe35476c	-0.17703027
26	0xbd76db79	-0.0602679
27	0x3f93ae1f	1.1537513
28	0xbe2f943c	-0.1714639
29	0xbe961684	-0.29314053
30	0xbf2aad75	-0.66670924
31	0xbf1f5c71	-0.6225043
32	0xbcd9d5f2	-0.026591275
33	0xbf501861	-0.812872
34	0x3f72525a	0.9465691
35	0xbe648fae	-0.22320434
36	0xbce9413c	-0.028473489
37	0xba82d395	-0.0009981269
38	0xbe6d7cfa	-0.23192206
39	0xbe99d3a9	-0.30044296
40	0xbd079aa7	-0.033106472
41	0xbea71bc3	-0.32638368
42	0xbe958fd8	-0.29211307
43	0xbdd86973	-0.10566988
44	0xbd9cf2e7	-0.076635174
45	0x3e9c77e0	0.30560207
46	0x3dde5a42	0.10857059
47	0x3e34bbd4	0.17649776
48	0x3dc34a9c	0.09535715
49	0xbf2d5054	-0.67700696
50	0xbcb0ac1f	-0.021566449
51	0xbc4a0ee8	-0.0123326555
52	0xbd0c2732	-0.034217067
53	0xbde44944	-0.11146787
54	0xbad00b07	-0.0015872427
55	0xbe8c65c7	-0.274214
56	0x3f98fd39	1.1952277
57	0xbe219df8	-0.15782917
58	0x3f5632e8	0.83671427
59	0xbe59b950	-0.21262097
60	0xbe62915d	-0.22125764
61	0x3d01810a	0.031617202
62	0x3fc03a24	1.5017743
63	0xbdc1972d	-0.094526626
64	0xbdabf89d	-0.083970286
65	0xbe93d5a2	-0.28873926
66	0x3e97d189	0.2965205
67	0x3e55d915	0.20883591
68	0xbd416b07	-0.04722121
69	0x3dacc9d8	0.08436936
70	0x3f1c7c90	0.6112757
71	0x3e66ece6	0.22551307
72	0x3f9db0c3	1.2319568
73	0x3ee734ed	0.45157567
74	0x3e69b27a	0.2282199
75	0xbd7d8b83	-0.061900627
76	0x3beb8b65	0.007188248
77	0xbed0a232	-0.40748745
78	0xbd696512	-0.056981154
79	0x3d80e500	0.06293678
80	0x3f278539	0.65437657
81	0xbd0061de	-0.031343333
82	0xbe131b43	-0.14365868
83	0xbe9ef4bd	-0.31046095
84	0xbcca20ed	-0.024673903
85	0xbd1f585b	-0.03890262
86	0x3f3438bd	0.70399076
87	0xbd2b6653	-0.04184563
88	0xbd974d68	-0.07387811
89	0x3c84793e	0.016171094
90	0xbe0a0e93	-0.13482122
91	0xbda6eb9a	-0.08150406
92	0x3f40ab80	0.7526169
93	0xbebb9f70	-0.3664508
94	0x3aaf277b	0.0013363207
95	0xbe2c179e	-0.16805884
96	0xbdf6fa1d	-0.12059424
97	0x3f62e4bf	0.8863029
98	0xbf0fe799	-0.56212765
99	0xbe26ed6a	-0.16301504
100	0xbe3c8ddf	-0.18413495
101	0xbd10d256	-0.035356842
102	0xbde7d129	-0.11319191
103	0xbf19ec8b	-0.6012656
104	0xbccb0b51	-0.02478567
105	0xbda718a3	-0.08158996
106	0xbe8024d3	-0.25028095
107	0xbf37c1ec	-0.71780276
108	0xbe88eae6	-0.26741713
109	0xbdb6cec1	-0.08926154
110	0xbe00e7cd	-0.12588425
111	0xbe3531be	-0.17694756
112	0xbf203ba0	-0.6259098
113	0xbe74262c	-0.23842686
114	0x3f726c69	0.9469667
115	0xbd839a41	-0.06425906
116	0x3e313878	0.17306697
117	0x3ef7dce0	0.48410702
118	0xbd664635	-0.0562193
119	0xbdc1360b	-0.09434136
120	0xbd0e2928	-0.03470722
121	0xbf28a377	-0.6587443
122	0x3f93bcec	1.1542029
123	0x3f06c0f2	0.5263816
124	0x3e43557e	0.19075581
125	0x3da8a64c	0.082348436
126	0xbf2c1529	-0.6721979
127	0xbcce06cd	-0.025149727
128	0x3ddc7c4f	0.107658975
129	0xbe3072f0	-0.17231345
130	0xbdacad02	-0.08431436
131	0xbf3b58bb	-0.73182267
132	0xbea552fa	-0.3228987
133	0x3b576e87	0.0032872276
134	0xbd4c3476	-0.04985472
135	0x3ff6cda9	1.9281512
136	0xbe070d7a	-0.13188735
137	0xbe9b2111	-0.30298665
138	0x3e4dcc82	0.20097545
139	0xbdd25934	-0.102709204
140	0x3e13eacd	0.14445038
141	0xbcc92c8b	-0.024557373
142	0xbd0c4843	-0.0342486
143	0xbdecb67c	-0.11558244
144	0x3f1cd344	0.61259866
145	0xbd9f9276	-0.07791607
146	0xbe7a85bd	-0.2446508
147	0xbf03036c	-0.51177096
148	0x3e759f21	0.23986484
149	0xbeaed30e	-0.34145397
150	0x3e621007	0.22076426
151	0xbcabe113	-0.020981347
152	0x3dd8e652	0.10590805
153	0x3fcb9e40	1.5907669
154	0x3cf184a6	0.029482197
155	0x3e9e938f	0.30971953
156	0xbe477630	-0.19478679
157	0xbc932340	-0.017961144
158	0xbd85672d	-0.0651382
159	0xbdd20fbf	-0.102569096
160	0xbde098b7	-0.10966628
161	0xbe1df2de	-0.15424678
162	0x3f258044	0.6464884
163	0xbe37a06b	-0.17932288
164	0xbee39151	-0.44446805
165	0xbe8b09a2	-0.27155787
166	0xbdc7eb50	-0.09761679
167	0x3ca6892a	0.020329077
168	0xbd8dd0ca	-0.06924589
169	0x3f26adea	0.6510912
170	0x3cce38ac	0.025173508
171	0xbeaa6e2e	-0.33287185
172	0xbdd21e74	-0.10259715
173	0xbd1e17c7	-0.038596895
174	0xbdf6a280	-0.12042713
175	0x3cf7a2cb	0.030228993
176	0xbf3c2955	-0.7350057
177	0xbdb1df0b	-0.0868512
178	0x3e8bac4d	0.27279893
179	0xbf64b7d1	-0.8934298
180	0x3e0b68f6	0.13614258
181	0xbc47a9c6	-0.012186473
182	0xbfc16a5a	-1.5110581
183	0x3b0495bf	0.0020230857
184	0xbdae69a4	-0.08516243
185	0xbc098c27	-0.008395231
186	0xbf5772d3	-0.8415958
187	0xbe09d1e8	-0.13458979
188	0xbd34f6e8	-0.04418078
189	0xbf1295a2	-0.5725957
190	0xbdf0e082	-0.117615715
191	0xbe3991aa	-0.18121973
192	0x3f6b9d35	0.92036754
193	0xbe2bc0ca	-0.16772762
194	0x3e17cbcb	0.14823835
195	0xbe237e2c	-0.159661
196	0xbf502170	-0.8130102
197	0xbb37d61e	-0.0028051208
198	0x3d16e99f	0.036843892
199	0xbd7c292c	-0.061562702

reward_fun.4.weight f4 [1, 200]
0	0x3e2c1f04	0.16808707
1	0xbf1f2e19	-0.62179714
2	0xbecdf59c	-0.40226448
3	0x3cc12406	0.023576748
4	0xbd08a868	-0.03336373
5	0x3cc90858	0.024540111
6	0xbcfdbd9d	-0.030974204
7	0x3d0b05e1	0.033941153
8	0x3d514ca0	0.051098466
9	0x3f81c8bd	1.0139385
10	0x3e563e37	0.2092217
11	0xbd98a4e0	-0.074533224
12	0xbefc05db	-0.49223217
13	0x3c49d6a0	0.012319237
14	0x3bf36426	0.00742771
15	0x3e724907	0.2366067
16	0x3db53bfa	0.0884933
17	0x3e0d850b	0.13820283
18	0x3dc57450	0.096413255
19	0x3c2a4dff	0.010394572
20	0x3d2dce53	0.042433094
21	0xbdb0d089	-0.08633525
22	0x3ec9a496	0.39383382
23	0x3d9b87cc	0.075942606
24	0x3c33ae1e	0.010966806
25	0x3da146f5	0.07874862
26	0xbbdd8403	-0.006760122
27	0xbec38593	-0.38187847
28	0x3c3beaa1	0.011469514
29	0xbc8b0367	-0.016969396
30	0x3eed6430	0.463655
31	0x3e733e29	0.23754181
32	0xbd46128b	-0.048357528
33	0x3f1b7a09	0.60733086
34	0xbe304a9f	-0.17215966
35	0x3d42ee3a	0.04759047
36	0xbb53f20d	-0.0032340318
37	0xbaadef45	-0.001327016
38	0x3d65df17	0.05612096
39	0xbcb6e59f	-0.022326289
40	0xbca95083	-0.020668274
41	0x3d58e983	0.05295707
42	0xbff74b08	-1.9319773
43	0xba2f4eff	-0.00066874916
44	0x3c328b42	0.010897459
45	0xbe35d4d4	-0.17756969
46	0xbf8ad1f8	-1.0845327
47	0xbf1f28ba	-0.6217152
48	0xbdf7dee4	-0.1210306
49	0xbe91b0ce	-0.28455204
50	0x3db95023	0.09048488
51	0x3d26855d	0.04065453
52	0x3f0ad386	0.5422901
53	0x3d85a088	0.065247595
54	0xbbdec73f	-0.0067986543
55	0xbe89ffe6	-0.26953048
56	0xbe73399e	-0.23752448
57	0x3dafbbdd	0.08580754
58	0xbf301df4	-0.68795705
59	0xbfabe162	-1.3428156
60	0x3c75098e	0.014955891
61	0x3d37f7c0	0.044914007
62	0x3edeb5da	0.43498117
63	0x3ce00cd3	0.027349865
64	0xbc8267a1	-0.015918555
65	0x3df96456	0.12177341
66	0xbdfc1a16	-0.12309663
67	0xbf32687a	-0.6969067
68	0xbc6ee03e	-0.014579831
69	0x3d9dc0df	0.07702803
70	0xbf244e9c	-0.6418245
71	0x3f43be90	0.7646265
72	0xbe981613	-0.2970434
73	0xbf48f3b3	-0.78496855
74	0xbf0bba32	-0.54580986
75	0x3e29a717	0.16567646
76	0xbd1f06de	-0.03882491
77	0x3e3464be	0.17616555
78	0xbc025fbf	-0.007957398
79	0x38836a91	6.266416e-05
80	0xbf2c4dff	-0.6730651
81	0x3d2e5704	0.042563453
82	0xbd4feda8	-0.050763756
83	0x3f45de18	0.77292013
84	0x3aac3d14	0.0013140761
85	0x3c3978f2	0.0113203395
86	0xc005583b	-2.0835102
87	0x3d29ccc6	0.041455053
88	0x3d74e854	0.059791878
89	0x3b3fcbce	0.0029265764
90	0x3d95dddb	0.07317706
91	0xbd512336	-0.05105897
92	0xbeb75d01	-0.35813144
93	0x3d2de7a3	0.042457234
94	0x3dcd510e	0.100252256
95	0x3d82ad64	0.06380728
96	0xbd942bcc	-0.07234916
97	0x3e318697	0.17336498
98	0x3d280614	0.04102142
99	0x3d747eb8	0.05969116
100	0xbcc1428f	-0.023591308
101	0x3cfe2420	0.031023085
102	0x3d482c2c	0.04887025
103	0xbb263721	-0.002536245
104	0x3cb6f1d3	0.022332108
105	0xbd88e1b4	-0.066836745
106	0xbc2462fe	-0.010033367
107	0x3dd171b7	0.102267675
108	0xbe41f7b7	-0.18942152
109	0xbc9fdc7e	-0.019514319
110	0xc01a0ca7	-2.4070222
111	0x3da1e06a	0.07904132
112	0xbd8eb13e	-0.069674
113	0x3d8f564b	0.06998881
114	0x3ef8d831	0.4860244
115	0x3d1980e8	0.03747645
116	0x3f229395	0.6350644
117	0xbe3358aa	-0.17514291
118	0xbd9325c1	-0.07184935
119	0x3c522cfe	0.01282811
120	0xbc8ff45c	-0.017572574
121	0xbd1e3206	-0.038621925
122	0xbece32f5	-0.40273252
123	0xbe69041b	-0.22755472
124	0x3f176f6d	0.591544
125	0x3f6f2530	0.9341612
126	0xbed06dc3	-0.40708742
127	0x3d0a501d	0.03376781
128	0x3e7e3499	0.24824752
129	0xbdaf26f9	-0.08552355
130	0xbb895cd5	-0.0041919746
131	0xbe8009cf	-0.25007483
132	0xbd204524	-0.039128438
133	0xbb38f9ec	-0.0028225137
134	0xbc90a3ce	-0.017656233
135	0x3e617eec	0.22021073
136	0x3cd462f3	0.025926089
137	0xbe60ac20	-0.2194066
138	0xbd8602b0	-0.06543481
139	0x3ec34c3a	0.38144094
140	0x3d600fd8	0.05470261
141	0x3e09749a	0.13423386
142	0x3d18171a	0.037131406
143	0xbcc03407	-0.023462309
144	0xbfdacbc2	-1.7093432
145	0xbd7af78b	-0.06127123
146	0x3dc66757	0.09687679
147	0x3bd84153	0.006599584
148	0xbf1aae55	-0.6042226
149	0xbc99b153	-0.018761313
150	0x3dc5998f	0.096484296
151	0x3ca43ad5	0.020047585
152	0xbd69b727	-0.057059433
153	0xbedf1739	-0.43572405
154	0xbef2d00c	-0.47424352
155	0x3e3bee98	0.18352735
156	0x3d14a553	0.036290478
157	0x3d3f8eac	0.046766922
158	0x3c51b17a	0.012798661
159	0x3d0b3402	0.033985145
160	0xbd2db467	-0.042408373
161	0x3f7cc310	0.9873514
162	0xbebbcabc	-0.36678112
163	0xbc52b382	-0.012860181
164	0x3d0fad31	0.035077278
165	0x3dbfc437	0.09363597
166	0x3cb2d6ff	0.021831034
167	0xbc29d30d	-0.01036526
168	0x3c267aeb	0.010161142
169	0xbfa5f748	-1.2966089
170	0x3e075cb8	0.13218963
171	0x3dbb12c1	0.091344364
172	0x3d4919fe	0.049097054
173	0x3d35edd5	0.044416267
174	0xbd3d4c9c	-0.04621564
175	0xbc9de990	-0.01927641
176	0x3d585be2	0.052822
177	0x3da565c3	0.0807605
178	0x3ecce5f3	0.40019187
179	0xbe89816e	-0.2685656
180	0xbc8f7efe	-0.01751661
181	0x3bb90005	0.0056457543
182	0xbec132a6	-0.37733954
183	0x3cd5e4cb	0.026110074
184	0xbb539886	-0.0032286956
185	0x3bce633f	0.006298452
186	0x3e1d9c41	0.15391637
187	0xbd0967f0	-0.03354639
188	0x3c573251	0.013134555
189	0x3eadb200	0.33924866
190	0xbd20639d	-0.0391575
191	0xbd95a521	-0.073068865
192	0x3eb71474	0.35757792
193	0xbd0cd842	-0.034385927
194	0xbef54f43	-0.47912034
195	0x3c6472ed	0.013943416
196	0xbf9e2ce0	-1.2357445
197	0xbb6aad7c	-0.003580897
198	0x3cde75ef	0.027155844
199	0xbb6a6247	-0.0035764144
