HybridLearning-master/data/hlt_stoch/InvertedPendulumBulletEnv/seed_666/model_2000.pt (torch, 180898 bytes, 10 tensors)

log_std f4 [1, 5]
-4.575926 -2.054198 -4.59229 -4.240239 -1.239229
00000000: fc6d 92c0 fb77 03c0 0af4 92c0 0ab0 87c0
00000010: 0e9f 9ebf

mu.0.weight f4 [200, 6]
0.2091676 -0.088835485 -0.44838354 -0.5752569 -0.066808686 -0.87241036 -0.020355728 -0.2824507
0.118744165 -0.8061953 -0.122875154 0.014430184 0.27813074 -0.17589553 0.3235252 0.63377005
0.01728507 -0.53906703 0.15358834 -0.13778892 -1.2838389 0.53738695 -0.01884661 0.25770628
-0.11380163 0.04090751 0.24179687 -0.89826506 -0.1342004 0.27898106 -1.3354231 0.294689
-0.15681727 -0.37257373 0.5877857 0.51611525 0.43344378 0.1933912 -0.494129 -1.0014509
0.31543848 1.0354452 -0.23232067 -0.37850785 0.10643191 0.18807337 0.0015514055 -0.1325217
-0.00011236792 2.8357494e-05 -0.00010323295 5.501831e-05 -4.6168616e-06 4.9677474e-05 0.12887818 -0.021742849
0.097898625 0.7785884 -0.13429816 -0.18709365 0.0063717305 0.015105554 -0.0022674866 0.016308343
-0.00058477384 0.002906685 -0.15079169 0.037688334 -0.020178149 0.02323366 0.0086426 -0.03517727
0.19104221 0.18663459 -0.4436589 -0.55759674 -0.11096416 -0.39469457 -0.3091222 0.056086805
-0.027335268 -0.20491163 0.020784894 0.024731928 -0.08131576 0.18826695 -0.9026072 -0.14060974
0.15519817 -0.17774028 -0.3947188 -0.020063227 0.28966993 0.07738761 -0.18715072 0.04527526
-0.37495252 0.23065177 -0.6774664 -0.9328912 0.052793596 0.44450676 -0.013487999 0.004021842
-0.002394099 -0.0008717542 0.0010275791 -0.005476251 -2.25946e-12 1.0163025e-11 3.5379093e-12 2.0116065e-11
4.5404452e-13 -1.8163542e-11 -0.051038068 0.18351501 -0.20824137 -1.0194367 0.34176323 0.25587294
-0.76269215 -0.43873745 -0.13200982 -1.0100975 -0.29227537 0.5630082 -0.01769642 0.0024789793
-0.0031071024 -0.004601419 0.0016669859 -0.0061356723 -0.38333848 0.31329042 -0.15974043 -0.30031523
0.32618755 0.32664502 -3.1989867e-07 -4.0202292e-07 -3.260712e-07 -4.007192e-07 -6.677819e-08 7.378357e-07
0.19893242 0.50076544 -0.16846968 0.5471463 -0.02653037 -0.35011125 0.005730018 0.009120801
-0.0055402517 0.0034679044 -0.0006744857 0.007846945 2.497969e-05 -1.05559975e-05 4.3130964e-05 -0.00014540476
-3.525562e-06 0.00016484596 1.6377373e-05 -2.2965021e-05 2.5092731e-06 3.0375526e-05 7.176646e-06 6.049913e-06
0.15417826 -0.13043064 -0.25165585 -0.4635721 -0.09118623 -0.120914586 -0.45414394 -0.1791719
-0.48394176 -0.8268755 0.34645033 0.18548162 0.0011373004 0.0004724347 -0.0011851577 -0.0020452484
0.00018033352 -0.0022934945 0.025683677 0.015579179 0.0013245065 0.001610112 -0.00025545305 -0.011224088
-0.6645192 -0.4411237 0.57014805 0.15256582 0.19314702 1.0191286 -1.0521581 -0.55593413
-0.7556458 -0.93833405 -0.1783128 -0.913667 -0.009349005 -0.0071016434 -0.0028039 0.007965279
0.0017698437 -0.0038616112 -0.1981886 -0.08523631 -0.21075895 0.47853616 -0.47435522 0.23227352
0.2597844 0.038425777 -0.14817648 -0.5604856 -0.01285048 0.08997746 -0.0001402096 0.00021070799
-2.2349737e-05 0.00011538974 -4.0554256e-05 0.00014225255 0.0044643898 -0.0011769332 -0.00036912627 -0.0010992825
5.6447527e-05 0.0004958615 -0.81468546 0.10000327 0.46037516 0.885292 0.6954433 0.16224588
0.6550433 0.085975304 0.7126915 -0.2363435 0.17418183 0.008011541 0.37545842 0.043143515
0.3811679 0.60828006 -0.11744791 0.51214755 -3.0087076e-12 -4.5683683e-12 3.078266e-10 6.07064e-10
00000000: 0830 563e 61ef b5bd 8792 e5be 0944 13bf
00000010: fed2 88bd 4956 5fbf 0ec1 a6bc 619d 90be
00000020: 2430 f33d d162 4ebf f8a5 fbbd 946c 6c3c
00000030: 2767 8e3e f51d 34be 18a5 a53e c13e 223f
00000040: 6b99 8d3c 4c00 0abf 4346 1d3e 8a18 0dbe
00000050: d554 a4bf 3192 093f 3564 9abc 14f2 833e
00000060: d410 e9bd a28e 273d 9999 773e b3f4 65bf
00000070: d46b 09be 9bd6 8e3e 25ef aabf 7ae1 963e
00000080: b594 20be fcc1 bebe 2079 163f 2120 043f
00000090: 58ec dd3e 5808 463e 7afe fcbe 8b2f 80bf
000000a0: 2781 a13e 7889 843f 78e5 6dbe c8cb c1be
000000b0: f9f8 d93d 4e96 403e 8858 cb3a c5b3 07be
000000c0: 11a7 ebb8 41e1 ed37 c57e d8b8 76c3 6638
000000d0: 8aea 9ab6 c85c 5038 a4f8 033e 0f1e b2bc
000000e0: 137f c83d 9251 473f 7585 09be 7a95 3fbe
000000f0: f3c9 d03b 497d 773c 1d9a 14bb 1399 853c
00000100: 824b 19ba 157e 3e3b 2369 1abe 155f 1a3d
00000110: a54c a5bc 8454 be3c b199 0d3c 0b16 10bd
00000120: 92a0 433e 231d 3f3e 4227 e3be a9be 0ebf
00000130: 2d41 e3bd 6815 cabe 4445 9ebe 47bb 653d
00000140: 36ee dfbc 5bd4 51be 1545 aa3c 9d9a ca3c
00000150: e188 a6bd 0dc9 403e 4411 67bf 00fc 0fbe
00000160: 45ec 1e3e 8c01 36be 9518 cabe a35b a4bc
00000170: 9e4f 943e 657d 9e3d 70a4 3fbe 8d72 393d
00000180: c7f9 bfbe fa2f 6c3e 706e 2dbf f5d1 6ebf
00000190: 193e 583d 6496 e33e c5fc 5cbc a8c9 833b
000001a0: 51e6 1cbb 6f86 64ba d5af 863a 1f72 b3bb
000001b0: d0fe 1eac 32ca 322d 4ff5 782c 5af1 b02d
000001c0: b69a ff2a a9c4 9fad 4b0d 51bd 5ceb 3b3e
000001d0: 3a3d 55be e77c 82bf 97fb ae3e c701 833e
000001e0: cb3f 43bf 32a2 e0be 952d 07be e04a 81bf
000001f0: 1ea5 95be 4e21 103f 15f8 90bc 5f76 223b
00000200: 87a0 4bbb 80c7 96bb c47e da3a c00d c9bb
00000210: f144 c4be 9a67 a03e ff92 23be ebc2 99be
00000220: 0e02 a73e 043e a73e 8abe abb4 9cd5 d7b4
00000230: e20e afb4 6d22 d7b4 b367 8fb3 af0f 4635
00000240: f1b4 4b3e 2a32 003f 5183 2cbe c811 0c3f
00000250: 3856 d9bc c841 b3be e0c2 bb3b 6a6f 153c
00000260: 008b b5bb c845 633b f8cf 30ba 7990 003c
00000270: 7a8b d137 aa19 31b7 85e7 3438 cb77 18b9
00000280: b298 6cb6 80da 2c39 2462 8937 02a5 c0b7
00000290: fc64 2836 f2ce fe37 ebce f036 5b00 cb36
000002a0: e8e0 1d3e 9c8f 05be 09d9 80be 5359 edbe
000002b0: d9bf babd 11a2 f7bd 8e85 e8be d778 37be
000002c0: 37c7 f7be 1dae 53bf f061 b13e e5ee 3d3e
000002d0: 7811 953a 1db1 f739 4b57 9bba 9309 06bb
000002e0: e917 3d39 744e 16bb 9366 d23c d03f 7f3c
000002f0: 109b ad3a 650a d33a 54ee 85b9 3de5 37bc
00000300: ee1d 2abf f7da e1be 39f5 113f 373a 1c3e
00000310: 55c8 453e ce72 823f 1ead 86bf b351 0ebf
00000320: 0172 41bf a936 70bf a197 36be 15e6 69bf
00000330: 922c 19bc e7b4 e8bb a3c1 37bb cd80 023c
00000340: 1afa e73a 1613 7dbb f4f1 4abe 6090 aebd
00000350: 32d1 57be b102 f53e b0de f2be 1cd9 6d3e
00000360: 7602 853e 5964 1d3d 93bb 17be fc7b 0fbf
00000370: d28a 52bc 1a46 b83d 3a05 13b9 7ff1 5c39
00000380: b27b bbb7 65fd f138 cd18 2ab8 a129 1539
00000390: 044a 923b 5343 9aba 4a87 c1b9 cd15 90ba
000003a0: 12c2 6c38 b4fc 013a 3a8f 50bf 84ce cc3d
000003b0: 4bb6 eb3e 7fa2 623f 9208 323f c923 263e
000003c0: ebb0 273f d213 b03d f372 363f 0804 72be
000003d0: b95c 323e d742 033c 163c c03e 41b7 303d
000003e0: 7028 c33e 3eb8 1b3f 8888 f0bd 1a1c 033f
000003f0: 0fb8 53ac 34bc a0ac be3a a92f 55de 2630

mu.0.bias f4 [200]
-0.13288908 0.31205904 0.4472447 1.3818443 0.62587875 -0.052882135 -0.6955843 -0.22698326
7.984207e-05 0.52860916 0.0029857357 0.014170905 0.3342433 0.19343872 -0.67181885 -0.324324
0.63091826 0.00086701266 -1.5762081e-12 0.37012526 0.43809038 0.0021560616 -0.11281808 1.0864172e-07
0.3156228 0.0062957457 7.3029487e-06 1.6238312e-06 -0.4129383 -0.79755837 0.0011694978 0.00843798
0.06095279 0.13665622 0.00034972237 0.5426085 -0.14012262 -4.195706e-06 -0.0028167446 -0.11282947
-0.30535603 0.246661 -1.8769829e-10 -0.50911367 -0.0005119446 0.81896406 0.21107377 -0.00016517553
0.6958298 0.0009172247 -0.018425222 -0.033864878 -0.059459 -0.004512894 -0.57733935 -0.19709828
-0.093691595 0.00034734255 0.056596175 0.21901271 -7.315785e-06 -0.0007294367 0.036805354 4.7722625e-07
0.061592165 -0.14748676 -7.414389e-05 -0.20839497 0.12336844 -0.40276954 -0.2753289 8.075667e-05
-0.0018767314 0.48502657 -0.10566532 -0.32526097 -0.43912172 -0.0013442952 0.91072667 2.3027526e-12
-0.50839067 0.2781763 -0.00038345397 -0.41290843 1.3224986e-06 -0.8314532 -0.015348718 -0.22649379
-0.095205605 -0.03837141 -0.21304114 -0.5070383 0.4511199 0.81271213 0.0040270486 -4.4539247e-06
1.2195047e-11 -0.02471054 0.12619032 -0.003181611 0.57176954 8.0471847e-07 -0.2623564 0.18264046
0.0985562 0.00011182156 0.26909533 -0.31996974 0.2511147 -2.1778942e-05 -0.052658606 -0.43818626
1.500171e-05 -0.3400647 -5.2678192e-08 0.3969557 0.013581405 -0.059492335 0.6713806 -0.04501477
0.0066039143 0.3430585 7.778969e-06 0.815881 -0.016912783 -0.95179206 0.3279631 -0.73563963
0.049766008 4.7475983e-06 0.31298968 9.337516e-13 -0.82278204 -0.112423524 0.00081755174 0.16575825
-0.39016116 0.00031348297 -0.25588894 0.60816646 0.00014486225 -2.281968e-05 6.342499e-05 0.0006172863
6.7676915e-08 0.8546583 0.0069042076 -0.40976736 0.012759122 -0.25421962 0.4187813 -0.054280825
-1.6940803e-07 0.6095931 0.02462377 -0.29182097 0.26760396 0.0020377077 -0.064364806 -0.18663561
-2.91755e-10 0.5969191 0.07578674 0.5598998 1.8972131e-06 -0.022043189 -0.19934164 0.0041213534
0.05047367 7.1117225e-05 -0.0001934689 0.045527548 -2.6081257e-06 0.39215016 -0.018299604 -0.4791155
-0.00048619547 1.4535359e-12 6.55641e-05 -0.8089731 -0.00022571832 -0.39336878 0.46594164 0.10814441
-0.050952256 -0.0005192842 -0.7724899 1.0766162e-05 0.003651344 0.13274696 -0.55880845 0.007594508
2.6005093e-05 0.42217967 0.0001024288 1.3950433e-06 -3.4835413e-08 0.2377487 -0.10538013 -0.0005621586
00000000: 1314 08be 34c6 9f3e 42fd e43e 46e0 b03f
00000010: 9739 203f f09a 58bd d011 32bf 4d6e 68be
00000020: e370 a738 ee52 073f 55ac 433b 152d 683c
00000030: f021 ab3e cd14 463e 52fc 2bbf cc0d a6be
00000040: dc83 213f 3c48 633a e2d4 ddab 0f81 bd3e
00000050: 624d e03e b64c 0d3b 2a0d e7bd 6b4e e933
00000060: 5099 a13e 8b4c ce3b da0b f536 6af2 d935
00000070: a66c d3be c92c 4cbf d649 993a 743f 0a3c
00000080: a2a9 793d 9cef 0b3e f15a b739 64e8 0a3f
00000090: 4e7c 0fbe d7c8 8cb6 2299 38bb 2313 e7bd
000000a0: a057 9cbe b494 7c3e 5f60 4eaf 4655 02bf
000000b0: 0534 06ba a1a7 513f b923 583e f832 2db9
000000c0: e721 323f e871 703a 7ef0 96bc e6b5 0abd
000000d0: 488b 73bd e6e0 93bb 83cc 13bf 22d4 49be
000000e0: 61e1 bfbd 871b b639 64d1 673d de44 603e
000000f0: 1d7a f5b6 ab37 3fba 36c1 163d bd1a 0035
00000100: 1148 7c3d c506 17be b37d 9bb8 7e65 55be
00000110: 98a8 fc3d cf37 cebe e9f7 8cbe e85b a938
00000120: a8fc f5ba 6755 f83e 0f67 d8bd 9b88 a6be
00000130: 90d4 e0be 1033 b0ba 6225 693f b40a 222c
00000140: e425 02bf 206d 8e3e 520a c9b9 bc68 d3be
00000150: b580 b135 1eda 54bf 3079 7bbc fded 67be
00000160: 28fb c2bd 572b 1dbd 7527 5abe 43cd 01bf
00000170: 30f9 e63e e70d 503f 55f5 833b ec72 95b6
00000180: 9c89 562d c26d cabc 0938 013e 9382 50bb
00000190: 7d5f 123f d503 5835 9453 86be 1a06 3b3e
000001a0: d5d7 c93d be81 ea38 ddc6 893e 13d3 a3be
000001b0: 1b92 803e ecb1 b6b7 8db0 57bd f359 e0be
000001c0: dbaf 7b37 f61c aebe 4940 62b3 c73d cb3e
000001d0: 8b84 5e3c 3cae 73bd 99df 2b3f 6861 38bd
000001e0: a665 d83b 5da5 af3e 6b82 0237 94dd 503f
000001f0: ad8c 8abc a5a8 73bf c8ea a73e e152 3cbf
00000200: 71d7 4b3d 8f4d 9f36 2f40 a03e f269 832b
00000210: d8a1 52bf 4e3e e6bd f850 563a 88bc 293e
00000220: 34c3 c7be f95a a439 e003 83be ccb0 1b3f
00000230: 2ae6 1739 e46c bfb7 0803 8538 62d1 213a
00000240: c755 9133 e3ca 5a3f b13c e23b 07cd d1be
00000250: a30b 513c 1329 82be 816a d63e 9255 5ebd
00000260: 86e6 35b4 4b0e 1c3f cab7 c93c 8f69 95be
00000270: 6303 893e 108b 053b b2d1 83bd 681d 3fbe
00000280: de64 a0af b1cf 183f 1436 9b3d 9855 0f3f
00000290: bfa3 fe35 eb93 b4bc 3720 4cbe 6b0c 873b
000002a0: 7bbd 4e3d c524 9538 eadd 4ab9 187b 3a3d
000002b0: 4207 2fb6 e8c7 c83e 0de9 95bc a04e f5be
000002c0: 0de8 feb9 2691 cc2b 757f 8938 dc18 4fbf
000002d0: cdae 6cb9 a267 c9be e78f ee3e d17a dd3d
000002e0: 50b3 50bd 9320 08ba e6c1 45bf 50a0 3437
000002f0: 634b 6f3b d2ee 073e 120e 0fbf 5adb f83b
00000300: 8325 da37 ef27 d83e 0bcf d638 533d bb35
00000310: f19d 15b3 6574 733e 8ad1 d7bd d35d 13ba

mu.2.weight f4 [5, 200]
-0.024687525 -0.008704379 0.003716103 0.0075502764 0.02253945 -0.010815373 0.006723867 0.0044244383
-3.969196e-06 0.011856204 0.00010182756 0.0028191952 -0.0005188852 0.03624023 -0.0048600403 -0.0002206733
-0.0012922764 -2.8112208e-05 -2.2410758e-12 0.0030078643 0.0028408521 0.00017492326 -0.0016864238 1.967903e-07
0.006048329 -0.005865759 1.1850312e-06 2.926531e-06 -0.032716345 -0.0025557629 -0.0021171186 0.00078454346
-0.01728643 0.0047351588 -0.00043392213 0.008153641 0.015170754 -2.5194158e-05 0.0035643228 -0.009797803
0.017983545 -0.014004924 1.0859548e-10 -0.0015353386 0.0011127606 -0.0026725053 0.01725902 0.0006154119
-0.008344576 -0.003926499 0.0021445102 -0.0011495753 -0.025949096 0.0054872115 0.014788589 -0.0015658119
0.013730708 7.8376834e-05 0.031072121 -0.017115602 -2.1593437e-06 -0.0022119293 0.033194866 -6.961585e-07
-0.019476064 0.08206492 5.247024e-05 0.005580395 -0.0052693095 -0.024143038 -0.015390539 0.00014769661
0.0016538457 -0.017682469 -0.0037014126 0.014452232 0.01719242 0.001170112 -0.014218449 4.6434575e-11
-0.0033641597 0.02832889 0.0032041015 -0.0059919404 -2.9920898e-07 0.011419653 -0.0032195176 -0.0024168147
-0.009907637 -0.009329202 0.009279199 -0.0020973075 -0.0037298026 0.01803608 0.00083096034 5.878558e-05
-4.6842895e-13 -0.0028875219 0.0193641 0.0021146603 0.0051315143 -9.346303e-07 0.0036419835 0.008459607
-0.004766612 -4.724252e-05 0.006875292 -0.005888677 0.0043628043 8.303924e-06 -0.0022237583 -0.026171912
-7.1171976e-06 -0.004941354 -9.638767e-08 -0.013595184 -0.0011232186 -0.009465833 0.016300648 0.020148367
-1.89444e-05 -0.00910717 -9.7051225e-06 0.0001260169 -0.000318179 -0.004847085 -0.018875094 0.0027965403
0.012950239 -3.8287913e-06 -0.0072064465 -1.2917658e-12 0.0067743906 0.011212153 0.00022687198 -0.020400116
0.027896581 -0.0036092438 -0.01589076 0.007231688 0.00011316267 -3.907736e-05 -3.4753637e-05 0.0028869172
-4.2534765e-08 -0.009454129 0.08426566 -0.008073207 0.0011675737 -0.005366131 -0.01995697 -0.020189919
-5.105626e-07 -0.012861367 0.030195063 -0.007636607 0.017543623 -0.003846798 0.0032489402 -0.010741365
-7.1227635e-10 0.0118854735 0.0025416024 0.001728643 -2.213532e-05 0.0045136795 -0.014255129 0.014866604
-0.0046933363 -1.1185634e-05 9.670195e-05 -0.03620611 1.3316317e-06 -0.009561624 -0.00069313444 0.0034907789
0.002942627 4.775627e-13 1.1905591e-05 0.017234601 -0.0004278507 -0.017240087 -0.0010625147 0.008583115
0.003890218 5.8209403e-06 0.013971725 2.748505e-05 0.007912268 0.026429279 0.0022218132 -0.0012771331
-2.3406055e-05 -0.0114607075 -0.00011074427 -1.4831473e-06 8.9776e-09 0.0026016033 0.028123254 0.00030197215
-0.24393083 0.11618851 0.17008272 0.11314363 0.04408409 -0.22916816 0.10834809 0.40334404
-2.5222118e-05 0.14762849 0.012507195 0.16073844 -0.13601601 0.33622906 -0.057180773 0.011056401
-0.04667929 0.026123757 1.0752649e-11 0.065499306 0.050055865 0.02617077 0.06599017 -9.426296e-07
0.1244989 0.0023430753 -4.60876e-05 -1.3018998e-05 0.036746554 -0.14292823 0.0021882758 -0.12701072
-0.33063835 0.12811857 -0.006261581 0.029321836 -0.241289 9.4387084e-05 0.028134406 -0.27983704
0.0036592258 -0.23947208 2.5017494e-10 -0.32736644 0.0072099776 -0.013320971 0.4033897 -0.001856247
-0.11682736 0.0033591306 -0.0036447588 0.17345302 -0.48836112 -0.006752265 -0.0027009468 -0.06698511
00000000: 7e3d cabc d09c 0ebc dd89 733b 4f68 f73b
00000010: a7a4 b83c f632 31bc e253 dc3b e1fa 903b
00000020: 222f 85b6 8640 423c 418c d538 3fc2 383b
00000030: cc05 08ba a370 143d f940 9fbb 8a64 67b9
00000040: 9a61 a9ba 82d2 ebb7 a2b3 1dac 971f 453b
00000050: 972d 3a3b 9b6b 3739 fe0a ddba 4e4d 5334
00000060: 1031 c63b 8e35 c0bb 5d0d 9f35 6b65 4436
00000070: 9301 06bd 967e 27bb 5bbf 0abb d2a9 4d3a
00000080: 459c 8dbc 6429 9b3b 0b80 e3b9 d996 053c
00000090: c18e 783c 0b58 d3b7 6a97 693b f786 20bc
000000a0: 3a52 933c e974 65bc d2cd ee2e 6a3d c9ba
000000b0: 0dda 913a 3325 2fbb ca62 8d3c 9853 213a
000000c0: b0b7 08bc dca9 80bb e98a 0c3b 59ad 96ba
000000d0: 3393 d4bc 11ce b33b d74b 723c ee3b cdba
000000e0: c3f6 603c 3e5e a438 f68a fe3c 0536 8cbc
000000f0: 3ee9 10b6 04f6 10bb 57f7 073d a6df 3ab5
00000100: 448c 9fbc a711 a83d 7e13 5c38 bfdb b63b
00000110: 2caa acbb 9fc7 c5bc 9928 7cbc 02df 1a39
00000120: dac5 d83a d3da 90bc 6693 72bb 0ec9 6c3c
00000130: 1ed7 8c3c 725e 993a 7ff4 68bc af38 4c2e
00000140: 3c79 5cbb fd11 e83c e7fb 513b 0a58 c4bb
00000150: f8a2 a0b4 7f19 3b3c 8bfe 52bb 6c63 1ebb
00000160: a453 22bc 82d9 18bc c807 183c fb72 09bb
00000170: b46f 74bb 67c0 933c ced4 593a 8990 7638
00000180: ddd9 03ab 943c 3dbb 76a1 9e3c 1d96 0a3b
00000190: 4326 a83b 4ee3 7ab5 58ae 6e3b 2a9a 0a3c
000001a0: 3d31 9cbb 4526 46b8 214a e13b cef5 c0bb
000001b0: dbf5 8e3b 1551 0b37 79bc 11bb 7a66 d6bc
000001c0: 43d0 eeb6 15eb a1bb affd ceb3 56be 5ebc
000001d0: f638 93ba 9516 1bbc f088 853c 300e a53c
000001e0: caea 9eb7 3d36 15bc 2fd3 22b7 6723 0439
000001f0: 43d1 a6b9 4cd4 9ebb f19f 9abc 2946 373b
00000200: 3d2d 543c 1179 80b6 0e24 ecbb c5cc b5ab
00000210: b5fb dd3b 2eb3 373c 7ce4 6d39 251e a7bc
00000220: 5f87 e43c 1089 6cbb 572d 82bc ccf7 ec3b
00000230: bf51 ed38 ffe6 23b8 6fc4 11b8 6f32 3d3b
00000240: 78af 36b3 7ee5 1abc 7993 ac3d 7c45 04bc
00000250: 4609 993a 5fd6 afbb cd7c a3bc 5465 a5bc
00000260: 980d 09b5 7cb8 52bc a35b f73c 813c fabb
00000270: a5b7 8f3c 901a 7cbb 2cec 543b 8dfc 2fbc
00000280: fec9 43b0 4abb 423c 0391 263b a293 e23a
00000290: 3daf b9b7 7de7 933b 588e 69bc 0e93 733c
000002a0: 8fca 99bb efa9 3bb7 77cc ca38 dc4c 14bd
000002b0: 84ba b235 5ca8 1cbc 77b3 35ba 8dc5 643b
000002c0: 17d9 403b 056c 062b 20be 4737 942f 8d3c
000002d0: 2651 e0b9 153b 8dbc 1444 8bba 32a0 0c3c
000002e0: 07f3 7e3b 7f51 c336 a9e9 643c b28f e637
000002f0: 75a2 013c 3782 d83c d79b 113b 7a65 a7ba
00000300: 1f58 c4b7 b1c5 3bbc 613f e8b8 8e10 c7b5
00000310: e73b 1a32 a97f 2a3b bd62 e63c 0452 9e39
00000320: 01c9 79be 3ef4 ed3d 2a2a 2e3e d9b7 e73d
00000330: 8591 343d 0fab 6abe 9ae5 dd3d 1c83 ce3e
00000340: 1694 d3b7 ec2b 173e faea 4c3c 9e98 243e
00000350: c847 0bbe 3726 ac3e 6336 6abd e825 353c
00000360: c832 3fbd 7d01 d63c a029 3d2d 8024 863d
00000370: 6107 4d3d 1564 d63c db25 873d 0309 7db5
00000380: 47f9 fe3d 488e 193b 2f4e 41b8 2c6c 5ab7
00000390: 8e83 163d c75b 12be 2d69 0f3b 190f 02be
000003a0: 6e49 a9be 8431 033e f32d cdbb 5934 f03c
000003b0: 7714 77be aef1 c538 207a e63c cd46 8fbe
000003c0: 9fcf 6f3b 2b38 75be fe88 892f 939c a7be
000003d0: ad41 ec3b 3440 5abc 1889 ce3e 504d f3ba
000003e0: 2f43 efbd dc24 5c3b e8dc 6ebb ab9d 313e
000003f0: 780a fabe 1b42 ddbb 5e02 31bb 7d2f 89bd

mu.2.bias f4 [5]
-0.0050835125 0.15745208 -0.0037971297 0.022680828 0.11629892
00000000: 9893 a6bb 1e3b 213e 44d9 78bb 25cd b93c
00000010: 212e ee3d

reward_fun.0.weight f4 [200, 6]
0.39204714 -0.1556038 1.4104892 -0.8261606 -0.41553092 0.31782225 -0.37101313 -0.2612975
-0.21132624 -0.06197403 0.14561711 -0.7007927 0.31585455 -0.019865507 -0.11333028 0.21680653
-0.00800737 -0.22828737 -0.6807707 0.033662397 -0.9290385 -0.8233511 -0.06406715 0.6482452
0.43312323 -0.0881853 0.44543967 1.1017165 0.09809508 -0.02246717 0.512968 0.5192106
-0.4892655 0.5192678 0.099080786 -0.4668262 -0.12103556 -0.062430415 1.5491086 0.91090006
0.55738026 -0.14518593 -0.5857636 -0.24069466 1.1695254 -1.0303677 0.06586927 -0.19377153
-1.3397372 -0.49098942 0.27122638 0.028149923 0.17838842 -0.43969536 0.09584635 0.36802003
-0.47090653 0.29998988 0.09665344 -0.37900457 -0.01635404 0.5856428 1.3720485 -0.5781469
-0.47534776 -0.028567594 -0.8956825 -0.6843133 0.555773 -1.0098695 0.09891897 -0.24363196
0.3756708 0.3737916 -0.5557809 -0.03312975 0.019638263 -0.11974785 1.7660002 -0.29331186
-0.91049296 0.75435627 0.064695604 0.0760402 0.1977527 -0.6198907 0.68134993 0.12856883
0.11269708 -0.46600628 0.2775663 0.0885367 -0.10944591 0.066034034 0.010429593 -0.07505509
-0.40648592 -0.15168726 -0.68488646 -0.159389 0.011809723 0.06204655 0.09395859 0.7949806
-1.0645593 -0.09385758 -0.13697545 0.51819324 0.04991267 0.026261955 -0.35608912 0.3703992
0.015703324 -0.16232727 0.76927775 0.5756156 0.67082596 0.21544051 -0.23651238 0.47346887
-0.0431246 0.1575287 -0.25744525 0.40742004 0.02891855 -0.2646566 0.3127743 0.36500245
1.780867 1.9624492 0.15448205 -0.19132327 0.3123662 0.33467937 0.0657535 -0.119337186
-0.026812082 0.20216058 -0.56372243 0.6316998 0.5341339 0.93672746 0.26798055 0.18588476
0.11541964 0.07629246 -0.28098622 0.07226592 0.003197435 -0.27933496 0.69954616 -0.40718624
1.4154282 1.3835431 0.11960384 -1.0068256 0.44515854 -0.1018988 -0.58163184 -1.0728304
0.048867323 -1.083003 -1.2565337 -0.30979297 0.11283521 -0.23147045 0.26390487 -1.0830019
-0.36452413 -0.37248445 1.8595818 -0.49413028 -0.38675252 0.019157931 -0.12002713 -0.24140988
1.5112776 -0.30859008 -0.28654265 -0.22091919 -0.4565199 -0.8915699 0.7696663 0.6577168
-0.107233204 0.003100663 1.0064108 0.18478164 -0.5524978 0.22138402 0.008645584 -0.7367611
0.38492674 0.09669625 -0.7387869 -0.03149343 -0.0039926083 -0.42369816 0.3469756 0.9144435
-0.59123456 0.30620405 0.0923298 -0.42067578 -0.61487 -0.32588607 -0.1966155 -1.2974226
0.0007431173 0.06955493 0.041240856 0.09265189 -0.21579699 0.07971669 -0.002828954 -0.25059727
0.18855678 0.2572639 -0.20634247 -0.18570209 -0.0056010396 -0.2944451 0.2369697 0.11649876
-0.28408396 0.043507013 0.021670915 -0.32053766 -0.74574745 0.64574957 1.3471243 0.06240336
0.32427853 -0.20421189 -0.19833063 0.84157044 0.052473646 0.027485833 -0.09890351 0.3343467
0.12865686 1.3227296 0.14123991 0.17212987 -0.3381521 0.3574397 0.585171 0.3264919
1.7632391 0.13215446 0.5174098 0.5395749 0.13647234 -0.10846439 -0.2496929 0.046265192
00000000: 67ba c83e 9a56 1fbe e98a b43f 437f 53bf
00000010: 78c0 d4be 99b9 a23e 6ff5 bdbe c9c8 85be
00000020: e865 58be 7bd8 7dbd a71c 153e 2667 33bf
00000030: b0b7 a13e fdbc a2bc b519 e8bd 8802 5e3e
00000040: 5831 03bc 2ac4 69be fd46 2ebf 95e1 093d
00000050: 78d5 6dbf 23c7 52bf a335 83bd 66f3 253f
00000060: 54c2 dd3e 7f9a b4bd ab10 e43e 0c05 8d3f
00000070: 13e6 c83d 120d b8bc df51 033f fcea 043f
00000080: 0281 fabe bcee 043f deea ca3d d803 efbe
00000090: 7ee1 f7bd 09b7 7fbd 3149 c63f bf30 693f
000000a0: 79b0 0e3f 9fab 14be 9af4 15bf a978 76be
000000b0: 02b3 953f 17e3 83bf 78e6 863d 0b6c 46be
000000c0: 827c abbf f762 fbbe 2fde 8a3e ab9a e63c
000000d0: 74ab 363e c01f e1be 174b c43d 1f6d bc3e
000000e0: a91a f1be 4698 993e 3df2 c53d e30c c2be
000000f0: e8f8 85bc b0ec 153f 499f af3f 6f01 14bf
00000100: c860 f3be 9606 eabc 734b 65bf 282f 2fbf
00000110: 2447 0e3f 6743 81bf 0796 ca3d a87a 79be
00000120: ec57 c03e 9d61 bf3e a847 0ebf 10b3 07bd
00000130: 6ce0 a03c 5c3e f5bd 4b0c e23f f92c 96be
00000140: 1116 69bf 7e1d 413f 217f 843d f7ba 9b3d
00000150: af7f 4a3e 28b1 1ebf f36c 2e3f 8ca7 033e
00000160: bacd e63d 6098 eebe 2c1d 8e3e bb52 b53d
00000170: 2d25 e0bd da3c 873d e2e0 2a3c 7cb6 99bd
00000180: ec1e d0be e853 1bbe b854 2fbf df36 23be
00000190: 927d 413c 8624 7e3d 5c6d c03d d983 4b3f
000001a0: 7b43 88bf 6738 c0bd 4b43 0cbe 50a8 043f
000001b0: 3a71 4c3d 5023 d73c 5051 b6be f7a4 bd3e
000001c0: 42a4 803c 1f39 26be 63ef 443f 8b5b 133f
000001d0: 40bb 2b3f 709c 5c3e 4d30 72be 836a f23e
000001e0: 6ca3 30bd 344f 213e ddcf 83be 5c99 d03e
000001f0: 98e6 ec3c 1281 87be f423 a03e 9ae1 ba3e
00000200: 73f3 e33f 8931 fb3f 8b30 1e3e 3fea 43be
00000210: 76ee 9f3e 185b ab3e c5a9 863d 0e67 f4bd
00000220: 03a5 dbbc 2f03 4f3e 1d50 10bf 14b7 213f
00000230: 00bd 083f 5fcd 6f3f bf34 893e 9358 3e3e
00000240: 2261 ec3d 393f 9c3d 6ddd 8fbe 2800 943d
00000250: 0f8c 513b fe04 8fbe 7515 333f b77a d0be
00000260: c02c b53f f117 b13f dcf2 f43d a9df 80bf
00000270: d2eb e33e 51b0 d0bd d3e5 14bf 8252 89bf
00000280: 1a29 483d d89f 8abf 19d6 a0bf 2f9d 9ebe
00000290: 2616 e73d 9706 6dbe 8a1e 873e ce9f 8abf
000002a0: e8a2 babe 48b6 bebe c706 ee3f a5fe fcbe
000002b0: 6d04 c6be 18f1 9c3c c9d0 f5bd 2734 77be
000002c0: 8b71 c13f 85ff 9dbe b8b5 92be a438 62be
000002d0: fabc e9be ed3d 64bf da08 453f 2160 283f
000002e0: 159d dbbd 7e34 4b3b 12d2 803f 6637 3d3e
000002f0: 7f70 0dbf 7eb2 623e 35a6 0d3c 609c 3cbf
00000300: 1e15 c53e af08 c63d 2321 3dbf 41ff 00bd
00000310: 6dd4 82bb f7ee d8be c9a6 b13e f818 6a3f
00000320: 265b 17bf c7c6 9c3e 6817 bd3d d162 d7be
00000330: 1f68 1dbf 8ada a6be 9355 49be f211 a6bf
00000340: c2cd 423a d172 8e3d 2cec 283d 46c0 bd3d
00000350: e3f9 5cbe 8142 a33d f965 39bb 494e 80be
00000360: 0715 413e 18b8 833e 714b 53be b028 3ebe
00000370: ed88 b7bb 82c1 96be 2fa8 723e e796 ee3d
00000380: 7473 91be 6934 323d 3487 b13c 831d a4be
00000390: 4ee9 3ebf d84f 253f 926e ac3f aa9a 7f3d
000003a0: d607 a63e ec1c 51be 2f17 4bbe 2971 573f
000003b0: 9bee 563d f829 e13c ec8d cabd 7e2f ab3e
000003c0: a0be 033e 344f a93f 32a1 103e d042 303e
000003d0: 4622 adbe 5602 b73e c4cd 153f f229 a73e
000003e0: d2b1 e13f 8053 073e f874 043f 9521 0a3f
000003f0: 68bf 0b3e 9422 debd 7faf 7fbe 9280 3d3d

reward_fun.0.bias f4 [200]
-1.8988315 -0.60545605 -0.83374554 -0.24755228 -1.0131098 -1.0485865 -0.957067 -0.555235
0.04733162 -0.947569 -1.3955084 -0.48379415 -0.300052 -0.91666526 -1.1160215 -0.626631
-0.46476793 -0.8064082 -0.6324429 -1.1247118 -0.71134233 -0.35021874 -0.74409837 -1.1686058
-0.6560934 0.34028167 -1.207881 -0.60729796 -2.407967 -1.7086109 -1.3593656 -0.60381943
0.1734066 -1.6214451 -0.9720874 -0.6164001 -0.6267606 -0.5939124 -0.918669 -1.4164616
-1.2342746 -1.3071605 -0.6317954 -1.6478842 -0.27982074 -0.71431595 -0.4577222 -0.69261134
-1.1179546 -0.14282152 0.004611364 -0.9799325 -0.31145248 0.23048794 -0.518509 -0.53358334
-0.5819375 -0.36630097 -0.20230016 -0.8000764 -1.0620166 -1.6786067 -0.27804044 -0.4032773
-0.24084233 -0.8828416 -0.45461765 -0.19965266 0.13111724 0.17736593 -0.7957064 -1.1872225
-0.50335026 0.93085843 -1.1329198 -0.14557558 -1.0425221 -1.0621334 -0.4753024 -1.7119163
-1.0720536 -2.29543 -0.8139429 0.26814833 -1.0473702 -0.10371265 -0.4201384 -0.5773205
-0.77885586 -0.55717856 -0.6505041 -1.436903 -0.9859198 -0.23168132 -0.05174417 -0.572014
-1.0342237 -0.281331 -0.8448704 -0.9107817 -0.6052487 -1.310853 -0.46699682 -1.0511361
-0.50293213 -1.2592279 -1.5616261 -0.57237846 -0.60682386 -0.4851539 -1.4910021 -0.3283766
-0.81347823 -1.1914338 0.26170984 -2.100382 -0.8100015 -0.06901654 -0.057586536 -0.46847594
-0.18318076 -1.2167882 -1.8847055 -1.2985077 -0.70781165 -0.91201526 -0.43355486 -0.5031498
-0.692492 -0.026301784 -0.43149698 -0.22057389 -0.93504316 -0.666811 0.2557076 -1.2819786
-0.6512579 -0.47600347 -0.26163357 -0.37069649 -1.614495 0.19471331 -1.5053244 -0.9147344
-0.2543401 -1.7367575 -0.4982315 -0.61563647 -1.80305 -0.25991982 0.57700545 -0.13936801
-0.47345293 -1.5150473 -1.5359604 -0.7170948 -1.0001316 -0.9020051 -0.5309079 -0.4918737
-0.64179283 -1.2599946 -1.0786108 -1.1151549 -1.118592 -1.1696497 -1.1563505 -1.9152322
-0.64895004 -0.5395186 -0.030143714 -1.7417617 -0.36089024 0.5616674 -1.7756822 0.5747021
-1.4871608 -0.25414726 -0.8149283 -0.38670063 -0.7181715 -0.58427113 -0.23534371 -0.2317913
-0.76467264 -1.1379665 -0.53481656 -0.21127172 -0.40034586 -0.22060375 -1.9414582 -0.7580855
0.05329071 -0.9902823 -0.7363978 -0.051774506 -1.0182815 -0.7083698 -0.9042897 -0.41077027
00000000: e90c f3bf 2bff 1abf 5970 55bf 587e 7dbe
00000010: 95ad 81bf 1538 86bf 5802 75bf e223 0ebf
00000020: cdde 413d e293 72bf 05a0 b2bf deb3 f7be
00000030: 6aa0 99be 93aa 6abf cbd9 8ebf e46a 20bf
00000040: 10f6 edbe c570 4ebf c7e7 21bf 8ef6 8fbf
00000050: 881a 36bf df4f b3be 3b7d 3ebf e094 95bf
00000060: bdf5 27bf 6639 ae3e d89b 9abf e177 1bbf
00000070: 221c 1ac0 c3b3 dabf b1ff adbf e993 1abf
00000080: 8091 313e 838b cfbf b8da 78bf 66cc 1dbf
00000090: 6273 20bf a50a 18bf e42d 6bbf 9d4e b5bf
000000a0: b6fc 9dbf 0951 a7bf 58bd 21bf dfed d2bf
000000b0: aa44 8fbe 69dd 36bf 905a eabe fa4e 31bf
000000c0: 2319 8fbf ce3f 12be ed1a 973b dbdc 7abf
000000d0: b376 9fbe 0805 6c3e 01bd 04bf eb98 08bf
000000e0: dbf9 14bf cd8b bbbe c627 4fbe cfd1 4cbf
000000f0: 29f0 87bf 96dc d6bf 515b 8ebe 5d7a cebe
00000100: 5f9f 76be e801 62bf a5c3 e8be bf71 4cbe
00000110: 9943 063e 6a9f 353e 6ab3 4bbf e8f6 97bf
00000120: 90db 00bf bd4c 6e3f 8403 91bf c411 15be
00000130: 5d71 85bf fdf3 87bf d65a f3be 1320 dbbf
00000140: 0d39 89bf 53e8 12c0 905e 50bf bd4a 893e
00000150: 3a10 86bf 4c67 d4bd 611c d7be 47cb 13bf
00000160: 1963 47bf 41a3 0ebf 7087 26bf 70ec b7bf
00000170: 3d65 7cbf de3d 6dbe b2f1 53bd 826f 12bf
00000180: 7161 84bf 9e0a 90be 6d49 58bf fd28 69bf
00000190: 94f1 1abf 08ca a7bf 351a efbe a18b 86bf
000001a0: 29c0 00bf 612e a1bf 5de3 c7bf 6587 12bf
000001b0: cf58 1bbf 1866 f8be 28d9 bebf fa20 a8be
000001c0: 1c40 50bf e780 98bf d5fe 853e a96c 06c0
000001d0: 425c 4fbf 8b58 8dbd dcdf 6bbd 14dc efbe
000001e0: bd93 3bbe b7bf 9bbf 083e f1bf 8035 a6bf
000001f0: 2533 35bf d579 69bf e7fa ddbe 6dce 00bf
00000200: 2847 31bf d776 d7bc 2ced dcbe 1fde 61be
00000210: fd5e 6fbf 20b4 2abf 1bec 823e e017 a4bf
00000220: d6b8 26bf bab6 f3be d6f4 85be eecb bdbe
00000230: c6a7 cebf ed62 473e 78ae c0bf 092c 6abf
00000240: de38 82be 124e debf 3318 ffbe 5a9a 1dbf
00000250: 58ca e6bf 3614 85be a1b6 133f 7db6 0ebe
00000260: 6c68 f2be 12ed c1bf 5a9a c4bf 8693 37bf
00000270: 5004 80bf cee9 66bf 95e9 07bf dfd6 fbbe
00000280: 894c 24bf 8147 a1bf eb0f 8abf 65bd 8ebf
00000290: 062e 8fbf 15b7 95bf 4b03 94bf 5426 f5bf
000002a0: 9721 26bf e41d 0abf f3ef f6bc 0cf2 debf
000002b0: 9bc6 b8be 6fc9 0f3f 8e49 e3bf ad1f 133f
000002c0: 495b bebf 971f 82be 249f 50bf a0fd c5be
000002d0: 16da 37bf cb92 15bf f1fd 70be b35a 6dbe
000002e0: 96c1 43bf e3a8 91bf bde9 08bf 9d57 58be
000002f0: 22fa ccbe f3e5 61be b481 f8bf e411 42bf
00000300: 5c47 5a3d 2483 7dbf 9184 3cbf 8111 54bd
00000310: 0c57 82bf b957 35bf 887f 67bf 7b50 d2be

reward_fun.2.weight f4 [200, 200]
0.20033681 -0.44715795 0.091689035 -0.4389307 0.5141661 0.12727888 1.1165284 -2.4933686
0.40527302 0.5734586 -0.22823915 -0.5001152 -0.16066177 0.94686174 0.4298204 -0.20917271
-0.052620634 -0.5543185 -0.06979467 0.3984595 0.1484475 -0.22026597 0.46027827 0.56003076
-0.28626913 0.53470296 0.1548331 1.6594127 -1.59517 -0.7875382 1.8847456 -0.35544914
0.1037277 0.40122032 -0.10044802 -0.14574209 0.04395706 -0.31523117 0.74594045 -0.31968158
-0.62391746 0.6202403 -0.10125538 0.3526742 -0.40522707 0.064239316 0.039434206 -1.739752
-0.07521184 -0.54425013 0.2004297 0.074357115 -0.07069538 0.17562309 0.19257432 0.37241507
-0.3291367 -0.12617631 -0.11467122 -0.35005 0.25000864 -1.8245683 -0.9275997 -0.18341959
-0.30007482 0.19205435 0.11987942 0.025160246 0.522264 0.3794428 -0.42712188 -2.4440691
-0.19366868 0.04056234 0.025771951 0.07879387 -1.0870959 0.7352207 -0.22500978 -0.506543
0.7977777 -1.4439703 -0.21060108 0.37426317 0.8424885 -0.0142701315 -1.3743346 0.22282104
-1.007788 0.3189898 -0.34371108 0.8937136 -0.3550046 0.12569739 -0.2106679 -0.6742254
0.7593013 0.27936164 -0.3165366 0.6012907 0.07732606 -0.07437457 0.015958376 -0.66615224
-0.55753237 0.56856143 -3.2273462 -0.1066893 0.805108 0.046393592 0.24773088 -0.0057015996
0.04849232 0.4233194 -0.15499626 -3.0466278 -0.36665666 -0.2939166 -0.15729186 -0.34760153
0.37521213 -0.5549342 -0.6420766 -0.099275894 -0.12557009 -0.30846477 -0.043474447 -0.59258443
-0.0133228395 0.04788141 0.6075665 -0.057140518 0.046880595 -0.031815667 -0.57432705 0.9927308
0.024205022 -0.054135833 0.014596753 -0.4402356 0.7728215 0.08949637 0.47777998 -0.41070884
-0.6094563 -2.06394 -0.74692255 0.0063332357 0.68437904 -0.8712221 0.32442677 -0.09585643
-0.074262455 0.028506737 0.18721272 -0.3872879 -0.70840406 0.16518342 -0.17109396 -0.4547032
-0.41659042 -0.86398065 -0.94535315 -0.2138343 -0.6188179 0.34390604 -0.3062912 0.019423338
-0.18531066 0.80519783 -0.12225818 -0.628516 0.22325689 0.14706883 -0.5275081 -0.060214847
-1.6547207 -0.08811018 -0.23444895 -0.004121221 0.33549127 -0.5007438 -0.3106595 -0.38931954
0.006789813 -0.024805697 0.08909964 -0.28659862 -0.7312676 0.2431967 -2.0820036 -0.038991526
0.6217646 -1.1124858 0.1692576 -0.92885447 0.035533894 -0.026554404 0.1814011 -0.5412419
0.4530384 -0.08359043 0.041260216 0.12445429 -0.1605293 0.20602976 -0.21330811 0.52351665
-0.2064384 -0.06307137 -0.06832873 -0.010819082 -0.046596233 -0.35014287 0.331827 0.29396972
-0.059532087 -0.021210779 0.01930357 -0.06442425 -0.492616 -0.27126455 0.057268854 -0.024711583
0.04164592 -0.16394746 0.6296575 -0.39260605 0.12683485 0.20793495 0.039383218 -0.24099512
-0.13588183 -0.059781324 0.56445754 0.027634926 -0.14879037 -0.008917346 -0.13713023 0.24030523
-0.1639368 0.06267754 0.31824648 -0.106660716 -0.1007297 -0.3722072 -0.032935385 0.664574
0.42477444 -0.31135184 -0.38458788 -0.21395908 -0.1146061 -0.56710947 -0.121710636 -0.12153216
00000000: 1825 4d3e e3f1 e4be 76c7 bb3d 86bb e0be
00000010: 64a0 033f 6555 023e 67ea 8e3f 5a93 1fc0
00000020: f27f cf3e 2fce 123f 86b7 69be 8d07 00bf
00000030: 8584 24be 8865 723f 6b11 dc3e 5f31 56be
00000040: bc88 57bd d1e7 0dbf 82f0 8ebd e202 cc3e
00000050: 9f02 183e 678d 61be 98a9 eb3e 2d5e 0f3f
00000060: de91 92be 4be2 083f 918c 1e3e a367 d43f
00000070: 882e ccbf 1a9c 49bf 583f f13f 6efd b5be
00000080: 306f d43d c06c cd3e b1b7 cdbd 6a3d 15be
00000090: 510c 343d fb65 a1be f4f5 3e3f 4ead a3be
000000a0: 0eb9 1fbf 11c8 1e3f fb5e cfbd b691 b43e
000000b0: ec79 cfbe e78f 833d c385 213d 32b0 debf
000000c0: aa08 9abd fa53 0bbf 713d 4d3e 8b48 983d
000000d0: bdc8 90bd 8ad6 333e 3432 453e 30ad be3e
000000e0: 9b84 a8be 5d34 01be bfd8 eabd c139 b3be
000000f0: 2201 803e 748b e9bf 2d77 6dbf 58d2 3bbe
00000100: 68a3 99be e5a9 443e 5783 f53d dc1c ce3c
00000110: 18b3 053f 5446 c23e b8af dabe a16b 1cc0
00000120: 1551 46be b224 263d b31f d33c ae5e a13d
00000130: f525 8bbf 6c37 3c3f f768 66be cdac 01bf
00000140: 293b 4c3f 05d4 b8bf cfa7 57be 6c9f bf3e
00000150: 54ad 573f 45cd 69bc 32ea afbf 332b 643e
00000160: 32ff 80bf a252 a33e e6fa afbe 6aca 643f
00000170: 2ac3 b5be d1b6 003e 53b9 57be 099a 2cbf
00000180: 9261 423f 7d08 8f3e 1611 a2be 30ee 193f
00000190: 205d 9e3d b251 98bd 24bb 823c f488 2abf
000001a0: 71ba 0ebf 3e8d 113f d78c 4ec0 eb7f dabd
000001b0: 8f1b 4e3f 3507 3e3d 2aad 7d3e 7cd4 babb
000001c0: e29f 463d 52bd d83e 57b7 1ebe f3fb 42c0
000001d0: 6cba bbbe 3d7c 96be 1e11 21be d4f8 b1be
000001e0: ce1b c03e 2b10 0ebf 225f 24bf 2951 cbbd
000001f0: 7295 00be 18ef 9dbe 4312 32bd 9db3 17bf
00000200: 0a48 5abc 4c1f 443d 7a89 1b3f 2d0c 6abd
00000210: de05 403d 2551 02bd 1907 13bf 9b23 7e3f
00000220: 9c49 c63c 89bd 5dbd 3827 6f3c 9066 e1be
00000230: a1d7 453f df49 b73d 949f f43e 6e48 d2be
00000240: 5405 1cbf 9817 04c0 5136 3fbf 0887 cf3b
00000250: 7733 2f3f 6908 5fbf 441b a63e 6050 c4bd
00000260: ea16 98bd f686 e93c b1b4 3f3e 9a4a c6be
00000270: f859 35bf d825 293e 4133 2fbe dcce e8be
00000280: 574b d5be d62d 5dbf aa02 72bf 61f7 5abe
00000290: da6a 1ebf 7414 b03e 33d2 9cbe b11d 9f3c
000002a0: 14c2 3dbe 7221 4e3f 7f62 fabd 6de6 20bf
000002b0: 749d 643e 3699 163e c50a 07bf d8a3 76bd
000002c0: e3cd d3bf 1c73 b4bd 6313 70be 4f0b 87bb
000002d0: 83c5 ab3e bf30 00bf c30e 9fbe e454 c7be
000002e0: 147d de3b 5135 cbbc df79 b63d 0ebd 92be
000002f0: 5a34 3bbf 8e08 793e 8c3f 05c0 94b5 1fbd
00000300: f72b 1f3f ef65 8ebf dd51 2d3e 68c9 6dbf
00000310: fd8b 113d 9f88 d9bc 36c1 393e d48e 0abf
00000320: a6f4 e73e 7631 abbd 7900 293d e4e1 fe3d
00000330: cb61 24be 77f9 523e 716d 5abe 3005 063f
00000340: 9764 53be 902b 81bd efef 8bbd 8542 31bc
00000350: b1db 3ebd ed45 b3be 3be5 a93e 3383 963e
00000360: ebd7 73bd 3ac2 adbc 8522 9e3c dcf0 83bd
00000370: 2a38 fcbe 30e3 8abe bf92 6a3d f26f cabc
00000380: ea94 2a3d d8e1 27be 3c31 213f a903 c9be
00000390: ffe0 013e e6ec 543e 4c50 213d 6dc7 76be
000003a0: 9b24 0bbe 43dd 74bd 4a80 103f a462 e23c
000003b0: 815c 18be 0f1a 12bc de6b 0cbe 9312 763e
000003c0: 0cdf 27be 155d 803d 34f1 a23e ef70 dabd
000003d0: 5f4b cebd f191 bebe 41e7 06bd 8621 2a3f
000003e0: 097c d93e 8269 9fbe b4e8 c4be 1718 5bbe
000003f0: 9ab6 eabd 162e 11bf 6d43 f9bd dae5 f8bd

reward_fun.2.bias f4 [200]
0.23060997 -0.26074845 0.54200333 0.04498052 -0.1973636 -0.077018626 -0.026763095 0.08180314
-0.061265834 -0.0724678 0.66810095 -0.014182128 -0.21486366 0.008754192 -0.11467242 -0.32275632
-0.049898878 0.0036989406 0.05249818 -0.09001947 0.021909833 0.012295163 0.018977026 -0.13199016
-0.055349488 -0.17703027 -0.0602679 0.72570413 -0.054655798 0.02799892 -0.2472857 -0.6682562
0.06838868 -0.3499021 0.83250624 -0.044625297 -0.028473489 -0.0056715356 -0.15870433 -0.024837034
-0.033106472 -0.21230944 -0.2055703 -0.10566988 -0.076635174 0.67171323 0.39651045 0.08521685
0.1445947 -0.13734806 -0.021566449 -0.0123326555 0.12526575 -0.01658479 0.07970133 0.01762757
0.61735076 -0.06342895 0.64109284 -0.1359901 -0.12825513 0.031617202 0.59525925 -0.094526626
-0.083970286 0.032486983 0.5011926 -0.22780032 -0.04722121 0.08436936 0.12817307 0.0442919
0.63356566 0.2061924 0.010317342 0.10383041 0.007188248 0.035656467 -0.056531124 -0.003784646
0.5723606 -0.031343333 -0.048525687 -0.18662292 0.09656733 -0.03890262 0.3017886 -0.17665097
-0.07387811 0.016171094 -0.0396577 0.0134371845 0.54656106 -0.3664508 0.031258088 -0.07345281
-0.025458422 0.038345344 -0.08001643 0.019748727 -0.18413495 0.31765392 -0.017990036 -0.16756369
-0.02478567 -0.08158996 -0.06389737 -0.12795764 -0.26131454 -0.08926154 -0.13468108 -0.08182978
-0.082386985 -0.06926771 0.0677537 -0.06425906 0.11241067 0.4361007 -0.0562193 -0.09434136
0.019488955 -0.56875235 0.36720645 0.53274083 -0.083274156 0.1522704 -0.23615803 0.070639074
-0.051790748 -0.07810256 -0.08431436 -0.019904073 -0.032616965 0.13135281 -0.04985472 0.92183894
-0.025416052 -0.27128538 0.4612198 0.020908851 0.14445038 -0.024557373 -0.0342486 -0.11558244
0.39504042 -0.0035891565 -0.2359605 -0.14307939 -0.002220491 -0.039568786 0.11532427 0.02363274
0.084902555 0.99751234 0.6621314 0.04931196 0.41257945 -0.017961144 -0.0651382 -0.0120966295
-0.014549458 -0.079101734 0.36065537 -0.17932288 -0.08138743 -0.017208405 -0.09761679 0.020329077
0.084743775 0.61911136 0.025173508 -0.24482396 -0.10259715 -0.038596895 -0.02580907 0.053929266
-0.52743155 -0.0868512 -0.02305347 0.1747242 -0.036501355 -0.012186473 -0.352307 0.11408936
-0.08516243 -0.008395231 -0.3208487 -0.0027048767 -0.04418078 -0.3896209 0.1553644 -0.08601427
0.3382463 0.46679926 0.23217401 0.036094368 -0.01413481 -0.0028051208 0.036843892 0.0141875325
00000000: 0525 6c3e d280 85be bbc0 0a3f 7e3d 383d
00000010: af19 4abe f1bb 9dbd 473e dbbc 6888 a73d
00000020: e2f1 7abd ff69 94bd aa08 2b3f 285c 68bc
00000030: 3805 5cbe be6d 0f3c 60d9 eabd 5140 a5be
00000040: c462 4cbd ed69 723b 5508 573d 215c b8bd
00000050: 407c b33c a771 493c b575 9b3c 6e28 07be
00000060: 25b6 62bd 6c47 35be 79db 76bd bfc7 393f
00000070: c2de 5fbd fe5d e53c 7638 7dbe d712 2bbf
00000080: 5d0f 8c3d 5e26 b3be 211f 553f 04c9 36bd
00000090: 3c41 e9bc 4ad8 b9bb 6383 22be 0977 cbbc
000000a0: a79a 07bd a567 59be 0581 52be 7369 d8bd
000000b0: e7f2 9cbd 66f5 2b3f 6b03 cb3e 2c86 ae3d
000000c0: a210 143e f8a4 0cbe 1fac b0bc e80e 4abc
000000d0: aa45 003e d3dc 87bc 733a a33d b267 903c
000000e0: b30a 1e3f 0ae7 81bd a91e 243f fd40 0bbe
000000f0: 5055 03be 0a81 013d e962 183f 2d97 c1bd
00000100: 9df8 abbd 1211 053d 294e 003f 7d44 69be
00000110: 076b 41bd d8c9 ac3d cd3f 033e 6c6b 353d
00000120: 5c31 223f 1a24 533e 120a 293c 0aa5 d43d
00000130: 658b eb3b 840c 123d 2e8d 67bd d307 78bb
00000140: 3986 123f de61 00bd dfc2 46bd 141a 3fbe
00000150: 18c5 c53d 5b58 1fbd 0984 9a3e fee3 34be
00000160: 684d 97bd 3e79 843c 1d70 22bd a327 5c3c
00000170: 6deb 0b3f 709f bbbe 7b08 003d 6d6e 96bd
00000180: 2e8e d0bc 0210 1d3d a7df a3bd 15c8 a13c
00000190: df8d 3cbe 89a3 a23e d75f 93bc d195 2bbe
000001a0: 510b cbbc a318 a7bd a0dc 82bd 5407 03be
000001b0: 05cb 85be c1ce b6bd d6e9 09be 5f96 a7bd
000001c0: 82ba a8bd 3bdc 8dbd 74c2 8a3d 419a 83bd
000001d0: 9137 e63d 9748 df3e 3546 66bd 0b36 c1bd
000001e0: 4da7 9f3c c199 11bf 7c02 bc3e b461 083f
000001f0: a48b aabd c6ec 1b3e 69d3 71be 38ab 903d
00000200: 8922 54bd 3cf4 9fbd 02ad acbd de0d a3bc
00000210: 5e99 05bd 5a81 063e 7634 4cbd a3fd 6b3f
00000220: 5335 d0bc ebe5 8abe 0025 ec3e 0a49 ab3c
00000230: cdea 133e 8b2c c9bc 4348 0cbd 7cb6 ecbd
00000240: bd42 ca3e 0e38 6bbb a19f 71be 6783 12be
00000250: a885 11bb e112 22bd 222f ec3d 7399 c13c
00000260: 64e1 ad3d f85c 7f3f 7281 293f 56fb 493d
00000270: 9d3d d33e 4023 93bc 2d67 85bd f130 46bc
00000280: da60 6ebc 1700 a2bd d2a7 b83e 6ba0 37be
00000290: 74ae a6bd a4f8 8cbc 50eb c7bd 2a89 a63c
000002a0: 258e ad3d 157e 1e3f ac38 ce3c 22b3 7abe
000002b0: 741e d2bd c717 1ebd 8b6d d3bc efe4 5c3d
000002c0: c105 07bf 0bdf b1bd a1da bcbc e7ea 323e
000002d0: 7282 15bd c6a9 47bc 9561 b4be afa7 e93d
000002e0: a469 aebd 278c 09bc 4846 a4be 4d44 31bb
000002f0: e8f6 34bd 647c c7be d817 1f3e 4028 b0bd
00000300: 9e2e ad3e 5000 ef3e 06bf 6d3e b0d7 133d
00000310: b195 67bc 1ed6 37bb 9fe9 163d d372 683c

reward_fun.4.weight f4 [1, 200]
0.17997852 -0.09775209 -0.12057055 0.033828147 0.03685483 0.017492399 0.04918842 0.033941153
0.051098466 0.010853087 0.2946726 -0.07531338 0.022962406 -0.0027450242 0.00742771 0.16678324
-0.006547799 0.022702174 0.009563675 0.010394572 0.033439167 0.008517748 0.13442324 -0.012281927
0.010966806 0.07874862 -0.006760122 -0.11226916 0.02558099 0.0083955275 0.16650142 0.2885364
0.026922854 0.15906143 -0.15738834 0.023408022 -0.0032340318 0.016970996 -0.02008599 0.014365717
-0.020668274 0.07683686 -0.66536915 -0.00066874916 0.010897459 -0.11938069 -0.31021777 -0.04182931
-0.0035869456 -0.17493609 0.09048488 0.04065453 0.05962558 -0.014984953 0.0008501213 0.0051426613
-0.10531077 -0.0044122343 -0.19958049 -0.076928124 -0.07285412 0.044914007 0.77134335 0.027349865
-0.015918555 0.019873362 -0.016314195 -0.2147597 -0.014579831 0.07702803 -0.4739588 -0.008662423
-0.07596258 -0.035091266 -0.09275478 0.080738746 -0.03882491 -0.0024023529 -0.008041054 0.01649607
-0.17048855 0.042563453 0.039671425 -0.039058387 -0.009668321 0.0113203395 -0.30192646 -0.01714651
0.059791878 0.0029265764 -0.021954335 0.041541528 -0.05453448 0.042457234 -0.0018758067 -0.015383217
0.02278677 0.23200803 0.05438513 0.029698437 -0.023591308 -0.048649438 -0.04599113 0.040946048
0.022332108 -0.066836745 0.012458179 0.060245894 -0.22565317 -0.019514319 -0.44660702 -0.015703036
-0.008220761 -0.015394872 0.669948 0.03747645 0.113384426 -0.13224322 -0.07184935 0.01282811
-0.019270567 0.054904945 -0.045143194 -0.12558956 0.03878397 0.022830067 0.015399003 0.0424408
0.13203199 0.008526651 -0.0041919746 -0.07415249 -0.0022767757 -0.020490244 -0.017656233 0.33307123
0.048510015 -0.21517372 -0.10009411 0.042297903 0.05470261 0.13423386 0.037131406 -0.023462309
-0.4723148 -0.0621923 0.027072811 -0.13696846 0.049858347 0.015113794 0.043343496 -0.013845601
0.0016142743 -0.34030703 -0.43013543 0.036845367 -0.07060931 0.046766922 0.012798661 0.03542954
0.028769705 -0.0019033846 -0.031219551 -0.012860181 0.08003516 0.0034216233 0.021831034 -0.01036526
-0.022282887 -1.2881557 0.13218963 0.15141523 0.049097054 0.044416267 0.037194837 -0.019056713
0.025406012 0.0807605 0.05589592 -0.23627381 -0.0026307143 0.0056457543 -0.28050813 -0.00023458064
-0.0032286956 0.006298452 0.11007568 0.058132768 0.013134555 0.08381046 0.09445612 0.021877162
0.49634862 -0.16207178 -0.3552699 0.0039593023 -0.16012444 -0.003580897 0.027155844 -0.016852044
00000000: 4a4c 383e 3f32 c8bd b1ed f6bd 628f 0a3d
00000010: 17f5 163d 384c 8f3c cc79 493d e105 0b3d
00000020: a04c 513d 25d1 313c 54df 963e e73d 9abd
00000030: a81b bc3c dde5 33bb 2664 f33b 3ac9 2a3e
00000040: eb8e d6bb e9f9 b93c f6b0 1c3c ff4d 2a3c
00000050: 82f7 083d 068e 0b3c 3fa6 093e 233a 49bc
00000060: 1eae 333c f546 a13d 0384 ddbb 60ed e5bd
00000070: 398f d13c 658d 093c 597f 2a3e 0bbb 933e
00000080: 518d dc3c 00e1 223e 692a 21be 2ec2 bf3c
00000090: 0df2 53bb c206 8b3c 608b a4bc 2f5e 6b3c
000000a0: 8350 a9bc a55c 9d3d a255 2abf ff4e 2fba
000000b0: 428b 323c dd7d f4bd ddd4 9ebe 3655 2bbd
000000c0: f612 6bbb 7222 33be 2350 b93d 5d85 263d
000000d0: f439 743d 7383 75bc adda 5e3a c583 a83b
000000e0: 2cad d7bd 8194 90bb d45e 4cbe 7e8c 9dbd
000000f0: 8a34 95bd c0f7 373d c276 453f d30c e03c
00000100: a167 82bc 76cd a23c 59a5 85bc f7e9 5bbe
00000110: 3ee0 6ebc dfc0 9d3d baaa f2be d6ec 0dbc
00000120: 4592 9bbd dcbb 0fbd 38f6 bdbd 5b5a a53d
00000130: de06 1fbd cb70 1dbb a0be 03bc c422 873c
00000140: 8d94 2ebe 0457 2e3d 817e 223d b0fb 1fbd
00000150: e167 1ebc f278 393c 1b96 9abe d676 8cbc
00000160: 54e8 743d cecb 3f3b 94d9 b3bc 7327 2a3d
00000170: 8c5f 5fbd a3e7 2d3d a1dd f5ba e309 7cbc
00000180: 52ab ba3c 8393 6d3e f1c2 5e3d 234a f33c
00000190: 8f42 c1bc a244 47bd 3261 3cbd 0bb7 273d
000001a0: d3f1 b63c b4e1 88bd 641d 4c3c 66c4 763d
000001b0: a011 67be 7edc 9fbc ada9 e4be a7a3 80bc
000001c0: 5fb0 06bc c63a 7cbc b681 2b3f e880 193d
000001d0: 1836 e83d c46a 07be c125 93bd fe2c 523c
000001e0: 4fdd 9dbc 02e4 603d 12e8 38bd 8d9a 00be
000001f0: f1db 1e3d 1f06 bb3c 1a4c 7c3c 68d6 2d3d
00000200: 6533 073e 5eb3 0b3c d55c 89bb 43dd 97bd
00000210: f535 15bb 28db a7bc cea3 90bc 5088 aa3e
00000220: 70b2 463d 8056 5cbe 24fe ccbd 9140 2d3d
00000230: d80f 603d 9a74 093e 1a17 183d 0734 c0bc
00000240: 3fd3 f1be 5abd 7ebd cdc7 dd3c 7641 0cbe
00000250: 4438 4c3d d99f 773c f388 313d a9d8 62bc
00000260: 0f96 d33a b93c aebe b63a dcbe 2beb 163d
00000270: 9d9b 90bd ac8e 3f3d 7ab1 513c 911e 113d
00000280: 72ae eb3c fd7a f9ba 25c0 ffbc 82b3 52bc
00000290: 79e9 a33d 503d 603b ffd6 b23c 0dd3 29bc
000002a0: 9a8a b6bc 49e2 a4bf b85c 073e 980c 1b3e
000002b0: fe19 493d d5ed 353d 9d59 183d d31c 9cbc
000002c0: 4520 d03c c365 a53d 1ff3 643d c3f1 71be
000002d0: 1068 2cbb 0500 b93b c39e 8fbe c3f9 75b9
000002e0: 8698 53bb 3f63 ce3b 5c6f e13d a01c 6e3d
000002f0: 5132 573c d2a4 ab3d 3672 c13d bc37 b33c
00000300: 6821 fe3e 25f6 25be f0e5 b5be 09bd 813b
00000310: a9f7 23be 7cad 6abb ef75 de3c 4c0d 8abc
