HybridLearning-master/data/hlt_stoch/InvertedPendulumBulletEnv/seed_666/model_6000.pt (torch, 180898 bytes, 10 tensors)

log_std f4 [1, 5]
00000000: 0ace 9ac0 ba04 11c0 c0fb 98c0 edab 91c0
00000010: 0e40 cabf
-4.8376513 -2.2659135 -4.780731 -4.552237 -1.5800798

mu.0.weight f4 [200, 6]
00000000: 3896 b03e b1f5 7ebd f3ce 11bf 98cb 65bf
00000010: 2588 41be 928d 49bf 1e23 fa3d 05a0 61be
00000020: 9304 10bd 459a 7bbf 92c9 1fbe eaad 0d3c
00000030: 209b c3ab caaf 97ae b224 6cae 0622 812f
00000040: c94b a92c 6ffd 062f 2235 5bbd 91d0 43be
00000050: e235 b7bf 132e 503f 5aad e0bb f064 443e
00000060: 9c3b 0ebe 5304 613c 0e5f 543e 0010 8dbf
00000070: a8bf ebbd 43fa 7d3e feb2 85bf 74a2 cb3e
00000080: 6c34 6bbe 5272 ccbf efb1 1e3f 7134 083e
00000090: a5f4 2f3f 75b4 c53e 5683 883c 86fd 53bf
000000a0: 9b9f 193e 6620 6e3f 00f2 ebba 2f96 ad39
000000b0: fad6 ce39 73d4 d9ba f95e 0539 96d2 e7ba
000000c0: 76b6 aeb8 1518 8a3a ae51 a639 7805 923a
000000d0: f90e bcb8 294f 01ba 911f 143e ebb6 b03d
000000e0: e0b4 f7bd defe 8e3f 3323 19be e8c0 7ebe
000000f0: 8f90 33b9 27dd 6db9 e92c 3e39 9093 abb9
00000100: b81d 63b9 7fa0 2eba 4574 c93a 7090 b23b
00000110: 65b6 7039 1722 0bb8 b635 413a 3e2f 47b9
00000120: 0855 3d3e bbcc bb3d c3d0 03bf 901b 0ebf
00000130: 1a7e 83bd de46 82be ef6d 55b9 763f 31b9
00000140: b4b8 82b9 a7c9 783a f588 8138 1054 493a
00000150: dce7 123d 662c 483d f91e a5bf 24f1 28be
00000160: 53a3 043e 38d2 a6bd e612 aabe bf4f 053c
00000170: 5162 2a3e b2d7 483d 8e70 833c c69e 4bbd
00000180: 678d 02be accd 323e 33a7 2ebf b5cb 89bf
00000190: f43f a53d d488 f43e f942 b8b8 1e7c 20b9
000001a0: 5d76 9f37 cad3 f6b8 0a31 9bb8 f969 52b9
000001b0: 6437 ce38 c21f 3a3a a9ed 7338 5b25 693a
000001c0: e1b4 9f38 2c6d 2e3a d5f5 b33d 6490 b93e
000001d0: be64 09be 252f 41bf 8d2f ad3e a33f b63d
000001e0: 9a08 4cbf 9535 27bf 2921 69be d12a bfbf
000001f0: 0302 bcbe d61e 663f ce55 4839 f80f ac39
00000200: 9c9d 8639 def6 52ba 47cd b8b8 fcff 26ba
00000210: 84df 34bf 2ee7 e03e 0844 25be 2fab 813d
00000220: e171 383e d484 b73e 3d28 9238 a40b d03b
00000230: 61f0 4d3b 98c8 e8b9 ae46 2fba 333f 29bb
00000240: a105 f33d 6b90 ce3e 276a 1bbe d2a3 bd3e
00000250: 81d3 d9bc 2170 d8be d7eb e83b 2f82 1a3d
00000260: 1361 233c 87c5 8e3c 0d82 363b 37a6 293c
00000270: 9140 7b39 f9f5 013b ac60 0b3a b3fa 9139
00000280: 3ca9 61ba 65fc 6aba 16fe ee3b 524f 3d39
00000290: 2fb8 9eba 0f2d 033c ee0b 8c38 a75f 4e3b
000002a0: 862d cb3e 8a6b 09be 287d a9bc 9b51 a9be
000002b0: 6415 9abc 5a98 81bd 544e 54bf 4184 abbe
000002c0: a9ab 933d b6ca 3dbf 8fb5 b93e d5f4 703d
000002d0: e5aa 5e39 ae32 033b 6fd1 a43a e58f 10ba
000002e0: 5dd0 d6b9 ab1f 64ba 3c58 96b9 0871 59ba
000002f0: 13f1 a9b9 5c27 2f39 8f04 6239 f6ab b538
00000300: 32fc 90bf a331 b2be d645 2a3f 4757 063f
00000310: 5af8 863e 54cc 383f 0cb1 a2bf 6062 12bf
00000320: 750f 9bbe 985f 99bf ea40 e0bd 8ef5 38bf
00000330: a349 bf3b 93ed e2bc 1ffd 2ebc 1ecc 7dbc
00000340: db64 9f3a 5393 f93b 4a36 8c3e 82ef 163c
00000350: 30e4 04bf 50f8 6a3f 1978 c2be b21f d33d
00000360: ffb2 ec2d 3da5 8d2e 6f3b 992c 55cd caae
00000370: c0b5 b82d 1517 1b2e b2a3 36ba 1360 58bb
00000380: 135c 5eb9 d889 fdba 95ff 153a f170 b9b9
00000390: 330e 5cb9 0cf3 edbb fde5 d5ba bcce b4bb
000003a0: cd41 133b 4a00 423b a1d0 70bf e898 f13d
000003b0: ce21 f1bc 96b3 263f 6fea 203f 259d a9be
000003c0: 7311 483f 2bca 303e 8360 513f 0b76 2bbf
000003d0: c1b3 b53d 2691 f1bd 4e9a ed3d 6047 0f3d
000003e0: a55a fcbb 6a7d ce3d 6f09 74bb de00 6e3d
000003f0: aa26 1a39 cde0 f538 b37f dcb9 9fff eeb8
0.34489608 -0.06224603 -0.56956404 -0.89763784 -0.18899591 -0.78731644 0.12213729 -0.22033699
-0.035160612 -0.9828227 -0.15604237 0.008647421 -1.3898639e-12 -6.8979114e-11 -5.369278e-11 2.3489138e-10
4.8116827e-12 1.2277267e-10 -0.05351747 -0.1912253 -1.4313319 0.81320304 -0.0068566026 0.1917913
-0.13889927 0.013733941 0.20739385 -1.1020508 -0.11511165 0.24802499 -1.0445249 0.3977238
-0.22969216 -1.5972388 0.61990255 0.13301255 0.6873267 0.3861424 0.016664188 -0.8280872
0.15002291 0.93018186 -0.0018001199 0.00033109027 0.00039451552 -0.0016619101 0.00012719248 -0.0017686661
-8.3309526e-05 0.0010535741 0.00031722843 0.0011140546 -8.9673274e-05 -0.0004932755 0.14465167 0.08628639
-0.12095046 1.1171529 -0.14954834 -0.24878275 -0.00017124623 -0.00022684467 0.00018136542 -0.00032725604
-0.00021659478 -0.0006661489 0.0015369734 0.005449347 0.00022956131 -3.317193e-05 0.0007370369 -0.00018995718
0.18489468 0.091699086 -0.5149042 -0.5551081 -0.06420536 -0.25444692 -0.00020354216 -0.00016903676
-0.00024933147 0.0009490498 6.1767096e-05 0.0007680068 0.03586565 0.048870467 -1.2900077 -0.16498238
0.12952928 -0.08145565 -0.33217543 0.008136689 0.16639067 0.049033828 0.016044881 -0.049711965
-0.12749253 0.1746127 -0.68223876 -1.0765291 0.08068839 0.47760642 -8.786278e-05 -0.00015305026
1.9009394e-05 -0.00011769643 -7.40011e-05 -0.00020066639 9.833163e-05 0.0007100069 5.8157053e-05 0.0008893811
7.615402e-05 0.0006653841 0.08787123 0.36242974 -0.13417336 -0.7546256 0.3382534 0.088988565
-0.79700625 -0.65316135 -0.22766556 -1.4934942 -0.36720285 0.898908 0.00019105451 0.00032818294
0.000256759 -0.00080476503 -8.8120396e-05 -0.0006370542 -0.7065356 0.43926376 -0.16139233 0.06331479
0.18012191 0.35843527 6.9693175e-05 0.006349044 0.0031423795 -0.00044399942 -0.00066862523 -0.0025825023
0.11866308 0.40344557 -0.15177213 0.37039047 -0.02659011 -0.42273048 0.0071081924 0.03772181
0.009971875 0.017428173 0.0027848512 0.01035457 0.00023961278 0.001983045 0.00053168344 0.0002784334
-0.0008608287 -0.00089640013 0.007293473 0.00018053994 -0.0012109334 0.008006348 6.677942e-05 0.0031490119
0.3968317 -0.13419929 -0.020689562 -0.33070073 -0.018809028 -0.06327887 -0.8293202 -0.3349934
0.07210476 -0.7413744 0.3627133 0.05882724 0.00021235233 0.002001922 0.0012574623 -0.0005514606
-0.00040972503 -0.00087022287 -0.0002867597 -0.0008294736 -0.00032413806 0.00016703963 0.00021554738 8.662783e-05
-1.1326964 -0.34803495 0.6651281 0.52476925 0.26361352 0.7218678 -1.271028 -0.5718136
-0.3028523 -1.1982298 -0.109498814 -0.72249687 0.0058376356 -0.027701175 -0.010680466 -0.01549056
0.0012160795 0.0076164394 0.2738517 0.009212377 -0.51910686 0.91785145 -0.37982252 0.1030878
2.6909584e-11 6.44129e-11 4.35512e-12 -9.222371e-11 2.0999091e-11 3.526342e-11 -0.00069671415 -0.003301625
-0.0002120587 -0.0019343449 0.00057219836 -0.00035370098 -0.00020986125 -0.0072616395 -0.0016319152 -0.0055178087
0.002246964 0.0029602223 -0.9406834 0.11796743 -0.029435065 0.65117776 0.6285772 -0.33127704
0.78151625 0.17264621 0.8178789 -0.66976994 0.08872176 -0.11795263 0.11601697 0.034980178
-0.0077012354 0.100825146 -0.0037237068 0.058106296 0.00014700988 0.00011724383 -0.00042056813 -0.000113963375

mu.0.bias f4 [200]
00000000: 2c25 a9be 6cef 9e3e e466 2b2e c150 b43f
00000010: 3b9d 293f 3471 bb3d b492 25be 4d67 1aba
00000020: 8bca aeb9 8522 1f3f 9291 e4b8 808f 77b9
00000030: ce0f da3e 1cc5 ce38 a90e 88bf e003 3dbe
00000040: dda0 413f 26b2 f5b4 9389 c4b8 1963 7d3e
00000050: de58 313f 4805 16b9 2623 553e 49c5 3ebb
00000060: 20e0 523e befc fdbb f5f4 4cb9 db42 123a
00000070: 50df 34be 8ceb 32bf 891b 8bba 74c2 7938
00000080: d798 203e 1123 9b3c a4ef 1f3c 296a 373f
00000090: a705 4cad 3115 0cb9 54d2 dd39 0c92 033e
000000a0: c274 47bf a190 b43c 470c 9539 8bc4 f1be
000000b0: 5143 8cb9 1cb0 9d3f 4603 2539 906b 95b9
000000c0: f7fb c93e 2d82 b5ba bd81 08ba dfdc 693a
000000d0: 2ee4 f9b8 cba3 93b9 c46c 1cbf 7608 efbe
000000e0: 0c78 66b8 8280 96b1 5a3c 0639 0678 053e
000000f0: 73e9 0434 fa7f 14b6 bc6c 7db9 3c1e 9039
00000100: e44f acb8 5ab1 b4bb d35f 9fb9 8d69 1dbf
00000110: e317 90bd 0029 f8be 6240 05bf 924d 2ebb
00000120: de7c bbb9 63ef 1e3f 8238 13b8 5e36 71be
00000130: 25d5 bdbe b399 a1b3 5b91 933f b792 dd38
00000140: 49bc 62be f7f2 243a e6e7 65b8 4119 dcbe
00000150: 03ad 42b5 2a95 fbbe 4125 93b7 1b3c 94be
00000160: 0dad 92b8 172f bf3c cd67 d7be 5a98 16bf
00000170: c45c f33d 8eeb fc3e 7321 ceb5 2a7e 26ba
00000180: fe58 74b9 7347 8a38 b3cb 8ab9 a8cb 0cb9
00000190: 7e92 0e3f 2ad9 103a 5eca 9cbe d192 883b
000001a0: 1d04 2e3a a21b 0cb9 fcd5 6132 14ae 57be
000001b0: 015f cb3e 7c1c 723b 9d82 5f3a 9426 b5be
000001c0: 5e56 9638 66ad 95be 2e41 b6ba eea1 15b9
000001d0: 15aa fdbd 8ff2 88bc 57af 853f ce7c 4abd
000001e0: 2028 e7b6 1776 e93a 4e5f 153a ec07 993f
000001f0: 67f8 db39 9fa5 99bf 1f25 d93a 2140 60bf
00000200: ae9b 4a38 7d49 dfbb a313 443e 0ff4 0eb9
00000210: 0851 28bf 6e91 62be fb6d 4cb7 798f 153e
00000220: d02f 52be d4f7 3237 b5ca 77bd 694d f73e
00000230: 07df 3fb9 6be3 7037 73b0 cc3a 3ba1 c8b6
00000240: 7b49 25bb 3185 073f bd47 d03d 57bb fbbe
00000250: ebaa 9f3a b8fc b8be 03a4 973e 2cac 663a
00000260: f76e 58b8 df8a f83e fbdf 283d d7c8 34bf
00000270: 6bd7 af3e cfe0 ac2f ed53 a938 843b 30bd
00000280: d9bb 0eba ab57 473f 8205 a536 e0aa 623f
00000290: 3513 b737 2d64 1fbd 5b90 aabe 6f59 1abe
000002a0: 75bd 133e 6fee acba 99f0 acb9 c1f8 923d
000002b0: e802 3abb e965 3e3f 2f7f 1c3e 34dc db3a
000002c0: 4682 1233 95a9 1739 9560 10b9 a7ba 52bf
000002d0: 17c8 a7b9 d022 babd c87b d43e efb0 2f3e
000002e0: 2f59 a1bc 83c3 3b3b ba27 9cbe b25f b337
000002f0: 5f26 d23e 3404 e1b9 cffe 0dbf 810c 19bc
00000300: 5d9f dc38 abe1 f73e c895 3f3a 60ca 7737
00000310: 1e31 d838 051a 2e3f 092f 73be aafd c1b4
-0.33036172 0.3104204 3.8972284e-11 1.4087144 0.6625554 0.09152451 -0.16169244 -0.0005890027
-0.00033338772 0.6216205 -0.00010899002 -0.00023609214 0.42590183 9.85956e-05 -1.0629474 -0.1845851
0.7563608 -4.5764426e-07 -9.3716335e-05 0.24744834 0.69276226 -0.00014307082 0.2081419 -0.002910929
0.2059331 -0.0077510765 -0.0001954621 0.000557942 -0.17663312 -0.69890666 -0.0010613065 5.9547325e-05
0.15683304 0.01893762 0.009761725 0.7164636 -1.15973125e-11 -0.00013359335 0.0004230911 0.12848681
-0.77912533 0.02204162 0.00028428642 -0.47220263 -0.00026753035 1.2319369 0.00015736846 -0.00028499635
0.39450046 -0.0013848 -0.0005207321 0.0008921157 -0.00011915747 -0.0002816006 -0.61103463 -0.46686143
-5.4948076e-05 -4.380184e-09 0.00012801719 0.13034067 1.2378386e-07 -2.212821e-06 -0.00024168467 0.00027488347
-8.21648e-05 -0.005514306 -0.00030398238 -0.6148918 -0.07035806 -0.4846878 -0.52051365 -0.0026596528
-0.00035760453 0.62084025 -3.5100158e-05 -0.23555896 -0.3707668 -7.5251045e-08 1.1528734 0.00010565429
-0.22142138 0.0006292308 -5.4813827e-05 -0.42988017 -7.2522397e-07 -0.4913724 -1.7541113e-05 -0.28952107
-6.994056e-05 0.023337884 -0.4207138 -0.5882622 0.11882928 0.49398464 -1.5357931e-06 -0.00063511974
-0.00023302805 6.593661e-05 -0.0002647318 -0.00013427308 0.5569228 0.0005525524 -0.30623144 0.0041678925
0.0006638186 -0.00013361734 1.3145378e-08 -0.210625 0.3972092 0.0036943248 0.0008526238 -0.35380995
7.1686445e-05 -0.29233855 -0.0013904923 -0.00014270071 -0.12385956 -0.016717223 1.0444134 -0.04943543
-6.8890076e-06 0.0017811683 0.00056981004 1.1955543 0.0004195601 -1.2003669 0.0016566849 -0.8759785
4.830554e-05 -0.0068141804 0.19148116 -0.00013633094 -0.65748644 -0.2212579 -1.2184954e-05 0.14605512
-0.20526052 1.0667329e-05 -0.06049605 0.48301247 -0.00018298264 1.4358065e-05 0.0015616551 -5.979234e-06
-0.00252208 0.5293761 0.10169933 -0.49166366 0.0012181675 -0.3613031 0.2961732 0.00087994593
-5.1601757e-05 0.4854345 0.04122923 -0.7061896 0.34344038 3.1446354e-10 8.0741804e-05 -0.04302551
-0.00054448616 0.77868146 4.9180244e-06 0.88541985 2.1824244e-05 -0.038913894 -0.3331326 -0.15073179
0.14427741 -0.0013193617 -0.00032985656 0.07176352 -0.002838308 0.7437425 0.15282892 0.0016774
3.4111757e-08 0.00014463656 -0.0001376889 -0.8231606 -0.000320018 -0.09088671 0.41500688 0.17157339
-0.019695846 0.002865047 -0.3049906 2.1383024e-05 0.410449 -0.00042918476 -0.5546693 -0.00934136
0.00010520101 0.48414358 0.0007308391 1.4769466e-05 0.000103088314 0.6800845 -0.23748411 -3.6133616e-07

mu.2.weight f4 [5, 200]
00000000: eac3 dbbc 16da 2dbc e6e0 c2ab 4516 8a3c
00000010: 7231 a03c 3675 d3bb 409f 303c ec00 cbb8
00000020: bdf1 5cb9 ca01 be3c 9191 85b8 66d6 f9b9
00000030: f08c e33b a02c 6138 debe cbbb 2caf 643b
00000040: 04a8 5cbc 035e c6b7 1bd7 0db8 31f6 223c
00000050: cfce 9ebb ac03 3fb8 705f 7bbc 6238 68ba
00000060: 3c65 253c 1ddf 69bb afae 8db9 676a dcb9
00000070: fc20 dfbc 83b3 773c 9b4f eeb9 5bac 05b9
00000080: b244 c1bc d50c e53b 82a5 a53b acc9 d43b
00000090: 1ee5 762c 537e 1a3a 74ef e938 4910 79bc
000000a0: 3845 ae3c 0b0c 583b bf4a 3a39 3444 a0bb
000000b0: a23d 89b9 42c0 04bc ff19 6f39 c254 1fb9
000000c0: 62e9 0ebc fdef 3dba 0d12 89b9 df78 9c3b
000000d0: 3fb4 7435 509c 33b9 b3d0 e1ba 93dc 0fb9
000000e0: b558 c1b8 57b9 1332 8ecf b138 65c5 983c
000000f0: b72c 5f33 217f f334 c417 ca38 60d3 32ba
00000100: 6d7d 9037 3d2f f03d 034f 43b9 48f9 4abb
00000110: 0fe1 cebc 814c 09bc 4d17 1abc 55ec 00bb
00000120: 1b43 05b9 ce4f 5abc 9c0d b6b8 34d0 e73c
00000130: df63 f53c 4086 c332 f7bc a1bc b108 cc37
00000140: aec0 dcba d0fb 44ba 58b8 d5b6 d29f 8fbb
00000150: 58ad 48b4 6f3e 6139 0054 90b8 df26 a6bc
00000160: a900 6bb8 78ee 293b bd2d 603b 950f b23b
00000170: e13c eaba 4d2f 8d3b 9683 51b5 f796 c639
00000180: 5676 1739 31bd db37 6b09 ad39 6dfc 1f3a
00000190: ba0c 413c f083 3839 1bad dc3b 111b 5c3a
000001a0: 7fd4 133a 7466 df39 84f6 9cb2 686d e0bb
000001b0: 1009 abb9 f755 b33a b6db 96ba bfc7 e3bc
000001c0: 8498 93b9 be73 96bb 13d5 f4b9 3a9f b5b9
000001d0: e2fc ec3b becb 3fbc c6d6 923b 0b2c d63b
000001e0: 329f e8b6 5f12 9537 1068 6439 1a16 ebbb
000001f0: 26b8 48ba deb7 31bb 8464 fe39 ef24 6dbc
00000200: 6473 6739 a850 26bb fc5f a63c 34c9 d339
00000210: 42e8 ca3b e20e 043c 6abd 51b6 df73 7cbd
00000220: 8629 d33b 46c9 5238 4c7a 0abc 105c e93b
00000230: b7c8 87b8 970b 7237 4e8c 80b8 e3e1 a137
00000240: 01be 2dba f020 3fbb 255e 023e d35a c2bb
00000250: 9217 0a3a adbb 93bc 527c 1ebc f7ce 913b
00000260: 1563 d237 0f04 c1bb 5ef1 5a3d dcf4 833c
00000270: 3511 a63c 5248 fbb0 1724 cf39 f7e4 2ebc
00000280: d1c2 3c3a 92a2 08ba a7d8 31b6 5bfe 343b
00000290: 46da f638 7ea0 e03b ca20 0a3c 0578 873c
000002a0: e594 41bb 20f5 f6b9 ae94 41b9 6b55 79bd
000002b0: 595f f0b6 717f 3bbb ef3c 89bc 433c 8bb9
000002c0: 7ef9 70b5 120f 1b39 aa89 da39 fa95 873c
000002d0: d33a 7238 bd63 023b 14cd c83b 1a1f ed3a
000002e0: 00f6 1b3c 1825 eb36 7bb6 383b e512 6438
000002f0: 8b27 4b3b 5b40 81b8 4291 4c3c 4b62 99bb
00000300: 3242 1bba c4b9 923b 7041 d0b9 d295 b5b6
00000310: f650 8038 c1f4 9b3b c858 383c d123 18b4
00000320: a41b f2be ed18 87bc be1e 89af f27d 5f3e
00000330: b0e4 0e3e f924 f5bd b8a5 763e 3398 383c
00000340: 9203 d43a b36e e63e 68bb 773a 2de7 1cba
00000350: 0dde 87be 5942 b7ba fde5 43be b642 013e
00000360: 4f8e 76be e53e 1739 41ff 3aba 99d3 4f3e
00000370: 7808 70bc 67d8 bb3a 13af 40be dd5c 243c
00000380: a073 31bc 35e0 80bb 22a0 ad3b 2fdf 96bc
00000390: ed7a 09be 1368 c03e f3c1 6d3b d022 2ab9
000003a0: fff5 d7be ff5b 073e 01f7 82bc c1c7 833e
000003b0: d6ad 022e 14aa 47bb 88cb dfbb 504d 80be
000003c0: bf36 833e 8cd4 4cbe 3632 a1ba 955b 17bf
000003d0: 1ed0 af3b 86a5 903c 3a5a f0ba cd1b 853a
000003e0: 7f00 c7bd 6a0b 06bc b9b1 063c 6196 b03e
000003f0: 33db 21bb 5a22 183a d31f febd 2aaf a53c
-0.026826818 -0.010611078 -1.3846951e-12 0.016856322 0.019554827 -0.0064531816 0.010780156 -9.679966e-05
-0.0002107089 0.023194212 -6.369048e-05 -0.0004765272 0.0069442913 5.368574e-05 -0.0062178215 0.003489445
-0.013467792 -2.3647217e-05 -3.3817352e-05 0.009946392 -0.004846431 -4.554137e-05 -0.015342578 -0.00088584994
0.010094937 -0.0035685964 -0.00027023765 -0.00042040946 -0.027237408 0.0151184825 -0.00045454208 -0.00012748076
-0.023592327 0.006990055 0.0050551305 0.0064937677 3.5085888e-12 0.00058934576 0.000111549074 -0.015201637
0.02127324 0.0032966163 0.00017766187 -0.004890943 -0.00026176596 -0.008102478 0.000228025 -0.00015194996
-0.008722635 -0.0007245539 -0.00026144125 0.004775151 9.1159376e-07 -0.00017129001 -0.0017228335 -0.00013719713
-9.21948e-05 8.5986676e-09 8.478678e-05 0.018648813 5.19619e-08 4.5354776e-07 9.636537e-05 -0.00068216585
1.7224544e-05 0.1172776 -0.00018626083 -0.0030971337 -0.0252538 -0.008380056 -0.009404969 -0.0019672115
-0.00012708867 -0.013324691 -8.680971e-05 0.028297521 0.029954849 2.2762038e-08 -0.019743426 2.4322742e-05
-0.0016842091 -0.00075143296 -6.369355e-06 -0.0043830657 -1.8689514e-07 0.0002148093 -6.882101e-05 -0.020282207
-5.602898e-05 0.0025929492 0.003420695 0.0054339864 -0.0017870927 0.004308617 -7.805005e-07 0.0003787798
0.00014444566 2.6194934e-05 0.00033004148 0.0006102983 0.011782819 0.00017596758 0.006734503 0.0008396367
0.00056392694 0.00042610208 -1.8272893e-08 -0.0068489797 -0.00032622414 0.0013682236 -0.0011509571 -0.027805207
-0.00028151658 -0.0045914343 -0.0004669806 -0.00034641643 0.0072322944 -0.011706291 0.0044811694 0.006536012
-6.9326716e-06 1.7770739e-05 0.0002178254 -0.0071742656 -0.0007656835 -0.002711765 0.00048521545 -0.014474138
0.00022072863 -0.0025377665 0.02030944 0.00040394964 0.006192238 0.008060189 -3.125368e-06 -0.06163394
0.006444159 5.0255352e-05 -0.008452009 0.0071215704 -6.474688e-05 1.44270225e-05 -6.1296494e-05 1.9297882e-05
-0.0006627739 -0.002916392 0.12731226 -0.0059312372 0.00052677945 -0.018033827 -0.009673195 0.004449721
2.508009e-05 -0.0058903764 0.053452842 0.016107969 0.020271877 -1.8283208e-09 0.00039509006 -0.010674707
0.0007200661 -0.0005212213 -2.6501164e-06 0.0027617428 0.00011770851 0.0068550697 0.008430669 0.016536722
-0.002953821 -0.0004710341 -0.00018461302 -0.060872477 -7.1636573e-06 -0.0028609897 -0.016752688 -0.00026557044
-8.9770026e-07 0.00014787566 0.00041682768 0.016551007 5.775208e-05 0.0019895874 0.006127963 0.0018090934
0.0095191 7.007864e-06 0.0028184939 5.4377033e-05 0.0030998911 -6.1631865e-05 0.012485804 -0.004680907
-0.00059226446 0.0044777114 -0.00039721606 -5.4116617e-06 6.118596e-05 0.0047594015 0.011251636 -1.4169133e-07
-0.47286713 -0.016491378 -2.4941998e-10 0.21825388 0.13954425 -0.119699426 0.24086654 0.011266756
0.001617538 0.45006332 0.0009450228 -0.00059853756 -0.265366 -0.0013981565 -0.19130702 0.12623104
-0.24077724 0.00014423912 -0.0007133373 0.20295562 -0.014650457 0.0014331461 -0.18816786 0.010031906
-0.01083079 -0.0039329776 0.0052986303 -0.01841697 -0.13425799 0.37579402 0.0036278933 -0.00016225432
-0.42179868 0.13218687 -0.015986921 0.25738338 2.9712975e-11 -0.0030466365 -0.0068296827 -0.25058985
0.25627705 -0.20002955 -0.0012298289 -0.5912412 0.0053653857 0.017657053 -0.0018337436 0.001015538
-0.097168915 -0.008181432 0.008221083 0.3448973 -0.0024697303 0.00058034586 -0.12408414 0.020225126

mu.2.bias f4 [5]
00000000: 6385 253c dfeb 863e cb02 a8bc 8ee0 033c
00000010: 4daf ad3d
0.010102603 0.2635183 -0.020509144 0.0080491435 0.084807016

reward_fun.0.weight f4 [200, 6]
00000000: 42ba 263f 90d4 60be 7a8b f23f 1a47 f7be
00000010: 0376 d3be 767d 0b3f 5eb8 fc3d 2482 7abe
00000020: 3bc2 fdbe 7ec8 a83e 1e2b 263e 34d4 4cbf
00000030: b0b7 a13e fdbc a2bc b519 e8bd 8802 5e3e
00000040: 5831 03bc 2ac4 69be aedf 29bf cc57 a7be
00000050: 7226 3dbf 8a1f e1bf e566 783d ede6 4e3e
00000060: 8b50 a83f 4b2e 1abf a20e 323f ec3a c93f
00000070: 9f75 1abe a9f7 3fbf e8fa 9e3e 7ee7 5f3f
00000080: 531a a6bf 78bb 8c3f 04f8 893c f28d 883e
00000090: 8d05 6fbd 7490 2abe 84bc f03f 118c e73f
000000a0: e702 513f e145 0bbf f1bb b1bf 405a 00bf
000000b0: 4778 9f3f 3693 dfbf 296b 023e bc4d cebe
000000c0: 5d02 4ebf 6e01 afbe 3e52 c03d 924d 1b3e
000000d0: 4031 4c3e f1e7 8dbf ecf6 153d 7449 a43e
000000e0: 2e88 c9be 3c36 3d3f 8e05 f4bb f47e 85be
000000f0: 398b 3bbe aee6 003f aa48 f93f 0d66 57bf
00000100: 2ef1 fcbe f02e 52be efb7 79bf 2bf2 8dbf
00000110: 67bd 09be d899 70bf a7d6 943e 2309 41bf
00000120: 05d4 263d 00a4 223d de33 c7be b18c 0a3f
00000130: ec9f f53a a902 b6bd ce2e 0340 48cf 0f3e
00000140: f7a7 ccbe 2c41 833d 7a15 21bd bea2 34be
00000150: 1933 013f d816 89bf 5ed0 5f3f b2c7 ba3e
00000160: eed9 673e 8b23 babe 2c1d 8e3e bb52 b53d
00000170: 2d25 e0bd da3c 873d e2e0 2a3c 7cb6 99bd
00000180: f403 c1be 38df adbe f8a2 d8be b7d4 05be
00000190: 2fcf 853b eba1 20bf ba2d d6be 800c 593f
000001a0: 277a e6bf d71b 35bd f3c3 3ebe 672b b63e
000001b0: 796d 863e e854 3f3e 2663 b0be f0fd 44be
000001c0: 1c60 c4bb 5965 45be 1d95 c23f a871 3b3f
000001d0: c7fa 163f 5521 263f fc7e a7be 1b0f 863f
000001e0: 5de8 28bd af01 b63d 3914 6fbe 504a bf3e
000001f0: 7141 3739 517d 71be a8b9 613d aa6c 163f
00000200: 9be2 1540 2686 1540 0ddc a63e 12d8 8d3e
00000210: e09b 123f 1bdd 053f d340 13bf 6eb1 4bbf
00000220: 3dd5 0dbe e810 983e 02ff 823e b4c2 463e
00000230: 2d19 b63f ee73 1140 46d2 933e a1a5 93be
00000240: 2261 ec3d 393f 9c3d 6ddd 8fbe 2800 943d
00000250: 0f8c 513b fe04 8fbe de72 2a3f 6875 25be
00000260: 46cb af3f abf0 bd3f 52aa ed3d 30af a9bf
00000270: f718 273f 2dc3 89bd 9e7d 7fbf f56f 7dbf
00000280: 9188 113e dbf0 5ebf cc5c edbf 3dcf f9be
00000290: 1024 163e a3e7 82be 174c 683e 8bbb c4bf
000002a0: 6ee5 0abf ec24 c6be f2c6 0d40 77dc 1fbf
000002b0: 4a2c fbbe b1ae 2cbe 4bd1 183c 34d9 cebe
000002c0: 1eb4 f43f 5a48 0ebe 87b3 e0be 3d7d 0f39
000002d0: 5821 eabe 9ee5 87bf 1274 583f f334 5c3f
000002e0: c6de 5ebe 9796 70be cb30 dd3f 4f3c bc3e
000002f0: 867b 43bf 4e1a e03d 47c7 33bc 4e0e 2bbf
00000300: 7ec2 4c3e 3375 8b3d ce2c 80be c0a4 c6bd
00000310: acde 72bb 128d 9cbe 44b7 303f a213 b63f
00000320: bc80 98bf fb7a 803f 1441 63bd 8ad8 be3e
00000330: 2517 8cbf 8a4a 37bf 61fa e4bd 5a97 e3bf
00000340: 7fb8 173e 389d 45bf 4fff 273d a9b6 bc3d
00000350: 2168 5cbe a733 a33d be95 ffba 3bfe 7fbe
00000360: 3a96 ddbd 739e 5b3c de15 dbbe 1aef ee3e
00000370: ef2e 163d 001e 60be 2b96 213e 08be 0b3f
00000380: e5f9 5cbf 13e4 7bbe e9a5 47bd dc66 87be
00000390: e17f bebf 8c4b 3d3e eb67 c13f 9873 f13d
000003a0: cc06 043f 8624 93be 5d71 65be d2ef 8f3f
000003b0: ba23 a53e c9b9 853e 67ca 6ebe 9b7c d33e
000003c0: 8805 793e 0aaf b73f 75f9 22bf 05f5 b3be
000003d0: 80d6 c5be f28e 763f 01ca 193f 07c4 b03e
000003e0: b424 1440 2da1 bf3e b8ef 123f d76b 2f3f
000003f0: 68bf 0b3e 9422 debd 7faf 7fbe 9280 3d3d
0.65127957 -0.21956086 1.8948815 -0.48296434 -0.41300973 0.54488313 0.12339853 -0.24463707
-0.4956225 0.32965463 0.16227385 -0.80011296 0.31585455 -0.019865507 -0.11333028 0.21680653
-0.00800737 -0.22828737 -0.66356933 -0.3268417 -0.7388679 -1.758775 0.060645003 0.20205279
1.314958 -0.6022689 0.6955358 1.5721107 -0.15083931 -0.74987274 0.310508 0.87462604
-1.2976784 1.0994711 0.016841896 0.26670796 -0.058354903 -0.16656667 1.880753 1.808962
0.81645054 -0.544035 -1.388548 -0.5013771 1.2458581 -1.74668 0.12736191 -0.40293682
-0.80472356 -0.34180778 0.093906865 0.1516631 0.19940662 -1.1086408 0.036612436 0.3208729
-0.3936171 0.7391088 -0.0074469512 -0.2607342 -0.18314828 0.5035199 1.94753 -0.8414009
-0.49402755 -0.20525718 -0.97546285 -1.1089529 -0.13451158 -0.93984747 0.29070017 -0.75404567
0.04072954 0.039707184 -0.3890676 0.5412093 0.0018739677 -0.08887226 2.0497317 0.14043915
-0.39971897 0.06408915 -0.039327122 -0.17640206 0.50468594 -1.0710096 0.8742732 0.3648048
0.22641727 -0.36355242 0.2775663 0.0885367 -0.10944591 0.066034034 0.010429593 -0.07505509
-0.37698328 -0.33959365 -0.42311835 -0.13069426 0.004083536 -0.6274707 -0.41831762 0.847847
-1.8006028 -0.044216003 -0.18629436 0.35579988 0.26255396 0.18684733 -0.34450644 -0.19237494
-0.0059929024 -0.19276942 1.5201756 0.732203 0.58976406 0.6489461 -0.3271407 1.047336
-0.041237224 0.0888704 -0.23347558 0.37361383 0.00017476619 -0.2358296 0.055108696 0.5875956
2.341956 2.3363128 0.3258976 0.2770391 0.57269096 0.52290505 -0.5752079 -0.7956761
-0.13850875 0.29700398 0.2558518 0.19410211 1.4226433 2.2727008 0.28871363 -0.28837302
0.11541964 0.07629246 -0.28098622 0.07226592 0.003197435 -0.27933496 0.66581523 -0.16158068
1.3733909 1.4839071 0.11604752 -1.3256588 0.6527247 -0.0672668 -0.9980105 -0.9899896
0.14212252 -0.87086266 -1.8543944 -0.48790923 0.14662194 -0.2556735 0.22685276 -1.5369734
-0.5425633 -0.38700044 2.2152677 -0.6244578 -0.49057227 -0.16863514 0.009327243 -0.40400088
1.9117467 -0.13894787 -0.43886968 0.00013684198 -0.45728564 -1.0616949 0.8455211 0.86018294
-0.21764669 -0.23494945 1.7280515 0.36764762 -0.76360357 0.10942517 -0.010972804 -0.668187
0.19996068 0.06809463 -0.25034183 -0.09699392 -0.0037058992 -0.30576378 0.6902964 1.4224741
-1.1914287 1.0037531 -0.055481985 0.3727458 -1.0944563 -0.7159811 -0.111805685 -1.7780564
0.14816473 -0.7719302 0.041014966 0.09214527 -0.21524097 0.07968836 -0.0019499583 -0.24999325
-0.10819669 0.013404476 -0.4279012 0.46666795 0.036665853 -0.21886444 0.15779941 0.5458684
-0.8631881 -0.24598722 -0.04874221 -0.26445663 -1.4882776 0.1848585 1.5109838 0.11789626
0.5157287 -0.28738803 -0.22406526 1.1245062 0.3225382 0.26118305 -0.23319398 0.41306004
0.24318516 1.4350293 -0.6366189 -0.35147873 -0.38640213 0.9631187 0.6007386 0.34524557
2.3147402 0.37427655 0.5739703 0.68523926 0.13647234 -0.10846439 -0.2496929 0.046265192

reward_fun.0.bias f4 [200]
00000000: cf05 1bc0 ff86 b1bf 5970 55bf 4169 11bf
00000010: 702f c5bf 13d5 01c0 1d29 92bf 7358 31bf
00000020: dfc9 27bf c7ef bbbf fe2e dbbf bd8c 08bf
00000030: 0b86 48bf ae3f b1bf 0815 d2bf e46a 20bf
00000040: 7d11 99bf cd9f aebf ac0b 88bf c971 cdbf
00000050: e719 41bf b2ae d13d db68 b2bf a16f ccbf
00000060: bdf5 27bf 7d4d d5bd 62de f1bf e577 a0bf
00000070: f6c3 40c0 5568 0bc0 e096 e2bf 8ac0 9cbf
00000080: 298e 44bf 5aac 28c0 2c4d b3bf 8dea 1dbf
00000090: 44b9 77bf 4a2e b8bf e9a4 72bf b32b f3bf
000000a0: 6678 11c0 e852 cdbf 58bd 21bf b3d9 dfbf
000000b0: c388 9ebf addd 36bf 905a eabe a450 8dbf
000000c0: bd79 dfbf 0428 d0be f9aa c8be 61cd 8fbf
000000d0: fa7f 79bf 3b7c d83e 9533 78bf 7328 a1bf
000000e0: dbf9 14bf e780 76bf e930 89bf 97fa bdbf
000000f0: 13c0 c5bf bcb7 1dc0 127f 0cbf 0976 1ebf
00000100: a5e6 e9be e857 8cbf a5c3 e8be d455 7fbe
00000110: e707 033f 1fcc 07be 1756 81bf 26c4 b3bf
00000120: 64e6 4dbf eae0 9c3e 8403 91bf c16f c4be
00000130: 5d71 85bf 4c30 b3bf c620 87bf 769e 11c0
00000140: ffb6 cebf 14ea 36c0 c62c a1bf 5fe4 143f
00000150: e96c bfbf 8764 b5bf bf60 eebe 42a7 9cbe
00000160: ceb4 c7bf cf0c d1bf 7087 26bf 7372 00c0
00000170: ebe5 debf 6fa4 8dbf d867 143f 45d7 32bf
00000180: 68c9 c0bf 4f55 b8bf 1305 7ebf b8a9 a7bf
00000190: f9c4 1cbf f95d ffbf 351a efbe 1008 01c0
000001a0: 952a 85bf 45fd e4bf fa13 10c0 1f50 b9bf
000001b0: 1da1 72bf 169f 6ebf 1f3d 0ac0 40fc 8ebf
000001c0: 2324 9ebf 2ad5 eabf 8995 30bf 31df 12c0
000001d0: cac6 8ebf a51f 5cbf 5c3a a5bf 364d 8ebf
000001e0: 2d3e 9dbf 260e b6bf a689 11c0 ae02 15c0
000001f0: 908b 8fbf fb30 a1bf 68db 64bf e18e 66bf
00000200: 5bbc babf b959 8ebf b2ce eebe 3263 9bbf
00000210: 5107 73bf 20b4 2abf 64f1 dd3d c72e f6bf
00000220: 2a2a b3bf fdf8 a4bf 3bb6 63bf 9467 75bf
00000230: 8e63 fcbf 050f 7fbf 2b4f 1dc0 05e7 a5bf
00000240: 63cd c5bf 528b 01c0 1a49 95bf 9cd5 45bf
00000250: f3ce 0fc0 f7bb 72bf 0bdb bf3e fea4 6dbf
00000260: 77a6 58bf 4bb2 03c0 203f 09c0 8ecc 78bf
00000270: 357c c0bf e155 95bf 6019 26bf a5a8 78bf
00000280: 3d90 2cbf 943d f2bf 426b c4bf bda7 90bf
00000290: 8932 f0bf 24e7 d9bf d879 02c0 14a3 19c0
000002a0: 3ca7 bbbf bd90 5cbf 9117 65be 04c9 01c0
000002b0: 3aa5 99bf 1e32 21bf 22f3 1ac0 11ef 8dbc
000002c0: db57 f2bf a7b1 9abf 92ef 98bf 8d53 bfbf
000002d0: 6bb0 9fbf 37eb 15bf 3750 85bf a6e2 00bf
000002e0: 96c1 43bf aa53 cbbf bde9 08bf 3478 93bf
000002f0: b47e 87bf 9382 0dbf cf9c 0ac0 ac49 a3bf
00000300: 315d 67be 4e76 8fbf c219 5dbf ef2c d0be
00000310: a18e 4fbf 664c 90bf 887f 67bf 18db 7cbf
-2.4222295 -1.3869323 -0.83374554 -0.5680123 -1.5405102 -2.02863 -1.1418797 -0.6927559
-0.65542406 -1.4682549 -1.7123716 -0.5333975 -0.78329533 -1.3847558 -1.6412668 -0.626631
-1.1958462 -1.3642517 -1.0628562 -1.605035 -0.7543015 0.102383986 -1.3938249 -1.5971566
-0.6560934 -0.1041517 -1.8895991 -1.2536589 -3.0119605 -2.178243 -1.7702293 -1.2246258
-0.7677942 -2.6355195 -1.4007926 -0.6168602 -0.9676707 -1.4389126 -0.9478288 -1.8997711
-2.2729735 -1.6040926 -0.6317954 -1.7488312 -1.2385486 -0.71432 -0.4577222 -1.1040235
-1.7459027 -0.4065553 -0.39192942 -1.1234552 -0.974609 0.4228228 -0.9695371 -1.2590469
-0.5819375 -0.9629044 -1.0718051 -1.4842099 -1.5449241 -2.4643393 -0.54881394 -0.6189886
-0.4568378 -1.0964327 -0.45461765 -0.24935085 0.51183933 -0.1326146 -1.0104398 -1.4044235
-0.80429673 0.30640346 -1.1329198 -0.3836651 -1.0425221 -1.3999114 -1.0556877 -2.2752967
-1.6149596 -2.858037 -1.2591789 0.58160967 -1.4955112 -1.4171304 -0.46558186 -0.30596358
-1.5602052 -1.6332034 -0.6505041 -2.0069854 -1.7413915 -1.1065806 0.57970953 -0.69859725
-1.5061464 -1.4401034 -0.9922649 -1.3098669 -0.61238056 -1.9950553 -0.46699682 -2.016117
-1.040362 -1.7889792 -2.2512193 -1.4477576 -0.9477709 -0.93211496 -2.1599805 -1.117073
-1.2354778 -1.8346303 -0.6897817 -2.2948725 -1.1154416 -0.85985786 -1.2908435 -1.1117313
-1.22846 -1.4223068 -2.2740264 -2.3282886 -1.1214466 -1.2593073 -0.8939729 -0.90061766
-1.4588732 -1.1121131 -0.4664207 -1.2139647 -0.9493304 -0.666811 0.10837057 -1.9233025
-1.3997242 -1.2888485 -0.88949937 -0.9586117 -1.9717882 -0.99632293 -2.457957 -1.2961127
-1.5453304 -2.0241284 -1.1662934 -0.7727907 -2.2470062 -0.9481806 0.37471804 -0.92829883
-0.84629005 -2.0577571 -2.1444778 -0.97187126 -1.5037905 -1.1666833 -0.6488247 -0.9713233
-0.6740759 -1.8925042 -1.5345232 -1.130119 -1.8765422 -1.7023664 -2.0386868 -2.4005785
-1.4660411 -0.86158353 -0.22372271 -2.027894 -1.2003548 -0.629671 -2.4210896 -0.01732591
-1.8933061 -1.2085465 -1.1948111 -1.4947373 -1.2475713 -0.58562034 -1.0415105 -0.5034584
-0.76467264 -1.5884907 -0.53481656 -1.1521058 -1.0585542 -0.55277365 -2.1658208 -1.2756858
-0.22594143 -1.1207979 -0.8636743 -0.40659282 -0.8107701 -1.1273315 -0.9042897 -0.9877181

reward_fun.2.weight f4 [200, 200]
00000000: 5fb7 ae3d f12d 82bf 76c7 bb3d 7e56 18be
00000010: 0a68 253f 1e6d f6bf 341e 723f 0f01 fdbf
00000020: 7b6f 733e 5fcc 803e dd83 e8be 593c 15bf
00000030: 9c1d 0dbe 1550 883e 3576 1e3f 5f31 56be
00000040: b762 61bf 7212 02bf 5161 98be 58da d3bd
00000050: 2191 183e 90ab 1fbd fda8 49bf 4545 333f
00000060: de91 92be 4af1 1abd adc2 08bf 6f1a 9b3f
00000070: 7cc2 99c0 1f0e b6bf 6b09 de3f 2293 8dbf
00000080: 6387 88be bff4 03bf 085c 0d3f 6a3d 15be
00000090: f06b 713d 4f2f b0bf 4e4d f23e e9e4 75bf
000000a0: 8c86 45bf 82ef 063f fb5e cfbd fffb f93e
000000b0: 86ae ebbe e78f 833d c385 213d c0e7 45c0
000000c0: de4b 92bf 1bf0 8bbf a84e 363e ca74 6a3e
000000d0: cfa9 3bbe 2541 633e de83 7f3d c680 063f
000000e0: 9b84 a8be 7dae 13be 6217 54bf cfe2 46bf
000000f0: 2f71 673f 7277 95c0 8794 84bf 5ec1 3ebf
00000100: f52b 833d 8d3e 743e 5783 f53d a625 c43e
00000110: c97f 763f 2c47 593f f84f a63e a4e9 4dbf
00000120: eefa e1be d3f4 803d b31f d33c 283e 4a3f
00000130: f525 8bbf 88c1 a53e 0175 cabf da3d 9ebf
00000140: 8b96 713f 9afb 99c0 b53d a2be 4bee 2d3f
00000150: 79c3 b2bf c88f 12bf 5e3a 75bf d159 153f
00000160: acc1 02c0 8b21 a0be e6fa afbe d30b 1f3e
00000170: ff85 d0bf 1655 0fbe a18e 86be f385 30bf
00000180: a54a 183f e67d 81bf 285d 0dbf 7b93 07bf
00000190: 205d 9e3d 7f43 593f 24bb 823c 7057 e8bf
000001a0: cfcb b3be ca65 453f a01c d2c0 0af3 3bbf
000001b0: a5a4 1f3f 4964 3d3f cb8a 62bf da26 19bd
000001c0: 57de 75be 6cb1 8f3e 2923 2abe c4e5 cabf
000001d0: acdc f6be 99dc 3cbf 3c74 bbbe d7a8 21bf
000001e0: feda 883d 01d5 9fbe cc66 0ec0 3a2e 6c3d
000001f0: a765 403d 3cf7 cabe 650b f3bd c5d6 1fbf
00000200: 5abd cfbd 9831 9fbe 759a 3f3f ca04 64bf
00000210: ae20 e1bd 2551 02bd 8f7e 29bf 725c bc3e
00000220: be5e fc3e 6e7c 87be 32ea 33be 3421 80be
00000230: a22c f03e 3570 b5bd acb0 69be 1eab 0d3f
00000240: c8b7 a0bf acbb b2bf bde3 293e 9f2f 2e3c
00000250: 50fd e73e 42e2 afbe 3399 e13e 54a1 823e
00000260: c063 883d 7783 223d 5346 8f3d 5d03 d3be
00000270: c6a0 40bf 5f4f 5d3c fad1 39be 9538 cabe
00000280: c343 d8be 716b 0fbf 5485 3dbf 00f2 86bf
00000290: e892 133d d1c2 9bbe 8f9c 86bf 7512 683e
000002a0: 1b58 5dbf 65dc 703f 4328 543d b0b2 293e
000002b0: 6010 5e3f c8cf d7bc 7ee7 f0be 80c2 63bd
000002c0: 776c ffbf 3d42 8abf 16c1 d2bd fa17 8dbc
000002d0: de25 353e bf30 00bf 9ee6 86be 691a 60bf
000002e0: 147d de3b af2c 6b3f df79 b63d 73a7 10bf
000002f0: 444f 26bf 2878 413f 1798 06c0 9f8d 2bbf
00000300: 6f61 ee3e a1a8 2ec0 dcf6 b13d 9bf0 b1bf
00000310: d982 273f e8c6 debb 36c1 393e f321 c9bf
00000320: b3e8 453f 98ed c1bf 7900 293d 7070 4cbf
00000330: 37f3 cabf 70b2 5d3d fa89 d6be e1ee 983e
00000340: a382 91bf c89a ddbd e201 d73e 4efc 19bf
00000350: 1048 9abd 5262 19bf f72f d0be 3383 963e
00000360: d031 c13e b3b7 e2be 33f7 eebd bc5b 6f3f
00000370: 5ebe fabe 8c2c 43bf ecd7 92bf 4c85 0f3e
00000380: ea94 2a3d 938e 10be 0711 063f a0cc 70bf
00000390: 2f62 8fbe 9ae3 5a3f b342 e3be 74b8 7cbf
000003a0: d4db 41bf abd3 40be 4681 d83d a462 e23c
000003b0: d18a 8fbe 7184 16bd e912 f0bf 1bd1 8c3e
000003c0: 313b 36be b392 673d 34f1 a23e d6a7 eebf
000003d0: 951b 913b f191 bebe 41e7 06bd e226 ff3e
000003e0: 32f5 d43e fa3d 89bf 0ae3 aebe 1ba4 74bf
000003f0: 3f5c bc3c 5c31 01bf 1ed6 8ebe e352 10be
0.08531069 -1.017027 0.091689035 -0.14876744 0.64611876 -1.925205 0.94577336 -1.9765948
0.23772995 0.25155923 -0.45413104 -0.5829521 -0.13780826 0.26623598 0.6189912 -0.20917271
-0.8804125 -0.50809395 -0.29761747 -0.1034438 0.14899112 -0.038981974 -0.7877348 0.7002757
-0.28626913 -0.037827767 -0.5342205 1.2117442 -4.804991 -1.422306 1.7346624 -1.1060526
-0.26665792 -0.5154533 0.55218554 -0.14574209 0.058940828 -1.3764437 0.47324604 -0.96052414
-0.7715843 0.5270921 -0.10125538 0.4882507 -0.46031588 0.064239316 0.039434206 -3.09227
-1.1429403 -1.0932649 0.17803442 0.22896114 -0.18326496 0.2219282 0.062381618 0.5254024
-0.3291367 -0.14422031 -0.8284818 -0.7768983 0.9040708 -4.6708307 -1.0357827 -0.74513805
0.064048685 0.23851986 0.11987942 0.38309973 0.96288735 0.84874225 0.32482886 -0.8043463
-0.44136757 0.062966965 0.025771951 0.7900109 -1.0870959 0.32374215 -1.5816957 -1.2362626
0.94370335 -4.811963 -0.31687704 0.6794173 -1.3965904 -0.5725064 -0.95792186 0.58340174
-2.0430708 -0.3127559 -0.34371108 0.15531854 -1.6290892 -0.13997301 -0.26280692 -0.6895439
0.594889 -1.0116546 -0.5522027 -0.5295941 0.07732606 0.84868616 0.015958376 -1.8151684
-0.3511643 0.7710844 -6.5659943 -0.73417723 0.623606 0.7398115 -0.8849303 -0.037390567
-0.24010597 0.2806505 -0.16614975 -1.5851369 -0.48215234 -0.73774105 -0.36612117 -0.63148254
0.066823944 -0.31217197 -2.2250242 0.057661273 0.046971943 -0.3964175 -0.11867408 -0.6243709
-0.10143538 -0.31092525 0.7484506 -0.8906981 -0.10992561 -0.031815667 -0.6620874 0.3678928
0.49291033 -0.2646212 -0.17569807 -0.25025332 0.46909052 -0.088592924 -0.22821301 0.5533923
-1.2556086 -1.3963523 0.16590782 0.010631471 0.4531045 -0.3435231 0.44062194 0.2551371
0.06659651 0.039676156 0.06995835 -0.41213503 -0.7524532 0.013507693 -0.18146506 -0.39496294
-0.42239198 -0.5602332 -0.7403157 -1.0542603 0.036028773 -0.3042207 -1.0516528 0.22663291
-0.86462563 0.94086295 0.05179621 0.1657207 0.86743736 -0.026344195 -0.47051615 -0.05560541
-1.9954976 -1.0801464 -0.102907345 -0.017223347 0.17690226 -0.5007438 -0.26347822 -0.875403
0.006789813 0.91865057 0.08909964 -0.5650551 -0.649647 0.7557397 -2.1030328 -0.6701297
0.4655871 -2.7290423 0.08689663 -1.3901552 0.6543403 -0.006798614 0.1814011 -1.5713485
0.77308196 -1.5150633 0.041260216 -0.79859066 -1.5855473 0.05412525 -0.41902143 0.2986975
-1.1367992 -0.10820538 0.41993624 -0.6015061 -0.07533276 -0.5991565 -0.40661594 0.29396972
0.37733316 -0.44280776 -0.11668243 0.9349935 -0.48973364 -0.7623985 -1.1472144 0.14015692
0.04164592 -0.14116888 0.5236973 -0.9406223 -0.28004596 0.8550354 -0.44386825 -0.98718953
-0.75726056 -0.18830745 0.10571532 0.027634926 -0.28035596 -0.0367474 -1.8755771 0.27503285
-0.17796017 0.056536388 0.31824648 -1.864497 0.004428337 -0.3722072 -0.032935385 0.49834353
0.4159332 -1.0722039 -0.34157592 -0.95562905 0.022993205 -0.5046594 -0.27897733 -0.14094119

reward_fun.2.bias f4 [200]
00000000: a57c 2d3f 6415 f3be c2fb 9a3e f55d 5cbe
00000010: 8da4 c7be af27 99be 3ad6 34be 6888 a73d
00000020: e2f1 7abd b00b dbbd f144 253f 1ec6 90bd
00000030: f319 debd c80e 7fbe 60d9 eabd ff1f 99bf
00000040: 7fcb 13be e3db f13c 3db5 2bbe 215c b8bd
00000050: 4e31 b5bd d7fc a3bd 734b 963e 06c6 59be
00000060: 25b6 62bd 6c47 35be 79db 76bd b42d 883f
00000070: 3c94 2fbe 3486 92be bbb8 12bf 9db1 45bf
00000080: f2d5 d9bc f4a7 3fbf 0e0e 693f ae8f 64be
00000090: 3c41 e9bc 71fc 2a3d fa7c 6dbe 8274 4bbe
000000a0: a79a 07bd a690 1bbe 1066 8fbe 7369 d8bd
000000b0: e7f2 9cbd 56fd ea3e 437a 1f3e 876a b53e
000000c0: 9c4a c33d 43a9 18bf 1fac b0bc e80e 4abc
000000d0: 07f9 c73c 4449 e4bd 070b d0ba 9162 98be
000000e0: 0149 773f f89d 21be ab39 703f 852e 83be
000000f0: 5d91 62be 0a81 013d 252d a63f 2d97 c1bd
00000100: 9df8 abbd 76ab 05bf 20ec 083f 9eae c43d
00000110: 076b 41bd d8c9 ac3d 5119 bb3e 8a37 c83d
00000120: 18e3 923f 6cc4 833e 5de6 233e 838b 7dbd
00000130: 658b eb3b 953e b7be 1265 69bd 51b5 8c3d
00000140: 4039 383f de61 00bd 431b 13be 229d ecbe
00000150: ed20 cabc 5b58 1fbd 4208 463f 67cf 863d
00000160: 684d 97bd 3e79 843c 930e 0abe a327 5c3c
00000170: f607 0a3f 709f bbbe 7b27 af3a 9e17 2cbe
00000180: 1dfa f6bd d720 073f 2521 07bf 6aed 26be
00000190: df8d 3cbe 88b9 853e 29d1 e7bd 8bec 19bf
000001a0: 510b cbbc a318 a7bd e977 81bd 6014 12bf
000001b0: e6ea 88be c1ce b6bd 25bf e4bd be31 35be
000001c0: cf17 e2be 2c26 74be 847f 263f 419a 83bd
000001d0: 7eca 853e 6efa b13e 3546 66bd 0b36 c1bd
000001e0: 2829 0ebd 4d97 11bf e523 703f b45b f03e
000001f0: 451b 3b3e ba70 e13d 2412 0cbf cd06 cebc
00000200: 5353 64be f072 30be 02ad acbd 3f17 07bf
00000210: 6afd 13be 876e 573b 7634 4cbd fd3f de3f
00000220: 7a0d 07be 1121 9bbe 162d a13e eee8 c3bc
00000230: cdea 133e 8b2c c9bc 4348 0cbd 7cb6 ecbd
00000240: f9ea 1c3f 7692 9fbd f2f3 75be 6c03 03bf
00000250: 1db7 8e3e 0ed3 aebe 6e74 2a3e 13e1 abbc
00000260: 52e6 d83d ef19 bc3f a5ad ea3e 0b29 903e
00000270: fc68 1cbe 4023 93bc 2d67 85bd bf0f d2bd
00000280: b798 e0bd 1f6f 0ebe 0c81 043f 6ba0 37be
00000290: 5191 e3be 8488 3ebe 50eb c7bd 2a89 a63c
000002a0: cad0 8dbd d1da 223f ac38 ce3c 2e6e aabe
000002b0: 741e d2bd c717 1ebd 80a2 f6bd cba2 f73c
000002c0: f238 24bf 0bdf b1bd fb3c 643d 7499 9fbe
000002d0: 7282 15bd c6a9 47bc 4c47 a0bf bf95 043b
000002e0: a469 aebd 278c 09bc fb29 55bf b1a3 09be
000002f0: e8f6 34bd a295 12bf 82e0 f0bd aa91 39be
00000300: 9839 313f 4984 cfbd 96dd 2c3e 261b 0abe
00000310: 0ae2 22bf 1ed6 37bb 9fe9 163d 2c29 7cbd
0.6776832 -0.47477257 0.302702 -0.21520217 -0.3899273 -0.2991309 -0.17659846 0.08180314
-0.061265834 -0.106955886 0.6455832 -0.07069038 -0.10844793 -0.24907982 -0.11467242 -1.196289
-0.14433096 0.029523795 -0.16768356 -0.09001947 -0.08847295 -0.0800721 0.29354438 -0.21266946
-0.055349488 -0.17703027 -0.0602679 1.0638947 -0.1714639 -0.28618014 -0.57313126 -0.7722414
-0.026591275 -0.7486565 0.9103707 -0.22320434 -0.028473489 0.041744653 -0.23192206 -0.19868663
-0.033106472 -0.15191898 -0.28007555 -0.10566988 -0.076635174 0.45896405 0.15573983 0.35432836
0.09535715 -0.5963327 -0.021566449 -0.0123326555 0.024410738 -0.11146787 -0.0015872427 -0.297627
0.9659577 -0.15782917 0.93837994 -0.2562143 -0.22125764 0.031617202 1.2982527 -0.094526626
-0.083970286 -0.52214754 0.534853 0.09603618 -0.04722121 0.08436936 0.36542752 0.09776218
1.1475554 0.25735795 0.16005845 -0.061900627 0.007188248 -0.35789934 -0.056981154 0.06870521
0.71962357 -0.031343333 -0.14365868 -0.46213633 -0.024673903 -0.03890262 0.7735635 0.065825276
-0.07387811 0.016171094 -0.13482122 0.0134371845 0.539184 -0.3664508 0.0013363207 -0.16805884
-0.12059424 0.52784485 -0.5278495 -0.16301504 -0.18413495 0.26118112 -0.11319191 -0.6012656
-0.02478567 -0.08158996 -0.06321699 -0.5706234 -0.26741713 -0.08926154 -0.111692704 -0.17694756
-0.4415879 -0.23842686 0.65038323 -0.06425906 0.26131052 0.34761375 -0.0562193 -0.09434136
-0.03470722 -0.5687149 0.9380477 0.46944964 0.18272121 0.11007829 -0.5471518 -0.025149727
-0.2229741 -0.17231345 -0.08431436 -0.52769846 -0.14452139 0.0032872276 -0.04985472 1.7363278
-0.13188735 -0.30298665 0.3147971 -0.02391478 0.14445038 -0.024557373 -0.0342486 -0.11558244
0.6129604 -0.07791607 -0.24018839 -0.51177096 0.2787408 -0.34145397 0.16645977 -0.020981347
0.10590805 1.4695414 0.45835605 0.28156313 -0.15274423 -0.017961144 -0.0651382 -0.102569096
-0.10966628 -0.13909577 0.5175941 -0.17932288 -0.44446805 -0.18606764 -0.09761679 0.020329077
-0.06924589 0.6361514 0.025173508 -0.33287185 -0.10259715 -0.038596895 -0.12042713 0.030228993
-0.6414939 -0.0868512 0.055722218 -0.31171763 -0.036501355 -0.012186473 -1.2521758 0.0020230857
-0.08516243 -0.008395231 -0.8326718 -0.1344135 -0.04418078 -0.5725957 -0.117615715 -0.18121973
0.69228506 -0.10132653 0.16881403 -0.13486919 -0.6362616 -0.0028051208 0.036843892 -0.061562702

reward_fun.4.weight f4 [1, 200]
00000000: 6511 1f3e fb8a 1dbf cd14 a2be 0624 c13c
00000010: 68a8 08bd 5808 c93c 9d32 06bd e105 0b3d
00000020: a04c 513d 800b 5e3d bac7 3e3e e0a4 98bd
00000030: 00b5 13bf a0d6 493c 2664 f33b b1d0 983e
00000040: fa3b b53d 767d c93d 5074 c53d ff4d 2a3c
00000050: 53ce 2d3d 89d0 b0bd e77c c13e cc87 9b3d
00000060: 1eae 333c f546 a13d 0384 ddbb fc6e bbbe
00000070: a1ea 3b3c f2ab bcbc 8f98 f93e b1fd 2e3e
00000080: 8b12 46bd c228 453f 2e49 b9bd 3aee 423d
00000090: 0df2 53bb 5842 a53b 17df 653d 8f21 cc3c
000000a0: 8350 a9bc 4196 073d 9873 d6bf ff4e 2fba
000000b0: 428b 323c ca21 ccbd cbb4 76bf 07f5 dcbe
000000c0: e4de f7bd 8d0c 88be 2350 b93d 5d85 263d
000000d0: 1308 bf3e 88a0 853d 3fc7 debb a694 18be
000000e0: 8d99 95be ddbb af3d f2f9 18bf 7bba 9abf
000000f0: 8e09 753c c0f7 373d bd56 013f d30c e03c
00000100: a167 82bc 0ea3 473d 15a7 97be 6d42 3fbf
00000110: 3ee0 6ebc dfc0 9d3d e1aa 3abf 773f 2f3f
00000120: fc89 83be faa8 02bf f7b2 afbe 17a7 293e
00000130: de06 1fbd c785 ce3d bf5f 02bc 5ec7 1cbb
00000140: 62cc b0be 0457 2e3d a8ed 4fbd ff02 543e
00000150: 143d ac3a f278 393c 3f35 fcbf 6bf4 b03d
00000160: 54e8 743d cecb 3f3b dbdd 953d 7327 2a3d
00000170: dc45 07be a3e7 2d3d 0e51 cd3d 64ad 823d
00000180: cc2b 94bd e65e df3d 1e80 4a3d b87e 743d
00000190: 8f42 c1bc 8d2b c1bc 2c2c 483d 2137 26bb
000001a0: d3f1 b63c b4e1 88bd acb7 29ba ed0c 013e
000001b0: b7f7 41be 7edc 9fbc e162 b6bf 6ae0 a13d
000001c0: 8e71 dcbd 4b56 8f3d 43ed 053f e880 193d
000001d0: 4df9 203f cb49 2bbe c125 93bd fe2c 523c
000001e0: 5cf4 8fbc a08c 633d 5527 d7be 66e2 2ebe
000001f0: d255 e63e daad f83e 0ff5 e6be 1d50 0a3d
00000200: 1d1e 5c3e f926 afbd d55c 89bb 08e3 03be
00000210: 1c61 babc ecf9 38bb cea3 90bc 0f5a 7b3e
00000220: f362 d43c 20ac 60be ff3f 57bd c67c e03e
00000230: d80f 603d 9a74 093e 1a17 183d 0734 c0bc
00000240: fdcb debf 8bf7 7abd 4f68 843e 5341 d83b
00000250: bb8b 26bf 53b1 99bc ef9f d13d d53a a43c
00000260: 27b7 69bd 81d0 e1be 5cb6 03bf dd6f 073c
00000270: 5a92 1b3d ac8e 3f3d 7ab1 513c 0234 0b3d
00000280: 67b4 2dbd 40bd 4f3f ad65 aabe 82b3 52bc
00000290: 31ad 0f3d 21f6 f63d ffd6 b23c 0dd3 29bc
000002a0: eb7a 263c 2065 e5bf b85c 073e c112 bb3d
000002b0: fe19 493d d5ed 353d 9c4c 3dbd 90e9 9dbc
000002c0: 7b2e 25bd c365 a53d b0cf a73c 8f60 84be
000002d0: 1068 2cbb 0500 b93b 9b82 a4be cbe4 d53c
000002e0: 8698 53bb 3f63 ce3b 5168 693e 31b1 08bd
000002f0: 5132 573c 00b2 ad3e 9d63 20bd 21a5 95bd
00000300: 1ceb ca3e c199 023d f5fc b9be e913 703d
00000310: 6294 88bf 7cad 6abb ef75 de3c 4762 6abb
0.15533979 -0.6154019 -0.31656495 0.023576748 -0.03336373 0.024540111 -0.032763112 0.033941153
0.051098466 0.054210186 0.18630877 -0.074533224 -0.5769806 0.012319237 0.00742771 0.2984672
0.0884933 0.09838383 0.096413255 0.010394572 0.042433094 -0.08633525 0.37790605 0.075942606
0.010966806 0.07874862 -0.006760122 -0.36608112 0.011469514 -0.023031209 0.48749205 0.17088963
-0.048357528 0.77015316 -0.09047161 0.04759047 -0.0032340318 0.005043309 0.05612096 0.024918346
-0.020668274 0.033102278 -1.6754026 -0.00066874916 0.010897459 -0.09967382 -0.9636962 -0.4315569
-0.1210306 -0.26572075 0.09048488 0.04065453 0.37310848 0.065247595 -0.0067986543 -0.14900455
-0.29218712 0.08580754 -0.59756386 -1.2088159 0.014955891 0.044914007 0.5052298 0.027349865
-0.015918555 0.048739485 -0.2961966 -0.7471073 -0.014579831 0.07702803 -0.7291699 0.68456215
-0.2569121 -0.5103909 -0.34316227 0.16567646 -0.03882491 0.1008411 -0.007957398 -0.0023922543
-0.34530932 0.042563453 -0.050763756 0.20704268 0.0013140761 0.0113203395 -1.970375 0.08640369
0.059791878 0.0029265764 0.07317706 0.041541528 -0.13210243 0.042457234 0.100252256 0.06380728
-0.07234916 0.10906772 0.04943859 0.05969116 -0.023591308 -0.023580337 0.04887025 -0.002536245
0.022332108 -0.066836745 -0.00064742076 0.12602587 -0.18942152 -0.019514319 -1.4248925 0.07904132
-0.10763846 0.06998881 0.5231516 0.03747645 0.628804 -0.16727369 -0.07184935 0.01282811
-0.017572574 0.055554032 -0.42022195 -0.17078552 0.4498735 0.48570138 -0.4510884 0.03376781
0.21495862 -0.08552355 -0.0041919746 -0.12879574 -0.022751383 -0.0028225137 -0.017656233 0.24546073
0.025926089 -0.2194066 -0.052551266 0.43845195 0.05470261 0.13423386 0.037131406 -0.023462309
-1.7406002 -0.06127123 0.2586083 0.006599584 -0.6505696 -0.018761313 0.10235583 0.020047585
-0.057059433 -0.44104388 -0.51450133 0.008266416 0.03798137 0.046766922 0.012798661 0.033985145
-0.042408373 0.8114815 -0.33280697 -0.012860181 0.035077278 0.12058664 0.021831034 -0.01036526
0.010161142 -1.7921486 0.13218963 0.091344364 0.049097054 0.044416267 -0.04621564 -0.01927641
-0.04032753 0.0807605 0.020484775 -0.25854918 -0.0026307143 0.0056457543 -0.32130894 0.026110074
-0.0032286956 0.006298452 0.227937 -0.033372108 0.013134555 0.33924866 -0.0391575 -0.073068865
0.396325 0.031884912 -0.36325803 0.058612738 -1.0670283 -0.003580897 0.027155844 -0.0035764144
