HybridLearning-master/data/hlt_stoch/InvertedPendulumBulletEnv/seed_666/model_4000.pt (torch, 180898 bytes, 10 tensors)

log_std f4 [1, 5]
00000000: 5aa3 98c0 8ffd 0ac0 f00b 96c0 c0e6 8ec0
00000010: 97cd b8bf
-4.7699404 -2.171726 -4.688957 -4.4656677 -1.4437741

mu.0.weight f4 [200, 6]
00000000: 2cea 723e 5484 0cbd 879e fcbe 62b0 49bf
00000010: bf09 08be 9781 53bf 3410 f63c f98e 87be
00000020: 699b 143d 90e1 67bf ff2e 19be c566 54bb
00000030: b3a7 393e d890 44be 2ee0 8b3d bcf1 d73e
00000040: 8d0d a63c f6a8 e7be 0c05 153e 97c8 38be
00000050: 733a bebf 46b4 253f 8a64 28bb 49fd 893e
00000060: 2876 01be b2da 263d b8b3 6b3e b8ca 82bf
00000070: 8984 fdbd eca8 8a3e 0252 84bf 798d ba3e
00000080: 8e83 85be 48c9 37bf cf3f 153f b24e 933e
00000090: 4f30 303f ee3c 023f fe65 08bd bdbd 6abf
000000a0: 4f45 0c3e 1b5f 8b3f 55bf 78be 596f 24be
000000b0: 6644 a33d cfad 24bd e241 193c 96a9 08bd
000000c0: 65d0 a3b5 e647 a035 d2a5 95b5 bfa6 d2b6
000000d0: 771e 6b35 f578 52b6 8782 073e d63a 5f3d
000000e0: 33f7 7c3c ee9d 7b3f e8b1 12be d49f 70be
000000f0: 5f90 8235 b828 2bb6 fa83 c3b4 2fd0 1a37
00000100: bdde a434 12ea 8d35 5178 9b39 2b13 7838
00000110: e843 0eb9 c6fc bc37 7322 8738 847b f838
00000120: 2408 153e 24a7 f03d 703b f3be 2ad4 11bf
00000130: 6c5a b7bd 3e00 a2be de7a 54bd c1e2 f6bb
00000140: 96a8 65bc 3419 c2bc 265a 913b 90e0 42bc
00000150: f960 22bd 6ed7 9e3d d633 96bf bd00 0cbe
00000160: 541d 133e c2fc 17be 5eb7 fdbe f529 883d
00000170: d06f 9b3e e3c8 743e b448 02be 0016 a4bc
00000180: 78b8 8ebe d647 4b3e 6054 2bbf 712b 8cbf
00000190: beb3 b83d 26d8 f63e 14aa 56ba 626f 093a
000001a0: e8ea 24b9 8c34 0f3a 7673 22b7 e6a0 82ba
000001b0: e9d8 c2b2 e6c0 0cb2 4b80 b2b0 a5df b1b3
000001c0: f626 c7b1 d9cf 80b2 e3be e8bc cdfb 5a3e
000001d0: 9e20 59be cf43 6abf d6bf b03e 5133 9d3e
000001e0: c82c 5cbf 3ad1 2cbf f755 1cbe d940 9ebf
000001f0: b79e a1be 0d94 5b3f 129b 46b9 a402 7ab9
00000200: 4636 9cb9 1f60 3239 6233 30b8 8ee8 3cb8
00000210: a418 36bf 6365 eb3e 97d2 d9bd 6987 05bc
00000220: 0d8d 533e 803a e53e 8e87 04bb 9c31 1cbb
00000230: 4b6a 20bb 93b1 26bb baaa 2bba 7554 61bb
00000240: e1b3 553e 3505 db3e 7944 24be 6965 f83e
00000250: 9c64 8fbc 0060 edbe 9fe8 4ebb efaa f9b9
00000260: 50ed 3fba 4f14 cdbb b724 3aba c161 ff39
00000270: fe48 ae38 610e 55ba 4112 e8b8 21e8 a439
00000280: c81a 6439 ed80 6439 9093 fcb9 50fc c438
00000290: cb15 86ba 5120 4939 5840 3b3a 6a24 ccba
000002a0: 7ef6 ac3e 2b67 2cbe b40f 29be 2214 d9be
000002b0: bb68 33bd cc81 0cbe 71fb 3ebf 8421 a2be
000002c0: b67a a2be 82b8 3ebf e3fe ba3e f3bc cf3c
000002d0: c0be 0dba 880f 4d39 5c7f 9bb6 90cf faba
000002e0: 218e c938 da54 89ba 0dad 6fb9 aa18 2db9
000002f0: ba05 8b38 fc9e 19ba 1b5f 29b9 4b41 d8b8
00000300: 01b0 5abf 4896 babe c36b 153f c2e6 b83e
00000310: 06ba 603e 73ae 663f d5a0 a7bf 610a fcbe
00000320: fe32 e4be 3d04 96bf b519 0fbe 4f9f 64bf
00000330: faf8 6f37 6832 1337 7d3c 01b8 b8c8 d7b7
00000340: d040 20b7 9cce 3637 4290 4cbd 1b0e 02bd
00000350: d399 b4be fe48 293f 717d c2be 834a de3d
00000360: 7bf9 633e 2924 203c 525b 6dbd 4045 c6be
00000370: 2452 99bc 18de cd3d 7e3a 6332 fca0 2832
00000380: ef3f 1332 88e9 e832 5c09 ba31 97e5 73b0
00000390: 4218 883a 31e8 5539 2f06 ba3a b704 27ba
000003a0: c06a 8eb9 382a ab3a f8ba 7ebf 564d df3d
000003b0: 627f b83d 0167 263f e853 1e3f 2e9b aa3d
000003c0: 87e9 3a3f 67b8 253e 2311 293f d1ba febe
000003d0: 23bc 0f3e c85a 38be b1fd 063f 576c ee3d
000003e0: a9c4 453e f989 ec3e c5d0 6fbd 4f67 c83e
000003f0: 34e4 983b 5402 703b ca56 8bba bc32 0b3c
0.23722142 -0.034305885 -0.49339697 -0.78784764 -0.13284968 -0.82619613 0.030037023 -0.26476267
0.036281023 -0.90578556 -0.14959334 -0.0032409888 0.18130378 -0.19195879 0.06829868 0.42176616
0.020270133 -0.45246094 0.14552706 -0.18045269 -1.4861587 0.647282 -0.0025694692 0.26951054
-0.1264273 0.040735908 0.23017776 -1.0218115 -0.12378795 0.27082002 -1.0337527 0.3643606
-0.2607693 -0.71791506 0.5830049 0.28770977 0.68823713 0.5087422 -0.033300392 -0.9169577
0.13698314 1.0888399 -0.24291737 -0.16058101 0.0797203 -0.04020482 0.009354087 -0.033364855
-1.2205097e-06 1.1941854e-06 -1.1149625e-06 -6.2778995e-06 8.7588654e-07 -3.1362845e-06 0.13233386 0.05449947
0.015439796 0.98287857 -0.14325678 -0.2349847 9.727772e-07 -2.5504687e-06 -3.6417606e-07 9.227587e-06
3.0709444e-07 1.0573442e-06 0.00029653547 5.914566e-05 -0.00013567472 2.2529053e-05 6.443718e-05 0.00011848568
0.14553887 0.117506295 -0.47506285 -0.5696436 -0.089527935 -0.3164081 -0.051874988 -0.0075343554
-0.014017245 -0.023693658 0.0044357954 -0.01189436 -0.03964326 0.07755934 -1.1734569 -0.13672157
0.14366657 -0.14842513 -0.4955396 0.06648628 0.30358744 0.23904757 -0.12723047 -0.020030022
-0.27875113 0.19851622 -0.6692562 -1.0950757 0.09018658 0.48211783 -0.0008188796 0.00052427326
-0.00015727768 0.0005462847 -9.682835e-06 -0.0009966164 -2.2683212e-08 -8.1929326e-09 -1.2987668e-09 -8.2828855e-08
-5.7960916e-09 -1.499568e-08 -0.028411334 0.21385117 -0.21203849 -0.9150972 0.3452136 0.30703214
-0.8600583 -0.67506754 -0.15267168 -1.236354 -0.31566402 0.8577278 -0.0001894052 -0.00023842842
-0.00029795076 0.00017011211 -4.2009524e-05 -4.5039276e-05 -0.7113135 0.4597579 -0.1063587 -0.00814996
0.20659275 0.44771194 -0.0020222398 -0.002383328 -0.0024477418 -0.0025435432 -0.00065485726 -0.0034382616
0.208694 0.4277741 -0.16041745 0.4851487 -0.017504029 -0.46362305 -0.0031571758 -0.00047620336
-0.0007321434 -0.0062585245 -0.0007100808 0.00048710222 8.3105624e-05 -0.0008127448 -0.00011066022 0.00031453467
0.00021753751 0.00021791803 -0.00048175128 9.393005e-05 -0.0010229883 0.00019180893 0.0007143072 -0.0015574817
0.3378181 -0.1683623 -0.16509897 -0.42398173 -0.04380105 -0.13721389 -0.7460242 -0.31666195
-0.31734246 -0.74500287 0.36522588 0.025358653 -0.0005407147 0.0001955611 -4.6341866e-06 -0.0019135345
9.6109005e-05 -0.0010477558 -0.00022857283 -0.00016507754 6.629103e-05 -0.00058601773 -0.00016152525 -0.000103118444
-0.8542481 -0.3644278 0.58367556 0.36113554 0.21945962 0.9010994 -1.3095957 -0.49226668
-0.44570154 -1.1720043 -0.1397465 -0.89305586 1.43034795e-05 8.773619e-06 -3.081233e-05 -2.5723464e-05
-9.5518335e-06 1.089615e-05 -0.049942262 -0.031751733 -0.3527361 0.66127 -0.3798633 0.10854056
0.22263138 0.009774246 -0.057948418 -0.3872471 -0.018715926 0.10052127 1.3226439e-08 9.815491e-09
8.571063e-09 2.7114552e-08 5.4143765e-09 -8.872915e-10 0.0010383206 0.00020399761 0.0014192517 -0.0006371247
-0.00027163886 0.0013058847 -0.9950404 0.109034225 0.09008671 0.6500092 0.6184678 0.083303794
0.73012584 0.16183625 0.66041774 -0.49751905 0.14036612 -0.1800338 0.5273085 0.11641758
0.19313301 0.46199015 -0.058548708 0.39141318 0.004665876 0.0036622481 -0.0010630724 0.008495983

mu.0.bias f4 [200]
00000000: b189 5dbe e07a aa3e 8eb2 2e3e 8827 b83f
00000010: 9dda 263f b4fc 1c3e 4cc9 50be 4392 25be
00000020: 5801 78b4 1d8e 123f e4cc f335 ba3c 89b7
00000030: dd0e c73e ea58 d63b 4784 63bf 5fe8 b2be
00000040: 8c4f 343f bd25 72b8 3415 7031 73d9 ac3e
00000050: e218 353f 4ca7 d938 39e7 e03d e48e b03a
00000060: 4a28 a83e 1a3b 8f3a 85a1 e039 0d4d 3fb9
00000070: 1508 a5be 6880 30bf 090c 34b9 66a1 1838
00000080: b406 073e 1a8d 19bb be9a d737 eac5 1c3f
00000090: 160e e3bc 24ba fcb2 e24d eeb8 7a2b 043c
000000a0: 2a7b 0ebf 268c 993d 69b1 76ba c324 01bf
000000b0: 5d4a 8039 780e 8b3f c7a4 c23b 44dc feb7
000000c0: dcbf 113f 9d50 ca37 3073 35b7 a37a 573d
000000d0: 63d5 c0bc b804 0c33 8cf7 13bf 3d7f c9be
000000e0: 2535 9e38 a41e beb3 5143 57b0 54f0 a33e
000000f0: 2291 21ba 9be8 88b6 d441 7a3b 15c1 5fba
00000100: 33f6 27af 2828 6fbd 7cbf 6238 156d 1abf
00000110: acd7 60bb cba5 e5be 4f5a f8be f097 1234
00000120: 7252 4c39 f401 0f3f 1a6b fbba 37cc 9fbe
00000130: 824c b7be 37a2 0ab2 45da 833f 6374 533b
00000140: 01eb cabe 00b1 0e3c e2a8 0838 51bb e0be
00000150: 89e9 edb6 79ab 27bf 7697 bdb8 a914 8abe
00000160: 56a4 78b8 98b9 853b 9c7f c9be 51eb 0ebf
00000170: cdfc 963e 7a18 2a3f 8519 9fb8 d323 96b9
00000180: bf64 cc32 ff64 d72f 9d80 ca2e db6b 8735
00000190: 0aa9 133f 6226 752e f711 b7be 5a67 833d
000001a0: 4493 34b2 47da 9cb8 90cd 3c3d a2f3 39be
000001b0: f825 b63e 7f76 95b9 16b6 be38 40f2 c9be
000001c0: 3662 05b2 9f2a aebe fe74 1d38 2bb3 cb3c
000001d0: 9587 3bbe 7e32 4abd f2fc 733f b06a 9abd
000001e0: b7a4 ee38 42eb 4c3d 8297 57b8 444a 843f
000001f0: b9ea 6d39 986d 8fbf cfd9 3836 3341 4ebf
00000200: 5ece d532 86b1 b8b6 1a99 603e 4268 0cac
00000210: ee3c 75bf ccbe 41be 5ca2 14b4 245f 083e
00000220: 460a b7be 4edb 4732 f1dc d6bd 09f6 0a3f
00000230: f599 d036 00e9 9a39 a86e 0bae a935 cc38
00000240: 4fa4 3a3a 3465 373f 6ccf 6c3d 55cf b9be
00000250: d121 3db7 ff3b c3be 7888 b53e 8f87 46bd
00000260: 7b2d ce3a 070c 1a3f b572 de3c 922c febe
00000270: 005a ae3e 9bcb 14b9 a027 333b 8687 bcbd
00000280: 41a1 57b4 5082 2c3f 8f52 c833 dbee 303f
00000290: 1661 7b31 e2df 2cbd 4263 69be ab22 98bd
000002a0: 38ed 033e 8e1e a5b5 316b 1b3a 4843 3d3d
000002b0: c411 75b3 0756 d33e e44e ad3d 24ab dfbd
000002c0: 72f7 db32 781a 5536 1147 b8b9 fa36 55bf
000002d0: 19bd 98b6 1d48 73be 792b fd3e ca8c 983d
000002e0: 063c 5f3d 28b8 b9b4 2ecb d7be 3f6b 6935
000002f0: 220b 1f3e ac03 e13d 8c8f 0abf 9ba4 a1b3
00000300: 8e8e 8c34 589d d33e 4610 abb4 c6b9 023a
00000310: 51de c337 5375 1f3f 4ee7 2cbe 9114 9e37
-0.21634556 0.3329687 0.170603 1.4387064 0.6517733 0.15330774 -0.20389289 -0.16169076
-2.3097289e-07 0.572481 1.8164542e-06 -1.635995e-05 0.38878527 0.006541361 -0.88873714 -0.3494291
0.7043388 -5.7732443e-05 3.493665e-09 0.3375965 0.70741093 0.00010378528 0.10981602 0.0013470319
0.32843238 0.0010927648 0.0004284495 -0.00018243883 -0.3223273 -0.6894593 -0.00017170621 3.6389938e-05
0.13186151 -0.002343005 2.5702055e-05 0.6123949 -0.027716678 -2.9421308e-08 -0.00011363231 0.008067006
-0.55656683 0.07497434 -0.00094105914 -0.5044672 0.00024469467 1.086379 0.005940053 -3.0381729e-05
0.5693338 2.4117815e-05 -1.081526e-05 0.05260719 -0.02353925 3.2600582e-08 -0.577996 -0.39354888
7.543926e-05 -8.853138e-08 -7.8312207e-10 0.32019293 -0.0006163289 -4.0801947e-06 0.003818621 -0.00085355464
-1.5276029e-10 -0.058387905 5.4060933e-05 -0.60322696 -0.0034308238 -0.44853052 -0.485064 1.3652584e-07
0.0001948567 0.55862355 -0.0019181699 -0.3121049 -0.35800558 -8.069541e-09 1.0300986 0.0032265417
-0.3963242 0.008709192 3.258221e-05 -0.4389291 -7.0903375e-06 -0.6549602 -9.040434e-05 -0.26968887
-5.9280857e-05 0.0040809624 -0.3935517 -0.55827814 0.29489747 0.664436 -7.586464e-05 -0.0002863692
2.379454e-08 3.9180034e-10 9.208743e-11 1.0089674e-06 0.5767981 5.574064e-11 -0.35755894 0.06416197
-1.0510863e-08 -7.479317e-05 0.046094477 -0.18159345 0.35575843 -0.0002850778 9.093822e-05 -0.39442635
-7.7639495e-09 -0.34016892 3.7540674e-05 0.024865707 -0.18313439 -0.04936456 0.9530784 -0.0753988
0.00011379405 0.050029047 -5.1401097e-05 1.0335164 0.00022689522 -1.120532 2.7544918e-06 -0.80568236
2.4890308e-08 -5.5042938e-06 0.21933404 -1.9953071e-12 -0.95796096 -0.1892044 -1.384264e-07 0.13317543
-0.35750026 1.1633189e-08 -0.1049136 0.5428167 6.216806e-06 0.00029546767 -3.1703223e-11 9.737473e-05
0.0007119821 0.716388 0.057815 -0.36290994 -1.1273151e-05 -0.3813171 0.3545568 -0.048469122
0.0015730107 0.601746 0.027154306 -0.4964338 0.3405304 -0.00014190229 0.002733685 -0.092055365
-2.0082099e-07 0.6738634 9.328243e-08 0.69114465 3.6580494e-09 -0.0422057 -0.2279177 -0.074284874
0.1288346 -1.2302351e-06 0.00059287535 0.046206743 -5.7059665e-08 0.4127657 0.08462313 -0.10921314
2.560748e-08 3.175488e-06 -0.00035148163 -0.8328701 -4.551967e-06 -0.23757978 0.4944723 0.074487284
0.054500602 -3.4592927e-07 -0.421472 8.695533e-07 0.1553159 0.109870285 -0.54125285 -7.527088e-08
2.6180754e-07 0.4133098 -3.1863073e-07 0.0004986789 2.3349336e-05 0.622884 -0.1688511 1.8844645e-05

mu.2.weight f4 [5, 200]
00000000: 0bd5 0cbd 4c6c e5bb b166 91bb 6834 0a3c
00000010: 4c4c b53c 62da 78ba bd41 ab3b 9940 85bc
00000020: 5169 3cb4 4c47 3e3c cc47 d8b5 cca1 b8b8
00000030: 0f78 ffb9 c540 13bb bbb9 353b 17af 983c
00000040: b035 2bbc f9b5 8eb8 49e7 6532 b713 c73b
00000050: 4f37 70ba fdbe 28b9 ccf3 41bc 889c 003b
00000060: 82fc 2e3c 2051 bc3a 1c15 31ba 4c93 62ba
00000070: 6482 f4bc d208 363c df6a 3439 9849 7039
00000080: fec0 b9bc 0930 d73b b88e be36 93ff cd3b
00000090: 5d69 9e3c a428 7331 58b1 273a ece7 febb
000000a0: 7a3b a23c bfa2 d8bb 438f bbbb bf08 ddbb
000000b0: 5f87 413a 2058 b4bb 9e87 91bb 3aac 49b7
000000c0: b19a 3abc f527 3439 4b09 5bb7 9d77 de3a
000000d0: f708 51bb d2d8 0235 a3ad fd3b d1bb 4fbb
000000e0: e552 47b9 8a60 6535 a6cb 51b1 c9c8 023c
000000f0: cee3 24bb 8abc 17b6 53ab 33bb 1767 8c3a
00000100: b5cb ff2b 6a30 f23d 6eea 5f39 db95 173b
00000110: 1c6f afbc e681 20bc 8584 81bc 7bb3 eb34
00000120: 47f7 c1b9 7910 7bbc 1eb9 baba 96b3 dd3c
00000130: 53c8 b63c 7dde 00b1 b7af 95bc 5f35 e93a
00000140: 1244 703a f236 c03a c6b1 f338 dac4 aebb
00000150: 71a7 9a37 5770 bd3b c1ca 9ab9 e31d 78bc
00000160: ca50 eab9 ddfd 42bc 6aaa 523c 980d 003c
00000170: 7889 b53b b747 573c 31c9 803a 31d8 38bb
00000180: 0299 c232 7d89 3aaf 3bb0 6ead 3062 e035
00000190: 4435 953c 71b4 06ad ffc8 023c 2d37 cc3b
000001a0: e392 d6b2 775d c5b9 bfd9 263a b8ab e0bb
000001b0: ff28 fa3a 3f7e 1fbb 523b 9eb9 a435 ddbc
000001c0: 03d0 8d30 3902 733a e2b3 aa37 1a1d 0ebb
000001d0: 59a3 433b 20b9 26bc 1184 143c 37bb ad3b
000001e0: c6f1 3f3b 1500 dfbb 23a5 70b9 5d0a b9ba
000001f0: 6ddc 0b38 b37f 8cbb 8b4e 5a35 34ad 4cbc
00000200: 570d c633 e424 2835 60e9 a53b 9f0e a52c
00000210: 3137 cb3b 65fe 203c 0adb 12b4 b95c 3dbd
00000220: 76e4 ad3c 7575 2fb2 33a5 01bc 83e1 0539
00000230: 6166 30b8 4b37 2839 9e5a 012e faa9 76b9
00000240: 5e4b ce39 6551 acbb 0d13 e63d 2f6f 42bb
00000250: 3d36 00b9 e541 43bc e8b4 11bc 8851 e1bc
00000260: 2405 39bb acbe 1cbc 2ba8 2d3d f815 d33b
00000270: 46af ad3c 164f 1d3a a396 a9b9 7e83 32bc
00000280: 87da 1bb5 bcd0 4f3b 862a b9b4 997a a23a
00000290: b221 9caf b462 a53b f969 bdba e594 b53c
000002a0: f3f5 473b 4dc7 7fb6 195b 32ba 54cf 62bd
000002b0: beae a633 574a adbb 847a 37bc a53d 0a3b
000002c0: d207 5133 8aa3 ff35 59aa 2d39 550a 403c
000002d0: ef5d 38b8 2a5a 12bc ab7b 013c 5e98 a9bb
000002e0: 58ed 983b e094 09b6 cf94 923b f240 31b7
000002f0: 7dae bc3b 78b6 ac3c 68b7 c33b b466 3633
00000300: af0f cd33 7e93 1ebb d9e4 ecb4 1441 f4b9
00000310: e7a7 1839 5009 e13b 5656 4d3c 0ca0 8c38
00000320: a773 dabe fd70 8d3c b433 583e 71e6 083e
00000330: a3b6 043e 1334 1cbe 1394 053e ca7d ec3e
00000340: 066f 9ab6 2ccb 9d3e e958 6735 db09 5837
00000350: 2530 94be d71d 0b3e 793e f9bd 5d79 a33d
00000360: 61da 26be 9122 38b9 ee72 a3b2 bb83 143e
00000370: 9d3a 56bc 832d 6dba 66a8 f9bd 3102 8dbc
00000380: b1e4 c33c 4ee9 9138 98ac 7e39 4ec9 07bb
00000390: d0b3 acbd 7528 013e f20e 88ba b816 b737
000003a0: 8a27 ccbe e78b 053e 7c77 7536 e94c e63d
000003b0: ee12 aebe 9821 e432 958e 223b 1553 44be
000003c0: ff69 3c3e 4ae2 abbe c4c2 d2bb 028d 07bf
000003d0: d3a2 acba 2931 f83c 74b3 8a3e f47e 1138
000003e0: 8568 e9bd 5dfc 4b39 c7a9 13b9 35cb 713e
000003f0: 7f7f d4be 2c9b 6c35 9ec9 fabd de3a d6bc
-0.03438286 -0.0070014354 -0.0044372906 0.008435346 0.022131108 -0.0009492991 0.0052263425 -0.016266154
-1.7547178e-07 0.011613678 -1.611415e-06 -8.803941e-05 -0.0004872684 -0.0022469026 0.0027729112 0.018638177
-0.010449812 -6.804983e-05 1.33821425e-08 0.0060753482 -0.0009163515 -0.00016092877 -0.011837911 0.001962455
0.01068032 0.0014367439 -0.00067551597 -0.0008643165 -0.029847331 0.011110501 0.0001720595 0.000229156
-0.022675034 0.0065670055 5.679056e-06 0.0062865703 0.01933735 3.5384256e-09 0.0006396971 -0.007779112
0.019803751 -0.0066111977 -0.0057238652 -0.0067454274 0.00073825376 -0.0055036694 -0.0044412157 -1.2020633e-05
-0.01138942 0.00017181023 -1.3055581e-05 0.0016972903 -0.0031896213 4.874429e-07 0.0077416464 -0.003169764
-0.00019009 8.544963e-07 -3.0529264e-09 0.007982441 -0.0025160196 -2.2610498e-06 -0.002741535 0.0010711876
1.817538e-12 0.118256405 0.00021354269 0.0023130092 -0.021415286 -0.009796595 -0.01581026 4.390275e-07
-0.00036996065 -0.015323752 -0.0014245843 0.027063172 0.022312319 -1.8752921e-09 -0.018272264 0.0017792395
0.00091654167 0.0014664812 0.00011620256 -0.005333525 1.8436202e-05 0.005781214 -0.00029524232 -0.015143844
-0.0004469215 -0.011901346 0.012858013 0.007815741 0.005540069 0.013139657 0.0009825585 -0.0028205032
2.2654152e-08 -1.6965447e-10 -1.3567865e-11 1.6717877e-06 0.018213876 -7.657084e-12 0.0079824915 0.0062321634
-2.4979675e-08 -0.00037644405 0.0006364844 -0.006856408 0.0019085704 -0.0024336723 -0.00030180305 -0.027003117
1.0318221e-09 0.00092700456 2.0349344e-05 -0.0021684826 0.0029852001 -0.010175973 0.00906469 0.0053018588
0.0029288395 -0.0068054297 -0.00022949702 -0.0014117468 3.334547e-05 -0.004287684 8.1325624e-07 -0.012492467
9.22252e-08 6.263856e-07 0.005063221 4.6912053e-12 0.0062016477 0.009826277 -1.3676996e-07 -0.046231005
0.021227103 -1.0213047e-08 -0.007912922 0.00012767878 -4.2057018e-05 0.00016042327 2.941169e-11 -0.0002352371
0.00039347535 -0.0052587264 0.112341024 -0.0029668321 -0.00012227237 -0.011917566 -0.008893229 -0.027504697
-0.0028231824 -0.009566944 0.042396706 0.006441828 0.021201741 0.00060008594 -0.00032346425 -0.010895608
-5.806e-07 0.0031710109 -3.4489875e-07 0.0012396156 -2.8400177e-10 0.0050471667 -0.0014451138 0.022165725
0.0030511587 -3.811397e-06 -0.0006803736 -0.055373505 7.761763e-08 -0.005288403 -0.011198644 0.0021093872
4.8668717e-08 1.9046577e-06 0.00016562025 0.011721213 -4.39565e-05 -0.00893263 0.00790302 -0.0051756343
0.0046669655 -2.0501247e-06 0.004473306 -1.0565143e-05 0.0057581053 0.021083102 0.0059727915 4.2468585e-08
9.548909e-08 -0.00241968 -4.4124934e-07 -0.00046587794 0.00014558398 0.006867565 0.012532791 6.705531e-05
-0.4266636 0.017265791 0.21113473 0.13369156 0.12960295 -0.1525424 0.13044767 0.4618972
-4.6024825e-06 0.3081907 8.618359e-07 1.2876898e-05 -0.2894298 0.13585602 -0.12170119 0.079821326
-0.16294242 -0.00017560484 -1.9027961e-08 0.14503376 -0.013075498 -0.00090476143 -0.121903226 -0.017212959
0.02391276 6.957595e-05 0.00024287624 -0.0020719352 -0.08432734 0.1261309 -0.0010380431 2.182588e-05
-0.39873916 0.1304165 3.6577394e-06 0.11245138 -0.33998817 2.655797e-08 0.0024804224 -0.19172318
0.1839981 -0.33571082 -0.0064319093 -0.52949536 -0.0013171084 0.030296879 0.27090037 3.468893e-05
-0.11396889 0.00019453601 -0.0001408226 0.23612674 -0.41503522 8.8142656e-07 -0.12245487 -0.026151117

mu.2.bias f4 [5]
00000000: 1067 8d3b 516e 6c3e eab5 61bc b5a7 b13c
00000010: 67bc 043e
0.0043152645 0.23088957 -0.013776282 0.021686414 0.12962495

reward_fun.0.weight f4 [200, 6]
00000000: aea9 163f 5e24 84be 813c d43f c502 2abf
00000010: 43bb f2be cae9 f23e df72 273e 511a 0bbf
00000020: 419d c6be 385d 50be 4705 9b3e ca05 58bf
00000030: b0b7 a13e fdbc a2bc b519 e8bd 8802 5e3e
00000040: 5831 03bc 2ac4 69be dee8 0abf 51c5 87be
00000050: 62b0 45bf 1d04 d1bf e7c4 65bc adbc 963e
00000060: 96dd 693f 181a 88be bf7f 463f 3e24 c43f
00000070: 3ecf 71bd 81cd 42be 4abc 5d3f 73cb 803f
00000080: 2d4f 50bf facc cc3e edcb 803b aaa9 ec3e
00000090: 674f 48be 3175 02bd 959b e63f 360a bb3f
000000a0: 5295 393f d7d0 b6be 3cbe 8fbf 3169 d8be
000000b0: 1004 9a3f ddb4 c8bf 730e 9a3d d660 b2be
000000c0: 6271 4bbf 8ce4 05bf a077 943d ad29 8cbe
000000d0: 2434 533e c836 4ebf ecf6 153d 7449 a43e
000000e0: 2e88 c9be 3c36 3d3f 8e05 f4bb f47e 85be
000000f0: bca8 82be 9773 af3e 8226 df3f 89c4 4cbf
00000100: 7a72 f1be a41f e5bd 49d0 85bf f211 6cbf
00000110: 9617 833d c2e3 3ebf 75f7 803e 5452 2bbf
00000120: 05d4 263d 00a4 223d de33 c7be b18c 0a3f
00000130: ec9f f53a a902 b6bd 4bbd e63f 7b9b 3fbe
00000140: aa50 24bf 1cf5 b73e 7ae0 0c3d fccc 84bd
00000150: 205c ce3e 8f90 6dbf 965d 4c3f d3d1 573e
00000160: 6a69 8c3e 2a15 9dbe 2c1d 8e3e bb52 b53d
00000170: 2d25 e0bd da3c 873d e2e0 2a3c 7cb6 99bd
00000180: 913e e9be cf16 8dbe 1f8a e5be b37d 6ebe
00000190: 0b8b 723d 619e cdbe ea39 34be 8b90 703f
000001a0: 35ca ccbf 3107 093f ea46 d7bd 9e8f 063f
000001b0: 796d 863e e854 3f3e 2663 b0be f0fd 44be
000001c0: 1c60 c4bb 5965 45be 35c9 a23f fb55 553f
000001d0: 518a 143f f1cd ef3e c379 aabe 167e 653f
000001e0: 5de8 28bd af01 b63d 3914 6fbe 504a bf3e
000001f0: 7141 3739 517d 71be 36d1 e93d 0586 e93e
00000200: 47e1 0740 0ffd 1040 6ed9 943e 8d18 1d3e
00000210: fe3d 393f 4c6d 1d3f 42e3 22bf 39ad 89be
00000220: 1087 12be 5310 c33e 8d33 25be e765 c33e
00000230: da89 873f 4419 0440 1afd ac3e bf98 22be
00000240: 2261 ec3d 393f 9c3d 6ddd 8fbe 2800 943d
00000250: 0f8c 513b fe04 8fbe 57fe 2e3f 06e6 adbe
00000260: 8c84 b43f 33ae bd3f 1d6e 2c3e b9f3 8fbf
00000270: 2741 cd3e f098 eb3d fc3b 6ebf 4004 93bf
00000280: 0dc4 2a3e 6ffd 6dbf 6375 e1bf 204f f5be
00000290: f9cb c03d 509c 9dbe da02 623e aec6 9fbf
000002a0: 2109 04bf 8261 a1be 1395 fd3f 3af3 25bf
000002b0: 73e4 f2be 36f7 1fbe ac7f 323d 5d64 a6be
000002c0: 4118 da3f db03 bebe ed4b cdbe 29d9 a6bd
000002d0: 759f c8be 9182 86bf 1416 593f 3ca3 723f
000002e0: e037 b4bd 9a58 b5be 49b7 b43f 09ff b23e
000002f0: 2524 1bbf 836c afbd 6e43 923b 5a1d 29bf
00000300: f25f a63e 23ca fd3d e190 9fbe 63a8 b2bc
00000310: bdf9 ccbb c0d2 a5be c5ba 443f 1179 8d3f
00000320: 5507 6dbf bb29 313f 017e 44bd f324 9f3e
00000330: addf 85bf 658f f0be a83b 6ebe 4775 f0bf
00000340: 03a6 643c 8a86 85be 4fff 273d a9b6 bc3d
00000350: 2168 5cbe a733 a33d be95 ffba 3bfe 7fbe
00000360: 3a96 ddbd 739e 5b3c de15 dbbe 1aef ee3e
00000370: ef2e 163d 001e 60be 62e9 27be 7e9f a73e
00000380: 185e 43bf 29b7 5c3e 16c1 09bc 954c 93bd
00000390: ec2a a5bf abf3 d03e d583 c23f 1d8b 253e
000003a0: 49f2 e63e 3be0 3dbe a54f 65be d010 833f
000003b0: dbe6 163e 89ea 2bbd 3ba8 19be 9781 273f
000003c0: 37e1 953e 8c8b ba3f c3f9 91be cc0b eebd
000003d0: 4fa4 c9be a3d9 2c3f a744 d83e 32b4 d33e
000003e0: 7f20 0740 2ee3 f23e e05e 023f a6fd 0b3f
000003f0: 68bf 0b3e 9422 debd 7faf 7fbe 9280 3d3d
0.5885266 -0.25808996 1.6580964 -0.66410476 -0.47408494 0.47443992 0.16352414 -0.5433703
-0.3879185 -0.2034806 0.30277464 -0.84383833 0.31585455 -0.019865507 -0.11333028 0.21680653
-0.00800737 -0.22828737 -0.5426158 -0.26517728 -0.77222264 -1.632938 -0.014023996 0.29440823
0.9135374 -0.26582408 0.77538675 1.532356 -0.059035532 -0.19023706 0.8661543 1.0062088
-0.8137081 0.40000135 0.00393056 0.46223193 -0.1956154 -0.031850044 1.801623 1.4612491
0.7249347 -0.35706207 -1.122993 -0.42267755 1.203249 -1.5680195 0.07522287 -0.34839505
-0.79469883 -0.5230186 0.07249379 -0.27375546 0.20625359 -0.8055234 0.036612436 0.3208729
-0.3936171 0.7391088 -0.0074469512 -0.2607342 -0.2551936 0.34267876 1.7433627 -0.7998739
-0.4715765 -0.111876756 -1.0454189 -0.9221488 0.06400983 -0.7456628 0.25188795 -0.669225
0.04072954 0.039707184 -0.3890676 0.5412093 0.0018739677 -0.08887226 1.8026518 -0.18711655
-0.64185584 0.3592919 0.034393765 -0.0648441 0.4030466 -0.92798704 0.798303 0.21076135
0.27424175 -0.3068021 0.2775663 0.0885367 -0.10944591 0.066034034 0.010429593 -0.07505509
-0.45555547 -0.27556464 -0.4483194 -0.23290138 0.059214633 -0.40159896 -0.17600217 0.93970555
-1.5999209 0.535266 -0.10511573 0.5256289 0.26255396 0.18684733 -0.34450644 -0.19237494
-0.0059929024 -0.19276942 1.2717654 0.8333432 0.58023554 0.46836808 -0.33296022 0.89645517
-0.041237224 0.0888704 -0.23347558 0.37361383 0.00017476619 -0.2358296 0.11416857 0.4561006
2.1231248 2.2654455 0.29072136 0.15341397 0.7236022 0.614949 -0.6362802 -0.2688997
-0.14309335 0.38098392 -0.16132946 0.38163683 1.0588944 2.064042 0.3378685 -0.1587858
0.11541964 0.07629246 -0.28098622 0.07226592 0.003197435 -0.27933496 0.6835684 -0.33964556
1.410295 1.4818786 0.1683888 -1.1246253 0.4008877 0.1150378 -0.9306028 -1.1485672
0.1667635 -0.92964834 -1.7613949 -0.4791193 0.09413905 -0.3078332 0.220714 -1.2482507
-0.5157643 -0.31519705 1.9811119 -0.6482426 -0.47439918 -0.15621647 0.04357879 -0.32498446
1.7038652 -0.37112316 -0.4009699 -0.08146889 -0.39184156 -1.0508596 0.84799314 0.94780326
-0.0879972 -0.3541916 1.4118434 0.349602 -0.6060203 -0.08565619 0.0044636047 -0.6606041
0.32495075 0.1239207 -0.3116522 -0.021808809 -0.006255357 -0.32387352 0.7684749 1.1052572
-0.9258931 0.692043 -0.04797173 0.31082878 -1.0458885 -0.469844 -0.23264945 -1.878579
0.013955596 -0.26079208 0.041014966 0.09214527 -0.21524097 0.07968836 -0.0019499583 -0.24999325
-0.10819669 0.013404476 -0.4279012 0.46666795 0.036665853 -0.21886444 -0.16397622 0.3273887
-0.7631545 0.21554245 -0.008407852 -0.07192341 -1.2903724 0.40810904 1.5196482 0.16166349
0.45106724 -0.18542568 -0.22393663 1.0239506 0.14736502 -0.041971717 -0.15005581 0.65432113
0.29273388 1.4573836 -0.28510866 -0.11623344 -0.3938317 0.6751959 0.42239878 0.41348416
2.1113584 0.4743895 0.5092602 0.5468391 0.13647234 -0.10846439 -0.2496929 0.046265192

reward_fun.0.bias f4 [200]
00000000: 3307 09c0 4ae5 5dbf 5970 55bf bb6b cfbe
00000010: 2ed1 bdbf 8d55 c7bf 051e 8fbf bd3d 29bf
00000020: b94f b7be c7ef bbbf 7bdd d0bf 1f4b 10bf
00000030: 0b86 48bf 49ec 94bf a65e bebf e46a 20bf
00000040: 4349 58bf 5291 9bbf ac0b 88bf 92c4 babf
00000050: e719 41bf 8411 9bbc 4c81 7bbf 1b91 b6bf
00000060: bdf5 27bf d4c4 fe3d d466 d6bf 9b69 84bf
00000070: 667e 2fc0 b7f9 fdbf c9be c8bf 29d6 87bf
00000080: b5f6 29bf f7e9 0fc0 155a 8ebf 8dea 1dbf
00000090: 44b9 77bf 1e06 96bf 025f 74bf 4615 dbbf
000000a0: d9dc f0bf dc62 c6bf 58bd 21bf 837e edbf
000000b0: 788c 71bf addd 36bf 905a eabe 63ee 76bf
000000c0: a07f c2bf c826 d3be 6c28 b1be df68 a5bf
000000d0: fa7f 79bf 3331 933e d284 59bf b538 84bf
000000e0: dbf9 14bf 9c14 3abf e051 86bf 5e43 9bbf
000000f0: 8799 a4bf de3f 01c0 7a7b f9be 5f0e 0fbf
00000100: 1f5e 96be d542 83bf a5c3 e8be c05f 94be
00000110: 8770 c53e 6e6f 95bd 815e 6fbf 5085 acbf
00000120: 24d8 38bf 7331 063f 8403 91bf 57f4 aabe
00000130: 5d71 85bf 9576 bbbf da5e 4fbf 6e99 00c0
00000140: 1200 b5bf e9ed 29c0 c62c a1bf e0ad 0c3f
00000150: 5e83 c4bf 9493 3cbf 8ba8 14bf 0601 a2be
00000160: 017f 99bf 73e1 a3bf 7087 26bf 7384 dabf
00000170: 7984 bcbf ca62 7abf bf46 183f 45d7 32bf
00000180: 5640 bfbf 0628 74bf 1305 7ebf f1c2 8dbf
00000190: f9c4 1cbf 1ff8 fbbf 351a efbe 8778 d6bf
000001a0: 5704 58bf efcc c0bf 16f5 f2bf 7ac2 83bf
000001b0: d314 63bf 24c9 49bf af3b fcbf a2b4 5abf
000001c0: 0879 80bf 28d7 c9bf bfa2 ccbe f4fa 0cc0
000001d0: cac6 8ebf 0401 cbbe 63a3 81bf 4176 7bbf
000001e0: 2b04 5bbf a622 acbf 81e5 07c0 854f fbbf
000001f0: f6f7 6fbf 6179 97bf 68db 64bf e18e 66bf
00000200: e057 b5bf 7aca 3ebf 1964 e1be d18f 7dbf
00000210: 3ea9 75bf 20b4 2abf d9a2 67be 0499 d9bf
00000220: 9fd5 8bbf bc36 8fbf 3bb6 63bf 9467 75bf
00000230: 3c63 ecbf ee2d b8be a1fa 05c0 0d2f 93bf
00000240: 035b 81bf ccca f2bf 9eec 53bf 9cd5 45bf
00000250: f3ce 0fc0 8ed0 4ebf c745 d03e 5f90 e1be
00000260: 9854 0abf e24c c4bf d384 febf 8ecc 78bf
00000270: 92c1 b5bf 5a70 61bf 6019 26bf a5a8 78bf
00000280: 3d90 2cbf c471 d3bf 60ad a9bf aa39 90bf
00000290: c85f d4bf ec75 babf ac1e dabf 1a1e 0fc0
000002a0: 48d8 8dbf 7651 59bf 1427 ab3d b3c1 fbbf
000002b0: f962 63bf fba7 0dbd 56e5 0dc0 c5f4 453d
000002c0: 47e9 d9bf 5695 25bf 92ef 98bf 42c3 85bf
000002d0: 6bb0 9fbf 37eb 15bf 3750 85bf d46a fbbe
000002e0: 96c1 43bf 7a72 b2bf bde9 08bf 908d 2ebf
000002f0: d6cd 2fbf d447 9ebe 21a1 02c0 1aa6 8ebf
00000300: 40a9 d1bd 3912 8cbf c219 5dbf 0b6e 92be
00000310: 61bd 5abf 0491 56bf 887f 67bf c029 28bf
-2.1410644 -0.8667799 -0.83374554 -0.4051188 -1.4829462 -1.5572983 -1.1181036 -0.6610983
-0.3580301 -1.4682549 -1.631759 -0.56364626 -0.78329533 -1.1634609 -1.4872634 -0.626631
-0.8448679 -1.2153723 -1.0628562 -1.4591238 -0.7543015 -0.01892925 -0.98244166 -1.4263033
-0.6560934 0.12439886 -1.6750131 -1.0344728 -2.7420897 -1.9841832 -1.5683223 -1.0612231
-0.6639207 -2.248655 -1.1121241 -0.6168602 -0.9676707 -1.1720617 -0.9545747 -1.7115867
-1.8817397 -1.549892 -0.6317954 -1.8554233 -0.94354963 -0.71432 -0.4577222 -0.964575
-1.5195198 -0.41240525 -0.34601152 -1.2922629 -0.974609 0.28748474 -0.8496829 -1.0329806
-0.5819375 -0.726877 -1.0493736 -1.2129934 -1.2859353 -2.0195231 -0.48727018 -0.55881304
-0.29368684 -1.025477 -0.45461765 -0.289793 0.38562414 -0.07296644 -0.93503577 -1.3478184
-0.72204804 0.52419204 -1.1329198 -0.33389542 -1.0425221 -1.4645563 -0.81004107 -2.0093646
-1.4140646 -2.655146 -1.2591789 0.5495281 -1.535259 -0.73662686 -0.58069676 -0.31641406
-1.1991884 -1.2803177 -0.6505041 -1.707167 -1.4727927 -0.9780699 0.5948295 -0.69859725
-1.4941509 -0.9537357 -0.9922649 -1.1075116 -0.61238056 -1.9685096 -0.46699682 -1.6755532
-0.8438162 -1.5062541 -1.8981044 -1.0293725 -0.8870365 -0.7882254 -1.9705714 -0.85431874
-1.0036936 -1.5768785 -0.39967915 -2.202817 -1.1154416 -0.39649212 -1.0127987 -0.98227316
-0.85553235 -1.3448074 -2.1233828 -1.9633642 -0.93737733 -1.1833917 -0.8939729 -0.90061766
-1.4167442 -0.74527705 -0.4402168 -0.9904757 -0.9596137 -0.666811 -0.22620715 -1.6999822
-1.0924567 -1.1188579 -0.88949937 -0.9586117 -1.8467784 -0.35972542 -2.0934222 -1.1498734
-1.01059 -1.8968139 -0.82782924 -0.7727907 -2.2470062 -0.8078698 0.40678236 -0.4405546
-0.5403533 -1.5335963 -1.9884285 -0.97187126 -1.4199698 -0.8806206 -0.6488247 -0.9713233
-0.6740759 -1.6519094 -1.3256035 -1.1267598 -1.659173 -1.4567237 -1.704061 -2.2362123
-1.1081629 -0.84889925 0.08357063 -1.9668487 -0.88822895 -0.034584027 -2.2171226 0.048329134
-1.7024316 -0.64680994 -1.1948111 -1.0450213 -1.2475713 -0.58562034 -1.0415105 -0.4910494
-0.76467264 -1.3941185 -0.53481656 -0.6818476 -0.68673456 -0.30914176 -2.0410845 -1.114444
-0.1023736 -1.0943061 -0.8636743 -0.2859958 -0.8544522 -0.83815026 -0.9042897 -0.65688705

reward_fun.2.weight f4 [200, 200]
00000000: 2c7b fa3e a993 6fbf 76c7 bb3d 4b6c 5c3d
00000010: 967d 373f eb4d 38bf c38e 763f 3aae 17c0
00000020: 6207 093f 5fcc 803e b92f 59be ea9c 8abe
00000030: 9c1d 0dbe 193c 6c3f fc30 c93e 5f31 56be
00000040: 0d64 e03c 6fa9 e6be 5161 98be 6829 343d
00000050: 2191 183e 3204 33be 0a38 55bf 206e 073f
00000060: de91 92be db48 073d 81f1 33be 9a86 f23f
00000070: e89e 67c0 c0d0 9ebf fd14 e03f 90fe 35bf
00000080: 223e 82be 173b 11be 78a7 f93e 6a3d 15be
00000090: f06b 713d 4abf cabe e0f6 0b3f 4a8c 51bf
000000a0: 2a3b 69bf d38e ed3e fb5e cfbd 531c 163f
000000b0: f37c 85be e78f 833d c385 213d 8a3c 12c0
000000c0: 9f53 6dbf 6c21 2dbf 1fec dd3d f550 74bd
000000d0: cfa9 3bbe 721d 593e 8c58 8c3d 052e 133f
000000e0: 9b84 a8be ba85 a03c 1e2c 12bf a678 03bf
000000f0: 878d 693f 3c98 24c0 df86 89bf e4b9 fbbe
00000100: 0e72 10be 8d3e 743e 5783 f53d c8aa 5a3e
00000110: fb3c 5e3f 0a9b 253f a31b 2a3e 6358 9cbf
00000120: 5341 dbbd b037 293e b31f d33c 1fc6 133f
00000130: f525 8bbf c926 653d bb34 6bbf 2314 8abf
00000140: 4737 563f 6a7e 88c0 b53d a2be 68e3 193f
00000150: 5343 c03e 5625 aabe 022e 9ebf 3701 7b3e
00000160: 8d84 0fc0 e8da 1dbe e6fa afbe dda6 c23e
00000170: b4a8 8abf ce04 4d3e c301 a3be f385 30bf
00000180: 15a9 013f 38cf 8bbe 285d 0dbf e442 5e3e
00000190: 205d 9e3d 5841 433f 24bb 823c 2e45 d1bf
000001a0: bcf9 f5be 1f57 1a3f f772 b2c0 1e31 0bbf
000001b0: 8dd2 203f 377d d03e 33a7 25bf 82d2 8abe
000001c0: 81a7 54be 585d 0b3e 4626 a9bd be7d 40c0
000001d0: acdc f6be 5279 19bf c847 37bf 7979 6ebe
000001e0: c9de 383e c690 9cbe e068 ebbf a596 b2be
000001f0: 3828 743d b95c 86be 650b f3bd c5d6 1fbf
00000200: 003c dbbd a0be c7bd 6f65 0f3f 4c71 ebbe
00000210: 12d3 463e 2551 02bd baed 65bf c8d5 bd3e
00000220: 49a9 b23e 72cf e3be 32ea 33be 3421 80be
00000230: b414 ea3e 6c6c 723c a3e0 bb3d 08e0 cbbb
00000240: 5322 7bbf 8bf1 18c0 fc28 1cbe 9f2f 2e3c
00000250: 50fd e73e e864 28bf 03da cb3e dda4 92bd
00000260: 38c8 8abd ffef df3e c53f c13c 5d03 d3be
00000270: fb2e 07bf 5ea9 af3d fad1 39be 9538 cabe
00000280: c343 d8be 6514 d5be a8e3 5cbf 0fdf d4be
00000290: 694f a33c f585 5a3e 7624 7dbf 1337 b53e
000002a0: 0806 43bf 6a13 763f cb1f 453e f9f4 163d
000002b0: 8b1b f23e 8d50 533d af3c 17bf 472f 4cbe
000002c0: e3f5 e4bf 4359 babe 16c1 d2bd 1506 37be
000002d0: de25 353e bf30 00bf 9ee6 86be 8669 66bf
000002e0: 147d de3b 0505 353f df79 b63d 9b45 17be
000002f0: 1191 e1be 6f55 343f 4421 09c0 06c0 fabe
00000300: 1bd0 263f 837f 08c0 dcf6 b13d d02c 92bf
00000310: a701 1d3f dea6 52be 36c1 393e 0cf9 6bbf
00000320: 8e51 e33e 5f11 afbf 7900 293d 0091 abbe
00000330: 1e2e f73d 3b00 193e 2468 08bf 595a 063f
00000340: 3fdf 4fbf c89a ddbd 9cca b53e 8563 4cbe
00000350: 1048 9abd 19be cdbd 47d2 68bd 3383 963e
00000360: d031 c13e 663d 9abe 33f7 eebd 56ec 94be
00000370: 5ebe fabe 5052 03c0 ecea 3bbe 4c85 0f3e
00000380: ea94 2a3d 6aa7 49be 4981 1b3f 31c3 30bf
00000390: fca7 513e 75ac 1d3f e2e2 1fbf d15e 18bf
000003a0: d4db 41bf 7583 bebd 468b c83d a462 e23c
000003b0: d18a 8fbe 7184 16bd 9d70 f6bf 8831 113d
000003c0: 6f6d b4be 8565 50bc 34f1 a23e 77b9 e9bf
000003d0: 3224 293d f191 bebe 41e7 06bd 06fa 253f
000003e0: ba5b 593f e57b 6bbf d5ea 61be 2a23 6ebf
000003f0: 3f5c bc3c 78cf d2be 6a2c d9be b470 e5bd
0.48922098 -0.93584687 0.091689035 0.053814214 0.71676004 -0.71993893 0.9631159 -2.370009
0.5352689 0.25155923 -0.21209611 -0.2707284 -0.13780826 0.922792 0.39295185 -0.20917271
0.027391458 -0.45051143 -0.29761747 0.0439848 0.14899112 -0.17482069 -0.83288634 0.5290241
-0.28626913 0.033028465 -0.17572595 1.8947327 -3.6190739 -1.2407455 1.7506405 -0.71091557
-0.2543803 -0.14182697 0.4876058 -0.14574209 0.058940828 -0.39599067 0.54673576 -0.8185469
-0.911059 0.4639803 -0.10125538 0.5863697 -0.2607189 0.064239316 0.039434206 -2.284945
-0.9270572 -0.6762912 0.10836052 -0.05964752 -0.18326496 0.21202639 0.068528265 0.57492095
-0.3291367 0.019595016 -0.5709857 -0.5135597 0.9123158 -2.5717916 -1.0744284 -0.4916526
-0.14106008 0.23851986 0.11987942 0.2135421 0.868118 0.64689696 0.16612105 -1.2214473
-0.10705819 0.1652515 0.025771951 0.57724184 -1.0870959 0.05594519 -0.91877335 -1.0787395
0.83678097 -4.2654314 -0.31687704 0.6011262 0.37551364 -0.3323161 -1.235779 0.24512182
-2.2424653 -0.15415537 -0.34371108 0.38017932 -1.0832734 0.20021364 -0.31837282 -0.6895439
0.50648624 -0.27306533 -0.5522027 0.21705204 0.07732606 0.7627158 0.015958376 -1.6349237
-0.48042095 0.60289186 -5.576534 -0.5437182 0.62821275 0.4072053 -0.6470825 -0.2711373
-0.20767023 0.13609827 -0.08259253 -3.0076747 -0.48215234 -0.59950745 -0.71593904 -0.23288526
0.18053736 -0.30579203 -1.839138 -0.34880558 0.059608668 -0.26242617 -0.11867408 -0.6243709
-0.107048035 -0.09753156 0.5601415 -0.45984876 0.19416454 -0.031815667 -0.89815867 0.37077165
0.3489478 -0.44494206 -0.17569807 -0.25025332 0.4571892 0.014796358 0.091737054 -0.006221775
-0.9809925 -2.3897426 -0.1525001 0.010631471 0.4531045 -0.6577897 0.39814767 -0.071603514
-0.0677647 0.4373779 0.023589978 -0.41213503 -0.5280606 0.08577226 -0.18146506 -0.39496294
-0.42239198 -0.41617122 -0.86284876 -0.4157643 0.019935327 0.21340163 -0.9888376 0.3539358
-0.7618108 0.96123374 0.1925041 0.036854718 0.4728664 0.05159049 -0.5907697 -0.1993991
-1.7887539 -0.36396226 -0.102907345 -0.17873414 0.17690226 -0.5007438 -0.26347822 -0.90004766
0.006789813 0.70710784 0.08909964 -0.14772646 -0.4405599 0.7044286 -2.1426554 -0.48974627
0.65161294 -2.1327827 0.08689663 -1.1419926 0.61330646 -0.20571467 0.1814011 -0.9217689
0.4439816 -1.3677176 0.041260216 -0.33509064 0.12069343 0.14941494 -0.53283906 0.5248161
-0.8120002 -0.10820538 0.3550614 -0.19959839 -0.07533276 -0.10046024 -0.05684116 0.29396972
0.37733316 -0.30124968 -0.11668243 -0.2908656 -0.48973364 -2.051899 -0.18351334 0.14015692
0.04164592 -0.1969277 0.6074415 -0.6904784 0.20474237 0.61591274 -0.6245557 -0.5951968
-0.75726056 -0.09302417 0.09792189 0.027634926 -0.28035596 -0.0367474 -1.9253117 0.035447627
-0.3523974 -0.012719517 0.31824648 -1.8259724 0.041294284 -0.3722072 -0.032935385 0.6483463
0.8490559 -0.91985923 -0.22062238 -0.93022406 0.022993205 -0.4117391 -0.42416698 -0.11203137

reward_fun.2.bias f4 [200]
00000000: e4f8 dc3e dd39 b6be c9da a43e dda1 0cbe
00000010: dee4 96be b725 45be 473e dbbc 6888 a73d
00000020: e2f1 7abd 1c9d 98bd 6960 2c3f 1ec6 90bd
00000030: 42ef 94be 3ebc 57be 60d9 eabd 8687 65bf
00000040: c462 4cbd 2410 e63d 3db5 2bbe 215c b8bd
00000050: 2c6d efbb d7fc a3bd 7621 aa3e 6e28 07be
00000060: 25b6 62bd 6c47 35be 79db 76bd 6bf3 6a3f
00000070: c5e1 4c3d e87c 87be f9ce 05bf ef23 3fbf
00000080: 5d0f 8c3d 26ae 15bf 0a59 513f 4818 01be
00000090: 3c41 e9bc 4ad8 b9bb fa7c 6dbe 33aa 04bd
000000a0: a79a 07bd a567 59be 2e76 9dbe 7369 d8bd
000000b0: e7f2 9cbd e5eb 2a3f 1c46 673e be81 633e
000000c0: aae0 a73e 8341 c0be 1fac b0bc e80e 4abc
000000d0: 16f4 9d3d 4449 e4bd 070b d0ba 47f0 2fbe
000000e0: 1ab0 613f 0ae7 81bd 07ed 4b3f 0a30 e1bd
000000f0: 5055 03be 0a81 013d 482f 7b3f 2d97 c1bd
00000100: 9df8 abbd 8ed6 31be 513b b63e 806c b33c
00000110: 076b 41bd d8c9 ac3d 67ac 103e 7093 173e
00000120: 9929 7c3f 1204 313e a948 09bd 838b 7dbd
00000130: 658b eb3b aa56 26be 1265 69bd d307 78bb
00000140: 6b6c 213f de61 00bd 431b 13be 2866 e5be
00000150: 3141 8d3d 5b58 1fbd 4064 283f 6f20 c0be
00000160: 684d 97bd 3e79 843c 1d70 22bd a327 5c3c
00000170: d839 e63e 709f bbbe d70d df3c 6d6e 96bd
00000180: 2e8e d0bc 72eb 533e 37a0 fabe fdfa 05bd
00000190: df8d 3cbe 48d2 3b3e d75f 93bc 41be 06bf
000001a0: 510b cbbc a318 a7bd 0af5 4d3d 53c7 03bf
000001b0: d3f9 8ebe c1ce b6bd 1874 2bbe 5f96 a7bd
000001c0: 82ba a8bd 0671 16be 0980 6a3e 419a 83bd
000001d0: 6362 893e b654 8d3e 3546 66bd 0b36 c1bd
000001e0: 2829 0ebd 4d97 11bf f957 393f aad3 e13e
000001f0: 664a 9b3c cff7 b73c bebf 05bf cd06 cebc
00000200: 6c57 7dbe f072 30be 02ad acbd 1500 41be
00000210: 5e99 05bd 373c ba3d 7634 4cbd ab54 ac3f
00000220: 7a0d 07be 1121 9bbe 38e0 b13e 3076 8dbe
00000230: cdea 133e 8b2c c9bc 4348 0cbd 7cb6 ecbd
00000240: 3ea7 0f3f 7692 9fbd f60b 2ebe 8c6a d2be
00000250: 6462 423e b41e 9bbe ffb2 0b3e 97a6 aabc
00000260: 0df7 713d 2c9a a53f 9f18 2c3f 9f9e d13b
00000270: a65a 8f3e 4023 93bc 2d67 85bd bf0f d2bd
00000280: da60 6ebc 8867 34bc 5a65 453e 6ba0 37be
00000290: d8c0 babe d6de a7bc 50eb c7bd 2a89 a63c
000002a0: cad0 8dbd ad98 093f ac38 ce3c 2e6e aabe
000002b0: 741e d2bd c717 1ebd 8b6d d3bc cba2 f73c
000002c0: 5a45 0dbf 0bdf b1bd a1da bcbc 10f5 833d
000002d0: 7282 15bd c6a9 47bc 2334 70bf bf95 043b
000002e0: a469 aebd 278c 09bc 6d93 2ebf 3233 21bd
000002f0: e8f6 34bd a295 12bf 760e 81bd 4028 b0bd
00000300: 39f7 003f d80d 943e 9edc 883e a322 6ebd
00000310: 6411 fabe 1ed6 37bb 9fe9 163d d372 683c
0.43158638 -0.3559102 0.3219817 -0.13733621 -0.29471487 -0.19252668 -0.026763095 0.08180314
-0.061265834 -0.07451841 0.6733461 -0.07069038 -0.2908879 -0.21067902 -0.11467242 -0.8965992
-0.049898878 0.11233547 -0.16768356 -0.09001947 -0.0073067155 -0.0800721 0.33228654 -0.13199016
-0.055349488 -0.17703027 -0.0602679 0.91777676 0.050019998 -0.26462483 -0.5226894 -0.74664205
0.06838868 -0.58468854 0.8177649 -0.12606919 -0.028473489 -0.0056715356 -0.23192206 -0.032388877
-0.033106472 -0.21230944 -0.30754226 -0.10566988 -0.076635174 0.66766196 0.22585338 0.22217461
0.32788593 -0.3754998 -0.021566449 -0.0123326555 0.07712571 -0.11146787 -0.0015872427 -0.17181502
0.88159335 -0.06342895 0.7965855 -0.10995491 -0.12825513 0.031617202 0.9811902 -0.094526626
-0.083970286 -0.17367002 0.3559213 0.021902323 -0.04722121 0.08436936 0.14128266 0.14802337
0.98500973 0.17286709 -0.03351656 -0.061900627 0.007188248 -0.16243997 -0.056981154 -0.003784646
0.6305606 -0.031343333 -0.14365868 -0.44804502 0.068972 -0.03890262 0.6577797 -0.37524745
-0.07387811 0.016171094 -0.0396577 0.0134371845 0.44966006 -0.3664508 0.027228279 -0.07345281
-0.025458422 0.20695284 -0.4895036 -0.032710064 -0.18413495 0.18341935 -0.017990036 -0.52634054
-0.02478567 -0.08158996 0.050282516 -0.5147602 -0.27924976 -0.08926154 -0.16743505 -0.08182978
-0.082386985 -0.14691553 0.22900404 -0.06425906 0.26832876 0.27603692 -0.0562193 -0.09434136
-0.03470722 -0.5687149 0.7239986 0.441068 0.018956374 0.022457032 -0.522457 -0.025149727
-0.2474038 -0.17231345 -0.08431436 -0.18847688 -0.032616965 0.09093516 -0.04985472 1.3463339
-0.13188735 -0.30298665 0.34741378 -0.27629232 0.14445038 -0.024557373 -0.0342486 -0.11558244
0.56114566 -0.07791607 -0.1699675 -0.41096914 0.18982846 -0.30296862 0.136425 -0.02083139
0.059073497 1.2937675 0.6722507 0.006397083 0.27998847 -0.017961144 -0.0651382 -0.102569096
-0.014549458 -0.011011012 0.19276944 -0.17932288 -0.36475253 -0.020491999 -0.09761679 0.020329077
-0.06924589 0.5374859 0.025173508 -0.33287185 -0.10259715 -0.038596895 -0.02580907 0.030228993
-0.5518395 -0.0868512 -0.02305347 0.06443226 -0.036501355 -0.012186473 -0.93829554 0.0020230857
-0.08516243 -0.008395231 -0.68193704 -0.039355464 -0.04418078 -0.5725957 -0.06301586 -0.08601427
0.5037723 0.28916812 0.26730818 -0.0581385 -0.48841393 -0.0028051208 0.036843892 0.0141875325

reward_fun.4.weight f4 [1, 200]
00000000: cfaf 523e b2d6 d2be 8dac 13be 43c5 da3c
00000010: e45d 5c3d 8240 083d cc79 493d e105 0b3d
00000020: a04c 513d ff38 8a3b 0e33 5e3e e0a4 98bd
00000030: 9b4c 84be 8133 10bc 2664 f33b dafd c03e
00000040: eb8e d6bb 603c a63d 5074 c53d ff4d 2a3c
00000050: 713d a0bc 89d0 b0bd 870f b73e 233a 49bc
00000060: 1eae 333c f546 a13d 0384 ddbb 3cd1 7fbe
00000070: 72fb ba3d 7851 92bd dc7b b03e acc0 393e
00000080: 518d dc3c 7127 3c3f 7091 b6bd 96a1 4e3d
00000090: 0df2 53bb c206 8b3c 17df 653d c7cd 633c
000000a0: 8350 a9bc a55c 9d3d 430c dcbf ff4e 2fba
000000b0: 428b 323c 68ea c1bd 7860 64bf 86c1 87be
000000c0: a64f 46be 03c4 dabe 2350 b93d 5d85 263d
000000d0: b062 283e 88a0 853d 3fc7 debb 7b80 0abd
000000e0: bcd9 48be 8194 90bb 22af e4be 787a 28bf
000000f0: 8a34 95bd c0f7 373d b401 1f3f d30c e03c
00000100: a167 82bc cc69 713b b48c d4bd 43e5 18bf
00000110: 3ee0 6ebc dfc0 9d3d 55b1 20bf 07d6 f53e
00000120: eed8 2fbe f9bd 25be 295c 42be 17a7 293e
00000130: de06 1fbd b1c1 aa3d bf5f 02bc c422 873c
00000140: 6c9d bdbe 0457 2e3d a8ed 4fbd ed52 913e
00000150: 10ea 02bc f278 393c 7778 b6bf f8fb adbb
00000160: 54e8 743d cecb 3f3b 94d9 b3bc 7327 2a3d
00000170: 311f 24be a3e7 2d3d cf01 90ba e309 7cbc
00000180: 52ab ba3c b32d 473e 8c04 113d 8be9 91bc
00000190: 8f42 c1bc 5baa 21be 3261 3cbd 12bd 70bc
000001a0: d3f1 b63c b4e1 88bd 4cc5 a93d 71fd 103e
000001b0: 470d 67be 7edc 9fbc e902 02bd a7a3 80bc
000001c0: 5fb0 06bc 3a20 1dbc 24e5 083f e880 193d
000001d0: 57a6 7c3e 3a7e 26bd c125 93bd fe2c 523c
000001e0: 5cf4 8fbc a08c 633d 7cfa 8dbe a602 27be
000001f0: 7e01 af3e 49f0 b4bb 8f63 4fbd 1d50 0a3d
00000200: 0e69 793e f926 afbd d55c 89bb 5ea6 e9bd
00000210: f535 15bb ad99 8ebc cea3 90bc c6dd 883e
00000220: f362 d43c 20ac 60be 142b 17be b58e 3a3e
00000230: d80f 603d 9a74 093e 1a17 183d 0734 c0bc
00000240: 7675 d0bf 8bf7 7abd b74b 0f3e 51f1 4fbd
00000250: 85d5 39be 2862 c4bc 4e67 d23d 65f8 a43c
00000260: d68b 3bbc 9dfe cebe d34a 11bf cde9 153d
00000270: f074 33bd ac8e 3f3d 7ab1 513c 0234 0b3d
00000280: 72ae eb3c 8831 b43e 9dd8 31be 82b3 52bc
00000290: aaf7 103d 7da6 6b3b ffd6 b23c 0dd3 29bc
000002a0: eb7a 263c 28b1 cebf b85c 073e c112 bb3d
000002b0: fe19 493d d5ed 353d 9d59 183d 90e9 9dbc
000002c0: f37a dc3b c365 a53d 1ff3 643d 4017 5ebe
000002d0: 1068 2cbb 0500 b93b 7c0d d6be cbe4 d53c
000002e0: 8698 53bb 3f63 ce3b 3452 3c3e d01f 783d
000002f0: 5132 573c 00b2 ad3e 1df3 28bd bc37 b33c
00000300: f52e f13e d17a 803b 8fd1 ccbe 8469 403d
00000310: 7eb8 47bf 7cad 6abb ef75 de3c 4c0d 8abc
0.20574878 -0.41179425 -0.14421292 0.02670539 0.05380048 0.033264644 0.04918842 0.033941153
0.051098466 0.0042182202 0.21699163 -0.074533224 -0.25839695 -0.008801342 0.00742771 0.37693673
-0.006547799 0.08116984 0.096413255 0.010394572 -0.019560548 -0.08633525 0.35754034 -0.012281927
0.010966806 0.07874862 -0.006760122 -0.2498216 0.09129991 -0.07144445 0.34469497 0.18139905
0.026922854 0.7349768 -0.08914459 0.05044707 -0.0032340318 0.016970996 0.05612096 0.013904042
-0.020668274 0.07683686 -1.7191242 -0.00066874916 0.010897459 -0.094685376 -0.892097 -0.26514834
-0.19366321 -0.4272767 0.09048488 0.04065453 0.16443896 0.065247595 -0.0067986543 -0.033813935
-0.19614309 -0.0044122343 -0.44664866 -0.6581187 -0.07285412 0.044914007 0.62111974 0.027349865
-0.015918555 0.0036836741 -0.103783995 -0.59724826 -0.014579831 0.07702803 -0.6277059 0.48014852
-0.17172596 -0.1618575 -0.18980469 0.16567646 -0.03882491 0.08337725 -0.007957398 0.01649607
-0.37034166 0.042563453 -0.050763756 0.2838358 -0.007990375 0.0113203395 -1.4255513 -0.005309578
0.059791878 0.0029265764 -0.021954335 0.041541528 -0.16027524 0.042457234 -0.0010986867 -0.015383217
0.02278677 0.19451027 0.035404727 -0.017811557 -0.023591308 -0.15787642 -0.04599113 -0.014693515
0.022332108 -0.066836745 0.082895845 0.1415918 -0.22563659 -0.019514319 -0.031741057 -0.015703036
-0.008220761 -0.009590203 0.5347464 0.03747645 0.24672829 -0.040647723 -0.07184935 0.01282811
-0.017572574 0.055554032 -0.27730167 -0.16309604 0.34180826 -0.0055218083 -0.050632056 0.03376781
0.24356481 -0.08552355 -0.0041919746 -0.11408685 -0.0022767757 -0.017407263 -0.017656233 0.267317
0.025926089 -0.2194066 -0.14762527 0.18218501 0.05470261 0.13423386 0.037131406 -0.023462309
-1.6285846 -0.06127123 0.13993727 -0.050767247 -0.18147857 -0.023972586 0.1027361 0.020137975
-0.011446914 -0.4042863 -0.567548 0.036599923 -0.043812692 0.046766922 0.012798661 0.033985145
0.028769705 0.3519404 -0.17367788 -0.012860181 0.03539244 0.003595739 0.021831034 -0.01036526
0.010161142 -1.6147814 0.13218963 0.091344364 0.049097054 0.044416267 0.037194837 -0.01927641
0.006728524 0.0807605 0.05589592 -0.21688557 -0.0026307143 0.0056457543 -0.41807163 0.026110074
-0.0032286956 0.006298452 0.18390733 0.060577214 0.013134555 0.33924866 -0.041247476 0.021877162
0.47106138 0.003920891 -0.4000363 0.046975628 -0.7801589 -0.003580897 0.027155844 -0.016852044
