HybridLearning-master/data/hlt_stoch/InvertedPendulumBulletEnv/seed_666/model_3000.pt (torch, 180898 bytes, 10 tensors)

log_std f4 [1, 5]
000000 9e a1 96 c0 06 61 07 c0 5b e5 94 c0 36 11 8f c0
       -4.7072287 -2.1152968 -4.6529975 -4.470851
000010 72 3e ac bf
       -1.3456557

mu.0.weight f4 [200, 6]
000000 45 3d 89 3e 42 65 57 bd 33 5a f6 be 5b 77 2a bf
       0.26804557 -0.0525868 -0.48115692 -0.6658837
000010 03 81 c9 bd fe 61 58 bf 5d 15 7f bb 27 85 8c be
       -0.0983906 -0.84524524 -0.0038922646 -0.27445337
000020 49 8e 98 3d 96 79 60 bf 2b d3 05 be c6 f5 86 3c
       0.07449014 -0.87685525 -0.13068835 0.016474616
000030 8e 3b 76 3e ad 85 3b be 01 a1 37 3e bb 93 2d 3f
       0.24046156 -0.18312712 0.17932512 0.67803544
000040 85 19 a8 3a 6a 94 14 bf 01 5c 43 3e d3 00 2b be
       0.0012824988 -0.5803896 0.19078065 -0.16699533
000050 f9 98 b3 bf de 1c 1a 3f a8 e4 ee bb 07 69 9a 3e
       -1.4031059 0.602003 -0.0072904415 0.30158255
000060 48 81 d1 bd 9a 7c 46 3d 57 ee 6b 3e 7e 36 7c bf
       -0.102297366 0.048458673 0.23040138 -0.9852065
000070 43 ff 0b be 20 7b 8d 3e 4c 53 9e bf f1 b0 af 3e
       -0.13671593 0.27633 -1.236917 0.34314683
000080 a3 51 65 be 5e fb e9 be c4 c6 10 3f d9 5b b7 3e
       -0.22394423 -0.4569959 0.5655329 0.35812262
000090 7a 95 26 3f 4e 24 92 3e 1c e4 83 be f9 49 7f bf
       0.65071833 0.28543323 -0.2575997 -0.9972225
0000a0 27 58 6e 3e 3b 2b 94 3f 7e 2a 8e be 04 c4 4f be
       0.23275815 1.1575693 -0.27766794 -0.20289618
0000b0 af 41 d6 3d a0 f9 26 3d 40 a9 c5 ba 65 81 32 bd
       0.10461747 0.040765405 -0.0015080348 -0.04358043
0000c0 ef 65 74 3b 73 2a 35 bb 8d ce c8 ba 65 db 5e bb
       0.0037292202 -0.002764371 -0.0015320346 -0.003400528
0000d0 d3 d8 ec 39 db d1 7a bb e5 94 0b 3e 49 fc 0a 3d
       0.00045174974 -0.0038272056 0.13631018 0.033932004
0000e0 8f 64 8b 3d ef 5b 62 3f 2d 6f 0b be dc b0 59 be
       0.068062894 0.8842153 -0.13616629 -0.21258873
0000f0 0b 8e cd b9 4d bd 51 3a ac bf 8f b8 31 ae af 39
       -0.00039206477 0.00080009253 -6.854473e-05 0.00033508384
000100 91 2d 4e 38 b6 07 85 ba ce 98 a1 a9 2b 21 3f 2d
       4.9156664e-05 -0.0010149393 -7.176344e-14 1.0864458e-11
000110 5a 72 4d 2c 1b 72 aa 2c 3a bd 1d aa d0 bc 44 2c
       2.919573e-12 4.844359e-12 -1.4010052e-13 2.7958087e-12
000120 de 24 2a 3e 4b 3b 31 3e c0 6d ec be 10 37 0c bf
       0.16615626 0.17307775 -0.46177483 -0.5477152
000130 c5 f1 e1 bd f9 37 ac be a6 e9 95 be 6d d2 9f 3c
       -0.11032442 -0.33636454 -0.29279822 0.019509519
000140 e1 51 82 bd 53 e3 da bd e1 18 65 3c 69 9a f3 3c
       -0.063632734 -0.1068789 0.013982982 0.029736714
000150 69 56 a0 bd bf 66 18 3e 30 00 84 bf 5d a2 01 be
       -0.078289814 0.14882945 -1.0312557 -0.12659593
000160 2e 15 16 3e 01 97 1e be db 38 ee be 54 04 a1 3c
       0.14656517 -0.15487291 -0.46527752 0.019655384
000170 d4 85 93 3e 67 e3 87 3e b5 26 2f be 4b 4e 52 bc
       0.2881304 0.26540682 -0.1710461 -0.012836049
000180 d2 ab a6 be 36 7c 80 3e 98 89 2b bf ae 45 88 bf
       -0.32552963 0.25094765 -0.67006826 -1.0646265
000190 23 49 81 3d 85 4f e9 3e 0a 89 0b b8 f6 11 b5 b9
       0.06312778 0.4556848 -3.326781e-05 -0.00034536392
0001a0 fc bd 80 37 25 be 83 b9 7d ed 15 3a a3 16 3e 3b
       1.5347257e-05 -0.00025127936 0.00057192874 0.0029005192
0001b0 09 f2 d8 3a a5 15 a3 b9 bb 2b d4 38 14 46 c7 3a
       0.0016551624 -0.0003110591 0.00010117093 0.001520338
0001c0 90 30 3a 39 d4 63 b5 39 55 3f d0 bd 56 8b 4b 3e
       0.00017756433 0.00034597388 -0.101683296 0.19877371
0001d0 dc 84 93 be 25 e5 83 bf 36 11 ba 3e e7 18 86 3e
       -0.288123 -1.0304304 0.36341256 0.26190874
0001e0 e3 db 63 bf 88 b6 1b bf b3 f7 d3 bd 18 8e 99 bf
       -0.89007396 -0.60825396 -0.10349979 -1.1996489
0001f0 d8 5b a3 be 65 98 5c 3f 87 ec 80 b7 3b cd 84 b7
       -0.3190601 0.86170036 -1.536893e-05 -1.5831194e-05
000200 05 58 10 b6 8e b2 22 b8 1c 12 05 b6 1b 7c 31 35
       -2.1508906e-06 -3.8790102e-05 -1.9829085e-06 6.6118236e-07
000210 c2 71 18 bf 16 72 b5 3e bb 06 33 be 29 b9 57 be
       -0.5954858 0.35438603 -0.17483036 -0.21066727
000220 6f cb a0 3e c7 2c 56 3e ad 8b 77 b9 7c 57 ff b9
       0.31405208 0.20915519 -0.00023607789 -0.0004870257
000230 f1 e8 c4 b9 a8 95 83 3a 83 b6 45 3a 15 60 46 3b
       -0.00037557588 0.0010039108 0.000754215 0.0030269672
000240 d1 97 83 3e f7 9d ef 3e fe 1f 32 be 79 32 f7 3e
       0.25701764 0.46800205 -0.17395017 0.48280695
000250 08 06 79 bb bd 8a f5 be e8 0d 87 ba 27 0f d5 39
       -0.003799798 -0.4795741 -0.0010303827 0.00040637815
000260 55 ff 20 b8 ff 9f 92 39 e3 43 25 b7 7b b8 2b 3a
       -3.838477e-05 0.00027966496 -9.8505725e-06 0.0006550622
000270 c9 01 72 b9 d4 d6 7d 39 6b 58 70 b9 00 cd 99 3a
       -0.00023079583 0.0002420799 -0.00022921122 0.0011734068
000280 21 43 c8 b8 c1 63 fd 39 35 73 bc b9 4e 54 c9 b9
       -9.549247e-05 0.00048330243 -0.0003594399 -0.0003840052
000290 3a 34 88 39 8d f6 7d b9 f4 ec c0 b8 07 17 c1 39
       0.00025978853 -0.00024219808 -9.1994094e-05 0.00036828985
0002a0 f5 9e 7e 3e 80 be 2d be bc b4 60 be 40 db ea be
       0.24865325 -0.16967201 -0.21943945 -0.458704
0002b0 61 dd 91 bd ce a3 26 be c5 bc 26 bf 33 45 a3 be
       -0.07122303 -0.16273424 -0.6513179 -0.31888732
0002c0 d0 b0 e5 be 27 5c 46 bf e9 7f bf 3e 40 7a 81 3d
       -0.4486146 -0.77484363 0.37402275 0.063221455
0002d0 42 0c c0 37 2f 74 21 b6 62 1b 44 36 d4 ac 53 38
       2.2893892e-05 -2.4058497e-06 2.9222215e-06 5.046728e-05
0002e0 b9 59 07 b6 c8 17 23 b7 09 1a a4 b6 34 bd b0 b7
       -2.0168793e-06 -9.721094e-06 -4.8906118e-06 -2.106894e-05
0002f0 16 1b d4 b6 d9 db b3 b7 e7 f0 e4 36 52 09 d0 37
       -6.3212456e-06 -2.1440837e-05 6.8229742e-06 2.4799872e-05
000300 86 ec 3e bf 11 36 ca be 34 fe 10 3f 77 24 5e 3e
       -0.74579656 -0.39494374 0.56637883 0.21693598
000310 de f3 4c 3e 3a 34 7b 3f 35 c0 87 bf bb 1e ec be
       0.20014903 0.98126566 -1.0605532 -0.46117195
000320 9c 5a 16 bf 42 0f 89 bf d6 04 39 be ec ea 5f bf
       -0.5873201 -1.0707781 -0.18068251 -0.8746784
000330 f3 e6 71 b4 a5 7c e7 33 3e cb a1 b3 37 87 03 34
       -2.2528893e-07 1.07794484e-07 -7.534116e-08 1.2249517e-07
000340 3c b0 8c b3 8d 03 06 35 c8 b2 9c be ad 1f 3c bd
       -6.551315e-08 4.9924057e-07 -0.3060515 -0.045928646
000350 bd 6b 55 be 28 58 01 3f 03 5b f6 be 0b dd 58 3e
       -0.2084188 0.5052514 -0.4811631 0.21178071
000360 1f 3b 83 3e 06 97 cf 3c b1 b1 d6 bd ea d3 06 bf
       0.25631043 0.025340568 -0.10483111 -0.52667105
000370 aa b0 a8 bc 72 cb b0 3d bd 55 52 39 81 ac 25 39
       -0.020592052 0.08632554 0.000200591 0.00015799889
000380 e8 94 73 b6 61 bd 1d 3a 74 b6 7b b6 56 b1 2e 38
       -3.6296497e-06 0.00060172944 -3.7508116e-06 4.164999e-05
000390 47 67 b2 b9 76 c3 70 b8 c4 df 46 37 95 4e 33 ba
       -0.00034027753 -5.7402496e-05 1.1853819e-05 -0.0006840018
0003a0 58 4a f7 37 6d 78 87 b8 a9 54 6d bf 6c c0 2b 3e
       2.9479314e-05 -6.459733e-05 -0.92707306 0.16772622
0003b0 0b 93 8d 3e 09 44 55 3f f0 81 2b 3f 45 39 dd 3d
       0.27651247 0.8330694 0.66995144 0.10801939
0003c0 21 71 3d 3f 04 3f e2 3d e1 53 32 3f ac eb dd be
       0.74000746 0.110471755 0.6965924 -0.43343866
0003d0 a8 7f 2a 3e 36 b5 fd bd 1a 9a e9 3e 12 fa 5f 3d
       0.1665026 -0.12388079 0.45625383 0.054681845
0003e0 69 e1 9a 3e ab 8d 0d 3f 3e b6 cc bd da a0 fe 3e
       0.302501 0.55294293 -0.099956974 0.49732095
0003f0 e6 1b 1f 3a 38 c4 67 39 18 3e 9c 39 f1 8d d4 b9
       0.0006069526 0.00022102974 0.00029800902 -0.00040541546

mu.0.bias f4 [200]
000000 99 40 3c be 75 13 a9 3e 70 ca a3 3e 91 ce b9 3f
       -0.18384017 0.33022657 0.31990385 1.4516164
000010 e5 11 23 3f 9e 5e aa 3d 4a da bc be 20 2d 74 be
       0.6369918 0.08318828 -0.3688529 -0.23845339
000020 49 f8 16 ba 7f 25 0c 3f e3 05 4b 39 23 7d 59 ab
       -0.0005759043 0.54744714 0.00019361782 -7.726755e-13
000030 c9 ce b5 3e e3 e2 c7 3d 62 c2 46 bf f3 05 ad be
       0.35509327 0.09760072 -0.77640355 -0.337936
000040 f8 ad 2d 3f 6d 43 6f ba b2 51 63 b9 3c e6 b2 3e
       0.6784358 -0.00091271737 -0.00021678841 0.3494128
000050 be c7 12 3f cd 4a 31 b6 7c 1c f1 3b 3a 19 2c b9
       0.5733603 -2.6418595e-06 0.007358132 -0.00016412596
000060 8d ad b5 3e 39 4e fb 36 1a 23 e6 38 97 d7 d9 38
       0.3548397 7.4894892e-06 0.00010973793 0.00010387523
000070 83 d7 be be 59 c7 2c bf f6 4c eb b5 33 c9 cb 35
       -0.37273797 -0.6749168 -1.7531263e-06 1.5183235e-06
000080 53 f0 e4 3d dc f3 29 3d f8 0b 8d b3 41 62 0c 3f
       0.11178651 0.041492328 -6.568001e-08 0.54837424
000090 2e f7 9c bd 08 4a 41 37 cb 95 d3 b7 ce b8 be bd
       -0.07664333 1.1520933e-05 -2.5222913e-05 -0.093125924
0000a0 26 a4 ca be 2f ff 35 3e 6e ac dd b9 d3 f1 03 bf
       -0.3957836 0.17773126 -0.00042280875 -0.5154087
0000b0 63 a0 1e b8 46 02 71 3f 3c 89 c3 3d 1a 0b f4 39
       -3.7819507e-05 0.94144094 0.0954766 0.00046547578
0000c0 9f e8 26 3f 3a 25 a5 39 55 51 59 32 37 73 5d 3d
       0.651987 0.00031498988 1.2649555e-08 0.054064956
0000d0 09 f5 39 bd a1 28 85 b6 1b 0f 13 bf 17 53 73 be
       -0.0453997 -3.9684387e-06 -0.57444924 -0.23762165
0000e0 61 59 97 3b 03 20 15 38 f0 72 d6 3c 84 de a2 3e
       0.004618809 3.555418e-05 0.026177853 0.3181039
0000f0 a8 72 1a 3a 1c a2 fe 33 70 ca b2 3c 26 ef 31 3a
       0.0005891719 1.1857284e-07 0.021825045 0.000678765
000100 63 95 8d bc 42 1b ba bd 33 6a da ae 78 26 f4 be
       -0.017283147 -0.0908723 -9.932357e-11 -0.476856
000110 18 d9 51 3d 81 1a da be f4 f7 be be ec 93 d0 b8
       0.051232427 -0.42598346 -0.37298548 -9.9457655e-05
000120 bc 83 eb b7 80 2e 07 3f 54 28 94 a9 09 ee a6 be
       -2.8075527e-05 0.5280533 -6.579516e-14 -0.3260348
000130 79 6d cb be 3c dd 5d b2 52 21 78 3f 40 6b 70 34
       -0.39731959 -1.2914196e-08 0.9692584 2.2390759e-07
000140 49 70 07 bf 6a 67 33 3e 50 67 66 ae 41 8b d8 be
       -0.5290571 0.17519918 -5.2387705e-11 -0.42293742
000150 32 b7 bd ad 88 84 4b bf 38 53 cf ab 1d 76 84 be
       -2.1568167e-11 -0.794991 -1.4731332e-12 -0.25871363
000160 75 21 c1 b9 68 24 1b 3c 70 46 9e be 60 3e 0a bf
       -0.00036836756 0.009469129 -0.30913115 -0.54001427
000170 2e 2c c8 3e 63 8a 3f 3f d0 b6 17 37 18 9c 87 3a
       0.39096206 0.74820536 9.042866e-06 0.0010346202
000180 9a 1b c4 b8 4d 76 18 2f 24 a4 19 bb 31 fa ae b4
       -9.3511495e-05 1.3866348e-10 -0.0023443783 -3.2592064e-07
000190 0e 68 13 3f 9a b6 2c 39 b0 78 a4 be ac 57 e5 3d
       0.5758065 0.00016471223 -0.32123327 0.11198363
0001a0 ea 98 50 bb e8 91 37 39 34 78 63 3e 35 b8 73 be
       -0.0031829425 0.00017506594 0.22213823 -0.23800738
0001b0 1d 32 68 3e 63 fd dd b9 fb 3d 91 29 43 c2 d8 be
       0.22675367 -0.00042341193 6.4500454e-14 -0.4233571
0001c0 56 e6 cd b6 df 3b b4 be d2 3c 8c 39 c6 c8 a4 3e
       -6.1362907e-06 -0.35201928 0.00026748196 0.32184428
0001d0 28 6a 30 be 67 eb 86 bd d9 b6 62 3f e0 8a 50 bd
       -0.17227995 -0.06587868 0.88560253 -0.05091369
0001e0 a1 fb 95 39 9f 0d 5e 3e bb cf 16 b9 10 8b 72 3f
       0.00028606973 0.21684884 -0.000143825 0.9474344
0001f0 af bb 0a b7 25 22 85 bf 15 eb 2e 3e d5 48 46 bf
       -8.2691395e-06 -1.0401045 0.17081864 -0.7745488
000200 cd 49 8b 3c 9e 68 9f 38 6b 78 87 3e 39 0d 28 ba
       0.017002964 7.601197e-05 0.2645906 -0.0006410662
000210 c2 4f 85 bf e6 6f 0c be 7b ac fd b8 61 34 0a 3e
       -1.0414965 -0.13714561 -0.00012096107 0.13496543
000220 33 4a c3 be 70 bf 2f 39 12 4f 32 be fb d5 14 3f
       -0.38142547 0.00016760617 -0.17412975 0.5813901
000230 7d e0 78 34 18 7b 5d bb ae fd a1 2f 76 f7 ad 38
       2.3178468e-07 -0.0033795293 2.946598e-10 8.295376e-05
000240 ba 80 42 b5 14 02 47 3f 2a df 98 3c 01 71 c8 be
       -7.2457954e-07 0.77737546 0.0186611 -0.39148715
000250 2c a7 08 3a 8e 89 b1 be 36 85 c4 3e 65 22 6d bd
       0.0005212899 -0.34675258 0.38382882 -0.05789413
000260 6c 9e c0 33 8b ab 20 3f 5c c8 85 3d 08 93 c1 be
       8.9695135e-08 0.62761754 0.06532356 -0.37807488
000270 39 16 8f 3e d1 30 18 b7 13 67 a4 3b 15 80 22 be
       0.27946642 -9.071272e-06 0.00501717 -0.15869172
000280 c4 c2 b8 39 fa 6d 22 3f 3c 65 05 38 24 7a 1e 3f
       0.00035240327 0.6344906 3.1803953e-05 0.6190512
000290 ef ed 55 ba ba d6 55 bc 35 43 51 be f2 04 64 bc
       -0.000816076 -0.013051683 -0.20435794 -0.013917195
0002a0 4f 32 c4 3d e2 b8 9d ab be 47 eb 34 30 f3 19 3c
       0.09579908 -1.1206836e-12 4.382436e-07 0.009396359
0002b0 b3 98 9c 34 74 ee bc 3e 7c d3 00 3c 42 67 bd be
       2.9168368e-07 0.36900675 0.007862922 -0.36992842
0002c0 cc a9 75 31 1f 01 ef 38 44 fc be 38 fc 72 55 bf
       3.574871e-09 0.00011396617 9.106894e-05 -0.8337858
0002d0 93 51 2b 2e 67 7f a3 be 73 d6 03 3f 43 70 a5 3d
       3.895335e-11 -0.31933138 0.514991 0.08078053
0002e0 79 e2 10 3d d9 a2 2b ba 0f 70 21 bf fe e3 35 b6
       0.03537223 -0.00065473985 -0.6306161 -2.710381e-06
0002f0 f2 99 45 3d ec b8 07 3e 1b 15 16 bf 74 b2 54 38
       0.048242517 0.13254136 -0.58625954 5.0710936e-05
000300 0b 7e a0 b9 62 fa d2 3e ab 67 c7 36 d6 fe 05 37
       -0.00030611487 0.41206652 5.9427307e-06 7.986751e-06
000310 9e 86 9a b2 24 25 f5 3e 58 e8 14 be 24 f0 f9 b8
       -1.7989176e-08 0.478799 -0.14541757 -0.00011917975

mu.2.weight f4 [5, 200]
000000 a1 c7 05 bd e7 d0 16 bc 1a d2 a0 39 d4 cb ad 3b
       -0.032661084 -0.00920508 0.00030674116 0.005303839
000010 78 41 b9 3c 28 8e 76 bb 86 ee 65 3b 39 5b 28 bc
       0.022614226 -0.0037621353 0.0035084798 -0.010275655
000020 87 34 07 38 90 0e 46 3c 6f d5 18 39 66 35 5b 2b
       3.2235428e-05 0.012088433 0.0001457536 7.7878535e-13
000030 69 01 db bb bb 36 ae 3c 07 bd fe 3a 34 94 6c 3c
       -0.0066835177 0.021266332 0.0019434997 0.014439631
000040 06 57 0a bc 3c 12 34 b9 07 25 ed b9 03 4e a2 3b
       -0.0084436 -0.0001717293 -0.0004523175 0.0049531474
000050 76 9f 88 ba 5d 5e 2f b6 5f 5d 25 bc 3e 98 ec b9
       -0.00104235 -2.6131959e-06 -0.010093062 -0.00045126857
000060 b6 fb 5c 3c d3 06 da 38 d0 ae 94 38 00 a6 4c b9
       0.013487747 0.00010396321 7.089751e-05 -0.00019516796
000070 01 ba e0 bc a6 7c 89 3b 1d f1 43 b6 d2 9d d3 b6
       -0.027432444 0.0041957675 -2.919761e-06 -6.3066627e-06
000080 7d 1b b0 bc 97 7f 23 3b cd 48 9e b3 0e 28 85 3b
       -0.021497482 0.0024947876 -7.370691e-08 0.004063613
000090 48 6d a4 3c 7c f8 a9 38 ac 8f 6e b8 8e f9 98 bb
       0.02007164 8.104832e-05 -5.6877427e-05 -0.004668421
0000a0 1b d8 89 3c de 8b 6e bc d5 bc 4d b8 5c 32 ae bb
       0.01682668 -0.014559714 -4.9051672e-05 -0.005316062
0000b0 f7 91 0c 39 7e ed 92 bb 6a 42 19 3c a7 2e d1 b8
       0.00013405817 -0.0044838777 0.009354213 -9.974586e-05
0000c0 37 01 3c bc c3 9b 63 37 e7 e3 f5 b2 56 23 42 3b
       -0.011474899 1.35665205e-05 -2.8625392e-08 0.0029623113
0000d0 7b a6 d5 bc 22 d4 86 b6 f0 34 b8 3b 02 25 42 bb
       -0.02608036 -4.0182067e-06 0.005621545 -0.002962411
0000e0 38 4f 27 38 2f d0 8b 37 51 0d 89 3b 0c 7d 79 bc
       3.988968e-05 1.6667034e-05 0.0041824956 -0.015227567
0000f0 ed c9 95 b9 75 ad 85 b3 36 c7 bf 3c a6 06 93 39
       -0.0002856994 -6.224847e-08 0.02341042 0.00028042978
000100 44 63 90 bb 44 38 d8 3d 47 29 11 af a2 49 26 3b
       -0.0044063646 0.10557607 -1.3202338e-10 0.0025373478
000110 09 4a 4e bc fc b6 8f bc 40 49 89 bc ce 2b e9 37
       -0.012590894 -0.017543308 -0.016758561 2.7796163e-05
000120 92 83 ef b9 ca 5f 88 bc b2 fb 78 27 da bb a3 3c
       -0.0004568366 -0.016647238 3.4553358e-15 0.019987036
000130 e1 23 91 3c d4 a5 ce b3 19 f0 7f bc 1c ee 00 35
       0.017717304 -9.6227865e-08 -0.015621209 4.803021e-07
000140 84 32 83 b9 86 30 27 3c 72 cf 19 2c a5 6e ca bb
       -0.00025023904 0.01020444 2.1857763e-12 -0.0061777406
000150 91 e2 cd 2c c7 06 25 3c 53 dc 04 ac d2 96 0c bc
       5.8516044e-12 0.010072417 -1.8880633e-12 -0.00858088
000160 15 da 00 39 f5 3d 04 bc 85 39 31 3c 67 24 19 3b
       0.00012288273 -0.008071412 0.010816936 0.0023367645
000170 72 95 85 bb e7 7d 80 3c b4 72 06 36 50 19 8e b9
       -0.004076653 0.015685035 2.0034322e-06 -0.0002710321
000180 69 2a a9 b8 a6 bf 3e 2d 05 64 4f 3b 38 18 9a b4
       -8.0664475e-05 1.0842804e-11 0.003164531 -2.8702357e-07
000190 bf 4e 99 3c ee d5 dc b9 53 89 f9 3b 11 91 04 3c
       0.018714307 -0.0004212106 0.0076152473 0.008091227
0001a0 74 41 1a 3a 54 3a dd ba 29 68 cf 3b 01 07 db bb
       0.0005884387 -0.0016878345 0.0063295555 -0.0066841845
0001b0 56 2a 3c 3b d7 7a b0 39 0c ce 2b 2a c1 19 f0 bc
       0.0028711758 0.0003366086 1.5259338e-13 -0.029309155
0001c0 7b 0c 63 b5 56 af 60 bb fb 29 5f b9 1c 43 d0 bb
       -8.458225e-07 -0.0034284196 -0.00021282576 -0.0063556563
0001d0 3f ef 9d 3b 26 9e 33 bc cb 9c 54 3c 18 3e 57 3c
       0.00481978 -0.0109629985 0.0129768355 0.013137363
0001e0 cc e6 e4 38 7e 95 34 bc fe c2 4d b9 9f 9c 1f ba
       0.000109148765 -0.01102197 -0.00019622964 -0.0006088707
0001f0 14 c2 1c b6 2f 98 db bb a7 28 8f bb 1a c5 b5 bb
       -2.335878e-06 -0.0067014913 -0.00436886 -0.005547178
000200 b2 6f 6a 3c e7 84 4e 39 cf aa 99 bb 0b e9 ed 3a
       0.014308857 0.00019695201 -0.0046895514 0.0018151117
000210 5c 82 23 3c 3f 0b 2e 3c d6 37 65 b9 f2 0d 18 bd
       0.009979811 0.010622798 -0.00021859942 -0.037122674
000220 6f 5d f7 3c 4f f0 af b8 24 cb 28 bc 3b 54 c1 3a
       0.03019592 -8.389411e-05 -0.010302339 0.0014749834
000230 34 4c 09 b7 c3 46 68 39 af 5e 2f 31 f0 f6 53 b6
       -8.183579e-06 0.00022151605 2.5519673e-09 -3.1585187e-06
000240 ca 54 02 34 47 b2 04 bc af 76 d6 3d 2c 45 db bb
       1.213804e-07 -0.008099145 0.10471856 -0.0066915955
000250 4f 75 10 39 32 2c 4b bc b6 0c 5c bc d3 fa 03 bd
       0.00013776611 -0.012400674 -0.013430765 -0.032221626
000260 a2 11 59 33 11 bf 47 bc 2a 1b 22 3d 3a 31 11 38
       5.0540287e-08 -0.01219155 0.039576687 3.461654e-05
000270 10 68 aa 3c fd b0 1c b8 82 7a 00 3a cb db 23 bc
       0.020801574 -3.735813e-05 0.00049010676 -0.010001133
000280 0e b2 33 3a 9b c0 41 3c ac 35 bb 37 4c ea 6c 3b
       0.00068548403 0.011825706 2.231713e-05 0.0036150394
000290 72 f1 73 ba ba 68 a6 3b 26 c1 9e bb 9a c8 92 3c
       -0.00093056925 0.0050784023 -0.0048448024 0.01791792
0002a0 35 ca 31 3b b0 89 07 2e 89 fa 77 33 68 5e 50 bd
       0.0027128581 3.0817737e-11 5.773703e-08 -0.050871283
0002b0 d6 e4 34 b5 04 24 db bb 8b b1 a1 bb cd 92 17 3b
       -6.7388225e-07 -0.006687643 -0.004934495 0.0023128272
0002c0 e3 c8 e9 32 95 8f 81 38 8c 46 e2 b9 ef 04 05 3c
       2.7216123e-08 6.1779436e-05 -0.0004315864 0.008118852
0002d0 85 e6 fe ac 25 6a 44 bc f1 67 7f 3b 30 48 2f ba
       -7.244707e-12 -0.011988197 0.0038971866 -0.0006686477
0002e0 88 e1 17 3b ff 92 65 39 04 ea f5 3b a5 58 d4 35
       0.0023175199 0.00021893902 0.0075047035 1.582103e-06
0002f0 4d df ce 3b 14 27 05 3d 2d b1 91 3a 25 25 21 39
       0.0063132406 0.03250797 0.0011115425 0.00015367994
000300 02 36 96 b9 70 64 f3 bb 4d 90 07 38 07 1a 2c 37
       -0.00028650468 -0.0074277446 3.23209e-05 1.0258059e-05
000310 82 f4 3f b3 36 78 aa 3b be 3f 9b 3c 55 3e 29 b9
       -4.469303e-08 0.0052023185 0.018951293 -0.00016140316
000320 39 70 b7 be ac d3 99 3d e5 0d 46 3e c5 61 f2 3d
       -0.35827807 0.07511076 0.19341238 0.11835054
000330 ae 12 87 3d 1b cd 2b be a9 80 c1 3d d3 94 ee 3e
       0.0659536 -0.1677746 0.09448368 0.4659792
000340 50 d7 a4 3b 10 83 79 3e 9b 84 86 39 6b 06 54 ad
       0.00503055 0.24366403 0.0002565727 -1.205223e-11
000350 5b bc 7e be 0f 19 bc 3e 70 ad 92 bd cc 16 32 3d
       -0.2487654 0.36737868 -0.07161987 0.043478772
000360 e4 2b fa bd 60 05 39 39 29 ea e5 39 9e d1 85 3d
       -0.12215403 0.00017644977 0.00043852747 0.06534122
000370 eb 90 a7 bb 23 f9 b3 34 be 5e fe bc f4 24 99 39
       -0.005113711 3.352262e-07 -0.031051036 0.00029209966
000380 51 27 d5 3d ab c5 24 ba d7 63 04 bb 30 1f 39 ba
       0.1040789 -0.00062855583 -0.002020111 -0.0007061837
000390 0d 0b 24 bd a4 6f d1 bc 62 ba 68 b8 70 32 fa 37
       -0.0400496 -0.02556593 -5.5486693e-05 2.982581e-05
0003a0 ff 6a b8 be 84 b3 16 3e c6 a9 bb b5 40 c8 f8 3c
       -0.36019132 0.14716917 -1.3981996e-06 0.030368924
0003b0 3c 4b a9 be b7 98 43 ba e2 0f 55 3a 8a ef 2a be
       -0.33065212 -0.0007461416 0.0008127672 -0.1669294
0003c0 3d 5a ae 3d f8 95 93 be 96 5b 8f 3a 6d 21 e6 be
       0.08513305 -0.28825355 0.0010937329 -0.44947377
0003d0 8a ce e0 ba 1c 1c 3a 3c ff 6a dc 3e ae 48 bd 39
       -0.0017151397 0.011359241 0.43050382 0.0003610304
0003e0 ec ca 0c be f9 93 91 ba 13 57 ca b2 9f f3 54 3e
       -0.13749284 -0.0011106721 -2.3555492e-08 0.20796059
0003f0 91 37 05 bf 28 b3 ef 37 b1 f1 8a bd df 35 8d bd
       -0.5203791 2.8574446e-05 -0.0678438 -0.06895041

mu.2.bias f4 [5]
000000 9e 48 51 3a da 58 49 3e f9 f1 60 bc fa e6 b8 3c
       0.0007983538 0.196628 -0.013729566 0.022571076
000010 9c fa d0 3d
       0.1020405

reward_fun.0.weight f4 [200, 6]
000000 0d 30 f3 3e 4d be 9d be 31 0b c9 3f 9b 5a 26 bf
       0.47497597 -0.3080925 1.570654 -0.64982
000010 ab e2 db be f3 a1 f3 3e 71 8f 88 be 6c 1a db be
       -0.4294637 0.47584495 -0.26671937 -0.42793596
000020 85 4a a4 be be 0a af 3d ea d2 7f 3e c0 c9 63 bf
       -0.32088104 0.08546971 0.24982801 -0.8897972
000030 b0 b7 a1 3e fd bc a2 bc b5 19 e8 bd 88 02 5e 3e
       0.31585455 -0.019865507 -0.11333028 0.21680653
000040 58 31 03 bc 2a c4 69 be 4b 0e 19 bf bc 99 72 be
       -0.00800737 -0.22828737 -0.59787434 -0.23691458
000050 05 51 42 bf 6f c6 ae bf 03 f2 7c bd 70 6d dc 3e
       -0.75904876 -1.3654307 -0.061754238 0.43052244
000060 08 c9 3b 3f 57 e0 84 be 1a 03 36 3f b6 8c b2 3f
       0.73353624 -0.25952408 0.7109848 1.3949192
000070 c5 a6 f7 bb 03 1b f9 bd fe ae 29 3f ad 56 4f 3f
       -0.0075577223 -0.12163355 0.6628264 0.8099163
000080 d5 a7 b9 be 2c 9d 28 3f 0a 6e 0f bd b0 8d 45 3e
       -0.36260858 0.65864825 -0.03501705 0.1929233
000090 73 e6 48 be 20 62 8a 3c cc 58 d5 3f 1f 7a 9f 3f
       -0.1961916 0.016892493 1.6667724 1.2459143
0000a0 83 f8 22 3f 0a fa a2 be ca 11 72 bf 32 24 95 be
       0.6366045 -0.3183139 -0.94558394 -0.29129177
0000b0 37 da 97 3f 6d e4 ac bf 22 97 04 3e 30 72 97 be
       1.1863469 -1.350721 0.12948278 -0.29579306
0000c0 2a f2 61 bf 37 ac 15 bf 70 df b9 3d fa 01 1f be
       -0.8826014 -0.58465904 0.090758204 -0.15528098
0000d0 33 09 71 3e 6e 5b 07 bf e9 bb d5 ba 8e d3 c5 3e
       0.23538665 -0.52873886 -0.0016306612 0.38637966
0000e0 47 5e c6 be f6 b5 3d 3f 89 2b 0a 3d bf d0 32 be
       -0.38743803 0.74105775 0.033732925 -0.17462443
0000f0 7c f6 a7 be 3e 69 e0 3e 54 a1 c8 3f 8b de 26 bf
       -0.3280524 0.43830293 1.5674233 -0.65183324
000100 4f 40 de be 68 14 16 3d 72 67 8c bf fc 1a 76 bf
       -0.4340844 0.036640555 -1.0969069 -0.96134925
000110 30 0b 91 3e f3 a5 41 bf 91 1c 64 3e 17 9b 9c be
       0.28328848 -0.75643843 0.22276522 -0.30587074
000120 05 d4 26 3d 00 a4 22 3d de 33 c7 be b1 8c 0a 3f
       0.04072954 0.039707184 -0.3890676 0.5412093
000130 ec 9f f5 3a a9 02 b6 bd 84 9c dc 3f 2e da 1e be
       0.0018739677 -0.08887226 1.7235265 -0.15512916
000140 b1 d4 2c bf 76 30 eb 3e 8f 24 95 bd f3 18 d8 3d
       -0.6751204 0.4593541 -0.072823636 0.10551634
000150 4e 78 ae 3e bb 51 49 bf e5 0b 3f 3f 44 bb 5a 3e
       0.3407616 -0.78640336 0.74627525 0.21360499
000160 16 a7 ff 3d d6 46 cb be 2c 1d 8e 3e bb 52 b5 3d
       0.12483041 -0.3970248 0.2775663 0.0885367
000170 2d 25 e0 bd da 3c 87 3d e2 e0 2a 3c 7c b6 99 bd
       -0.10944591 0.066034034 0.010429593 -0.07505509
000180 bd 9a 9f be cd fb 95 be f8 96 dd be aa bd b4 be
       -0.31172743 -0.2929367 -0.43279243 -0.35300952
000190 17 90 42 bd 6c 11 6b be 02 9e 54 be 74 9e 5b 3f
       -0.047500696 -0.22955865 -0.207634 0.85788655
0001a0 74 84 cb bf 62 82 c9 3e fc 28 cb bd 25 ed fc 3e
       -1.5899796 0.39357287 -0.099199265 0.49399677
0001b0 51 f9 88 3e 3f 1b 7f 3e 15 05 ea be 03 ab 49 be
       0.26752713 0.24912737 -0.45707002 -0.19694142
0001c0 e7 83 9d bc 64 fd b8 be 7d 8e 87 3f 22 60 4e 3f
       -0.019227935 -0.36130822 1.0590359 0.8061544
0001d0 9b 22 35 3f 23 bf 83 3e ef 74 72 be 15 37 33 3f
       0.7075593 0.25731763 -0.23677419 0.70005924
0001e0 5d e8 28 bd af 01 b6 3d 39 14 6f be 50 4a bf 3e
       -0.041237224 0.0888704 -0.23347558 0.37361383
0001f0 71 41 37 39 51 7d 71 be 0e d8 75 3e b0 08 d9 3e
       0.00017476619 -0.2358296 0.240082 0.4238944
000200 4e 59 f4 3f 72 25 0d 40 e4 04 80 3e c6 5b 2a 3d
       1.9089754 2.2054105 0.2500373 0.04159143
000210 ac 50 9e 3e 16 c2 d5 3e fa 69 22 be c6 d9 e7 bd
       0.30920923 0.41749638 -0.1586074 -0.11320834
000220 19 93 c6 bd e3 fb d9 3e 7e a3 5a be 66 4d ec 3e
       -0.096960254 0.42574987 -0.2135143 0.461528
000230 1e 91 54 3f ef de e0 3f e8 b0 a1 3e 23 d6 c3 bd
       0.8303393 1.7568034 0.3158028 -0.09562328
000240 22 61 ec 3d 39 3f 9c 3d 6d dd 8f be 28 00 94 3d
       0.11541964 0.07629246 -0.28098622 0.07226592
000250 0f 8c 51 3b fe 04 8f be 57 31 54 3f a3 2e b1 be
       0.003197435 -0.27933496 0.82887787 -0.34605893
000260 e7 df b5 3f 92 10 bd 3f 37 2d 1b 3e 75 c3 85 bf
       1.4208955 1.4770682 0.15153967 -1.0450274
000270 da 2e 1b 3f 41 01 71 ba 2a 69 33 bf 29 3c 9b bf
       0.60618365 -0.0009193607 -0.7008234 -1.2127734
000280 e0 c8 33 3e ad be 69 bf cd b0 cd bf 0d 93 04 bf
       0.17557096 -0.91306573 -1.606958 -0.5178688
000290 ce c5 2f 3e 40 b5 81 be 9c a3 32 3e a8 57 90 bf
       0.171653 -0.25333595 0.17445225 -1.127675
0002a0 e0 dc cf be 25 c2 c0 be 01 cb f7 3f f7 b4 14 bf
       -0.40598202 -0.3764812 1.9358827 -0.5808863
0002b0 c7 06 d8 be 27 83 13 be 39 25 ba 3d d6 ea a5 be
       -0.4219267 -0.144055 0.09089131 -0.32405728
0002c0 46 77 c0 3f 98 4a e7 be c9 45 b9 be 26 f0 48 be
       1.5036399 -0.45174098 -0.36186054 -0.1962286
0002d0 a0 36 f2 be d0 63 81 bf 84 cd 4b 3f b8 43 58 3f
       -0.473073 -1.0108585 0.79610467 0.8447833
0002e0 9f 4b 0d be 83 26 01 be ba 5e a0 3f 11 c6 83 3e
       -0.13798378 -0.12612347 1.2528908 0.2573705
0002f0 52 f9 23 bf 16 c5 91 3e 82 54 83 3b 1c 0b 47 bf
       -0.6405231 0.28470677 0.004007877 -0.77751327
000300 59 07 00 3f e4 0e 0d 3e 59 89 3a bf bf a2 d3 3d
       0.5001121 0.13775212 -0.72865826 0.10333776
000310 15 84 fb 3c 51 f7 b4 be 79 78 5e 3f 24 59 73 3f
       0.03070263 -0.35344937 0.86902577 0.9505789
000320 51 03 31 bf 3d 84 53 3f 23 61 a6 bc ea d0 fd bd
       -0.69145685 0.82623655 -0.02030999 -0.12393363
000330 a0 40 56 bf c6 10 a9 be 59 b7 ba bd 5f ae ea bf
       -0.8369236 -0.3302061 -0.09117002 -1.8334464
000340 3c 4d e7 3c 71 aa d4 bd 4f ff 27 3d a9 b6 bc 3d
       0.02823507 -0.103840716 0.041014966 0.09214527
000350 21 68 5c be a7 33 a3 3d be 95 ff ba 3b fe 7f be
       -0.21524097 0.07968836 -0.0019499583 -0.24999325
000360 3a 96 dd bd 73 9e 5b 3c de 15 db be 1a ef ee 3e
       -0.10819669 0.013404476 -0.4279012 0.46666795
000370 ef 2e 16 3d 00 1e 60 be b1 bb 64 3e 04 68 80 3e
       0.036665853 -0.21886444 0.22337224 0.25079358
000380 56 b0 b3 be 78 c3 c1 bd be 8a cb bc d8 cf 8c be
       -0.3509547 -0.09461111 -0.02484643 -0.27502322
000390 26 2c 7d bf 16 e5 14 3f 14 7b c9 3f 7b e7 ad 3e
       -0.9889549 0.5816206 1.5740685 0.33965668
0003a0 69 a7 e5 3e 7d 56 49 be 38 95 3d be 35 77 76 3f
       0.44854286 -0.19661899 -0.18513954 0.96275645
0003b0 6a 25 6c 3e 98 36 0f be 94 24 33 be 3d 6e ed 3e
       0.23061147 -0.1398567 -0.17494422 0.46373168
0003c0 c2 26 9a 3e 52 67 a7 3f c1 62 ac 3c 90 25 97 bd
       0.30107695 1.3078406 0.021043183 -0.07380211
0003d0 0b 9c ac be e4 83 16 3f c0 d0 fa 3e a5 75 e9 3e
       -0.337128 0.58795 0.4898739 0.45597568
0003e0 ef 94 fb 3f 8c 2b db 3e e7 ac 02 3f 5b 47 04 3f
       1.9654826 0.4280666 0.5104508 0.5167138
0003f0 68 bf 0b 3e 94 22 de bd 7f af 7f be 92 80 3d 3d
       0.13647234 -0.10846439 -0.2496929 0.046265192

reward_fun.0.bias f4 [200]
000000 91 62 03 c0 ed c0 48 bf 59 70 55 bf fb 55 61 be
       -2.052891 -0.7841938 -0.83374554 -0.22005455
000010 6c b0 9e bf 6e 1a b7 bf e3 92 85 bf 3f 58 05 bf
       -1.239759 -1.4304941 -1.0435451 -0.5208778
000020 62 80 67 be 02 0c 9b bf f3 cf cc bf d1 1d 0b bf
       -0.22607568 -1.211304 -1.6000961 -0.5434237
000030 0b 86 48 bf ea 70 85 bf ff 96 a6 bf e4 6a 20 bf
       -0.78329533 -1.0425084 -1.301483 -0.626631
000040 ea f7 39 bf 24 2f 80 bf 56 88 59 bf 09 76 a6 bf
       -0.7264391 -1.0014386 -0.8497366 -1.3004771
000050 e7 19 41 bf 54 cf 06 be 6a 7d 8d bf f8 5d a0 bf
       -0.7543015 -0.13165027 -1.1053898 -1.2528677
000060 bd f5 27 bf 16 50 97 3e 27 4e bc bf d4 b6 5f bf
       -0.6560934 0.29553288 -1.471135 -0.8738835
000070 af 2a 25 c0 70 77 f6 bf 72 f6 b9 bf 23 fb 46 bf
       -2.5807302 -1.92552 -1.4528334 -0.77726954
000080 dd df ed bd 01 64 fd bf 1c 5d 6c bf 8d ea 1d bf
       -0.11614964 -1.9796144 -0.92329574 -0.6168602
000090 44 b9 77 bf d6 ea 67 bf 38 57 46 bf 0b 21 cc bf
       -0.9676707 -0.90592706 -0.77476835 -1.5947584
0000a0 1f bf da bf 88 7c b6 bf 58 bd 21 bf 23 1d ea bf
       -1.7089576 -1.4256754 -0.6317954 -1.8290142
0000b0 b8 64 19 bf ad dd 36 bf 90 5a ea be ad 42 52 bf
       -0.5991931 -0.71432 -0.4577222 -0.8213299
0000c0 4c ea ad bf d2 d6 93 be f0 d0 6d be 6b dc 92 bf
       -1.3587127 -0.28874832 -0.23224235 -1.1473516
0000d0 38 60 3c bf 72 f7 89 3e d2 0b 22 bf af d6 48 bf
       -0.7358432 0.26946598 -0.63299286 -0.7845258
0000e0 db f9 14 bf eb 3d fe be 7c 08 19 bf e3 c9 82 bf
       -0.5819375 -0.49656615 -0.5977857 -1.0217861
0000f0 5d 19 9b bf 14 8a e4 bf b4 80 86 be ee 0a 00 bf
       -1.2117115 -1.7854638 -0.26270068 -0.5001668
000100 f4 fa c8 be d5 42 83 bf a5 c3 e8 be ea 71 c5 bd
       -0.39253962 -1.025477 -0.45461765 -0.09640868
000110 7b fb a8 3e bc be 4e 3e 43 f6 55 bf ef 31 a0 bf
       0.33004364 0.20189947 -0.8357889 -1.2515239
000120 6e 81 22 bf 21 c4 0d 3f 84 03 91 bf 13 a4 5c be
       -0.63478744 0.55377394 -1.1329198 -0.21546964
000130 5d 71 85 bf 91 3b a5 bf e4 80 38 bf 81 5a f1 bf
       -1.0425221 -1.2908803 -0.7207167 -1.8855745
000140 44 ce 94 bf a7 cc 20 c0 e3 e6 8a bf e6 f9 ef 3e
       -1.1625447 -2.512491 -1.0851711 0.46870345
000150 de 56 b4 bf dd d7 d1 be 40 a8 18 bf 5f f7 c4 be
       -1.408901 -0.40985003 -0.5963173 -0.3846998
000160 00 b6 7f bf 99 d6 71 bf 70 87 26 bf 84 71 ca bf
       -0.99887085 -0.94468075 -0.6505041 -1.5815892
000170 4e 42 a6 bf 6f 19 2c bf 5c 33 bc 3e 8b 73 30 bf
       -1.2988985 -0.6722631 0.36757934 -0.68926305
000180 e4 c0 a2 bf 47 ef 3b bf e9 1e 69 bf e2 9d 8b bf
       -1.2715116 -0.73411983 -0.9106279 -1.0907557
000190 f9 c4 1c bf 0c 0c df bf 35 1a ef be 84 64 ad bf
       -0.61238056 -1.7425551 -0.46699682 -1.35463
0001a0 fd ca 65 bf 37 13 af bf 8e d7 d5 bf 91 53 5b bf
       -0.8976286 -1.3677739 -1.6706407 -0.8567439
0001b0 b4 2d 3a bf bc 61 31 bf 09 2f df bf dc 6a 1f bf
       -0.7272599 -0.69289756 -1.7436229 -0.6227243
0001c0 29 95 76 bf 2c c0 aa bf a3 09 83 bd bc a3 0b c0
       -0.9632135 -1.3339896 -0.063983224 -2.1818686
0001d0 ca c6 8e bf 25 6e 33 be 1c 8c cc be fe ab 55 bf
       -1.1154416 -0.17522486 -0.39950645 -0.83465564
0001e0 5c fd 32 bf 5b 7c a8 bf 12 da fe bf a3 fd c9 bf
       -0.69917846 -1.316295 -1.99103 -1.5780529
0001f0 09 62 61 bf 78 38 90 bf d7 ca 4c bf b2 7a 16 bf
       -0.88040215 -1.1267233 -0.7999701 -0.5878097
000200 fc 40 89 bf 69 b9 c9 be b7 3a fd be d4 be d1 be
       -1.0722957 -0.3939927 -0.49458858 -0.40965903
000210 9f d1 58 bf 20 b4 2a bf 1d 04 a8 3d fa a5 c7 bf
       -0.84694856 -0.666811 0.082039095 -1.5597527
000220 6b c9 66 bf 48 d4 5f bf 51 71 42 bf 8f 23 57 bf
       -0.9015109 -0.8743329 -0.7595416 -0.84038633
000230 16 c7 d8 bf a5 64 bf 3c 43 91 ec bf c4 40 83 bf
       -1.6935756 0.02336342 -1.848183 -1.025414
000240 e6 41 49 bf b6 16 e9 bf da 21 41 bf 5a 9a 1d bf
       -0.7861618 -1.8210056 -0.7544228 -0.61563647
000250 61 39 f1 bf 15 b3 23 bf 9d c7 f9 3e fe 69 cc be
       -1.8845636 -0.6394513 0.48785105 -0.39924616
000260 31 c6 c7 be 29 7b b9 bf b6 21 d2 bf 8e cc 78 bf
       -0.39018396 -1.449071 -1.6416538 -0.97187126
000270 c8 f4 92 bf fe 77 55 bf 95 e9 07 bf db 79 4b bf
       -1.1480951 -0.8338622 -0.5309079 -0.7948281
000280 3d 90 2c bf e1 22 c0 bf 1e 13 98 bf 38 0c 98 bf
       -0.6740759 -1.5010644 -1.1880834 -1.1878729
000290 d0 00 ac bf 80 2c b3 bf cf 76 bc bf cb 87 09 c0
       -1.3437748 -1.3997955 -1.4723758 -2.1489131
0002a0 24 88 5f bf 85 00 2c bf 15 e8 37 3d 50 2c ea bf
       -0.8731711 -0.6718829 0.044899065 -1.8294773
0002b0 e0 0b 3b bf 25 62 bd 3e b0 94 01 c0 55 27 43 3e
       -0.73064995 0.3698894 -2.0247002 0.19057973
0002c0 ff 18 d4 bf fb 10 d6 be c5 81 95 bf 99 13 4a bf
       -1.6570128 -0.4180983 -1.1680228 -0.78936154
0002d0 9a 29 78 bf 37 eb 15 bf 21 83 30 bf 26 01 8c be
       -0.9693848 -0.58562034 -0.68950087 -0.27344626
0002e0 96 c1 43 bf 3b 74 98 bf bd e9 08 bf 9e 67 6e be
       -0.76467264 -1.1910471 -0.53481656 -0.23281714
0002f0 48 9f 28 bf 9c 49 87 be 7a 0d fc bf 80 7b 6d bf
       -0.65868044 -0.26423347 -1.9691613 -0.9276657
000300 7e 67 6c bb 30 a5 8d bf c2 19 5d bf c2 80 16 be
       -0.0036072428 -1.1066036 -0.8636743 -0.14697555
000310 28 1e 6f bf b9 57 35 bf 88 7f 67 bf 97 61 bc be
       -0.9340539 -0.7083698 -0.9042897 -0.36793205

reward_fun.2.weight f4 [200, 200]
000000 f2 f6 a5 3e 3b 70 3d bf 76 c7 bb 3d d4 ea 82 be
       0.32414967 -0.73999375 0.091689035 -0.25569785
000010 2b 74 0e 3f a2 fb 84 bd cb 56 7e 3f 8c c6 16 c0
       0.5564601 -0.06493308 0.99351186 -2.3558683
000020 25 c1 1c 3f 84 72 a1 3e dc f9 25 be 15 47 6d be
       0.61232215 0.3153268 -0.16208595 -0.23171647
000030 9c 1d 0d be 05 ae 93 3f 6d 20 af 3e 5f 31 56 be
       -0.13780826 1.1537482 0.34204426 -0.20917271
000040 5a 56 43 be 0c 38 d3 be 9c 3b 51 be 96 e4 8e 3e
       -0.1907591 -0.41253698 -0.20432895 0.27908772
000050 21 91 18 3e 9e a8 4f be b1 84 b2 3d bb c0 10 3f
       0.14899112 -0.20279166 0.08716715 0.56544083
000060 de 91 92 be 6d c7 b3 3e a0 76 71 be 6b f7 eb 3f
       -0.28626913 0.35113087 -0.23580408 1.8434881
000070 a5 a5 36 c0 c5 b4 9d bf b3 27 eb 3f ab 0d 06 bf
       -2.8538601 -1.2320791 1.837149 -0.52364606
000080 ae 27 7d be 0b 00 3d 3e 93 57 c6 3e 6a 3d 15 be
       -0.24722168 0.18457048 0.3873869 -0.14574209
000090 f0 6b 71 3d c2 12 c3 be b2 b2 48 3f 70 92 9a be
       0.058940828 -0.3810025 0.7839767 -0.30189848
0000a0 5d 3f 3a bf d0 98 fe 3e fb 5e cf bd af f4 19 3f
       -0.72752935 0.49725962 -0.10125538 0.6013898
0000b0 3e e0 07 bf e7 8f 83 3d c3 85 21 3d 2b 40 ed bf
       -0.5307654 0.064239316 0.039434206 -1.8535208
0000c0 0a 60 79 bf ab 06 15 bf ce c2 64 3e 63 51 8e be
       -0.9741217 -0.582133 0.22339937 -0.27796468
0000d0 9a 4d 09 be 14 24 83 3e 28 a5 f6 3d 45 83 1b 3f
       -0.13408509 0.25613463 0.1204322 0.60747176
0000e0 9b 84 a8 be 63 6a c2 bd 76 c6 e6 be 9c 5b 09 bf
       -0.3291367 -0.09492948 -0.4507329 -0.5365541
0000f0 b4 da 0b 3f 81 37 df bf 6a ee a2 bf 00 3f 82 be
       0.5463059 -1.7438813 -1.2729008 -0.2543869
000100 9b 17 6a be 8d 3e 74 3e 57 83 f5 3d fc f5 18 3e
       -0.22860567 0.23851986 0.11987942 0.14937586
000110 d9 85 4d 3f a7 3f 04 3f 7b 6f 89 bd 97 90 b1 bf
       0.8028236 0.51659626 -0.06710716 -1.387225
000120 03 34 e8 3c 99 65 98 3d b3 1f d3 3c a0 05 9e 3e
       0.028345114 0.07441253 0.025771951 0.30863667
000130 f5 25 8b bf 8f c8 4d 3f 37 2c 4b bf ce c8 5b bf
       -1.0870959 0.80384153 -0.7936434 -0.8585328
000140 9c df 3f 3f dc f9 58 c0 eb 4c d9 be c7 09 18 3f
       0.74950576 -3.3902502 -0.42441496 0.5938992
000150 43 9b a4 3e 77 ee 02 be 64 91 8d bf 3f 33 98 3e
       0.32149705 -0.1278628 -1.1059995 0.29726598
000160 c0 5e fb bf 2a 21 ab bc e6 fa af be 62 ed 5e 3f
       -1.963829 -0.020889837 -0.34371108 0.8708097
000170 4f 56 53 bf af 8c 28 3e 14 66 52 be f3 85 30 bf
       -0.8255357 0.16459917 -0.20546752 -0.6895439
000180 60 49 60 3f 39 ae ae 3d b9 7d 0d bf 63 65 f7 3e
       0.8761196 0.08529324 -0.5526996 0.4831954
000190 20 5d 9e 3d 5f da 5e 3f 24 bb 82 3c d4 24 99 bf
       0.07732606 0.8705196 0.015958376 -1.1964364
0001a0 41 db 03 bf 6f ca 22 3f ac fb 95 c0 bd 6a 88 be
       -0.5150643 0.6359014 -4.6869717 -0.26643935
0001b0 5f fe 42 3f 9a 5f 3a 3e 6a 6a b9 be 85 26 e6 bd
       0.7616939 0.18200532 -0.36214 -0.11237816
0001c0 01 34 78 bc a5 4b 0f 3e 8c 81 de bd 33 53 53 c0
       -0.015149117 0.139937 -0.10864553 -3.301953
0001d0 ac dc f6 be e4 e2 05 bf fa e8 18 bf 61 a1 85 be
       -0.48215234 -0.5229933 -0.59730494 -0.26099685
0001e0 aa 3c 3e 3e 35 f7 c8 be fc a0 c3 bf c1 fc 71 be
       0.18577829 -0.39251104 -1.5283504 -0.23631574
0001f0 d3 8f bb 3d 9f 6e 26 be 9d 47 3c 3d c6 6c 3f bf
       0.09158292 -0.16253136 0.045966733 -0.7477535
000200 8e 30 c8 3c 37 32 5e be c6 46 3c 3f d4 ee 10 bf
       0.024437215 -0.21698843 0.7354549 -0.5661442
000210 f6 6a d6 3d 25 51 02 bd 87 cf 11 bf 6b 62 16 3f
       0.1046962 -0.031815667 -0.56957287 0.58743924
000220 94 08 b1 3d 14 ed 46 be 81 c2 7b be 8d 62 a9 be
       0.08644214 -0.19426376 -0.24585916 -0.33083
000230 bd 38 e4 3e d1 7b 79 bb 3c ea c2 3e b3 75 5a 3d
       0.44574538 -0.0038068185 0.38069332 0.053334903
000240 a8 ff 59 bf b0 ff 13 c0 95 e6 c9 be 08 87 cf 3b
       -0.85155725 -2.312481 -0.39433733 0.0063332357
000250 d7 0a d1 3e 83 42 57 bf 7a c9 be 3e 2e 7c 03 be
       0.40828583 -0.84085864 0.3726309 -0.1284034
000260 1c 19 03 be da 35 16 3e 57 ad bb 3d 5d 03 d3 be
       -0.12802547 0.1466898 0.09163921 -0.41213503
000270 6b 43 fa be 50 eb 7e 3e 41 33 2f be f7 a9 dd be
       -0.4887956 0.24894452 -0.17109396 -0.43293735
000280 c3 43 d8 be 66 20 83 be 03 1e b0 bf 0a e6 36 be
       -0.42239198 -0.25610656 -1.3759159 -0.1786119
000290 e8 0b eb be 6f 5c c1 3d 55 b6 56 bf 0f 9e 1e 3e
       -0.4590752 0.094414584 -0.83871967 0.15489982
0002a0 4a b5 00 bf 64 cf 7a 3f 4b 4a 2c 3e c6 66 c6 be
       -0.50276625 0.979727 0.16825216 -0.38750285
0002b0 18 26 95 3e f4 3b ae 3d ff d0 01 bf 1c f6 36 be
       0.29130626 0.08507529 -0.5070953 -0.17867321
0002c0 e8 79 f3 bf de 92 9e be 16 c1 d2 bd 34 9b 81 bd
       -1.9021578 -0.30971426 -0.102907345 -0.06328431
0002d0 72 b6 d7 3e bf 30 00 bf 5c 9d 05 bf ea 3e 34 bf
       0.42131382 -0.5007438 -0.52193236 -0.704085
0002e0 14 7d de 3b 74 5b 16 3e df 79 b6 3d 53 1a a6 be
       0.006789813 0.14683324 0.08909964 -0.3244196
0002f0 c9 3e c3 be 8a 98 d3 3e 6e b0 09 c0 d1 03 52 be
       -0.3813384 0.41327316 -2.1513934 -0.20509268
000300 41 ac 18 3f 60 bc d3 bf dc f6 b1 3d d1 2c 77 bf
       0.5963784 -1.6541862 0.08689663 -0.9655276
000310 65 91 be 3e 9f 88 d9 bc 36 c1 39 3e c4 2e 0c bf
       0.37220302 -0.026554404 0.1814011 -0.5475886
000320 ba df fa 3e 3b c7 a3 be 79 00 29 3d 64 c1 26 b9
       0.48998815 -0.31987938 0.041260216 -0.00015903037
000330 1e 2e f7 3d 3b 00 19 3e 51 89 64 be 04 b9 21 3f
       0.12069343 0.14941494 -0.22318007 0.63172936
000340 ab 88 68 be c8 9a dd bd 22 8a 12 be 90 d1 f0 bd
       -0.22708385 -0.10820538 -0.14310506 -0.11758721
000350 10 48 9a bd fa 9e 24 bf 07 cb 20 3e 33 83 96 3e
       -0.07533276 -0.6430508 0.15702449 0.29396972
000360 67 e2 eb 3d 66 3d 9a be cf eb 20 bd 77 15 b0 be
       0.11517792 -0.30124968 -0.039287385 -0.34391376
000370 5e be fa be e6 02 3d be 09 5a 3c be 4c 85 0f 3e
       -0.48973364 -0.18458137 -0.1839372 0.14015692
000380 ea 94 2a 3d 2f 70 2c be 98 cc 43 3f a3 57 0f bf
       0.04164592 -0.1683967 0.7648406 -0.559931
000390 bd cf 45 3e 20 88 a2 3e e7 fc d3 be e0 84 f7 be
       0.19317527 0.3174448 -0.41403887 -0.48343563
0003a0 bc 82 16 bf 75 83 be bd e8 40 cc 3e a4 62 e2 3c
       -0.58793235 -0.09302417 0.3989327 0.027634926
0003b0 d1 8a 8f be f9 da a6 3d ea 2c 0a bf 92 25 82 3d
       -0.28035596 0.081472345 -0.53974783 0.06354822
0003c0 37 88 90 be a0 92 de 3d 34 f1 a2 3e 06 d7 4c be
       -0.28228924 0.1086781 0.31824648 -0.200039
0003d0 91 71 d3 be f1 91 be be 41 e7 06 bd 07 4e 46 3f
       -0.41297582 -0.3722072 -0.032935385 0.7746281
0003e0 e7 93 48 3f 00 7a b1 be 29 8e b2 be 18 6c e9 be
       0.7835068 -0.3466339 -0.34874085 -0.4559028
0003f0 69 d9 b5 3c 70 29 c0 be e2 6e 3e 3e b5 c6 be bc
       0.022198396 -0.37531614 0.18596986 -0.02328811

reward_fun.2.bias f4 [200]
000000 0a d6 d7 3e 53 ab b2 be a0 d1 dd 3e 1c 81 fe bd
       0.42155486 -0.34896335 0.43323994 -0.124269694
000010 5e 60 57 be f1 bb 9d bd 47 3e db bc 68 88 a7 3d
       -0.21032855 -0.077018626 -0.026763095 0.08180314
000020 e2 f1 7a bd 94 ef 17 bd cf 85 32 3f 1e c6 90 bd
       -0.061265834 -0.037093714 0.69735426 -0.07069038
000030 09 5b ce be 6d 1d f0 bd 60 d9 ea bd 71 9e 48 bf
       -0.4030383 -0.117243625 -0.11467242 -0.7836676
000040 c4 62 4c bd 33 24 2b 3c 71 89 88 bd 21 5c b8 bd
       -0.049898878 0.010445642 -0.0666684 -0.09001947
000050 c2 1e 26 3c d7 fc a3 bd b7 cc 34 3e 6e 28 07 be
       0.010139169 -0.0800721 0.17656218 -0.13199016
000060 25 b6 62 bd 6c 47 35 be 79 db 76 bd 2c 1d 4a 3f
       -0.055349488 -0.17703027 -0.0602679 0.7895076
000070 c2 de 5f bd 75 3a 58 be a4 b3 d1 be 16 79 40 bf
       -0.054655798 -0.2111605 -0.40957367 -0.7518476
000080 5d 0f 8c 3d 94 1f 09 bf c4 b5 4a 3f 4a 09 d1 bd
       0.06838868 -0.5356381 0.791836 -0.1020685
000090 3c 41 e9 bc 4a d8 b9 bb be da 3b be 09 77 cb bc
       -0.028473489 -0.0056715356 -0.18345162 -0.024837034
0000a0 a7 9a 07 bd a5 67 59 be fc 1f 9c be 73 69 d8 bd
       -0.033106472 -0.21230944 -0.30493152 -0.10566988
0000b0 e7 f2 9c bd fa 36 36 3f a3 9c b7 3e e4 d0 fa 3d
       -0.076635174 0.7117764 0.35861692 0.12246874
0000c0 90 43 f5 3d 96 14 bc be 1f ac b0 bc e8 0e 4a bc
       0.11975777 -0.36734456 -0.021566449 -0.0123326555
0000d0 68 00 92 3d d3 dc 87 bc 6a df b8 3c 35 7d 0a be
       0.07128984 -0.01658479 0.02256747 -0.13524325
0000e0 b1 c5 57 3f 0a e7 81 bd ec 59 34 3f 4e d4 11 bd
       0.8428603 -0.06342895 0.7044971 -0.03560286
0000f0 50 55 03 be 0a 81 01 3d f7 d4 50 3f 2d 97 c1 bd
       -0.12825513 0.031617202 0.8157496 -0.094526626
000100 9d f8 ab bd a7 16 8e bd c3 f5 96 3e 99 5c 16 bd
       -0.083970286 -0.06937914 0.29484376 -0.0367094
000110 07 6b 41 bd d8 c9 ac 3d 6d 7b 86 3d ed d3 10 3e
       -0.04722121 0.08436936 0.0656651 0.14143343
000120 ee db 51 3f c9 e3 98 3e 53 eb 23 bd da ab c8 bd
       0.8197621 0.29861286 -0.040019345 -0.09798403
000130 65 8b eb 3b 84 0c 12 3d 2e 8d 67 bd d3 07 78 bb
       0.007188248 0.035656467 -0.056531124 -0.003784646
000140 96 38 2e 3f de 61 00 bd df c2 46 bd d6 f5 9c be
       0.68055093 -0.031343333 -0.048525687 -0.30656308
000150 31 41 8d 3d 5b 58 1f bd 60 29 df 3e f7 64 86 be
       0.068972 -0.03890262 0.43586254 -0.26248905
000160 68 4d 97 bd 3e 79 84 3c 1d 70 22 bd a3 27 5c 3c
       -0.07387811 0.016171094 -0.0396577 0.0134371845
000170 f7 37 e8 3e 70 9f bb be 7b 08 00 3d 6d 6e 96 bd
       0.45355198 -0.3664508 0.031258088 -0.07345281
000180 2e 8e d0 bc 48 9c b1 3d 7b da d3 be f1 99 c9 bc
       -0.025458422 0.086723864 -0.41377625 -0.024609538
000190 df 8d 3c be 23 e6 a0 3e d7 5f 93 bc ec 08 f1 be
       -0.18413495 0.3142558 -0.017990036 -0.4707712
0001a0 51 0b cb bc a3 18 a7 bd a0 dc 82 bd 68 78 b8 be
       -0.02478567 -0.08158996 -0.06389737 -0.36029363
0001b0 d3 f9 8e be c1 ce b6 bd e4 3d 46 be 5f 96 a7 bd
       -0.27924976 -0.08926154 -0.19359547 -0.08182978
0001c0 82 ba a8 bd 3b dc 8d bd 04 b5 03 3e 41 9a 83 bd
       -0.082386985 -0.06926771 0.1286202 -0.06425906
0001d0 eb fc 90 3e 95 b0 c2 3e 35 46 66 bd 0b 36 c1 bd
       0.2831796 0.38025346 -0.0562193 -0.09434136
0001e0 4d a7 9f 3c 4d 97 11 bf 95 9f 1a 3f a0 9f 04 3f
       0.019488955 -0.5687149 0.6039975 0.5180607
0001f0 0a f6 88 3b 7f 18 0c 3d 15 d2 fa be 84 3e 8b 3d
       0.0041797208 0.03420305 -0.48988405 0.06799033
000200 b4 af 7f be e6 0d fa bd 02 ad ac bd a3 3a a7 bd
       -0.24969369 -0.12209682 -0.08431436 -0.08165481
000210 5e 99 05 bd 61 3c ba 3d 76 34 4c bd 35 53 92 3f
       -0.032616965 0.090935476 -0.04985472 1.1431643
000220 53 35 d0 bc 11 21 9b be 33 ce f3 3e a4 89 8f be
       -0.025416052 -0.30298665 0.47618255 -0.280347
000230 cd ea 13 3e 8b 2c c9 bc 43 48 0c bd 7c b6 ec bd
       0.14445038 -0.024557373 -0.0342486 -0.11558244
000240 af 07 01 3f 76 92 9f bd 33 df 13 be 17 43 cf bd
       0.5040235 -0.07791607 -0.14440612 -0.10120218
000250 2d 1d 1a bd a3 b1 50 be c1 1b 92 3e 73 99 c1 3c
       -0.03762548 -0.20380263 0.285368 0.02363274
000260 0d f7 71 3d b3 89 95 3f 6d cc 36 3f 6a 16 a1 3c
       0.059073497 1.1682647 0.7140568 0.019664008
000270 85 71 c7 3e 40 23 93 bc 2d 67 85 bd bf 0f d2 bd
       0.38953796 -0.017961144 -0.0651382 -0.102569096
000280 da 60 6e bc 41 d1 2a bd 8c a9 a6 3e 6b a0 37 be
       -0.014549458 -0.041703466 0.3255123 -0.17932288
000290 e3 c2 57 be d6 de a7 bc 50 eb c7 bd 2a 89 a6 3c
       -0.21070437 -0.020491999 -0.09761679 0.020329077
0002a0 4f e6 6f 3d 38 24 17 3f ac 38 ce 3c 22 b3 7a be
       0.05856925 0.5903964 0.025173508 -0.24482396
0002b0 74 1e d2 bd c7 17 1e bd 8b 6d d3 bc cb 1d 1f 3d
       -0.10259715 -0.038596895 -0.02580907 0.038846772
0002c0 7a 00 09 bf 0b df b1 bd a1 da bc bc 27 25 fd 3d
       -0.5351635 -0.0868512 -0.02305347 0.12360602
0002d0 72 82 15 bd c6 a9 47 bc da df 06 bf bf 95 04 3b
       -0.036501355 -0.012186473 -0.5268532 0.0020230857
0002e0 a4 69 ae bd 27 8c 09 bc ce 19 03 bf 0a 50 0e bb
       -0.08516243 -0.008395231 -0.5121125 -0.0021715187
0002f0 e8 f6 34 bd bc 6e df be b3 8e bf bc 40 28 b0 bd
       -0.04418078 -0.4363917 -0.023383474 -0.08601427
000300 32 1f e8 3e 2d b8 ec 3e 30 92 39 3e f5 2b 08 bd
       0.453363 0.46234265 0.18122172 -0.033245046
000310 d0 11 c4 be 1e d6 37 bb 9f e9 16 3d d3 72 68 3c
       -0.3829484 -0.0028051208 0.036843892 0.0141875325
