HybridLearning-master/data/hlt_stoch/InvertedPendulumBulletEnv/seed_666/policy_8000.pt (torch, 10544 bytes, 6 tensors)

mu.0.weight f4 [128, 5]
0.29774755 0.28456327 -0.47899225 1.7793916 0.1637064 0.003998331 -0.09311139 0.023318741
-0.08118215 -0.025990488 -0.013252091 -0.024990639 0.024975535 -0.027970253 -0.005825034 0.01194104
-1.9040765 0.49694788 -0.3853603 0.5606898 0.016004238 0.030888254 -0.01183742 0.0053664134
-0.002895566 0.12928481 0.14959368 -0.1471996 0.8635678 0.112153634 0.032420658 -0.02683819
-0.014232329 0.06376288 -0.030383877 1.4737507 -0.058273893 0.21759634 -1.9555241 0.7671239
-0.028428966 0.00835702 0.022807779 -0.05380867 0.018075839 -0.015366222 0.035966944 0.0011255927
-0.021887405 0.027550276 -0.0076356777 -0.0061695427 -0.09039343 -0.047104046 -0.0025802986 1.0997167
0.27630687 -0.15475847 0.7743199 -0.8384213 0.9859704 0.15678045 0.8879257 4.1364827
0.7093601 -0.121445775 0.43369833 -0.6218873 -0.69709885 -0.25238302 -0.42461908 0.04481383
-0.0721537 -0.30455345 0.082386665 0.75477636 -0.12409088 0.19367006 0.28932893 -0.11528077
0.014603599 -0.018860513 -0.006680586 0.022990944 -0.015311435 0.028874839 -0.07210449 0.008386039
0.059060793 -0.057553615 1.3208314 -0.42305872 0.1332594 -0.18575129 -0.15893827 -0.02141543
0.06350048 -0.012526073 -0.034519773 0.045572057 -0.0080536725 -0.031613447 0.020734526 -0.014856189
-0.010957099 -0.1257034 0.15889618 -0.07288178 -1.3653865 0.24473742 1.7445266 0.260576
-0.07786944 -3.1233668 -0.44032308 0.0047128005 0.009669324 -0.009660382 0.004595212 0.0042057973
0.0013547001 0.007648773 -0.0019159856 0.015014088 0.0077030933 -0.0054318905 0.013105982 0.052661486
-0.06339775 -0.008775127 -0.00046728872 -0.10032538 0.032882098 -0.044881273 -0.03335438 -0.9690578
-0.027878756 -0.292905 -0.6560384 0.8442233 0.014771401 0.02255428 -0.026826914 0.033325486
0.00291833 -0.0076664207 0.019768912 0.0007660603 -0.011190348 0.018391095 0.5166149 -0.23407064
-0.07605128 0.57095927 -0.22238092 1.0893558 -0.32421717 -0.017208472 0.066793635 -0.18079527
-1.8215301 0.4306174 0.844424 -1.5202818 -0.4785968 -0.0044103637 1.086294 -1.003691
0.32068026 0.2746225 -0.01080904 -0.024973597 0.021016827 -0.022027368 -0.0064872997 -0.5415107
-0.27918085 -0.093009405 -0.18427333 0.04183517 -1.5486677 -0.08404865 -0.6643883 -0.41539818
1.2406001 0.27634892 0.36614668 -0.26594663 1.2751762 0.097799435 0.16485903 0.41705775
0.6560652 -0.8675996 0.37499887 -0.0038088926 -0.0036274202 0.006480029 -0.01505708 -0.0035094377
-0.2593159 0.1532766 -0.025430024 -1.1565589 0.25704885 0.33071932 -0.030307341 1.5185381
0.3076855 -0.29170573 0.019753719 0.04391977 -0.037007794 0.04370674 0.008367659 -0.19169618
0.684555 -1.425557 0.6545823 -0.5534906 -0.12831593 0.27045068 -0.13051264 0.7407795
0.09917735 -0.49929407 -0.70684886 -1.1595019 -4.7084374 -1.1473501 -0.53561366 0.10738277
-0.11653163 -0.6886384 0.18746968 1.440295 -0.018852668 -0.40830222 -2.1804068 0.0075352
0.00067797856 0.010459206 -0.0070653423 -0.002315937 0.0066960272 0.01168604 0.022906583 -0.02213555
0.024279363 0.0059945243 -0.7066872 0.100951195 -0.1379474 -0.2772899 0.11571612 0.3052323
00000000: 5e72 983e 47b2 913e 793e f5be 1bc3 e33f
00000010: a7a2 273e 6e04 833b 2fb1 bebd f206 bf3c
00000020: d442 a6bd 01ea d4bc 4c1f 59bc 2bb9 ccbc
00000030: 7e99 cc3c df21 e5bc eddf bebb 5aa4 433c
00000040: c7b8 f3bf f46f fe3e f24d c5be 5e89 0f3f
00000050: 521b 833c 5d09 fd3c bdf1 41bc bdd8 af3b
00000060: 89c3 3dbb 3d63 043e 162f 193e 7ebb 16be
00000070: c812 5d3f ceb0 e53d 86cb 043d c4db dbbc
00000080: b72e 69bc 1d96 823d 9ce7 f8bc dda3 bc3f
00000090: 9bb0 6ebd 93d1 5e3e 9d4e fabf 3b62 443f
000000a0: dde3 e8bc e2eb 083c 61d7 ba3c 7b66 5cbd
000000b0: c813 943c 9bc2 7bbc 1352 133d a088 933a
000000c0: 374d b3bc 1eb1 e13c b534 fabb e029 cabb
000000d0: 3120 b9bd 2cf0 40bd 3a1a 29bb 84c3 8c3f
000000e0: 1878 8d3e 0179 1ebe d439 463f c7a2 56bf
000000f0: 8e68 7c3f 0e8b 203e 194f 633f 115e 8440
00000100: a098 353f 90b8 f8bd b50d de3e 0234 1fbf
00000110: 1275 32bf 5938 81be ac67 d9be b58e 373d
00000120: 52c5 93bd 6eee 9bbe 57ba a83d 0639 413f
00000130: 5c23 febd 7251 463e ec22 943e 5318 ecbd
00000140: ef43 6f3c 5d81 9abc d1e8 dabb 8157 bc3c
00000150: d0dc 7abc ed8a ec3c 85ab 93bd 9965 093c
00000160: bbe9 713d 57bd 6bbd 0111 a93f 279b d8be
00000170: 2775 083e 9635 3ebe b7c0 22be 696f afbc
00000180: 8a0c 823d 283a 4dbc 9b64 0dbd c4a9 3a3d
00000190: 8df3 03bc 1a7d 01bd 74db a93c 5f67 73bc
000001a0: 6785 33bc 64b8 00be aeb5 223e 0b43 95bd
000001b0: fcc4 aebf 729c 7a3e a64c df3f 386a 853e
000001c0: 037a 9fbd 3ee5 47c0 0772 e1be d66d 9a3b
000001d0: 166c 1e3c 9446 1ebc 6f93 963b c9d0 893b
000001e0: 3190 b13a 8fa2 fa3b cf21 fbba a6fd 753c
000001f0: 3b6a fc3b 00fe b1bb 79ba 563c 92b3 573d
00000200: aed6 81bd 8dc5 0fbc 6efe f4b9 6577 cdbd
00000210: 61af 063d 6dd5 37bd 9a9e 08bd 2c14 78bf
00000220: fd61 e4bc a5f7 95be 22f2 27bf 051f 583f
00000230: bf03 723c c1c3 b83c 1ec4 dbbc 4e80 083d
00000240: 7441 3f3b 9936 fbbb 6af2 a13c 70d1 483a
00000250: b957 37bc eca8 963c e040 043f 37b0 6fbe
00000260: c6c0 9bbd 632a 123f d3b7 63be 0370 8b3f
00000270: cbff a5be c8f8 8cbc 1acb 883d 6522 39be
00000280: e627 e9bf e279 dc3e 2c2c 583f 9898 c2bf
00000290: a40a f5be d084 90bb af0b 8b3f f278 80bf
000002a0: 3430 a43e 529b 8c3e 6618 31bc 6e95 ccbc
000002b0: 7b2b ac3c bd72 b4bc 6a93 d4bb 72a0 0abf
000002c0: cbf0 8ebe b77b bebd 26b2 3cbe 5b5b 2b3d
000002d0: be3a c6bf b321 acbd 5a15 2abf 12af d4be
000002e0: fccb 9e3f 9b7d 8d3e 9477 bb3e 282a 88be
000002f0: f938 a33f 124b c83d ced0 283e 9888 d53e
00000300: e4f3 273f 021b 5ebf daff bf3e 9d9e 79bb
00000310: 03ba 6dbb 6c56 d43b f9b1 76bc 98fe 65bb
00000320: 0ec5 84be 8bf4 1c3e a052 d0bc 1f0a 94bf
00000330: e89b 833e 0b54 a93e 1a47 f8bc 755f c23f
00000340: f488 9d3e 745a 95be 8dd2 a13c 37e5 333d
00000350: 7c95 17bd d705 333d 8118 093c 014c 44be
00000360: ff3e 2f3f a778 b6bf b592 273f 8fb1 0dbf
00000370: 4065 03be 8378 8a3e 1ba5 05be baa3 3d3f
00000380: 7f1d cb3d 79a3 ffbe 0cf4 34bf 8f6a 94bf
00000390: 85ab 96c0 5edc 92bf fa1d 09bf 7feb db3d
000003a0: 23a8 eebd 9b4a 30bf 0df8 3f3e 965b b83f
000003b0: e970 9abc fd0c d1be c98b 0bc0 d7e9 f63b
000003c0: 5fba 313a 175d 2b3c 6384 e7bb fac6 17bb
000003d0: 596a db3b ce76 3f3c 96a6 bb3c 9d55 b5bc
000003e0: 84e5 c63c b76d c43b 74e9 34bf 80bf ce3d
000003f0: 1542 0dbe f1f8 8dbe 93fc ec3d 6847 9c3e

mu.0.bias f4 [128]
-0.32084227 0.016812572 -0.01711192 0.16692358 0.006035757 0.118897356 0.036229182 0.19261196
-0.0365542 -0.025756024 0.10646216 -0.14810832 -0.72612196 0.6810478 0.0765338 -0.20578842
0.01530198 0.03271931 -0.10647303 -0.021645911 -0.0084825475 0.002517527 1.2552766 0.0032441753
-0.0051035713 -0.062655196 0.0073139984 -0.17422579 0.022274138 -0.018380502 0.07852926 -0.04757434
1.222122 0.71812654 -0.012863148 0.13271116 -1.0776664 0.2517712 -0.71771234 -0.0050683473
-0.07918208 1.561053 0.02597865 -1.0208379 0.12233062 0.8597732 0.113310434 -0.9673656
-0.0014998721 0.014139662 0.1382131 0.058714446 0.06683072 0.051013306 -0.027155813 -0.027107524
0.09809743 -0.04885374 0.40077305 -0.021087313 0.07216628 0.050965246 -0.37220094 0.025103781
-1.3549945 -0.025247367 -0.03355617 0.01397025 -0.05093961 0.0151911955 -0.5636132 -0.07881341
0.016530665 -0.01216464 0.011223861 -0.0064224354 -0.2879082 0.11975465 0.0010118465 -0.5632881
-0.40001938 -0.20245044 -0.14564501 -0.017438991 -1.0900004 -0.050010517 -0.59160626 -0.004292392
-0.13940036 -0.3760427 -0.028859308 -0.6694924 0.59966236 0.1660255 -0.03682251 -0.23812091
0.6335046 -0.05737957 -0.057770822 0.2522463 -0.0011483147 -0.0108077405 -0.033669133 0.101729825
0.011214578 -0.094599895 0.04098457 0.5544406 0.07258397 1.5495178 0.08414324 -0.020091316
-0.0243097 -0.26180542 -0.12877622 0.018974546 0.29571316 0.22519164 -0.095627144 -0.13959208
0.0015523897 0.26502612 0.0625087 0.3287858 0.6792745 1.077475 -0.012480661 -0.36030245
00000000: 7045 a4be 85ba 893c 4c2e 8cbc 04ee 2a3e
00000010: 99c7 c53b 7580 f33d 0d65 143d 123c 453e
00000020: dbb9 15bd 4cfe d2bc d508 da3d b5a9 17be
00000030: 21e3 39bf 2659 2e3f c1bd 9c3d 33ba 52be
00000040: 28b5 7a3c af04 063d 880e dabd c452 b1bc
00000050: 62fa 0abc 18fd 243b e7ac a03f 3b9c 543b
00000060: dc3b a7bb 5e51 80bd 44aa ef3b 3f68 32be
00000070: 4178 b63c b592 96bc f3d3 a03d 50dd 42bd
00000080: 7e6e 9c3f 24d7 373f f4bf 52bc 6fe5 073e
00000090: f9f0 89bf 28e8 803e ffbb 37bf 6114 a6bb
000000a0: 372a a2bd 96d0 c73f 2ed1 d43c d1aa 82bf
000000b0: 7a88 fa3d 191a 5c3f 4d0f e83d 46a5 77bf
000000c0: 5b97 c4ba 0aaa 673c bc87 0d3e 8f7e 703d
000000d0: 8bde 883d 54f3 503d de75 debc 9910 debc
000000e0: 4ee7 c83d dc1a 48bd 2032 cd3e 4dbf acbc
000000f0: eacb 933d efc0 503d 1f91 bebe 72a6 cd3c
00000100: 7670 adbf 91d3 cebc 3272 09bd 7ae3 643c
00000110: 0da6 50bd 7ee4 783c f448 10bf ed68 a1bd
00000120: 516b 873c 334e 47bc 49e4 373c 4b73 d2bb
00000130: b468 93be ed41 f53d ef9f 843a a633 10bf
00000140: 57cf ccbe 2b4f 4fbe f723 15be 37dc 8ebc
00000150: 2285 8bbf d4d7 4cbd 8273 17bf 32a7 8cbb
00000160: f8be 0ebe ab88 c0be 5b6a ecbc db63 2bbf
00000170: 7983 193f 9702 2a3e 33d3 16bd f8d5 73be
00000180: 5c2d 223f d706 6bbd 19a1 6cbd 6d26 813e
00000190: 0c83 96ba f312 31bc a5e8 09bd ba57 d03d
000001a0: 59bd 373c 97bd c1bd 70df 273d d2ef 0d3f
000001b0: e8a6 943d 9956 c63f 4a53 ac3d 8b96 a4bc
000001c0: 2325 c7bc 5c0b 86be eadd 03be 8270 9b3c
000001d0: b767 973e a398 663e 2ad8 c3bd 3af1 0ebe
000001e0: 8e79 cb3a 81b1 873e 9004 803d 9d56 a83e
000001f0: efe4 2d3f b3ea 893f b07b 4cbc 9079 b8be

mu.2.weight f4 [1, 128]
0.22022015 -0.016324906 -0.005548826 0.38228408 0.0035249474 0.013215002 -0.008129697 -0.2495844
0.0022604223 0.005950733 0.005018706 -0.32185027 1.3164643 0.26617202 0.037978064 -0.124258965
-0.006637404 -0.020666106 -0.21035145 0.013018913 -0.0063829804 0.14742765 -0.49657357 0.00055039034
0.0003186436 -0.0034420288 -0.018302595 0.2390947 0.006077584 0.0014231917 -0.07086497 -0.20400348
0.43651304 -0.21289253 -0.005987018 0.039814856 0.3241565 0.012852595 -0.13547154 -0.00061401166
0.12189658 -1.0296612 0.008309492 -0.6139253 0.018599093 -0.5471981 0.09910624 0.63294315
0.0005216656 0.005053879 0.096089 -0.006727927 0.0017825724 0.0026074755 0.0045266803 0.015295646
0.45807946 0.0078123296 -0.100034006 0.01697831 0.033386145 -0.0019121809 0.2954203 -0.0151887005
-0.32565072 4.785732e-05 0.0028762708 0.0046654665 -0.0021216972 -0.00860336 -0.06773086 -0.05851234
-0.06027927 0.004681186 0.10938915 -0.0004074404 -0.015340337 0.008679418 9.009014e-05 -0.35200793
-0.11948093 0.13979213 -0.042091213 0.015286789 -0.7897893 0.0001503074 0.1620693 0.00057334366
-0.04684965 0.13257809 0.015563279 -1.2160603 -0.37295833 0.007417962 0.008356455 -0.034106046
0.2619309 0.006292632 -0.03113582 0.17959914 -0.0860589 0.0054275696 0.02323807 0.1568682
0.06826608 -0.13035141 -0.017863229 -0.12001287 -0.07163146 -1.329481 0.043551877 -0.002847517
-0.004588864 -0.571565 -0.043816525 -0.007932052 0.31616244 -0.42998806 0.00904832 -0.14245047
0.0024021838 -0.33843789 -0.0008817547 0.03434906 -0.46764752 -0.24992038 0.008147182 -0.02957428
00000000: 6481 613e cfbb 85bc edd2 b5bb bdba c33e
00000010: ce02 673b bc83 583c 6c32 05bc 0e93 7fbe
00000020: 9823 143b 5efe c23b f573 a43b 8fc9 a4be
00000030: e781 a83f b347 883e e38e 1b3d 7c7b febd
00000040: 957e d9bb f74b a9bc 5f66 57be 474d 553c
00000050: 5228 d1bb 46f7 163e e43e febe 1248 103a
00000060: 9f0f a739 a993 61bb 53ef 95bc 3ed5 743e
00000070: 7826 c73b 648a ba3a a721 91bd 4ae6 50be
00000080: a37e df3e 8000 5abe bf2e c4bb e714 233d
00000090: d7f7 a53e b193 523c 0db9 0abe a0f5 20ba
000000a0: eaa4 f93d f0cb 83bf 8924 083c 352a 1dbf
000000b0: 205d 983c 2d15 0cbf 36f8 ca3d 9008 223f
000000c0: 63c0 083a 039b a53b 4fca c43d f175 dcbb
000000d0: 34a5 e93a 2ee2 2a3b 8c54 943b 979a 7a3c
000000e0: 6489 ea3e 92fe ff3b a1de ccbd 1916 8b3c
000000f0: e9bf 083d 25a2 faba 5441 973e 07da 78bc
00000100: b1bb a6be 68ba 4838 d17f 3c3b c5e0 983b
00000110: 2c0c 0bbb 1bf5 0cbc 7ab6 8abd a3aa 6fbd
00000120: 65e7 76bd a264 993b 6b07 e03d ba9d d5b9
00000130: 0956 7bbc 1e34 0e3c c7ee bc38 623a b4be
00000140: 6bb2 f4bd ab25 0f3e d667 2cbd 7175 7a3c
00000150: a22f 4abf d69b 1d39 7ff5 253e 714c 163a
00000160: 6be5 3fbd 8dc2 073e 20fd 7e3c dda7 9bbf
00000170: 65f4 bebe 6012 f33b 83e9 083c c8b2 0bbd
00000180: cf1b 863e 6c32 ce3b 8c10 ffbc d6e8 373e
00000190: a63f b0bd c1d9 b13b c45d be3c 0fa2 203e
000001a0: 16cf 8b3d d77a 05be e855 92bc 4fc9 f5bd
000001b0: 84b3 92bd 6f2c aabf 7463 323d 689d 3abb
000001c0: 2e5e 96bb 1552 12bf f578 33bd 70f5 01bc
000001d0: 0be0 a13e 6527 dcbe 683f 143c 89de 11be
000001e0: f56d 1d3b bb47 adbe 8e25 67ba 9ab1 0c3d
000001f0: 7f6f efbe 21eb 7fbe c27b 053c c345 f2bc

log_std.0.weight f4 [128, 5]
-0.14165026 0.26196602 -0.48504442 0.7597946 0.1633629 0.037896533 0.13024603 0.024344442
0.28543308 -0.017236095 0.05478649 0.063092865 -0.005445413 0.079218924 0.00081170606 0.19804022
0.20680511 -0.6423411 1.3163006 0.33612633 -0.38677478 -0.17129779 0.36724466 0.9713541
0.27371532 0.30452612 -0.047032934 -0.7611507 -0.17770694 -0.20162457 -0.5068874 -0.3818151
0.5157625 0.028907226 0.0531054 0.18562783 0.10033653 0.42429298 0.8816914 0.09021393
0.84532577 -0.0128588565 0.59283257 0.7677492 0.08783963 -0.49215087 -0.09001758 -0.36503473
0.100133285 -0.052728634 -0.5917205 -0.089979544 0.38713852 -0.5004429 -0.028215716 0.28803763
0.028002294 0.46320513 0.06355483 0.12200854 -0.75751776 0.003819007 0.24442704 -0.30327162
-0.09580711 0.331888 0.013729289 0.21937141 -0.27637017 -0.014036729 -0.103563815 0.047275554
-0.059803914 -0.040920045 -0.004012535 -0.015186959 -0.023965454 0.035488963 0.07954151 0.0068517206
0.5163098 0.35515222 0.5874752 -0.30010873 -0.06331641 0.48464185 0.002261513 0.34336793
-0.36131707 -0.32665244 0.5427615 -0.0137677705 0.38148856 -0.27304074 0.121704355 0.17045237
0.11133226 -0.15399668 -0.061585356 -0.013499409 0.32477692 -0.34197834 -0.12343891 0.3725647
0.03940114 -0.23976058 0.022729596 0.3518686 0.1717523 0.02003658 0.47855818 0.21303566
0.34646794 0.09187264 0.1988322 0.5894057 0.41434613 -0.29067698 0.33889022 -0.062288802
0.2560908 0.018257048 -0.2915364 -0.036258634 -0.0062127425 0.02782231 0.03614092 0.007374111
0.08647329 0.00580378 0.7961938 0.25825855 -0.24505341 0.028013509 0.15061784 0.3669093
0.42556354 0.3640676 -0.2952814 -0.019466644 -0.1266092 -0.054239757 0.07362958 0.15747237
0.026877789 0.1324686 -0.16949727 -0.12223141 -0.1524728 0.0131488005 0.26795167 -0.22189288
0.09181826 -0.73860043 -0.0016442705 -0.036813404 0.047514156 0.044649787 0.051459406 0.010211281
-0.45456457 -0.015075804 -0.46810907 0.38665652 0.37547743 -0.2990547 -0.06711135 0.12960272
0.6030585 0.24990578 0.43660983 -0.019247534 -0.052032594 -0.43330255 -0.20559187 -0.021681426
0.11709201 -0.006989695 -0.06696344 -0.013937614 0.09801849 0.09103278 0.06800052 0.23495293
-0.028549429 0.20566188 -0.22269985 -0.0445032 0.33636963 -0.0010380963 0.1395121 -0.11528853
0.23969364 0.13292745 -0.01003426 1.0260189 0.20150577 -0.17931685 0.09219618 0.095403224
0.22204182 0.2360909 -0.010769068 -0.62656844 -0.024371652 0.117544 -0.04666377 0.7214065
-0.28460792 -0.15372358 -0.35178992 -0.074008636 -0.11102342 -0.10698709 -0.010623868 0.50791997
0.21180816 0.5078546 0.88239664 0.124580435 -0.05650706 0.09245113 -0.123552114 0.05359147
-0.020134382 -0.37782332 0.43674502 -0.18031394 0.91243374 0.019299982 -0.20857538 0.21704406
0.20888849 0.8540538 0.26078907 -0.015075507 -0.04487309 -0.23652922 -1.0083078 0.23175088
0.013872735 -0.21300942 0.50463635 -1.2673813 -0.28567573 -0.52127457 0.13751851 0.11676396
0.22710711 0.033024367 -0.42289534 0.10205162 0.07494274 -0.07458065 0.018110126 0.08044618
00000000: c40c 11be 6920 863e be57 f8be e681 423f
00000010: 9b48 273e 6539 1b3d 375f 053e ff6d c73c
00000020: 4924 923e b632 8dbc cc67 603d d536 813d
00000030: 6f6f b2bb 883d a23d acc8 543a 0ecb 4a3e
00000040: b8c4 533e 7770 24bf 8a7c a83f c018 ac3e
00000050: 5807 c6be b068 2fbe 7e07 bc3e aaaa 783f
00000060: 6a24 8c3e d9ea 9b3e 9ba5 40bd c6da 42bf
00000070: cff8 35be ac76 4ebe 5fc3 01bf 457d c3be
00000080: 0309 043f d9ce ec3c 0c85 593d 3915 3e3e
00000090: 3d7d cd3d ee3c d93e 87b6 613f 15c2 b83d
000000a0: 4567 583f f4ad 52bc e0c3 173f 368b 443f
000000b0: 44e5 b33d 33fb fbbe 235b b8bd d5e5 babe
000000c0: ae12 cd3d fbf9 57bd ff7a 17bf 3247 b8bd
000000d0: 0537 c63e 071d 00bf a524 e7bc ab79 933e
000000e0: 1165 e53c 3929 ed3e 0929 823d 9ddf f93d
000000f0: afec 41bf 4e48 7a3b 154b 7a3e 6b46 9bbe
00000100: 8536 c4bd 39ed a93e d0f0 603c e6a2 603e
00000110: 6480 8dbe 4ffa 65bc 4419 d4bd 03a4 413d
00000120: f3f4 74bd c79b 27bd 957b 83bb b9d2 78bc
00000130: 3353 c4bc e05c 113d a9e6 a23d 6684 e03b
00000140: e12c 043f 83d6 b53e c664 163f daa7 99be
00000150: 09ac 81bd fa22 f83e e435 143b eccd af3e
00000160: 8dfe b8be fd3e a7be 6bf2 0a3f 3792 61bc
00000170: 7852 c33e ffcb 8bbe 2240 f93d 118b 2e3e
00000180: 2b02 e43d 4eb1 1dbe ed40 7cbd a02c 5dbc
00000190: 2949 a63e c917 afbe 8acd fcbd cdc0 be3e
000001a0: 1763 213d cc83 75be 6b33 ba3c 1f28 b43e
000001b0: d6df 2f3e c123 a43c 9405 f53e 0526 5a3e
000001c0: 3f64 b13e b927 bc3d ab9a 4b3e 4be3 163f
000001d0: 2d25 d43e 9dd3 94be 0583 ad3e 8b22 7fbd
000001e0: 551e 833e ce8f 953c 4244 95be ef83 14bd
000001f0: 4394 cbbb 9deb e33c 8008 143d 87a2 f13b
00000200: e918 b13d a32d be3b 5bd3 4b3f 773a 843e
00000210: 48ef 7abe 967c e53c 903b 1a3e 89db bb3e
00000220: 77e3 d93e 1267 ba3e 202f 97be 8378 9fbc
00000230: d8a5 01be 822a 5ebd 1bcb 963d 7040 213e
00000240: cf2e dc3c d9a5 073e b190 2dbe 7654 fabd
00000250: d421 1cbe 116e 573c f630 893e e337 63be
00000260: 360b bc3d eb14 3dbf 9084 d7ba a7c9 16bd
00000270: 349e 423d b2e2 363d 19c7 523d 374d 273c
00000280: b0bc e8be 8100 77bc feab efbe d8f7 c53e
00000290: 943e c03e b31d 99be ad71 89bd 93b6 043e
000002a0: 0b62 1a3f 4de7 7f3e 538b df3e 01ad 9dbc
000002b0: 2120 55bd d5d9 ddbe ad86 52be 3f9d b1bc
000002c0: f0cd ef3d d009 e5bb 2124 89bd 975a 64bc
000002d0: ebbd c83d 656f ba3d db43 8b3d 8097 703e
000002e0: 7ee0 e9bc 0799 523e 6e0b 64be fd48 36bd
000002f0: a438 ac3e bb10 88ba 43dc 0e3e 651c ecbd
00000300: 4072 753e 221e 083e bd66 24bc 9654 833f
00000310: 8757 4e3e d69e 37be 5ad1 bc3d c462 c33d
00000320: ee5e 633e d0c1 713e bf70 30bc ca66 20bf
00000330: 0fa7 c7bc e9ba f03d 8222 3fbd 19ae 383f
00000340: 21b8 91be b769 1dbe cf1d b4be d791 97bd
00000350: 3f60 e3bd 0c1c dbbd bb0f 2ebc 0b07 023f
00000360: 3de4 583e c202 023f bfe4 613f 0724 ff3d
00000370: f273 67bd 0557 bd3d e408 fdbd bb82 5b3d
00000380: dcf0 a4bc 0f72 c1be 0b9d df3e 38a4 38be
00000390: 4295 693f ff1a 9e3c c994 55be cc40 5e3e
000003a0: dde6 553e 45a3 5a3f 2586 853e 42ff 76bc
000003b0: d8cc 37bd b734 72be 3b10 81bf 1a50 6d3e
000003c0: 784a 633c 241f 5abe d92f 013f 8d39 a2bf
000003d0: 1744 92be 4072 05bf a7d1 0c3e f121 ef3d
000003e0: c48e 683e 8f44 073d bd85 d8be 7100 d13d
000003f0: 947b 993d bdbd 98bd b05b 943c f8c0 a43d

log_std.0.bias f4 [128]
-0.08784739 -0.19597419 -0.13481 -0.19745289 0.012424931 -0.83455724 -0.6116569 -0.100885995
0.13397099 0.19073187 -0.65960324 -0.3874133 -0.4235184 -0.39113486 -0.22317 -0.16774225
-0.65399563 -0.025097527 -0.24451491 -0.5817471 -0.67943615 -0.65116286 -0.10761991 -0.323889
-0.33199182 -0.095378235 -0.60129595 -0.9685478 -0.43912765 -0.57682073 -0.017434206 -0.16275285
-0.03905625 -0.5266907 0.15824838 -0.50228584 -0.25982797 -0.41271102 -0.5182388 -0.67204636
0.008228166 -0.3051775 -0.6139056 0.2823928 -0.5337194 -0.64295834 -0.13454017 -0.298034
-0.59120727 -0.20051831 -0.09249489 -0.34108514 -0.3653893 -0.104469016 -0.40650988 -0.12977895
0.08557789 -0.33166888 -0.66541 -0.1414862 -0.8290455 0.06514346 -0.54633784 -0.552839
0.19950274 -0.4272169 -0.12465873 -0.13223816 0.19662683 -0.63004416 -0.47947922 -0.022410762
-0.54645914 -0.14317343 -0.18420345 -0.3135695 -0.39789182 -0.35093978 -0.44655287 -0.025445277
-0.0020542503 0.21092325 -0.19491576 -0.77035457 -0.29173315 -0.39463153 -0.5291882 -0.41488492
-0.3935051 -0.2702534 -0.14196528 0.008754517 -0.02334459 -0.9931915 -0.26323023 0.19854547
-0.42938533 -0.29193437 -0.44565755 -0.5303277 -0.24621549 -0.10470206 -0.23713806 -0.24155094
-0.24362841 -0.046079487 -0.0713876 -0.7678969 -0.119109735 -0.779569 0.21983072 -0.9042017
-0.36774594 -0.46239665 -0.28566957 -0.2576047 -0.011717436 -0.57662785 -0.13277909 -0.21803379
-0.20193426 0.4380447 0.008642722 -0.25949383 -0.03860758 -0.4482122 -0.07015712 -0.8389339
00000000: 55e9 b3bd 75ad 48be a20b 0abe 1731 4abe
00000010: f091 4b3c 8ba5 55bf 8c95 1cbf 519d cebd
00000020: b12f 093e 374f 433e c2db 28bf 095b c6be
00000030: 67d7 d8be d442 c8be ad86 64be a0c4 2bbe
00000040: 426c 27bf 5499 cdbc 1e62 7abe 61ed 14bf
00000050: 87ef 2dbf 9cb2 26bf d467 dcbd c7d4 a5be
00000060: d5fa a9be aa55 c3bd 88ee 19bf c0f2 77bf
00000070: 57d5 e0be 86aa 13bf 2ed2 8ebc afa8 26be
00000080: 72f9 1fbd 34d5 06bf dd0b 223e ce95 00bf
00000090: 2c08 85be dc4e d3be 4cab 04bf 3b0b 2cbf
000000a0: 6ecf 063c 3a40 9cbe eb28 1dbf ca95 903e
000000b0: d6a1 08bf eb98 24bf e6c4 09be ea97 98be
000000c0: 5c59 17bf ac54 4dbe f66d bdbd b6a2 aebe
000000d0: 4e14 bbbe daf3 d5bd 1022 d0be c6e4 04be
000000e0: 7643 af3d 81d0 a9be 4f58 2abf c2e1 10be
000000f0: 533c 54bf ef69 853d ccdc 0bbf db86 0dbf
00000100: 724a 4c3e 2cbc dabe 144d ffbd 7169 07be
00000110: 8b58 493e 934a 21bf 4d7e f5be c696 b7bc
00000120: bfe4 0bbf 0e9c 12be d49f 3cbe 2e8c a0be
00000130: 7ab8 cbbe 61ae b3be 94a2 e4be 9d72 d0bc
00000140: 9aa0 06bb 44fc 573e ff97 47be f535 45bf
00000150: 0c5e 95be 250d cabe e178 07bf cc6b d4be
00000160: 8079 c9be a75e 8abe 595f 11be 1b6f 0f3c
00000170: 273d bfbc cc41 7ebf 1dc6 86be 814f 4b3e
00000180: 65d8 dbbe 6c78 95be 3a2d e4be 8ec3 07bf
00000190: ea1f 7cbe 096e d6bd 52d4 72be 2159 77be
000001a0: ba79 79be d8bd 3cbd a933 92bd e494 44bf
000001b0: ceef f3bd d591 47bf 4e1b 613e c379 67bf
000001c0: 3249 bcbe 41bf ecbe 4843 92be c3e4 83be
000001d0: 7dfa 3fbc e29d 13bf 3ef7 07be 4044 5fbe
000001e0: dbc7 4ebe 6547 e03e 349a 0d3c 60dc 84be
000001f0: fb22 1ebd 127c e5be 89ae 8fbd 5fc4 56bf

log_std.2.weight f4 [1, 128]
-0.12341656 -0.016355762 -0.010892285 -0.40728745 0.16671696 0.18376552 -0.09230434 -0.052068707
-0.18668503 -0.08501021 -0.16145484 -0.040204234 -0.18093617 -0.0077840965 -0.0006375138 -0.010653706
-0.16431244 -0.15417962 -0.10541864 0.003695288 -0.05392842 0.004894055 -0.10402118 0.06514114
0.016298886 -0.0037553965 0.119676076 0.28685588 -0.02478978 -0.008844519 -0.06516075 -0.00236567
-0.18973096 -0.11353717 -0.09296327 -0.018411282 -0.00044814657 -0.008305032 0.0135949645 0.41605696
-0.07140389 -0.1199317 0.0020954858 -0.15280424 -0.019521713 -0.21793368 0.1359457 0.2065403
0.38952032 -0.053231616 -0.0017815083 -0.030121522 -0.060550112 -0.02315658 0.09512688 0.17541607
-0.0697918 -0.07721495 -0.017391367 -0.14625011 -0.0803209 -0.0076179556 -0.052782055 0.21462952
-0.08701177 0.105600014 0.0004110554 -0.040088065 0.12882785 0.011356256 -0.28836113 0.00014538415
0.021179741 -0.019478902 -0.0069206697 -0.13632993 -0.04910587 -0.2275737 0.032985456 -0.011984021
0.331843 -0.016829569 -0.14311975 0.13972528 0.23151474 0.0068821274 0.19431451 -0.023549171
2.985707e-05 0.0063011027 -0.00085557206 -0.06711017 -0.029383976 0.53130716 -0.0018329372 -0.07610401
-0.029670589 0.0030114723 0.21561202 -0.00842024 -0.05307945 0.11377346 -0.11575906 -0.0009917227
-0.1722163 -0.0002048861 0.0012038628 -0.096786946 -0.0026898822 0.11775783 -0.008634136 0.63102823
-0.010277096 -0.052505728 -0.022952497 -0.004081124 -0.108754806 0.01379451 -0.008753486 -0.012210574
-0.023489855 -0.14795218 -0.23443833 -0.0059852246 -0.00019432227 -0.044237345 -0.00024062004 -0.12612267
00000000: d2c1 fcbd 85fc 85bc 8e75 32bc fb87 d0be
00000010: dab7 2a3e 072d 3c3e 0f0a bdbd ff45 55bd
00000020: 5c2a 3fbe d519 aebd 6b54 25be 32ad 24bd
00000030: 5547 39be bc11 ffbb d41e 27ba e28c 2ebc
00000040: 8541 28be 43e1 1dbe bae5 d7bd a52c 723b
00000050: 0ce4 5cbd 4f5e a03b 0e09 d5bd b868 853d
00000060: 3e85 853c 191d 76bb bb18 f53d c6de 923e
00000070: f013 cbbc 9ae8 10bc 0073 85bd 5b09 1bbb
00000080: d548 42be 2d86 e8bd 8763 bebd 42d3 96bc
00000090: 37f5 eab9 d411 08bc 6abd 5e3c 6b05 d53e
000000a0: 343c 92bd c09e f5bd 6b54 093b b778 1cbe
000000b0: 00ec 9fbc 022a 5fbe 5935 0b3e 4d7f 533e
000000c0: 356f c73e 6509 5abd 8081 e9ba 69c1 f6bc
000000d0: 6503 78bd deb2 bdbc e2d1 c23d 45a0 333e
000000e0: 01ef 8ebd df22 9ebd 5778 8ebc 97c2 15be
000000f0: 497f a4bd 0ba0 f9bb ff31 58bd d7c7 5b3e
00000100: 3a33 b2bd d244 d83d ec82 d739 6233 24bd
00000110: 73eb 033e 970f 3a3c 12a4 93be 4372 1839
00000120: 2381 ad3c 3892 9fbc c9c6 e2bb 139a 0bbe
00000130: 3d23 49bd 1409 69be c21b 073d a158 44bc
00000140: 53e7 a93e 2ade 89bc fc8d 12be 2514 0f3e
00000150: 3312 6d3e 7883 e13b 62fa 463e 31ea c0bc
00000160: 9275 fa37 7b79 ce3b 7848 60ba 0f71 89bd
00000170: aab6 f0bc bf03 083f 2b3f f0ba 6bdc 9bbd
00000180: bc0f f3bc 1f5c 453b 66c9 5c3e 0cf5 09bc
00000190: d669 59bd 0f02 e93d 1613 edbd b1fc 81ba
000001a0: 7859 30be b2d6 56b9 efca 9d3a 3c38 c6bd
000001b0: bc48 30bb 042b f13d 3176 0dbc 118b 213f
000001c0: 4461 28bc 3f10 57bd e006 bcbc f3ba 85bb
000001d0: d7ba debd 5e02 623c c86a 0fbc dc0e 48bc
000001e0: cc6d c0bc c780 17be 9a10 70be b41f c4bb
000001f0: fdc2 4bb9 3832 35bd f34e 7cb9 4d26 01be
