HybridLearning-master/data/hlt_stoch/InvertedPendulumBulletEnv/seed_666/policy_6000.pt (torch, 10544 bytes, 6 tensors)

mu.0.weight f4 [128, 5]
0.21476659 0.17337824 -0.4562657 1.6916429 0.23423204 0.09532592 -0.08014789 0.017111104
-0.3313876 -0.046858493 -0.0032039534 -0.0024995424 0.020215657 -0.053583905 -0.005429016 -0.7019333
-1.0159779 0.1932644 -0.25375402 0.65043944 -0.03364984 -0.009244366 -0.017659117 -0.08610175
-0.0048024217 0.1787731 0.14115232 -0.13277367 0.9133141 0.1499401 0.020006746 0.0034834503
-0.037112124 0.0994483 0.016688487 0.93031126 -0.15893598 0.11719287 -1.0939362 0.58726937
-0.005721894 -0.00425091 0.026707415 -0.066006795 -0.00575278 0.018149137 0.005166547 0.007978138
0.080358684 0.012791429 -0.3217536 0.07700535 -0.11792952 0.0037146707 0.047701817 1.070355
0.30781063 -0.28623363 0.7612926 -0.8048 0.9885197 0.19268467 0.90596724 3.9377787
0.6695593 0.20487125 0.4207251 -0.608316 -0.713942 -0.21513923 -0.4143982 -0.01702429
-0.028459683 -0.30944133 0.10360218 0.7279391 -0.022760972 0.16021751 0.18996777 -0.11052337
-0.015860535 -0.008782783 0.004393773 -0.07621883 -0.008509107 0.0076745944 -0.008629446 -0.028923757
0.02945892 0.013735364 1.2326578 -0.25170055 0.20034313 -0.23620303 -0.07267993 0.017853161
0.0045941956 -0.003942764 0.069703236 0.007613999 -0.018634055 -0.004970884 0.018255977 -0.063170984
-0.009285718 0.084061205 0.15102816 -0.018605603 -1.339011 0.203797 1.2456821 0.28728148
0.056956038 -2.6113212 -0.38206893 -0.021223526 -0.009947736 -0.00021141556 -0.0942003 -0.010508568
-0.015851708 -0.010457879 -0.0084170755 -0.07750754 -0.008701612 0.011304645 -0.032568347 0.08380884
-0.07139278 -0.010617861 -0.10638051 -0.07841996 0.030420164 -0.27202353 -0.029384695 -0.80374885
-0.29234275 -0.13270995 -0.78805876 0.846939 0.008586519 -0.021085229 0.0027404989 -0.043931253
0.0032153877 0.013792775 0.004943872 0.0026103912 -0.029700702 -0.017837062 0.3206367 -0.14024732
-0.11819588 0.53900063 -0.20215861 1.0030001 -0.13693446 -0.009149509 0.022334402 -0.12194271
-1.5916295 0.1797739 0.8233466 -1.7211806 -0.49166393 -0.023654329 0.91976434 -0.80810213
0.49681795 0.20866287 -0.002627284 -0.0010565739 0.015496062 -0.043303825 -0.005874041 -0.63695306
-0.47969738 -0.0825387 -0.21288669 0.0016132446 -1.3403329 0.0024202464 -0.4665685 -0.41278303
1.2791363 0.43240756 0.307904 -0.237325 1.1156214 0.26474348 0.067365386 0.47319207
0.5691108 -0.88169664 0.38557413 0.0053333696 0.003401126 -0.008513194 0.08284281 0.013209869
-0.06621619 0.11215407 -0.0027484323 -1.1151654 0.21765058 0.32800642 0.014826146 1.4417152
0.20608127 -0.27096266 0.030854125 0.05182588 -0.04324936 0.18233629 0.02085461 0.09958976
0.20776227 -1.3807304 0.394116 -0.5407932 -0.23353599 0.11851471 -0.21453942 0.80857354
0.13780728 -0.49780583 -0.4782666 -1.2403018 -4.403982 -1.1775906 -0.413892 0.0022895616
-0.07558158 -0.6148553 0.16211575 1.0523818 -0.17740743 -0.3550378 -2.1014123 -0.024485221
-0.00022487671 0.00067059125 0.0014441109 -0.0062038284 -0.0030277306 0.0031643636 0.0014511003 -0.020428238
0.05083003 0.012300986 -0.69919306 -0.017155241 -0.11699809 -0.20110507 0.09726175 0.037665285
00000000: c6eb 5b3e 118a 313e a89b e9be c187 d83f
00000010: 86da 6f3e 3c3a c33d 9424 a4bd 962c 8c3c
00000020: a3ab a9be b1ee 3fbd 6bf9 51bb 5dcf 23bb
00000030: 4e9b a53c cc7a 5bbd e3e5 b1bb e7b1 33bf
00000040: 900b 82bf 1ae7 453e 0cec 81be 3383 263f
00000050: 6ad4 09bd ae75 17bc daa9 90bc 1d56 b0bd
00000060: a25d 9dbb 4c10 373e 3c8a 103e d2f5 07be
00000070: f4ce 693f e689 193e 30e5 a33c 994a 643b
00000080: e202 18bd 8dab cb3d 4bb6 883c e128 6e3f
00000090: 1dc0 22be d102 f03d 1a06 8cbf 4957 163f
000000a0: ba7e bbbb 384b 8bbb 82c9 da3c 922e 87bd
000000b0: d181 bcbb 80ad 943c 234c a93b bcb6 023c
000000c0: 1893 a43d 2493 513c e3bc a4be fbb4 9d3d
000000d0: 0885 f1bd d571 733b fb62 433d 6501 893f
000000e0: 5b99 9d3e 378d 92be 12e4 423f 5f07 4ebf
000000f0: a10f 7d3f 214f 453e 78ed 673f 9104 7c40
00000100: 3d68 2b3f c5c9 513e 4869 d73e 99ba 1bbf
00000110: e7c4 36bf 754d 5cbe 002c d4be 8676 8bbc
00000120: 4824 e9bc 186f 9ebe 612d d43d 385a 3a3f
00000130: 3875 babc 0f10 243e e986 423e 145a e2bd
00000140: f4ed 81bc a9e5 0fbc a4f9 8f3b 9e18 9cbd
00000150: c869 0bbc 2a7b fb3b 8562 0dbc 84f1 ecbc
00000160: d553 f13c 4b0a 613c bbc7 9d3f e5de 80be
00000170: c026 4d3e 35df 71be 37d9 94bd cb40 923c
00000180: e88a 963b 4d32 81bb 92c0 8e3d da7e f93b
00000190: 72a6 98bc cce2 a2bb 8f8d 953c ca5f 81bd
000001a0: 2023 18bc 4828 ac3d 20a7 1a3e c76a 98bc
000001b0: b664 abbf 29b0 503e 8372 9f3f 8f16 933e
000001c0: bc4a 693d e31f 27c0 8a9e c3be f6dc adbc
000001d0: d4fb 22bc 6faf 5db9 16ec c0bd 212c 2cbc
000001e0: 71db 81bc 8657 2bbc c6e7 09bc 46bc 9ebd
000001f0: 3591 0ebc 1e37 393c 6366 05bd f8a3 ab3d
00000200: 6136 92bd 89f6 2dbc 06de d9bd a59a a0bd
00000210: b533 f93c ab46 8bbe 2cb8 f0bc 7cc2 4dbf
00000220: f3ad 95be 1ee5 07be 38be 49bf ffd0 583f
00000230: 79ae 0c3c eeba acbc f199 333b 42f1 33bd
00000240: 41b9 523b 17fb 613c 3400 a23b 1913 2b3b
00000250: e34e f3bc 081f 92bc 7e2a a43e fe9c 0fbe
00000260: ae10 f2bd f2fb 093f ab02 4fbe 4f62 803f
00000270: 8c38 0cbe d2e7 15bc a3f6 b63c 19bd f9bd
00000280: 84ba cbbf a616 383e d8c6 523f a54f dcbf
00000290: 60bb fbbe b9c6 c1bc ad75 6b3f c8df 4ebf
000002a0: ec5e fe3e b8ab 553e 832e 2cbb bd7c 8aba
000002b0: 32e3 7d3c 5a5f 31bd 077b c0bb 5b0f 23bf
000002c0: e59a f5be 0d0a a9bd f8fe 59be 8273 d33a
000002d0: 0790 abbf ff9c 1e3b 11e2 eebe 4c58 d3be
000002e0: bdba a33f 8664 dd3e 98a5 9d3e 5305 73be
000002f0: afcc 8e3f 758c 873e ddf6 893d 3b46 f23e
00000300: 3fb1 113f dfb6 61bf f969 c53e 8cc3 ae3b
00000310: 6de5 5e3b ec7a 0bbc 7ea9 a93d 356e 583c
00000320: 5b9c 87bd 08b1 e53d 0b1f 34bb bdbd 8ebf
00000330: cbdf 5e3e 75f0 a73e 5de9 723c 208a b83f
00000340: f806 533e 9ebb 8abe cac1 fc3c 6047 543d
00000350: 3e26 31bd 5db6 3a3e 49d7 aa3c b7f5 cb3d
00000360: a2bf 543e c6bb b0bf 93c9 c93e 6c71 0abf
00000370: 0f24 6fbe d7b7 f23d 39b0 5bbe adfe 4e3f
00000380: 5a1d 0d3e 68e0 febe 5cdf f4be 36c2 9ebf
00000390: 6ced 8cc0 4abb 96bf a7e9 d3be 780c 163b
000003a0: 84ca 9abd 2867 1dbf ac01 263e 72b4 863f
000003b0: 4baa 35be 84c7 b5be 8a7d 06c0 3b95 c8bc
000003c0: e2cc 6bb9 9eca 2f3a 5248 bd3a 7c49 cbbb
000003d0: e46c 46bb 3661 4f3b d932 be3a 1f59 a7bc
000003e0: 2633 503d 138a 493c 51fe 32bf 2689 8cbc
000003f0: b29c efbd 7dee 4dbe 2b31 c73d ea46 1a3d

mu.0.bias f4 [128]
-0.31416234 -0.029553786 -0.054008998 -0.15799004 0.015771592 0.15802798 0.037170403 -0.009100894
-0.05838297 -0.01127428 0.11729146 -0.19601643 -0.7369234 0.5936734 0.08185938 -0.21595709
0.024966054 0.03402211 -0.12896898 -0.015807824 -0.034068506 -0.022225859 1.0893273 0.022011593
0.010264115 -0.10511225 -0.037996653 -0.16339715 0.01368189 -0.02580333 0.08643978 -0.0927978
1.2064992 0.80880535 -0.04406575 0.10919954 -0.913869 0.2752084 -0.6867984 0.0006983711
-0.1284401 1.5440626 0.06052491 -0.9558374 0.049451 0.65253043 0.11534552 -0.7917239
-0.008734361 0.03723645 0.13144521 0.118631154 0.08404408 0.08430654 -0.024238251 0.002130455
0.13945355 -0.024393799 0.43927163 0.043308727 0.06783303 0.05700182 -0.35546064 -0.027771795
-0.9805906 -0.04537102 -0.044537302 0.03918497 -0.06777963 0.00013056798 -0.54234785 -0.07468015
0.011951433 -0.021489726 -0.010352034 0.016667191 -0.3449283 0.10356849 0.038041368 -0.4677872
-0.38900942 -0.23014681 -0.24392428 -0.025104566 -1.0627565 -0.066972725 -0.57120085 -0.00842806
-0.13020933 -0.37683758 -0.047433 -0.75762975 0.66743916 0.19122484 -0.021979155 -0.21368675
0.4931625 -0.07289773 -0.04069365 0.2795438 -0.0010695469 -0.025243944 -0.053052615 0.12483194
-0.035667907 -0.13835895 0.04258992 0.50645375 0.076778494 1.5293907 0.04747134 -0.031086423
-0.043589916 -0.38847607 -0.12834425 0.024164066 -0.009106053 0.3457031 -0.076870315 -0.16036637
0.018554492 0.6285438 0.07951319 0.31467614 0.7036246 0.9930264 0.004969326 -0.34570873
00000000: e3d9 a0be c81a f2bc 8a38 5dbd 24c8 21be
00000010: 6d33 813c 16d2 213e fe3f 183d eb1b 15bc
00000020: fb22 6fbd c2b7 38bc 8136 f03d 88b8 48be
00000030: 03a7 3cbf fbfa 173f e4a5 a73d db23 5dbe
00000040: 9c85 cc3c c55a 0b3d 7210 04be 697f 81bc
00000050: 6b8b 0bbd 0113 b6bc 146f 8b3f a851 b43c
00000060: d22a 283c 1745 d7bd 61a2 1bbd 9551 27be
00000070: 022a 603c 8161 d3bc 5707 b13d c60c bebd
00000080: 916e 9a3f de0d 4f3f 4a7e 34bd 02a4 df3d
00000090: 52f3 69bf 1ee8 8c3e 05d2 2fbf e412 373a
000000a0: cd85 03be d8a3 c53f f8e8 773d c3b1 74bf
000000b0: 228d 4a3d 3c0c 273f 463a ec3d 6bae 4abf
000000c0: 911a 0fbc 3f85 183d 9399 063e e4f4 f23d
000000d0: 4d1f ac3d e8a8 ac3d 4c8f c6bc 1b9f 0b3b
000000e0: e9cc 0e3e 81d5 c7bc 36e8 e03e 7e64 313d
000000f0: 0bec 8a3d be7a 693d f0fe b5be ad81 e3bc
00000100: fc07 7bbf f6d6 39bd bf6c 36bd 6b80 203d
00000110: 0cd0 8abd 13e9 0839 4fd7 0abf e8f1 98bd
00000120: f1cf 433c 390b b0bc 949b 29bc a289 883c
00000130: 719a b0be b71b d43d 44d1 1b3d ce81 efbe
00000140: 3e2c c7be 9bab 6bbe 49c7 79be 17a8 cdbc
00000150: 6808 88bf ff28 89bd 383a 12bf d915 0abc
00000160: 9855 05be dbf0 c0be 1b49 42bd 06f4 41bf
00000170: 4bdd 2a3f 72d0 433e a10d b4bc b3d0 5abe
00000180: cc7f fc3e 684b 95bd 62ae 26bd 5d20 8f3e
00000190: 0a30 8cba 63cc cebc b34d 59bd e3a7 ff3d
000001a0: 8318 12bd f8ad 0dbe c572 2e3d f4a6 013f
000001b0: 0b3e 9d3d 13c3 c33f 4f71 423d f4a8 febc
000001c0: 578b 32bd 56e6 c6be ad6c 03be b8f3 c53c
000001d0: 8e31 15bc ffff b03e 2f6e 9dbd 1537 24be
000001e0: 97ff 973c 3fe8 203f d0d7 a23d 3b1d a13e
000001f0: be20 343f fa36 7e3f bad5 a23b bc00 b1be

mu.2.weight f4 [1, 128]
0.20622702 -0.0014437364 -0.0037895727 0.23901954 -0.0022018924 -0.010923424 0.012237104 -0.10379784
-0.0052162823 0.005706557 0.010384994 -0.30666047 1.2226471 0.13157375 0.05119272 -0.091725454
-0.005987971 0.0088432785 -0.14373925 0.0047699492 -0.004775079 0.17038885 -0.34328607 -0.0063249376
-0.0030680427 0.0012064335 0.007674792 0.1135524 0.0010441924 -0.005362198 -0.0691603 -0.13339454
0.34053823 -0.3143807 -0.0041584857 0.06728314 0.2847186 -0.006338366 -0.121420495 0.0067529217
0.13634665 -0.8752302 -0.0040882407 -0.4188301 0.018821672 -0.4499346 0.08181567 0.520646
-0.00055747526 0.0066377614 0.07566313 0.002300668 -0.00013638676 -0.00013319754 -0.0006897954 -0.0014518612
0.38997093 0.008126997 -0.091468915 -0.0029522215 0.040277556 -0.0013125611 0.18636578 -0.0012660456
-0.14448923 -0.0074541443 0.0047093187 0.0027283311 -0.0015005029 -0.005538834 -0.052404225 -0.060462806
-0.051781677 0.0072964556 0.024477413 -0.006688351 0.015807886 -0.0005577678 -0.00518489 -0.14275405
-0.040217742 0.11532014 -0.06498436 -0.008743885 -0.5639567 0.003012636 0.11255542 0.003210412
-0.04582834 0.13043372 -0.0010361604 -1.0060608 -0.23499924 0.00900462 -0.012002494 -0.020621834
0.19360168 0.012550703 -0.023985242 0.18452165 -0.07730886 -0.0045022797 0.00047446418 0.11616696
0.03031652 -0.09464718 0.011860702 -0.13267475 -0.090505466 -1.0965759 0.041516125 0.0043868343
-0.009084803 -0.45799503 -0.047870506 0.009820843 0.3906556 -0.38162574 -0.014462911 -0.110566996
-0.004242083 -0.06339008 0.01851582 0.022386624 -0.35787845 -0.30028117 0.0059411987 -0.017039342
00000000: 2d2d 533e c13b bdba 7b5a 78bb 8ac1 743e
00000010: a04d 10bb 29f8 32bc 227e 483c f693 d4bd
00000020: 59ed aabb 12fe ba3b d225 2a3c 9a02 9dbe
00000030: b37f 9c3f 45bb 063e 75af 513d 8eda bbbd
00000040: be36 c4bb 66e3 103c 6230 13be 3c4d 9c3b
00000050: 4478 9cbb 6a7a 2e3e 31c3 afbe 6c41 cfbb
00000060: 3711 49bb 3121 9e3a d27c fb3b 298e e83d
00000070: 48dd 883a 61b5 afbb eaa3 8dbd 9498 08be
00000080: 075b ae3e 82f6 a0be e843 88bb becb 893d
00000090: a3c6 913e 11b2 cfbb 4fab f8bd 9d47 dd3b
000000a0: 759e 0b3e 160f 60bf a6f6 85bb e670 d6be
000000b0: e82f 9a3c d45d e6be f98e a73d 0e49 053f
000000c0: 8823 12ba 9481 d93b 45f5 9a3d cec6 163b
000000d0: 0b03 0fb9 f1aa 0bb9 63d3 34ba 614c beba
000000e0: 45aa c73e 1927 053c 0e54 bbbd 0f7a 41bb
000000f0: 14fa 243d 3e0a acba acd6 3e3e 71f1 a5ba
00000100: fcf4 13be e541 f4bb a150 9a3b cdcd 323b
00000110: 86ac c4ba 1b7f b5bb d0a5 56bd d9a7 77bd
00000120: 0619 54bd 1b17 ef3b db84 c83c f429 dbbb
00000130: 8a7f 813c 2a37 12ba 02e6 a9bb 1e2e 12be
00000140: 5cbb 24bd f72c ec3d 8516 85bd 8342 0fbc
00000150: 775f 10bf a56f 453b 7583 e63d c765 523b
00000160: 7fb6 3bbd 6b90 053e c6cf 87ba 9ac6 80bf
00000170: a4a3 70be 1d88 133c 1ca6 44bc 1fef a8bc
00000180: 853f 463e 77a1 4d3c b37c c4bc 3ef3 3c3e
00000190: 1c54 9ebd dc87 93bb 81c1 f839 f1e8 ed3d
000001a0: 5a5a f83c 61d6 c1bd 6453 423c e4db 07be
000001b0: ee5a b9bd 995c 8cbf d00c 2a3d 6fbf 8f3b
000001c0: 6dd8 14bc 537e eabe dd13 44bd 9ae7 203c
000001d0: 0304 c83e 7364 c3be d8f5 6cbc f370 e2bd
000001e0: 2c01 8bbb a9d2 81bd 7dae 973c 2764 b73c
000001f0: d83b b7be 74be 99be 63ae c23b 1796 8bbc

log_std.0.weight f4 [128, 5]
-0.18103658 0.26790777 -0.47588906 0.7176416 0.12958151 0.11507381 0.12556274 0.0888219
0.48119977 -0.004119128 0.16010407 0.24254628 -0.011262779 0.13671762 -0.036290977 0.33467057
0.15532811 -0.58271646 1.1542165 0.2931793 -0.23180184 -0.095974885 0.36809298 1.0405563
0.2131561 0.25015047 -0.032149058 -0.72850394 0.032194845 -0.1911401 -0.56836295 -0.2570217
0.40200415 0.21296912 -0.0043298816 0.07760151 0.13799423 0.5228614 0.90735275 0.025418397
0.72754914 -0.088155694 0.6419524 0.7465427 0.12036229 -0.4339759 -0.120292336 -0.24036443
0.1586638 -0.07081149 -0.28489575 -0.18765607 0.30951068 -0.31804565 0.10915886 0.050025303
0.09366216 0.5482216 0.12098842 0.16555728 -0.6111707 0.010633407 0.323516 -0.10084465
0.06936113 0.44339207 0.003487154 0.16124703 -0.4054527 -0.04392474 -0.103563815 0.047275554
-0.059803914 -0.040920045 -0.004012535 -0.015186959 -0.023965454 0.035488963 0.07954151 0.0068517206
0.45467794 0.14339049 0.48709115 -0.30383995 -0.110180385 0.3846101 0.1482512 0.28640267
-0.27518332 -0.32149217 0.29832643 0.085012354 0.39475057 -0.1760247 0.16239908 0.17045237
0.11133226 -0.15399668 -0.061585356 -0.013499409 0.41975012 -0.4021688 -0.17155728 0.17228897
-0.0030013383 -0.2722538 0.045351617 0.3351411 0.2032658 0.041281883 0.33848178 0.21351612
0.4262698 0.09042547 0.19325534 0.50888336 0.44323435 -0.16508465 0.4790594 -0.021959415
0.20542756 -0.11151125 -0.27160382 -0.19544403 0.019953754 0.015167637 0.011028941 -0.018558001
0.22839257 0.00021213548 0.7496621 0.24588564 0.059362326 0.012461506 0.042412404 0.1797776
0.44479248 0.3122915 -0.12754866 -0.041111916 -0.14700824 0.004566807 0.039804913 0.13926749
0.009819591 0.1324686 -0.16949727 -0.12223141 -0.1524728 0.0131488005 0.14118166 -0.17965318
0.11940183 -0.7264517 -0.0066892016 0.010275875 0.009325227 -0.012381186 0.065629154 0.0013161297
-0.44784886 -0.13419454 -0.31467536 0.35188237 0.36148158 -0.12698005 -0.07553981 0.02802005
0.4191057 0.29210776 0.16939151 0.037070047 0.0047988123 -0.2689297 -0.24356487 -0.021681426
0.11709201 -0.006989695 -0.06696344 -0.013937614 0.09552845 0.0037744953 0.02135808 0.35639495
-0.010398891 0.21389124 -0.24792823 -0.053012226 0.16100709 0.014291364 0.1395121 -0.11528853
0.23969364 0.13292745 -0.01003426 0.8869553 0.33853954 -0.102215685 0.103034236 0.020332579
0.17292769 0.19849187 0.023333833 -0.6082237 -0.0002187789 -0.08024911 -0.008253024 0.74874145
-0.09327565 -0.15281269 -0.34766123 -0.06958506 -0.107171 -0.105148986 -0.004967967 0.38986045
0.13191365 0.5858387 0.8962071 0.09763371 -0.05650706 0.09245113 -0.123552114 0.05359147
-0.020134382 -0.32938462 0.2887373 -0.1792739 0.7628125 -0.017738063 0.02489637 0.19320448
0.13453583 0.74654466 0.28026664 -0.08201696 0.049297918 -0.14563654 -0.9901558 0.24167298
-0.09695894 -0.20636962 0.58542 -1.1882502 -0.26775733 -0.54106575 0.06975235 0.16600782
0.1726749 0.06164965 -0.52194357 0.20618568 -0.030038357 -0.141385 0.025897074 0.06647407
00000000: a761 39be 352b 893e bba7 f3be 5cb7 373f
00000010: 04b1 043e d1ab eb3d 8593 003e 42e8 b53d
00000020: d15f f63e c0f9 86bb 52f2 233e 0d5e 783e
00000030: 8587 38bc b4ff 0b3e d9a5 14bd f159 ab3e
00000040: 550e 1f3e e82c 15bf 5ebd 933f 991b 963e
00000050: 765d 6dbe 7b8e c4bd af76 bc3e f330 853f
00000060: 9845 5a3e b913 803e bbae 03bd 3c7f 3abf
00000070: bede 033d 3bba 43be 3c80 11bf 5998 83be
00000080: 7dd3 cd3e 9414 5a3e aee1 8dbb 8aed 9e3d
00000090: 5c4e 0d3e 3fda 053f 4548 683f 3e3a d03c
000000a0: a940 3a3f f98a b4bd fe56 243f 6c1d 3f3f
000000b0: 8180 f63d 1732 debe d45b f6bd 1822 76be
000000c0: c378 223e 9d05 91bd dbdd 91be ea28 40be
000000d0: 2f78 9e3e e1d6 a2be ae8e df3d 55e7 4c3d
000000e0: f2d1 bf3d 4058 0c3f c7c8 f73d d987 293e
000000f0: af75 1cbf be37 2e3c e4a3 a53e a487 cebd
00000100: 350d 8e3d 4904 e33e bc88 643b f11d 253e
00000110: 7f97 cfbe 6eea 33bd 4419 d4bd 03a4 413d
00000120: f3f4 74bd c79b 27bd 957b 83bb b9d2 78bc
00000130: 3353 c4bc e05c 113d a9e6 a23d 6684 e03b
00000140: 8ccb e83e f5d4 123e 0364 f93e e990 9bbe
00000150: 41a6 e1bd 9deb c43e 2acf 173e 5fa3 923e
00000160: d4e4 8cbe 9f9a a4be 3ebe 983e f51a ae3d
00000170: bf1c ca3e d23f 34be f24b 263e 118b 2e3e
00000180: 2b02 e43d 4eb1 1dbe ed40 7cbd a02c 5dbc
00000190: 7de9 d63e 12e9 cdbe b6ac 2fbe 856c 303e
000001a0: 1ab2 44bb da64 8bbe 9ec2 393d 9d97 ab3e
000001b0: e924 503e 3117 293d 7c4d ad3e f8a3 5a3e
000001c0: 0940 da3e fd30 b93d bae4 453e 2e46 023f
000001d0: 9def e23e f30b 29be 4647 f53e 3be4 b3bc
000001e0: 9a5b 523e 0360 e4bd a80f 8bbe 7b22 48be
000001f0: 0e76 a33c ae81 783c bbb2 343c f306 98bc
00000200: bedf 693e af70 5e39 dbe9 3f3f 72c9 7b3e
00000210: e925 733d 582b 4c3c a1b8 2d3d 9f17 383e
00000220: d7bb e33e ace4 9f3e 1e9c 02be f864 28bd
00000230: 5489 16be 27a5 953b 7a0a 233d 239c 0e3e
00000240: 5ae2 203c d9a5 073e b190 2dbe 7654 fabd
00000250: d421 1cbe 116e 573c ed91 103e 01f7 37be
00000260: f288 f43d bdf8 39bf 1731 dbbb 255c 283c
00000270: d6c8 183c 75da 4abc 9468 863d fc81 ac3a
00000280: 724c e5be 4b6a 09be 211d a1be ed29 b43e
00000290: 1d14 b93e 0f07 02be 9eb4 9abd 4e8a e53c
000002a0: 0695 d63e 268f 953e f874 2d3e c3d6 173d
000002b0: 5b3f 9d3b 27b1 89be 1269 79be 3f9d b1bc
000002c0: f0cd ef3d d009 e5bb 2124 89bd 975a 64bc
000002d0: 6ca4 c33d 865d 773b 24f7 ae3c 6679 b63e
000002e0: 1c60 2abc 4e06 5b3e e6e0 7dbe 5923 59bd
000002f0: 0bdf 243e 5326 6a3c 43dc 0e3e 651c ecbd
00000300: 4072 753e 221e 083e bd66 24bc 810f 633f
00000310: 0e55 ad3e 7556 d1bd 9d03 d33d 8290 a63c
00000320: f513 313e 7441 4b3e 9826 bf3c 8cb4 1bbf
00000330: 0468 65b9 a559 a4bd b137 07bc 85ad 3f3f
00000340: 4e07 bfbd ee7a 1cbe a700 b2be 9d82 8ebd
00000350: 787c dbbd 5a58 d7bd 54ca a2bb ca9b c73e
00000360: 5f14 073e 86f9 153f d46d 653f 2ff4 c73d
00000370: f273 67bd 0557 bd3d e408 fdbd bb82 5b3d
00000380: dcf0 a4bc 1aa5 a8be 60d5 933e 9493 37be
00000390: ae47 433f 6a4f 91bc 79f3 cb3c 65d7 453e
000003a0: c3c3 093e 8d1d 3f3f 1c7f 8f3e 82f8 a7bd
000003b0: 9dec 493d bf21 15be da7a 7dbf 1f79 773e
000003c0: 6992 c6bd 8f52 53be 16de 153f 9518 98bf
000003d0: 7d17 89be 4983 0abf 52da 8e3d f4fd 293e
000003e0: b0d1 303e 5884 7c3d 189e 05bf 5722 533e
000003f0: 0013 f6bc 3bc7 10be 1a26 d43c 8f23 883d

log_std.0.bias f4 [128]
-0.06879807 -0.007876429 0.08434563 -0.26527765 0.016191348 -0.81505275 -0.6033319 0.029229619
0.21878491 0.2724292 -0.58118016 -0.2772058 -0.23573266 -0.29521492 -0.22317 -0.16774225
-0.5796173 0.083284676 -0.119589664 -0.5817471 -0.50193053 -0.5955443 0.029960593 -0.2520243
-0.1414885 0.05073889 -0.6421472 -0.7956766 -0.2472377 -0.57682073 0.09438329 -0.05208447
-0.1048498 -0.44534123 0.27410185 -0.50228584 -0.073660515 -0.30939957 -0.5182388 -0.61405325
0.09090197 -0.24380477 -0.6173305 0.3537933 -0.5337194 -0.6755417 -0.19870019 -0.20232572
-0.5496041 -0.08380111 -0.05596695 -0.23284177 -0.3360827 -0.10395559 -0.46487254 -0.19315344
0.20251489 -0.21420743 -0.6165094 -0.024747474 -0.7516215 0.29552972 -0.3670948 -0.56724733
0.2722598 -0.3566675 -0.12465873 -0.13134588 0.17789409 -0.52666295 -0.4861401 0.010512556
-0.39832363 0.008985383 -0.031887658 -0.40190265 -0.253985 -0.2752795 -0.3483276 0.11004185
-0.06751774 0.42349663 -0.07272849 -0.7921401 -0.19872268 -0.3134565 -0.4470481 -0.41142827
-0.29017603 -0.10445869 -0.062035184 -0.009324328 0.172097 -0.8722008 -0.26323023 0.30455732
-0.3330776 -0.19553141 -0.40543252 -0.5303277 -0.2501807 -0.18519011 -0.29852518 -0.14686778
-0.11395674 0.16515411 -0.0713876 -0.54440516 0.0040802727 -0.6928624 0.40551192 -0.8569198
-0.29050198 -0.34235683 -0.18523057 -0.24685632 -0.019163713 -0.44145986 -0.013646033 -0.11868141
-0.12993257 0.50765586 0.08924568 -0.12885149 -0.038484924 -0.32869604 -0.05909268 -0.77339095
00000000: 01e6 8cbd 230c 01bc 67bd ac3d 79d2 87be
00000010: b8a3 843c 4ca7 50bf f673 1abf f472 ef3c
00000020: 2709 603e d77b 8b3e 39c8 14bf ebed 8dbe
00000030: e763 71be 6926 97be ad86 64be a0c4 2bbe
00000040: cd61 14bf 2891 aa3d 6deb f4bd 61ed 14bf
00000050: 857e 00bf 9775 18bf eb6f f53c 5409 81be
00000060: 5de2 10be 95d3 4f3d c263 24bf 76b1 4bbf
00000070: e12b 7dbe 86aa 13bf 074c c13d 8656 55bd
00000080: 7ebb d6bd c403 e4be 1457 8c3e ce95 00bf
00000090: 53db 96bd 9f69 9ebe 4cab 04bf 9832 1dbf
000000a0: d02a ba3d f5a7 79be 5f09 1ebf 6524 b53e
000000b0: d6a1 08bf 4df0 2cbf 1078 4bbe 792e 4fbe
000000c0: dbb2 0cbf eb9f abbd 9a3d 65bd 136e 6ebe
000000d0: 0813 acbe abe6 d4bd c603 eebe 04ca 45be
000000e0: 1060 4f3e 3159 5bbe 8fd3 1dbf 37bb cabc
000000f0: 446a 40bf ac4f 973e daf3 bbbe 1f37 11bf
00000100: a365 8b3e 1f9d b6be 144d ffbd 897f 06be
00000110: de29 363e 62d3 06bf 5be7 f8be db3c 2c3c
00000120: 13f1 cbbe 6e37 133c a29c 02bd 2fc6 cdbe
00000130: 520a 82be 6ff1 8cbe ff57 b2be 9f5d e13d
00000140: be46 8abd 8dd4 d83e adf2 94bd b2c9 4abf
00000150: f57d 4bbe 5f7d a0be 7de3 e4be baa6 d2be
00000160: f491 94be 70ee d5bd 9b18 7ebd 11c5 18bc
00000170: 323a 303e 8d48 5fbf 1dc6 86be f0ee 9b3e
00000180: 2689 aabe 6339 48be da94 cfbe 8ec3 07bf
00000190: af17 80be 7aa2 3dbe 4bd8 98be 8264 16be
000001a0: 2762 e9bd 291e 293e a933 92bd 235e 0bbf
000001b0: cfb3 853b 6e5f 31bf 429f cf3e 195f 5bbf
000001c0: adbc 94be 6549 afbe 15ad 3dbe e7c7 7cbe
000001d0: 38fd 9cbc 0707 e2be 9c93 5fbc 3d0f f3bd
000001e0: 0b0d 05be bcf5 013f 70c6 b63d a5f1 03be
000001f0: 5ea2 1dbd d94a a8be 2b0b 72bd f3fc 45bf

log_std.2.weight f4 [1, 128]
-0.081436455 -0.010667799 0.0017274854 -0.3329593 0.15013333 0.14798129 -0.01785392 -0.0961045
-0.19947915 -0.06437395 -0.060062792 -0.062460605 -0.077285506 -0.07178359 -0.0006375138 -0.010653706
-0.11597091 -0.13129432 -0.072998025 0.003695288 -0.052445177 0.0058738976 -0.112194195 0.073776
-0.014877015 0.00027523565 0.09889634 0.17201516 -0.0025481929 -0.008844519 -0.04921633 -0.0014277102
-0.15372679 -0.06473961 -0.08872456 -0.018411282 -0.01214456 -0.02081728 0.0135949645 0.346126
-0.05480179 -0.11876366 0.00091439456 -0.17608282 -0.019521713 -0.123017974 0.13432558 0.20439273
0.3993982 -0.007544388 0.03484032 0.06178166 -0.055558637 -0.036656268 0.1284187 0.17488971
-0.03533227 -0.020657776 -0.004638644 -0.13507731 0.005328777 -0.013958175 -0.020960553 0.12251228
-0.09235561 0.09345774 0.0004110554 -0.045012783 0.13504791 0.017227028 -0.21596079 -0.0022129447
0.055733312 -0.05219483 -0.007370633 -0.04100911 -0.030371603 -0.081036024 0.073522754 -0.0039456445
0.3159987 -0.02079469 -0.13536994 0.10262765 0.23226658 -0.0230068 0.18257396 -0.02387191
-0.0022467712 0.06275487 -0.0016084906 -0.031826086 -0.011493712 0.61947405 -0.0018329372 -0.11649021
-0.021600772 0.0049068737 0.23754194 -0.00842024 -0.07361437 0.06683665 -0.004984203 -0.028557764
-0.05796332 -0.011337644 0.0012038628 -0.03715748 -0.008081349 0.21759465 -0.06114349 0.31478387
-0.0024528783 -0.09521878 -0.009147841 0.0005881421 -0.11116961 0.040893395 -0.008113748 -0.0013356741
-0.017126303 -0.14361583 -0.25459075 -0.0035869847 -0.0001964515 -0.09248508 -0.00038220102 -0.086940885
00000000: 28c8 a6bd fec7 2ebc cb6c e23a a479 aabe
00000010: 8dbc 193e 6888 173e 6242 92bc 70d2 c4bd
00000020: 4344 4cbe 7dd6 83bd 6704 76bd b1d6 7fbd
00000030: dd47 9ebd 4603 93bd d41e 27ba e28c 2ebc
00000040: 2882 edbd 0572 06be fd7f 95bd a52c 723b
00000050: c1d0 56bd d379 c03b 12c6 e5bd df17 973d
00000060: b9be 73bc 814d 9039 2a8a ca3d be24 303e
00000070: 95ff 26bb 9ae8 10bc 1097 49bd 0122 bbba
00000080: 8e6a 1dbe 3396 84bd 39b5 b5bd 42d3 96bc
00000090: faf9 46bc 0089 aabc 6abd 5e3c 6d37 b13e
000000a0: d777 60bd 5d3a f3bd fbb3 6f3a 0e4f 34be
000000b0: 00ec 9fbc d9f0 fbbd a58c 093e 544c 513e
000000c0: ec7d cc3e ea36 f7bb b9b4 0e3d c40e 7d3d
000000d0: 7491 63bd e224 16bd 3180 033e 4a16 333e
000000e0: 92b8 10bd 7f3a a9bc c4ff 97bb b551 0abe
000000f0: 059d ae3b d4b0 64bc 77b5 abbc b8e7 fa3d
00000100: f024 bdbd c666 bf3d ec82 d739 535f 38bd
00000110: 004a 0a3e b21f 8d3c d324 5dbe 0d07 11bb
00000120: 9d48 643d 3fca 55bd 5a85 f1bb 2bf9 27bd
00000130: decd f8bc 37f6 a5bd 1993 963d 774a 81bb
00000140: 95ca a13e a059 aabc 6b9e 0abe 722e d23d
00000150: 4ad7 6d3e c278 bcbc abf4 3a3e 068f c3bc
00000160: 913e 13bb a085 803d fdd3 d2ba 125c 02bd
00000170: 1f50 3cbc da95 1e3f 2b3f f0ba 6b92 eebd
00000180: 1af4 b0bc d7c9 a03b 323e 733e 0cf5 09bc
00000190: 21c3 96bd a7e1 883d 8652 a3bb f9f1 e9bc
000001a0: f26a 6dbd 87c1 39bc efca 9d3a 7132 18bd
000001b0: a267 04bc 22d1 5e3e 9971 7abd 5a2b a13e
000001c0: 78c0 20bb 1002 c3bd d3e0 15bc 8c2d 1a3a
000001d0: e4ac e3bd d57f 273d 87ef 04bc c911 afba
000001e0: 764c 8cbc 0710 13be b859 82be 9e13 6bbb
000001f0: 8cfe 4db9 d168 bdbd 2762 c8b9 100e b2bd
