HybridLearning-master/data/hlt_stoch/InvertedPendulumBulletEnv/seed_666/policy_2000.pt (torch, 10544 bytes, 6 tensors)

mu.0.weight f4 [128, 5]
0	0x3e2d2bc0	0.1691122
1	0xbd400b44	-0.046885744
2	0xbd31f6d0	-0.04344827
3	0x3fbdf0e1	1.4839135
4	0x3e5c3a31	0.21506573
5	0x3e4739b0	0.194556
6	0x3d1c5416	0.038166128
7	0xbb95af4c	-0.004568016
8	0xbf17549b	-0.5911347
9	0xbe10d984	-0.14145476
10	0xbdf2891f	-0.1184256
11	0x3d08a88a	0.033363856
12	0x3d45629d	0.048189748
13	0xbc2d85df	-0.010590999
14	0xbbbf17e1	-0.005831704
15	0xbee65caf	-0.44992587
16	0xbf3c5f1b	-0.7358262
17	0x3e89dedf	0.2692785
18	0xbec48158	-0.3837993
19	0x3f2f4973	0.6847145
20	0xbdcaf253	-0.09909501
21	0x3e1ae30e	0.15125677
22	0x3da46a34	0.08028069
23	0x3e50fd0a	0.20409027
24	0x3cebbc1b	0.02877622
25	0x3e960d68	0.29307103
26	0xbe06f725	-0.13180216
27	0xbe7424fa	-0.2384223
28	0x3f5057bd	0.8138388
29	0x3e0a76ce	0.13521883
30	0x3d61236a	0.054965414
31	0x3d21ed40	0.0395329
32	0xbb0c70f7	-0.0021429637
33	0x3e194631	0.14968182
34	0xbb334931	-0.0027356858
35	0x3ed599d7	0.41718933
36	0xbb88e35e	-0.004177495
37	0x3d13cf93	0.03608663
38	0xbf049541	-0.51790243
39	0x3ed1b7b2	0.4096046
40	0xba116824	-0.0005546829
41	0x3cefd548	0.029276505
42	0xbd1e6a1e	-0.03867542
43	0x3df852f4	0.12125197
44	0x3adab12a	0.0016684879
45	0x3e235d1d	0.15953489
46	0x3d186e41	0.03721452
47	0xbce619f9	-0.028088557
48	0x3e3c2d97	0.18376766
49	0xbd16c4eb	-0.03680889
50	0xbecdb0cb	-0.40173945
51	0x3e280d49	0.16411318
52	0xbdb710fa	-0.08938785
53	0x3e9581c5	0.2920057
54	0x3e0c64ab	0.13710277
55	0xbd891393	-0.066931866
56	0x3dcfd54f	0.10148107
57	0xbe0ffaf9	-0.14060582
58	0x3f556a6f	0.8336553
59	0xbf2c194d	-0.67226106
60	0x3f21e413	0.6323864
61	0x3ebffa14	0.37495482
62	0x3f4f03ef	0.8086538
63	0x40511924	3.2671595
64	0x3f0c9c75	0.54926234
65	0x3e85578f	0.26043364
66	0x3cb37def	0.021910636
67	0xbec7e35f	-0.39040658
68	0xbe119138	-0.14215553
69	0xbeb4072b	-0.3516172
70	0xbdfa5f0d	-0.12225161
71	0xbdba5d1d	-0.09099791
72	0x3e076391	0.13221575
73	0xbe4eb00d	-0.20184346
74	0x3d975f2c	0.073911995
75	0x3ebe143d	0.37124816
76	0xbc4a3b1c	-0.012343194
77	0x3ba9f4c2	0.005186648
78	0xbdc8ec3c	-0.09810683
79	0xbd8f8631	-0.07008017
80	0x3ddbaca2	0.107262865
81	0x3d011f76	0.031524144
82	0xbd6feeb5	-0.05857726
83	0x3e958566	0.29203337
84	0xbc5245a5	-0.012833987
85	0x3cb944c2	0.022615794
86	0x3b2b7dbe	0.0026167477
87	0xb8817e2f	-6.174703e-05
88	0x3ca0222a	0.01954754
89	0xb9f5b498	-0.00046864594
90	0x3f1c72b1	0.61112505
91	0xbe5bea20	-0.2147603
92	0x3e6ba8ae	0.23013565
93	0xbf02c534	-0.5108216
94	0xbe338301	-0.17530443
95	0x3e267e68	0.16259158
96	0xbce591f4	-0.028023697
97	0x3e093ab2	0.13401297
98	0xbecdea14	-0.4021765
99	0xbd601265	-0.054705042
100	0x3d2c6402	0.042087562
101	0xbdbf6eee	-0.0934733
102	0x3d736950	0.059426606
103	0x3dc6e524	0.09711674
104	0xbc98daa5	-0.018658945
105	0x3c7e4d1b	0.015521313
106	0x3cebd70d	0.028789068
107	0x3e12411f	0.14282654
108	0xbf201702	-0.6253511
109	0x3e017d7e	0.12645528
110	0x3f5949a0	0.8487797
111	0x3f026dcb	0.5094878
112	0xbe865a47	-0.2624075
113	0xbfc041e5	-1.502011
114	0xbea18c04	-0.31552136
115	0x3c2ae59b	0.010430719
116	0x3d9b2b37	0.07576602
117	0xbd7af484	-0.061268345
118	0x3ea05e11	0.31321767
119	0x3935cd4c	0.00017337984
120	0x3cd6615c	0.026169471
121	0x3dc2ff82	0.095213905
122	0xbda07e0e	-0.07836543
123	0xbed7089c	-0.41998756
124	0xbdb69f19	-0.08917064
125	0x3dee9671	0.11649788
126	0x3c93ce04	0.018042572
127	0x3e66db80	0.2254467
128	0xbf0ac09c	-0.5420015
129	0xbdfd876c	-0.12379345
130	0xbe4d6a0c	-0.20059985
131	0xbe48b9f2	-0.19602183
132	0x3e08cbe3	0.13359027
133	0xbec7c984	-0.39020932
134	0x3d4d7dd1	0.050168816
135	0xbf091f8c	-0.5356376
136	0xbe9f7355	-0.3114268
137	0xbe6ee4c5	-0.23329456
138	0xbf29e16a	-0.6635958
139	0x3ecca087	0.39966223
140	0x3d887bbf	0.06664228
141	0x3c82208e	0.015884664
142	0xba6e95c6	-0.00091012975
143	0x3d98280d	0.07429514
144	0x3a52a644	0.000803564
145	0x3db7bc64	0.089714795
146	0x3cc17298	0.023614213
147	0xbdfd61dc	-0.12372181
148	0x3e884d42	0.26621443
149	0xbd02adf1	-0.031904165
150	0x3e543803	0.20724492
151	0xbdbbfc4a	-0.0917898
152	0xbe8569b9	-0.26057222
153	0x3ea42b76	0.32064408
154	0xbd92bfc9	-0.07165486
155	0x3ef7b1b2	0.48377758
156	0xbe1dfd7e	-0.15428731
157	0xbdd18b33	-0.10231628
158	0xbe34695b	-0.17618315
159	0xbdf68b2a	-0.12038262
160	0xbf402320	-0.75053596
161	0xbe3dbaf4	-0.18528348
162	0x3f3915f4	0.7229912
163	0xbf899f9d	-1.0751835
164	0xbef64b06	-0.48104113
165	0xbd8bb590	-0.0682174
166	0x3e1bb547	0.1520587
167	0xbef07e2f	-0.4697127
168	0x3f33e548	0.7027173
169	0x3e5dd46f	0.21663068
170	0xbda70cf8	-0.081567705
171	0xbcf68e35	-0.030097106
172	0x3cddcf2f	0.027076332
173	0xbe1893cd	-0.14900132
174	0xba61eb4d	-0.00086181314
175	0xbeaf5bc8	-0.3424971
176	0xbeaa0b47	-0.3321173
177	0xbd725f15	-0.05917271
178	0xbe4e7c5c	-0.20164627
179	0x3dd1ab24	0.102377206
180	0xbdb37ca5	-0.087640084
181	0xbe91e643	-0.28495988
182	0x3dedc634	0.1161007
183	0x3c10a324	0.008827958
184	0x3fa12d11	1.2591878
185	0x3f083c9d	0.5321749
186	0x3ea1e676	0.3162114
187	0xbe1378c7	-0.14401542
188	0x3fa3c98e	1.2795885
189	0x3f0c49ae	0.54799926
190	0x3cf7f5d9	0.030268596
191	0x3e861055	0.26184335
192	0x3ec2b25d	0.38026705
193	0xbe3759f2	-0.17905405
194	0x3ea6ca3f	0.32576177
195	0x3d9112e9	0.07083685
196	0x3defd281	0.11710072
197	0xbc2b854c	-0.010468792
198	0x3eb104a2	0.34573847
199	0xbcc6b06d	-0.024254048
200	0xbedcb673	-0.43107948
201	0x3dd5b9e9	0.1043585
202	0x3c9cc2f6	0.019135933
203	0xbf2e9336	-0.68193376
204	0x3e4cafc7	0.19988929
205	0x3e3daa4b	0.18521993
206	0x3e5685b3	0.2094944
207	0x3f8f95d4	1.1217599
208	0x3ef47e79	0.4775274
209	0xbec230ab	-0.37927756
210	0x3dfaab65	0.12239722
211	0x3de070cf	0.109590165
212	0xbe26befe	-0.16283795
213	0x3ed71f71	0.42016175
214	0xbcceea88	-0.025258318
215	0xbe5772c7	-0.21039878
216	0x3eb94282	0.36183554
217	0xbf19e236	-0.60110795
218	0x3f6ab776	0.9168619
219	0xbe427659	-0.18990459
220	0xbe44882c	-0.1919257
221	0xbd392687	-0.04520276
222	0xbe68dc31	-0.22740246
223	0x3f5c1587	0.8597035
224	0x3e431997	0.1905273
225	0x3e897795	0.26849046
226	0xbe9525a0	-0.29130268
227	0xbf2deeb4	-0.6794236
228	0xc03e0211	-2.9688761
229	0xbf6e1041	-0.9299355
230	0xbe75d13b	-0.24005596
231	0xbe12dd26	-0.14342174
232	0x3ce145d2	0.027499113
233	0xbef41787	-0.476742
234	0x3d9eab41	0.07747508
235	0xbd1d5445	-0.038410444
236	0xbf142a55	-0.57877094
237	0xbe3ec471	-0.18629624
238	0xbf8b0e65	-1.0863768
239	0x3dfa8d79	0.12234015
240	0xbd5c81b3	-0.05383463
241	0x3e795281	0.24347879
242	0x3e4851a4	0.19562393
243	0xbe1d2770	-0.15347075
244	0x3d53510b	0.05159096
245	0xbda7afed	-0.08187852
246	0x3d410c28	0.047130734
247	0xbd683548	-0.056691438
248	0xbd900513	-0.07032218
249	0xbcc32165	-0.023819635
250	0xbecc11f6	-0.39857453
251	0xbd9c7f68	-0.07641488
252	0xbd997b5c	-0.07494232
253	0xbd8b97fb	-0.06816097
254	0x3dca6692	0.09882845
255	0xbedea3f4	-0.4348446

mu.0.bias f4 [128]
0	0xbe68b80e	-0.22726461
1	0xbd1ac32a	-0.03778378
2	0xbda8468a	-0.08216579
3	0xbeb10d46	-0.3458044
4	0x3e004035	0.12524493
5	0x3e010eac	0.12603253
6	0xbc52282d	-0.012826961
7	0xbda96da3	-0.08272865
8	0x3cb59d89	0.022169845
9	0xbd7e82fc	-0.062136635
10	0x3e3f28e9	0.1866795
11	0xbe031e9a	-0.12804642
12	0xbf4b81ed	-0.79495126
13	0x3e3f0eac	0.1865794
14	0x3e1360b3	0.14392357
15	0xbea0280a	-0.31280547
16	0x3ce831d7	0.028344078
17	0x3ab22afc	0.0013593133
18	0xbe6be93c	-0.2303819
19	0xbdf98bc2	-0.1218486
20	0xbdd0e703	-0.10200312
21	0x3dcb469e	0.099255785
22	0x3f8615d5	1.0475413
23	0x3d69e9e8	0.057107836
24	0xbd5aa147	-0.053376462
25	0xbe35b294	-0.17743903
26	0xbde0b567	-0.109721
27	0xbdea4463	-0.11438825
28	0x3a51a277	0.00079969264
29	0x3d09bc89	0.033627067
30	0x3da67666	0.081280515
31	0xbe512526	-0.20424327
32	0x3f3f139f	0.74639314
33	0x3ef5e5b4	0.48026812
34	0xbc9593aa	-0.018258888
35	0xbd2b2268	-0.04178086
36	0xbd6d9110	-0.05799967
37	0x3e5701ac	0.20996732
38	0xbeb8c609	-0.3608859
39	0xbcc21402	-0.023691181
40	0xbe893767	-0.2680008
41	0x3fa82ed9	1.3139297
42	0x3dfeb909	0.124376364
43	0xbefdfa57	-0.49605057
44	0x3d8247c8	0.063613474
45	0x3ee64b01	0.44979098
46	0x3d2df859	0.04247317
47	0xbecb9455	-0.39761606
48	0x3da8121b	0.08206578
49	0xbd853f6a	-0.06506236
50	0x3d44d4d6	0.04805454
51	0x3dcfdaee	0.101491794
52	0x3df0292f	0.11726605
53	0x3e39c663	0.18142085
54	0x3c227ec3	0.009917918
55	0x3c067a11	0.008207814
56	0x3e5695ad	0.20955534
57	0x3c859613	0.016306913
58	0x3e7cb048	0.24676621
59	0x3da17e2a	0.07885392
60	0x3de646d8	0.11243981
61	0xbc8cf189	-0.017205017
62	0xbed39d07	-0.4133074
63	0x3e370a3c	0.17874998
64	0xbf83ca83	-1.0296177
65	0xbc1d5609	-0.009603032
66	0xbdbf96dd	-0.09354947
67	0x3daf74f8	0.08567232
68	0xbdda2c0c	-0.106529325
69	0x3c23e662	0.010003658
70	0xbea0a280	-0.31373978
71	0xbd6edfc5	-0.058318872
72	0xbd5f7bee	-0.054561548
73	0x3b271b87	0.0025498585
74	0x3dc8fa6d	0.0981339
75	0x3d7347c3	0.05939461
76	0xbead49b0	-0.33845282
77	0xbdf73680	-0.12070942
78	0x3d31639a	0.043307878
79	0xbe3ffd3e	-0.18748948
80	0xbecd49ad	-0.40095273
81	0xbe0e7bd2	-0.13914421
82	0xbe982b3e	-0.2972049
83	0x3d748b3a	0.05970309
84	0xbf24f0c5	-0.64429885
85	0xbe0bfd6e	-0.13670895
86	0xbeca66f8	-0.39531684
87	0x3cf4be66	0.029875945
88	0xbe664680	-0.22487831
89	0xbe193d94	-0.14964896
90	0x394992c9	0.00019223535
91	0xbf12da27	-0.57364124
92	0x3ea1ef20	0.3162775
93	0x3e6a41f6	0.22876725
94	0x3c2580a4	0.010101471
95	0x3dbc5f0b	0.091978155
96	0x3ec3e1a6	0.38258094
97	0xbd6e4d08	-0.05817893
98	0x3e024e27	0.12725125
99	0x3d0784c3	0.033085596
100	0x3d3d0c75	0.046154458
101	0x3db5ed07	0.088831
102	0xbdafc4af	-0.08582436
103	0x3dade249	0.08490426
104	0xbe716683	-0.23574261
105	0xbe858cc5	-0.2608396
106	0xbc88360d	-0.016627336
107	0x3efcf7d0	0.49407816
108	0xba938e10	-0.0011257548
109	0x3faa907d	1.3325344
110	0x3dd49020	0.10379052
111	0xbd84e2bf	-0.06488561
112	0xbda49e11	-0.08037961
113	0xbec94efa	-0.39318067
114	0xbe041a3e	-0.12900636
115	0x3d317820	0.04332745
116	0x3f251921	0.6449147
117	0x3da4e938	0.080522954
118	0xbc21c1e0	-0.009872884
119	0xbdc2d122	-0.09512545
120	0x3d5ed369	0.054400835
121	0x3ea4f225	0.32215992
122	0x3e809c28	0.25119138
123	0x3e6a7f55	0.22900136
124	0x3f3a6f9a	0.7282654
125	0x3f0413a9	0.515925
126	0x3d7308e9	0.05933467
127	0xbe66896e	-0.22513363

mu.2.weight f4 [1, 128]
0	0x3e0e7838	0.13913047
1	0xbd34a48e	-0.044102244
2	0x3b2501eb	0.0025178145
3	0x3e0c57c1	0.1370535
4	0xbb2fccaf	-0.0026824882
5	0x3c7a8fbd	0.015293059
6	0xbb005d68	-0.0019586924
7	0x3b7e4c1c	0.003880269
8	0xb943fd56	-0.00018691024
9	0xbc6e3b8c	-0.014540564
10	0x3c4ac85d	0.012376872
11	0xbdaa4169	-0.08313257
12	0x3f1cebc8	0.61297274
13	0x3c86ca41	0.016453864
14	0x3d201808	0.039085418
15	0xbcbd9886	-0.023144018
16	0xbbf135b7	-0.0073611396
17	0xb97dc558	-0.00024201476
18	0xbd01f083	-0.03172351
19	0x3be6fc2d	0.0070491047
20	0xb97f9b38	-0.00024376519
21	0x3cc5f764	0.024165817
22	0xbe5cd06f	-0.21563886
23	0xbbf5256b	-0.007481267
24	0xbbd8c7e5	-0.006615626
25	0xbb2e0bd4	-0.0026557343
26	0x3c97c166	0.018524837
27	0x3c85dd0b	0.016340753
28	0xbafd9359	-0.0019346281
29	0xbbd2433c	-0.0064167064
30	0xbcb89f05	-0.022536764
31	0xbcc081c3	-0.023499375
32	0x3d8d1a6b	0.068898045
33	0xbbe80238	-0.0070803426
34	0x3b8ecbd0	0.0043577924
35	0x3d057273	0.03257985
36	0x3cfe9a25	0.031079361
37	0x3d13bd57	0.03606924
38	0xbc8820e7	-0.016617252
39	0xbbce966a	-0.006304552
40	0x3d111a20	0.035425305
41	0xbea738ba	-0.32660466
42	0xbc9d3583	-0.019190555
43	0xbe0ff9cb	-0.14060132
44	0x3d650e19	0.055921648
45	0xbead53b2	-0.33852917
46	0x3cfaf669	0.030635076
47	0x3e099371	0.1343515
48	0x3c019010	0.007907882
49	0x3acdc7fd	0.001569986
50	0x3cb4fad3	0.022092259
51	0x3c904956	0.017613094
52	0x3c72e45d	0.014824954
53	0xbc8620da	-0.016373087
54	0xbc8619bb	-0.016369691
55	0xbac4721f	-0.0014987624
56	0x3e6a7d35	0.22899325
57	0x3bc1e20a	0.0059168385
58	0x3b0c174b	0.0021376188
59	0x3d130b4f	0.035899457
60	0x3d2baa70	0.04191059
61	0x3c3cd771	0.011525975
62	0x3d90a1fd	0.07062147
63	0xbcf1b707	-0.02950622
64	0x3d86703b	0.06564375
65	0xbaaf1f34	-0.001336074
66	0xbc22fece	-0.0099484455
67	0x3bb76d8d	0.0055977763
68	0xbc8a1a13	-0.016858136
69	0x3acd1d9c	0.0015649083
70	0xbcf8c53e	-0.03036749
71	0xbd03c93f	-0.032174345
72	0xbd631ae1	-0.055445556
73	0xb7af8b86	-2.0926596e-05
74	0xbce83d33	-0.028349495
75	0x3b288452	0.0025713635
76	0xbc92fc74	-0.017942645
77	0xbb2aa0da	-0.0026035816
78	0xbc1d63e8	-0.009606339
79	0xbc43e821	-0.011957199
80	0x3cadde5a	0.02122419
81	0x3d89341c	0.06699392
82	0xbd5cbeef	-0.053893026
83	0x3b05adb6	0.002039773
84	0xbddd0284	-0.107914954
85	0xbbd639fb	-0.0065376735
86	0x3ce15a1c	0.027508788
87	0xbb32f32e	-0.002730559
88	0xbcb05a89	-0.021527546
89	0x3ccd5439	0.025064575
90	0x39c381c5	0.00037289984
91	0xbeab2fe5	-0.33434978
92	0xbd3d52f5	-0.046221692
93	0x3c2f2f0f	0.010692372
94	0xbc4c693a	-0.01247626
95	0xbd0424ed	-0.032261778
96	0x3e2cd3fc	0.1687774
97	0xbc3c4136	-0.011490157
98	0xbbfefbe4	-0.0077814925
99	0x3dc1ea19	0.09468479
100	0xbcf60625	-0.030032227
101	0x3bd789c3	0.006577702
102	0xbb505c34	-0.0031793239
103	0x3d0f9a14	0.03505905
104	0x3d7b507c	0.061356053
105	0xbd038c19	-0.03211603
106	0xbb321cec	-0.0027177883
107	0xbd7f03b5	-0.062259395
108	0xbcd96122	-0.026535574
109	0xbee88d29	-0.45420197
110	0x3b013f58	0.0019721594
111	0xbc367b52	-0.0111378
112	0x3baf1fa7	0.0053443494
113	0xbe490fa6	-0.19634876
114	0xbceca7a9	-0.02888854
115	0xbc3224c8	-0.010873027
116	0x3dff897a	0.124773934
117	0xbe348edb	-0.1763262
118	0xbcc30a5c	-0.02380865
119	0xbd1791d1	-0.037004296
120	0x3c608d9c	0.013705637
121	0xbdbf6499	-0.09345359
122	0x3cf6ee3e	0.0301429
123	0x3c95853a	0.018252004
124	0xbeba737d	-0.36416236
125	0xbdf9bd33	-0.1219429
126	0x3a89394e	0.0010469349
127	0xbcb2b557	-0.021814985

log_std.0.weight f4 [128, 5]
0	0xbead2808	-0.33819604
1	0x3de3dc2d	0.111259796
2	0xbed961de	-0.4245748
3	0x3f0cb9bc	0.5497091
4	0x3d5d4e51	0.054029766
5	0x3c8c8177	0.017151577
6	0x3d2b216e	0.041779928
7	0x3e956613	0.2917944
8	0x3eae18dc	0.3400334
9	0x3dbd480c	0.092422575
10	0x3da99275	0.082798876
11	0x3e369751	0.1783116
12	0xbecbb2e8	-0.39784932
13	0x3d93c20a	0.072147444
14	0xbe2f8ba6	-0.17143115
15	0x3d9bcc9b	0.07607385
16	0x3d758003	0.059936535
17	0xbebc46ba	-0.3677271
18	0x3f3a19bd	0.72695524
19	0x3e138cfc	0.1440925
20	0xbe6a8261	-0.22901298
21	0x3e3d0299	0.18458022
22	0x3e811c02	0.2521668
23	0x3f3a3468	0.72736216
24	0x3e509fa9	0.20373406
25	0x3d6c108a	0.05763296
26	0xbaf1ed9c	-0.0018457654
27	0xbec7a0b7	-0.38989803
28	0x3e8ceb12	0.27523094
29	0xbe287167	-0.1644951
30	0xbf4d9531	-0.80305773
31	0xbe93aa8e	-0.2884106
32	0x3ec10ac4	0.37703526
33	0x3ecb3358	0.3968761
34	0xbd54c43b	-0.051944952
35	0xbc90b9a0	-0.017666638
36	0xbd4b5114	-0.04963787
37	0x3f24ccdc	0.6437509
38	0x3f170527	0.58992237
39	0x3dff38a4	0.12461975
40	0x3ea338f8	0.318794
41	0xbdf56ce2	-0.119836584
42	0x3f45087b	0.76966065
43	0x3f089561	0.53352934
44	0x3e0d0bee	0.13774082
45	0xbe065359	-0.13117732
46	0xbd7befad	-0.06150787
47	0xbefc6565	-0.49296108
48	0x3e311e5b	0.17296736
49	0xbde03648	-0.10947853
50	0xbdee4fe1	-0.116363294
51	0xbdd84f8b	-0.105620466
52	0x3bcb66f4	0.0062073413
53	0xbc68c556	-0.014207205
54	0xbc5b7d7a	-0.013396615
55	0xbb692d38	-0.003557993
56	0xbc864cd1	-0.01639405
57	0x3f23dbef	0.6400747
58	0x3c57dd0b	0.013175259
59	0x3e60e26a	0.2196137
60	0xbf0d8084	-0.55274224
61	0x3deba510	0.115060925
62	0x3e0f5e50	0.14000821
63	0xbc9bc48c	-0.01901462
64	0x3d8db266	0.069187924
65	0x3dada4cd	0.08478699
66	0x3cb28e25	0.021796295
67	0x3dd88c9a	0.105736926
68	0xbe87cb65	-0.26522365
69	0xbc2708f5	-0.010195007
70	0xbdf90984	-0.12160018
71	0x3dabd11a	0.08389492
72	0xbd8772b1	-0.066136725
73	0xbda992eb	-0.082799755
74	0xbb2374f5	-0.0024941538
75	0x3d49af69	0.04923955
76	0xbe23343c	-0.15937895
77	0xbc4a302c	-0.012340587
78	0x3db2a4d3	0.08722844
79	0x3ceeffcd	0.02917471
80	0x3e0f9c6e	0.14024517
81	0x3d0c4e6a	0.03425447
82	0x3e920be2	0.2852469
83	0xbed50fc8	-0.41613603
84	0x3b8987e8	0.0041971095
85	0x3e9cbaf4	0.30611384
86	0x3db96ec4	0.0905433
87	0x3ea29308	0.317528
88	0xbdd85a74	-0.105641276
89	0xbe68c2dd	-0.22730584
90	0x3e048211	0.12940241
91	0xbdbd00e7	-0.09228688
92	0x3f0428e6	0.51624906
93	0xba816815	-0.0009872938
94	0x3e277799	0.16354217
95	0x3e2e8b11	0.17045237
96	0x3de4022b	0.11133226
97	0xbe1db14e	-0.15399668
98	0xbd7c40ed	-0.061585356
99	0xbc5d2ca0	-0.013499409
100	0x3ec263b9	0.37966707
101	0xbe08074b	-0.13284032
102	0xbd6bd817	-0.057579126
103	0x3de9bc6d	0.114128925
104	0xbd259a82	-0.040430553
105	0xbeac5f28	-0.33666348
106	0x3de24807	0.110488944
107	0x3dc0e8fa	0.09419437
108	0x3e516ba7	0.20451222
109	0x3d5baaf8	0.053629845
110	0x3e06b8d1	0.1315644
111	0x3e1edac3	0.15513138
112	0x3ef8b693	0.48576793
113	0x3eae2c09	0.3401797
114	0x3e065f33	0.13122253
115	0x3ea3cf18	0.31993937
116	0x3eb02398	0.34402156
117	0x3d8af6bd	0.06785343
118	0x3f1ba19b	0.60793465
119	0x3e5df38c	0.21674937
120	0x3e612407	0.219864
121	0xbe5fa7f4	-0.21841413
122	0xbf041b45	-0.5160411
123	0x3d7813dc	0.060565814
124	0xbe205872	-0.15658739
125	0xbd9e6cef	-0.07735621
126	0xbe3fdf41	-0.18737508
127	0x3df87ca4	0.12133148
128	0x3ec9dbd8	0.3942554
129	0x3d527d02	0.051388748
130	0x3efb2323	0.49050245
131	0xbd1aa722	-0.037757047
132	0x3e951ab4	0.29121935
133	0xbe5f25a4	-0.21791703
134	0x3d47d2ef	0.048785146
135	0xbd7d6711	-0.06186587
136	0x3eb3ca02	0.35115057
137	0x3ec9b50d	0.39395943
138	0xbec49adc	-0.38399398
139	0x3ceff912	0.02929357
140	0xbe94eb7f	-0.2908592
141	0x3d3e9fd6	0.04653915
142	0x3d8e0c3a	0.06935926
143	0x3da6e3cd	0.08148918
144	0x3c82f90d	0.015987897
145	0x3e3fda1a	0.18735543
146	0xbe28a21d	-0.16468091
147	0xbe341f20	-0.17589998
148	0xbe09a15b	-0.13440458
149	0xbb4d4518	-0.00313217
150	0x3e230e52	0.15923432
151	0xbe77a830	-0.24185252
152	0x3dccb4d1	0.099954255
153	0xbedc5ad1	-0.43038037
154	0xbba36fb3	-0.004987681
155	0xbe4eba90	-0.20188355
156	0xbd40c395	-0.04706152
157	0xbca88a00	-0.020573616
158	0x3e0912e7	0.13386117
159	0x3d41ca22	0.04731191
160	0xbea9faa5	-0.3319904
161	0xbd1b282a	-0.0378801
162	0xbeecca12	-0.46247917
163	0x3e4d3e5b	0.20043318
164	0x3e9733b4	0.29531634
165	0xbe736e15	-0.23772462
166	0xbdeb2e96	-0.11483495
167	0xbee0313d	-0.43787566
168	0x3ec06e38	0.3758409
169	0x3e903141	0.28162578
170	0x3df143f8	0.11780542
171	0x3dff7c53	0.12474885
172	0x3e546d89	0.2074491
173	0xbe41f5b0	-0.18941379
174	0xbe372cb7	-0.17888151
175	0xbda761c3	-0.081729434
176	0x3e7fe03d	0.24987884
177	0xbc9c65b2	-0.01909146
178	0xbdb97ded	-0.090572216
179	0x3cb5b3e1	0.0221805
180	0x3e4c3a3a	0.19944087
181	0xbd6cf080	-0.057846546
182	0x3e0e00b2	0.13867453
183	0x3ec4357e	0.3832206
184	0x3d639715	0.055564005
185	0x3e939f9c	0.2883271
186	0xbe6fb1c3	-0.23407654
187	0xbe374711	-0.17898203
188	0x3e8696cb	0.2628692
189	0x3d2653d5	0.040607292
190	0x3da628fa	0.081132844
191	0xbe5943e1	-0.212173
192	0x3e83d264	0.25746453
193	0x3e59e14c	0.2127735
194	0x3daaa986	0.08333115
195	0x3f2455df	0.6419353
196	0xbdb21b2f	-0.08696591
197	0x3e8bb318	0.27285075
198	0xbe65a6dd	-0.22426935
199	0xbd3ec48b	-0.046574157
200	0x399a659f	0.00029448883
201	0x3dcfe34d	0.10150776
202	0xbe0011a0	-0.12506723
203	0xbea6b191	-0.32557347
204	0x3c4580cb	0.012054632
205	0xbe325a72	-0.17417315
206	0x3d1e746d	0.03868525
207	0x3f3b4053	0.73145026
208	0x3e2832bb	0.16425602
209	0xbd9bd838	-0.076096
210	0xbed08b01	-0.40731052
211	0x3da008bc	0.07814166
212	0xbdae6338	-0.08515018
213	0xbeabd2c3	-0.33559236
214	0x3d1a47f4	0.037666276
215	0x3d8791f4	0.06619635
216	0x3df6c65c	0.12049553
217	0x3f1b3ae7	0.6063675
218	0x3f22941e	0.6350726
219	0x3e2facb0	0.17155719
220	0xbe3e0eee	-0.18560383
221	0x3e24932d	0.16071768
222	0xbe1789db	-0.14798681
223	0x3cd3c92a	0.025852758
224	0xbc1b7cd9	-0.009490215
225	0xbe493a35	-0.1965111
226	0x3ee32c9e	0.44369978
227	0xbd832622	-0.06403758
228	0x3ecc6549	0.39921024
229	0xbb471da9	-0.003038267
230	0x3c9ae2ad	0.018906916
231	0x3d82f523	0.06394412
232	0xbca87178	-0.020561919
233	0x3f398855	0.7247365
234	0x3e55d125	0.20880564
235	0xbdc777a2	-0.09739615
236	0x3d0bf4e6	0.0341691
237	0x3cf7b044	0.030235417
238	0xbf5ea93e	-0.86976993
239	0x3e174459	0.14772166
240	0xbe120db8	-0.14263046
241	0xbdfc4370	-0.1231755
242	0x3f09b20f	0.5378732
243	0xbf3c441c	-0.73541427
244	0xbe63fb87	-0.22263919
245	0xbf24672c	-0.6421993
246	0x3e613d60	0.21996069
247	0x3e101ce9	0.14073528
248	0x3df6b056	0.12045352
249	0x3d813b62	0.063101545
250	0xbf1b3401	-0.60626227
251	0x3dc18351	0.09448875
252	0x3d95b4e5	0.073098935
253	0xbe2055e8	-0.1565777
254	0x3dd3be57	0.10339039
255	0x3da8adee	0.082362995

log_std.0.bias f4 [128]
0	0xbcb4e1d5	-0.022080341
1	0x3e360722	0.17776158
2	0xbd26548e	-0.04060798
3	0xbf0a83a3	-0.5410711
4	0xbe45061c	-0.19240612
5	0xbf411a7a	-0.75431025
6	0xbee5e53c	-0.44901454
7	0x3e42530a	0.1897699
8	0x3e8d231a	0.27565843
9	0x3e56e951	0.2098744
10	0xbeb34eb7	-0.35020992
11	0xbca91822	-0.02064139
12	0xbe1585fc	-0.14601892
13	0xbd018b3e	-0.031626932
14	0xbe5070d2	-0.20355538
15	0x3d0025aa	0.03128592
16	0xbebd500f	-0.36975142
17	0x3eaed271	0.3414493
18	0x3ca8c9ac	0.020603977
19	0xbf14ed61	-0.5817471
20	0xbed91516	-0.423989
21	0xbee89f0a	-0.45433837
22	0x3e2ae861	0.16690208
23	0xbd663bf7	-0.05620953
24	0xbd86b2b9	-0.065770574
25	0x3e6b3fa6	0.22973499
26	0xbea4eaa1	-0.32210258
27	0xbee0757b	-0.4383963
28	0xbd7b5254	-0.06135781
29	0xbef1b908	-0.4721148
30	0x3e70a5d8	0.23500764
31	0x3e351d31	0.17686917
32	0xbed625c2	-0.41825682
33	0xbf1406da	-0.57822955
34	0x3ec82fbb	0.39098915
35	0xbec24f29	-0.3795102
36	0x3e936c18	0.28793406
37	0x3d3a0fea	0.045425333
38	0xbeb70f22	-0.35753733
39	0xbeb47a77	-0.35249683
40	0x3e891f34	0.2678162
41	0xbe1df0cc	-0.15423888
42	0xbee61225	-0.44935718
43	0x3eb598a2	0.35468012
44	0xbeb3a6a4	-0.35088074
45	0xbea86055	-0.32885996
46	0x3cf061ca	0.029343504
47	0xbd32a955	-0.04361852
48	0xbf149aa3	-0.58048457
49	0xbda4b081	-0.08041478
50	0xbd6f1493	-0.05836923
51	0xbc829485	-0.01593996
52	0xbdbb6b24	-0.09151295
53	0xbd8bf34e	-0.06833516
54	0xbeef906c	-0.46789873
55	0xbcc79202	-0.024361614
56	0xbda5f2fd	-0.08102987
57	0xbe37e78b	-0.1795942
58	0xbecdc478	-0.40188956
59	0x3e1d093f	0.15335558
60	0xbeebd54d	-0.46061173
61	0x3ed80533	0.42191467
62	0xbec094dd	-0.37613574
63	0xbecc946c	-0.39956987
64	0x3ea5bd03	0.32370767
65	0xbeeef9c0	-0.4667492
66	0x3d874f3d	0.066069104
67	0x3e1bcdc5	0.15215214
68	0x3d77fa61	0.060541514
69	0xbf0a7712	-0.54087937
70	0xbed40a73	-0.41414222
71	0x3eae64f2	0.3406139
72	0xbeeb4336	-0.45949715
73	0x3e941df5	0.28929105
74	0x3e9ee56a	0.31034404
75	0xbee0dcdb	-0.439185
76	0x3d9e1dc9	0.07720525
77	0xbd95ae9b	-0.07308694
78	0xbe5e86a4	-0.21731049
79	0xbcfaee87	-0.030631317
80	0x3b7ec05c	0.003887198
81	0x3ed7083c	0.4199847
82	0x3da30718	0.079603374
83	0xbf04b98d	-0.5184563
84	0xbd827ee6	-0.0637186
85	0x3d393782	0.045218952
86	0xbe720ce6	-0.23637733
87	0xbd85c55e	-0.065317854
88	0xbe1ae3a0	-0.15125895
89	0xbda09bc5	-0.07842211
90	0x3e87fb2b	0.26558813
91	0xbdee5d29	-0.11638863
92	0x3eda61d1	0.42652753
93	0xbf19d7e0	-0.60095024
94	0xbe6b0148	-0.22949708
95	0x3ed3ad0e	0.41342968
96	0x3bcd198a	0.006259148
97	0xbcb5fe3d	-0.022215957
98	0xbed58aa1	-0.41707328
99	0xbf044267	-0.5166382
100	0xbec56088	-0.3855021
101	0xbe6e9b5b	-0.23301451
102	0xbe6375f4	-0.22212964
103	0xbd7bae3c	-0.06144546
104	0x3de6f81e	0.11277793
105	0x3ed89494	0.42300856
106	0x3d0f32b5	0.034960467
107	0xbedf457c	-0.436077
108	0x3e35deee	0.17760822
109	0xbef3ff66	-0.4765579
110	0x3ea95cb1	0.3307853
111	0xbf33c989	-0.70229393
112	0xbd80ecff	-0.062952034
113	0x3cfb18a9	0.030651407
114	0x3cacbcb1	0.021086069
115	0x3cf9d95e	0.030499157
116	0xbe2a4878	-0.16629207
117	0xbebb2974	-0.36555064
118	0x3e9e1905	0.30878463
119	0x3e17560b	0.14778917
120	0x3d9681bc	0.073489636
121	0x3f06946c	0.52570224
122	0x3e12e8ad	0.14346571
123	0x3d56ae96	0.052412592
124	0x3e2f71cb	0.17133252
125	0x3d4efab1	0.050532047
126	0x3e52d580	0.20589256
127	0xbf35a6de	-0.70957744

log_std.2.weight f4 [1, 128]
0	0xbd7751b8	-0.060380667
1	0xbd1f8d9f	-0.03895342
2	0xbd0bb230	-0.03410548
3	0xbde6bf3f	-0.11266946
4	0x3db02dbc	0.08602473
5	0x3e01e7f1	0.12686135
6	0x3e073693	0.13204412
7	0xbd97de30	-0.07415426
8	0xbe1c5fac	-0.15270871
9	0xbd2f7cb2	-0.042843528
10	0xbab5ba82	-0.0013864788
11	0xbd80a735	-0.06281892
12	0x3d2ac751	0.04169399
13	0xbc0747a1	-0.008256824
14	0x3b29f18f	0.0025931334
15	0xbbf52cb9	-0.007482138
16	0x3c32da6d	0.010916335
17	0xbd96ec8f	-0.07369339
18	0xbd84376a	-0.06455882
19	0x3b722ca5	0.003695288
20	0xbab4700b	-0.0013766302
21	0x3b3fa8bb	0.0029244858
22	0xbdd53901	-0.10411263
23	0x3d66fcaf	0.05639332
24	0xbcd37bde	-0.0258159
25	0xbd18df41	-0.037322287
26	0x3d0bae55	0.034101803
27	0x3d2503e1	0.040286902
28	0x3c8f200f	0.017471341
29	0xbb89ee7f	-0.004209339
30	0xbcfb83cf	-0.0307025
31	0xbc64eab3	-0.013971972
32	0xbdfc0870	-0.12306297
33	0xbdbb684f	-0.09150755
34	0xbd810840	-0.06300402
35	0xbb0b1032	-0.002121937
36	0xbcf96e05	-0.03044797
37	0xbb49d9d2	-0.0030799997
38	0x3ccd5386	0.025064241
39	0x3dc0617f	0.09393596
40	0xbccb8544	-0.02484382
41	0xbddd923e	-0.10818909
42	0x3c69a8a2	0.014261397
43	0xbdfc571c	-0.12321302
44	0xbabc9ca0	-0.001438994
45	0xbd00ce96	-0.031447016
46	0x3da4b675	0.080426134
47	0x3dca7e8c	0.09887418
48	0x3e808aac	0.25105798
49	0x3d94943d	0.07254837
50	0x3d68e840	0.056862116
51	0x3d766108	0.06015113
52	0xbd7fd013	-0.062454294
53	0xbd3159c1	-0.043298487
54	0x3da97279	0.08273787
55	0x3dce7ce5	0.100824155
56	0xbd098d6b	-0.033582132
57	0xbcabae06	-0.020957004
58	0xbd1d95ed	-0.03847306
59	0xbd94fd71	-0.072749026
60	0xbcf5e8b9	-0.030018197
61	0xbd21feda	-0.039549686
62	0x3d4707f4	0.04859157
63	0x3dbe8aa9	0.09303791
64	0xbd8c89dd	-0.06862233
65	0x3d781320	0.060565114
66	0xbb5c9d41	-0.0033663067
67	0xbd05e0be	-0.032685034
68	0x3d9c8abd	0.0764365
69	0x3cbcaf7f	0.023032902
70	0xbe2c2949	-0.16812624
71	0xbc9c1a7b	-0.019055596
72	0x3d02244e	0.031772904
73	0xbd8d381f	-0.0689547
74	0xbc588e3c	-0.013217505
75	0xbd380e4f	-0.04493552
76	0x3b20bd9a	0.0024527074
77	0xbd0626c3	-0.03275181
78	0xbbadd261	-0.00530462
79	0xbd037688	-0.032095462
80	0x3e69c94b	0.22830693
81	0xbd60b85e	-0.054863326
82	0xbdb9feec	-0.090818256
83	0x3d98fba7	0.07469874
84	0x3e0b690c	0.13614291
85	0x3c404c9f	0.011737018
86	0x3d0b68f6	0.034035645
87	0x3bc28103	0.0059357896
88	0xbc10e903	-0.008844617
89	0x3d61f292	0.055162974
90	0xbc5b7c06	-0.013396269
91	0xbcfa6abd	-0.030568475
92	0xbca1de56	-0.019759338
93	0x3f007a9b	0.5018708
94	0xbc8ced55	-0.017203012
95	0xbe17888e	-0.14798185
96	0xbc312540	-0.010812104
97	0xbc842628	-0.016131476
98	0x3e04a35c	0.12952942
99	0x39f267dc	0.00046235218
100	0xbda9227a	-0.08258529
101	0x3db26fc5	0.087127246
102	0xbca7069f	-0.0203889
103	0xbc8b4c34	-0.01700411
104	0xbcfb42ea	-0.030671556
105	0xbd113ccf	-0.035458382
106	0xbc035e63	-0.008018109
107	0x3ce9bd2b	0.028532585
108	0xbcf149fb	-0.029454222
109	0x3e1e17ab	0.15438716
110	0xbdcec891	-0.10096849
111	0x3ea382e7	0.31935808
112	0xbc4f700f	-0.012660994
113	0xbbc028c9	-0.005864237
114	0xbc17385d	-0.009229747
115	0xbbf12930	-0.0073596463
116	0xbd60b52f	-0.05486029
117	0xbcd82a33	-0.02638731
118	0xbc839e17	-0.016066594
119	0xbbaf5a23	-0.0053513213
120	0xbcfdced0	-0.030982405
121	0xbdaa3cde	-0.08312391
122	0xbe1811d1	-0.14850546
123	0xbd23d4b8	-0.039997786
124	0xbbfe59c7	-0.007762167
125	0xbacef113	-0.0015788398
126	0xbc7e9c59	-0.015540206
127	0xbd241ed0	-0.040068448
