HybridLearning-master/data/hlt_stoch/InvertedPendulumBulletEnv/seed_666/policy_1000.pt (torch, 10544 bytes, 6 tensors)

mu.0.weight f4 [128, 5]
0	0x3d98cbe5	0.07460765
1	0xbe78342f	-0.24238656
2	0x3e6e3f49	0.23266329
3	0x3f5fc1dd	0.87405187
4	0x3e545da6	0.20738849
5	0x3e096ec6	0.13421163
6	0x3ce9626e	0.028489318
7	0xbde22ed8	-0.11044091
8	0xbf210f44	-0.6291392
9	0xbdf0fec8	-0.11767346
10	0xbe72aafc	-0.23698038
11	0x3e104664	0.14089352
12	0x3d3e629f	0.04648077
13	0xbc55aa94	-0.013041157
14	0xb9437721	-0.00018641028
15	0xbed17631	-0.40910485
16	0xbee85267	-0.45375368
17	0xbcf694fd	-0.03010034
18	0xbef58a29	-0.4795697
19	0x3f3101b0	0.691432
20	0xbd817443	-0.06321003
21	0x3e55a008	0.20861828
22	0x3eae8029	0.34082153
23	0x3ec20b88	0.37899423
24	0xbc164a73	-0.0091730235
25	0x3e81bf9f	0.25341508
26	0xbe0a886c	-0.13528603
27	0xbe71a7b7	-0.23599134
28	0x3f2a15e9	0.6643968
29	0x3d7fc5f8	0.062444657
30	0xbce4f8da	-0.027950693
31	0x3e1ff356	0.15620169
32	0x3e09d1c9	0.13458933
33	0x3e5b9c21	0.21446277
34	0x3b875086	0.004129472
35	0x3ebaa15e	0.36451238
36	0xbe0e5aa7	-0.13901769
37	0x3d4ea318	0.050448507
38	0xbe7eda22	-0.24887899
39	0x3eb3a860	0.35089397
40	0xbdb1e8bb	-0.08686968
41	0x3d56ecca	0.052471913
42	0xbd4263ff	-0.047458645
43	0x3e3a5ce3	0.18199496
44	0xbb69990b	-0.00356442
45	0x3d9f07eb	0.07765182
46	0x3ca49e84	0.020095117
47	0xbe2add87	-0.16686068
48	0x3d48c7b5	0.04901858
49	0xbc82d14f	-0.015968947
50	0xbe982b29	-0.2972043
51	0x3e5bce1e	0.21465346
52	0x3bce8aef	0.0063031833
53	0x3ec0e378	0.37673545
54	0x3e4975d5	0.19673856
55	0xbe1bc276	-0.152109
56	0x3df49954	0.119433075
57	0xbea84837	-0.32867596
58	0x3e9dd909	0.30829647
59	0xbeaca587	-0.33720037
60	0x3d5cb82e	0.053886585
61	0x3ee6f1be	0.4510631
62	0x3ec36b48	0.38167787
63	0x3f8dc853	1.1076759
64	0x3ec38533	0.3818756
65	0x3eac4685	0.33647552
66	0x3decf801	0.115707405
67	0xbe95674c	-0.29180372
68	0x3e163248	0.14667618
69	0xbebf401a	-0.37353593
70	0xbcdfed54	-0.027334847
71	0xbda322fb	-0.07965656
72	0x3e657684	0.22408491
73	0x3ce75645	0.028239379
74	0x3cfbd6f7	0.030742152
75	0x3ea466ac	0.32109582
76	0x3d38dcce	0.04513245
77	0xbd0ca6d6	-0.034338795
78	0xbebff37a	-0.37490445
79	0xbd24d963	-0.04024638
80	0xbcc787dc	-0.024356775
81	0xbc1a55e9	-0.009419897
82	0xbcfd7757	-0.030940695
83	0x3ea2557d	0.31705847
84	0x3c233c96	0.009963175
85	0x3d63858a	0.055547275
86	0x3c5d1122	0.013492854
87	0xbd994e54	-0.07485643
88	0x3cdfb2d3	0.02730695
89	0xbbb04012	-0.0053787315
90	0x3efce918	0.49396586
91	0xbe862033	-0.2619644
92	0x3df585b6	0.11988394
93	0xbee9973d	-0.45623198
94	0xbe4eea25	-0.20206507
95	0x3e4d935c	0.20075744
96	0xbd34ab1c	-0.044108495
97	0x3e05c5d9	0.13063754
98	0xbef92d58	-0.48667407
99	0xbd34805a	-0.044067718
100	0xbd8c9ffe	-0.068664536
101	0xbe401cbc	-0.18760961
102	0x3d96ad51	0.07357276
103	0x3d96f361	0.073706396
104	0xbcbcc9e0	-0.02304548
105	0x3e17e235	0.14832385
106	0xba3960db	-0.00070716225
107	0x3ea5540a	0.3229068
108	0xbdb33634	-0.08750573
109	0x3e886c56	0.26645154
110	0x3e9fa282	0.3117867
111	0x3efded95	0.49595323
112	0xbe5a2ed2	-0.21306923
113	0xbf7a02ec	-0.9766071
114	0xbead045f	-0.33792397
115	0xbd8cc823	-0.068741105
116	0x3df91f76	0.12164204
117	0x3dacce5d	0.08437798
118	0x3ec560c5	0.38550392
119	0x3cdb5fd4	0.026779093
120	0xb9d60e5c	-0.0004082796
121	0x3dbd1626	0.0923274
122	0xbe2accd8	-0.16679704
123	0xbf0182ab	-0.5059001
124	0xbdb1e69b	-0.08686563
125	0x3df59edd	0.119931914
126	0x3ca2bb71	0.01986477
127	0x3e497a70	0.19675612
128	0xbf16bf41	-0.5888558
129	0xbd984876	-0.07435696
130	0xbe2987a4	-0.16555649
131	0xbe6b58e6	-0.22983131
132	0x3e07ec0e	0.13273641
133	0xbe9637e5	-0.2933952
134	0x3cf23fc3	0.02957142
135	0xbf25a627	-0.64706653
136	0xbea2b4fb	-0.31778702
137	0xbe9ac41c	-0.30227745
138	0xbf1eba31	-0.62002856
139	0x3ec1de5c	0.3786496
140	0x3d83a0e5	0.064271726
141	0x3d9315fa	0.07181926
142	0xbd7cdf68	-0.061736494
143	0x3de4f211	0.11178983
144	0xbc1c6b89	-0.009547123
145	0xbd98080d	-0.074234106
146	0xbd22ffc0	-0.039794683
147	0xbe7823f3	-0.24232464
148	0x3e2817c9	0.16415323
149	0xbdf7604e	-0.120789155
150	0x3ba726c7	0.005101058
151	0xbe24cf92	-0.16094807
152	0xbec69efe	-0.38793176
153	0x3e3d7e0d	0.18505116
154	0xbdbef512	-0.09324087
155	0x3ea67a7b	0.3251532
156	0xbe02a26d	-0.12757273
157	0xbe6d10be	-0.23150918
158	0xbed8371a	-0.4222954
159	0xbe61658c	-0.22011393
160	0xbeb55d61	-0.35422805
161	0xbd8f6573	-0.07001772
162	0x3ecf8f7a	0.4053915
163	0xbda1607f	-0.07879733
164	0xbeb4b73d	-0.3529605
165	0xbe0964af	-0.13417314
166	0x3e16ec25	0.1473852
167	0xbe9480d4	-0.29004538
168	0x3ef0c19c	0.47022712
169	0x3e2e82b6	0.1704205
170	0xbc2f77a4	-0.010709677
171	0xbd459770	-0.048240125
172	0x3d457d3f	0.048215147
173	0xbe61e51a	-0.22060052
174	0x3b3a7199	0.0028449057
175	0xbeaaf402	-0.33389288
176	0xbea6b0fa	-0.32556897
177	0xbe13e4ae	-0.14442703
178	0xbd9275d7	-0.071513824
179	0x3e1f2233	0.1554039
180	0xbe139ff5	-0.14416488
181	0xbe25b6e6	-0.16183051
182	0xbe91bc6b	-0.28464064
183	0xbf06011e	-0.52345455
184	0x3f51d634	0.81967473
185	0x3d1d64aa	0.03842608
186	0x3e4f6e2c	0.20256871
187	0x3e4f678e	0.20254347
188	0x3f171f3d	0.5903204
189	0x3ea9c627	0.3315899
190	0x3cc4c82c	0.02402123
191	0x3e0106ce	0.12600252
192	0x3e6f88f1	0.23392083
193	0xbed3f256	-0.41395825
194	0x3e9a9eb6	0.30199212
195	0xbdb9b7ef	-0.09068286
196	0x3e56a76c	0.20962304
197	0x3e1231e3	0.14276843
198	0x3eaf2b3c	0.34212673
199	0xbc11445b	-0.008866395
200	0xbe156354	-0.14588672
201	0x3e6c2674	0.23061544
202	0xbe02ffcf	-0.12792896
203	0xbf23a248	-0.63919497
204	0x3e842d03	0.2581559
205	0x3f13bae3	0.5770704
206	0x3f01f43b	0.5076329
207	0x3ec04ae8	0.3755715
208	0x3f6a0e40	0.91427994
209	0xbe897d24	-0.26853287
210	0x3d6514d9	0.055928085
211	0x3dc04d0e	0.09389697
212	0xbe3597e0	-0.17733717
213	0x3eca007d	0.39453498
214	0x3c16e3a2	0.009209545
215	0xbd744843	-0.059639227
216	0x3e6dc8dd	0.23221155
217	0xbeace35e	-0.33767217
218	0x3e5262a0	0.20545435
219	0xbd93f703	-0.07224848
220	0xbe4270d3	-0.18988352
221	0xbd9469e3	-0.07246759
222	0xbd9aed6d	-0.075648166
223	0x3f321920	0.6956959
224	0x3e231495	0.1592582
225	0x3f189a70	0.5961065
226	0x3e5595ce	0.20857927
227	0xbebad953	-0.3649393
228	0xbf1d7cf4	-0.6151879
229	0xbf07fb3e	-0.5311774
230	0xbe0ff1a6	-0.14057025
231	0xbe6c2961	-0.2306266
232	0x3cac6b63	0.0210473
233	0xbea6bb40	-0.32564735
234	0x3c9141d1	0.017731579
235	0xbd373758	-0.044730514
236	0xbeb0f493	-0.34561595
237	0xbec7291c	-0.3889855
238	0xbee2480e	-0.44195598
239	0x3d0f49ad	0.034982372
240	0x3dc694ff	0.096963875
241	0x3ea2ead9	0.318198
242	0x3ea7e190	0.32789278
243	0x3a1e7a39	0.0006045434
244	0xbce01b70	-0.027356833
245	0xbe354732	-0.1770294
246	0x3d10246d	0.03519099
247	0xbe8c4f1e	-0.27404112
248	0xbe638fb3	-0.22222786
249	0xbd0a118e	-0.033708148
250	0xbebb8a51	-0.36628965
251	0xbe060d22	-0.13090947
252	0xbe0bde97	-0.1365913
253	0x3d2d6202	0.042329796
254	0x3e2c089b	0.16800158
255	0xbe751b08	-0.23936093

mu.0.bias f4 [128]
0	0xbd3e022c	-0.04638879
1	0xbde19ae6	-0.11015873
2	0xbe07b6b4	-0.1325329
3	0xbe9369fb	-0.28791794
4	0x3eada83e	0.3391742
5	0x3db574f0	0.08860195
6	0xbcd34ee1	-0.025794448
7	0xbea2312f	-0.3167815
8	0xba92ee16	-0.0011209871
9	0xbe2a4853	-0.16629152
10	0x3e7cf786	0.24703798
11	0x3e08522e	0.13312599
12	0xbe955e0f	-0.29173324
13	0x3e1bfa85	0.15232284
14	0x3e3d72bd	0.185008
15	0xbeae78d5	-0.34076563
16	0xbcc0b026	-0.023521494
17	0xbd2b65f9	-0.041845296
18	0xbe9df516	-0.30851048
19	0xbd8517f9	-0.06498713
20	0xbe463a4b	-0.19358175
21	0x3de7ad54	0.113123566
22	0x3eacbee6	0.33739394
23	0x3dbc8f8e	0.092070684
24	0xbd92ca4a	-0.0716749
25	0xbe21db0b	-0.15806215
26	0xbe081470	-0.13289046
27	0xbd2ecb19	-0.042674158
28	0xbd81982d	-0.06327853
29	0xbd2adb99	-0.04171333
30	0xbc6b3b87	-0.014357454
31	0xbea4bbdc	-0.32174575
32	0x3ed39791	0.41326573
33	0x3eeb1e94	0.45921767
34	0x3ca3abd3	0.019979393
35	0xbd90d307	-0.070715
36	0xbdaea41f	-0.08527397
37	0x3e5e3736	0.21700749
38	0xbe335bbc	-0.17515463
39	0xbd2acbe4	-0.04169835
40	0xbec22de0	-0.37925625
41	0x3f1c3f4e	0.61034095
42	0x3d8f79d3	0.07005658
43	0xbe5ff722	-0.21871617
44	0x3e3404a5	0.17579897
45	0xbdf666a8	-0.12031299
46	0x3dfec318	0.12439555
47	0xbec5cb3e	-0.38631624
48	0x3e870fef	0.26379344
49	0xbe343e2c	-0.17601842
50	0x3cfd7ac5	0.03094233
51	0x3e04341c	0.12910503
52	0x3e40fa6a	0.18845525
53	0x3dc640fc	0.096803635
54	0xbd7cb018	-0.061691374
55	0x3df1a572	0.11799134
56	0xbf11c517	-0.5694136
57	0x3e370494	0.1787284
58	0x3ea8b5e3	0.3295127
59	0x3e3792d3	0.17927103
60	0x3e26288a	0.16226402
61	0xbe00fe63	-0.12597041
62	0xbedad5ff	-0.4274139
63	0x3e3d4580	0.18483543
64	0xbf36adb5	-0.71358806
65	0xbcfb80fe	-0.030701157
66	0xbe3c7da0	-0.18407297
67	0x3c93e459	0.01805322
68	0xbdf3dade	-0.1190698
69	0x3d8aeb03	0.06783106
70	0xbe81c029	-0.2534192
71	0xbe107260	-0.1410613
72	0x3db17251	0.08664382
73	0xbc4df3ab	-0.012570302
74	0xbd0a28e8	-0.033730417
75	0x3cdde56f	0.027086942
76	0xbecf20e1	-0.40454772
77	0xbe6e262a	-0.23256746
78	0xbd103f41	-0.035216574
79	0xbe76a985	-0.24088104
80	0xbeb3bb62	-0.351039
81	0x3c870e6e	0.016486373
82	0xbe4f1845	-0.20224102
83	0x3d28880a	0.041145362
84	0xbee4d774	-0.44695628
85	0xbe659099	-0.22418441
86	0xbea2570f	-0.31707045
87	0x3d69f4c0	0.057118177
88	0xbe76412c	-0.24048299
89	0xbd3cde6e	-0.046110563
90	0xbac967b3	-0.0015365988
91	0xbe9ec8f3	-0.31012687
92	0x3dfbe79a	0.12300034
93	0x3eabb083	0.33533105
94	0xbd087a8b	-0.03331999
95	0x3e1cd62b	0.15316074
96	0x3e4d63ab	0.20057552
97	0xbe2ebf47	-0.17065154
98	0x3e4660aa	0.19372812
99	0xbecd0c28	-0.40048337
100	0xbd1cc736	-0.03827592
101	0x3dd71146	0.105013415
102	0xbe09e25b	-0.13465254
103	0x3db99b9f	0.090628855
104	0xbdd9063a	-0.10596891
105	0xbea811cd	-0.3282608
106	0xbd89fda9	-0.06737835
107	0x3ebb2f87	0.36559698
108	0xbdb71b88	-0.08940798
109	0x3f229d46	0.6352123
110	0x3d0bd750	0.034140885
111	0xbe2c5971	-0.16830994
112	0xbc8e9dc0	-0.017409205
113	0xbede89ab	-0.43464407
114	0xbe586498	-0.21132123
115	0x3d9ac355	0.07556788
116	0x3e74ff39	0.23925485
117	0xbd3c8ab3	-0.04603071
118	0xbd145d10	-0.036221564
119	0xbe34c7a2	-0.17654279
120	0x3e13c9de	0.14432475
121	0x3e705676	0.23470482
122	0x3e93105e	0.28723425
123	0x3eab892e	0.33503097
124	0x3ed0ca95	0.40779558
125	0x3e7a9988	0.2447263
126	0x3d0c040a	0.03418354
127	0xbe588df0	-0.21147895

mu.2.weight f4 [1, 128]
0	0x3dae793c	0.08519217
1	0xbd8feae1	-0.070272215
2	0x398331b2	0.00025023293
3	0x3d8be9db	0.06831714
4	0xbb47015b	-0.0030365798
5	0x3cec1cb8	0.028822288
6	0x3b83023b	0.0039980686
7	0xbb82f08e	-0.0039959615
8	0x3b0c9297	0.002144968
9	0xbaea46a8	-0.001787384
10	0x3caf96d0	0.021434218
11	0x3b33d640	0.0027440935
12	0x3d868d2a	0.06569894
13	0x3a3abd71	0.0007123566
14	0x3bbbb992	0.005728909
15	0xbc92edc1	-0.017935636
16	0x3ba6cdc2	0.005090446
17	0xba3b629f	-0.00071481796
18	0xbd350774	-0.04419656
19	0xbceb9b3d	-0.028760547
20	0xba6d7844	-0.00090587535
21	0xbafe31df	-0.0019393525
22	0xbd8e1aca	-0.06938703
23	0x3c31c5a0	0.01085034
24	0xbd2a5cc1	-0.041592363
25	0xbd06c3e7	-0.03290167
26	0xbb6b82d5	-0.0035936136
27	0x3cfd3384	0.030908354
28	0x3a42fb1c	0.0007437931
29	0x3a885bea	0.0010403369
30	0x3b773834	0.0037722709
31	0xbca37ea4	-0.019957848
32	0x3cc8de84	0.024520166
33	0x3d06b5ab	0.032888096
34	0xbb4f419d	-0.0031624802
35	0x3c8eac0d	0.017416025
36	0x3d84877a	0.064711526
37	0x3c20c8a4	0.009813461
38	0xbb856c8d	-0.004071778
39	0x3b72fde4	0.00370776
40	0x3844d23b	4.6925834e-05
41	0xbd9a7d69	-0.07543451
42	0x3c1baf1e	0.0095022
43	0xbaa1cb41	-0.00123439
44	0x3d5bb870	0.05364269
45	0xbd408598	-0.047002405
46	0xbbd76325	-0.0065730982
47	0x3cac8ad9	0.021062301
48	0xbc24a19e	-0.010048298
49	0xbb8a3ef2	-0.0042189294
50	0x3c7b24ae	0.015328569
51	0xbb30feec	-0.0027007414
52	0x3b2d9c76	0.0026490963
53	0x3c43bd24	0.01194695
54	0x3b42e719	0.0029739796
55	0xb9ab8f05	-0.0003272222
56	0x3d06c96d	0.03290694
57	0x3bbe1cb9	0.005801764
58	0x3c99790a	0.018734474
59	0x3d84f40e	0.06491862
60	0x3d70cb9c	0.058787927
61	0x3ab8253c	0.0014049183
62	0x3d1240b3	0.035706233
63	0xbd0aac08	-0.033855468
64	0x3db9081f	0.09034752
65	0xbae7d451	-0.0017687177
66	0x3c0f0a33	0.008730459
67	0xba96adde	-0.0011495908
68	0xbcdddd9d	-0.027083213
69	0x3a00b5a3	0.00049098785
70	0xb920e25d	-0.00015343116
71	0x3a4b934a	0.0007765783
72	0xbcae2c14	-0.021261252
73	0x39d41c4f	0.00040456883
74	0x3c7b056b	0.015321116
75	0xbc8b5f36	-0.017013174
76	0xbbd49bfe	-0.0064883223
77	0xbc697093	-0.014248031
78	0x3b74e36d	0.0037367002
79	0x3d01d4ec	0.0316972
80	0x3cfacbf8	0.030614838
81	0x3d7260fe	0.05917453
82	0xbbf5c6c6	-0.0075005023
83	0x3b8e4040	0.0043411553
84	0x3b7a6d84	0.003821225
85	0x3bbd8947	0.005784187
86	0x3c16bfa5	0.009200965
87	0x3d1e9d60	0.038724303
88	0xbd0f7403	-0.035022747
89	0x3cbc1803	0.022960668
90	0xbabd8b5e	-0.001446109
91	0xbd76fc80	-0.060299397
92	0xbcca197d	-0.024670357
93	0x3c169764	0.009191368
94	0x3bc08cd2	0.005876162
95	0xbbcede95	-0.006313155
96	0xbb0b3e0a	-0.0021246695
97	0xbd0050f1	-0.03132719
98	0x3c1465ba	0.009057457
99	0x3c580852	0.0131855775
100	0x3ba61129	0.0050679636
101	0x3c46067d	0.012086508
102	0xbb492481	-0.0030691924
103	0x3c1ca751	0.009561376
104	0xbc2d8b63	-0.010592314
105	0xbd1a788e	-0.037712626
106	0xbaeaae04	-0.0017904644
107	0xbbc88dc0	-0.0061204135
108	0x3c1463b0	0.0090569705
109	0xbdc41945	-0.09575132
110	0xbb31e319	-0.0027143417
111	0x39cea0ac	0.00039411092
112	0xbc6c21f3	-0.014412391
113	0xbd160126	-0.03662219
114	0x3a9568cc	0.001139903
115	0x3b97895e	0.0046245297
116	0x3c9ba247	0.018998278
117	0xbda88e01	-0.0823021
118	0x3c9d5ad5	0.019208351
119	0x3b19046e	0.0023348588
120	0x3b19cc3b	0.0023467678
121	0xbd009ce4	-0.031399623
122	0x3b8dbd97	0.0043255794
123	0xbc06336f	-0.008190974
124	0xbd8320f0	-0.06402767
125	0xbb3e2bc9	-0.0029017797
126	0x3c8333a6	0.016015839
127	0xba984a3f	-0.0011618807

log_std.0.weight f4 [128, 5]
0	0xbebc54da	-0.36783487
1	0x3dce0b59	0.10060758
2	0xbe5678d9	-0.20944537
3	0x3ea989aa	0.33112842
4	0x3d024ad9	0.03180966
5	0xbcf19aa6	-0.029492687
6	0x3d588b74	0.052867368
7	0x3e35c069	0.1774918
8	0x3e22c626	0.158959
9	0x3d3d18b3	0.046166133
10	0x3db738e2	0.089463964
11	0x3e2e9f45	0.17052944
12	0xbe924ffe	-0.28576654
13	0x3e92682b	0.285951
14	0xbdeda5b4	-0.11603871
15	0x3e35a858	0.1774
16	0x3d18d3e0	0.037311435
17	0xbeb10fe7	-0.34582445
18	0x3e241d7f	0.16026877
19	0x3cc18034	0.023620702
20	0xbe53a981	-0.2067013
21	0x3ea05233	0.31312713
22	0x3e933024	0.28747666
23	0x3eadb70d	0.3392872
24	0x3e278a97	0.16361462
25	0x3e078855	0.132356
26	0xbdfe7884	-0.1242533
27	0xbe40add8	-0.18816316
28	0x3ea6b299	0.32558134
29	0xbd8f9064	-0.07009962
30	0xbeafc81e	-0.34332365
31	0xbe4f4ba0	-0.20243692
32	0x3d1ce238	0.038301677
33	0x3e5ad209	0.21369185
34	0xbcdba26d	-0.02681085
35	0xbe534228	-0.20630705
36	0xbe08e61d	-0.13369031
37	0x3f166f46	0.5876354
38	0x3eaadf18	0.33373332
39	0x3d91836d	0.071051456
40	0x3e97aea8	0.2962544
41	0xbe3ed452	-0.18635681
42	0x3f23de39	0.6401096
43	0x3e7dba63	0.24778132
44	0x3db930b7	0.09042495
45	0xbe0a10c8	-0.13482964
46	0xbe791fe7	-0.24328576
47	0xbe807256	-0.2508723
48	0x3ea395cf	0.31950232
49	0xbd2e9496	-0.04262217
50	0xbdf9e353	-0.12201562
51	0xbe0b7aef	-0.13621114
52	0xbc97fda5	-0.018553564
53	0xbd408c1d	-0.047008622
54	0xbd15774e	-0.03649073
55	0xbdbc1f1d	-0.09185622
56	0xbc680cb8	-0.014163189
57	0x3f16826f	0.58792776
58	0xbdac4255	-0.08411089
59	0x3de54d8e	0.11196433
60	0xbdcb2dee	-0.0992087
61	0x3e0ff755	0.14059193
62	0xbd547460	-0.051868796
63	0x3d9a261e	0.075268015
64	0xbb4af4a9	-0.0030968583
65	0x3dc36a81	0.095417984
66	0x3da9d130	0.082918525
67	0x3de3523d	0.1109967
68	0xbea0ebbe	-0.31429857
69	0x3d2342c7	0.039858606
70	0xbdd1c5bf	-0.10242795
71	0x3dd00cda	0.10158701
72	0xbda0b43f	-0.07846879
73	0xbd051a75	-0.032495935
74	0x3c5e36e8	0.013562895
75	0x3d66b93c	0.056328997
76	0xbe7aec10	-0.24504113
77	0x3bd0c454	0.0063710604
78	0x3dc0cba2	0.0941384
79	0x3c3f1506	0.011662727
80	0x3ded171f	0.115766756
81	0x3e21f2af	0.15815233
82	0x3e62c343	0.22144799
83	0xbe9df0dd	-0.30847827
84	0xbc387fb1	-0.011260913
85	0x3ec068b1	0.37579873
86	0x3e518aa9	0.20463051
87	0x3eafbd60	0.3432417
88	0xbdbc5fc5	-0.09197954
89	0xbe0365e0	-0.12831831
90	0x3e26a4ac	0.16273755
91	0xbe26b59a	-0.16280213
92	0x3ed406e7	0.41411516
93	0xbe153b64	-0.14573437
94	0x3da769c0	0.08174467
95	0x3e2e8b11	0.17045237
96	0x3de4022b	0.11133226
97	0xbe1db14e	-0.15399668
98	0xbd7c40ed	-0.061585356
99	0xbc5d2ca0	-0.013499409
100	0x3ebe7ee1	0.37206176
101	0xbe0e085e	-0.1387038
102	0xbde1a395	-0.11017529
103	0x3e016636	0.12636647
104	0xbdbe539c	-0.09293291
105	0xbe99044c	-0.2988609
106	0x3dfcefcb	0.123504244
107	0x3d078f97	0.033095922
108	0x3e694efe	0.2278404
109	0x3dbc3b27	0.0919097
110	0x3d163863	0.03667487
111	0x3dc84335	0.09778444
112	0x3eb4cfa9	0.35314682
113	0x3db81c5e	0.089897856
114	0x3d59df7b	0.053191643
115	0x3eb6230b	0.3557361
116	0x3ec9343e	0.3929767
117	0xbdcef944	-0.101061374
118	0x3e3f3fb0	0.18676639
119	0x3cd8e0d8	0.026474401
120	0x3ebda1ab	0.37037405
121	0xbec0cfd0	-0.37658548
122	0xbea1ad31	-0.31577447
123	0x3d71da42	0.059046037
124	0xbe3e5691	-0.1858771
125	0xbd55437d	-0.052066315
126	0xbe62e800	-0.22158813
127	0x3d8e0b2a	0.06935723
128	0x3eaf166e	0.341968
129	0x3cf898f4	0.030346371
130	0x3eb2bf79	0.34911707
131	0x3c63912d	0.013889593
132	0x3e638a89	0.22220816
133	0xbe8d6ea3	-0.27623472
134	0x3df2734e	0.11838399
135	0x3d9cdcce	0.07659303
136	0x3ea7dc7e	0.3278541
137	0x3eaa4b79	0.33260706
138	0xbe5f355f	-0.21797703
139	0xbd6b8dc8	-0.05750826
140	0xbe58ad1c	-0.21159786
141	0x3d93384a	0.07188471
142	0x3cb9e7c3	0.02269352
143	0x3dce12fa	0.10062213
144	0x3cfe4c75	0.031042317
145	0x3e2c23fe	0.16810605
146	0xbe762003	-0.24035649
147	0xbe568d88	-0.20952427
148	0xbe0bf1fa	-0.13666525
149	0xbce024c8	-0.027361289
150	0x3e82d336	0.25551766
151	0xbea0af9c	-0.3138398
152	0x3df0e4e8	0.117624104
153	0xbeac133b	-0.33608422
154	0xbd574311	-0.052554194
155	0xbea2bd09	-0.31784847
156	0x3d46ec98	0.048565477
157	0x3d1f51c0	0.038896322
158	0x3dc5e2db	0.0966241
159	0x3cbbca05	0.022923479
160	0xbea4e0cf	-0.32202765
161	0xbdd39086	-0.103303
162	0xbe8e2140	-0.27759743
163	0xbe68cdd1	-0.22734763
164	0x3db2c1bd	0.08728359
165	0xbeb19fe9	-0.34692314
166	0xbdc4e1c7	-0.09613376
167	0xbe86dfd7	-0.2634265
168	0x3d246748	0.04013756
169	0x3d93af04	0.07211116
170	0x3dd5dffb	0.104431115
171	0x3e0a9827	0.13534604
172	0x3e1c1e80	0.1524601
173	0xbe355bc3	-0.17710786
174	0xbdd84529	-0.10560066
175	0x3d679e57	0.05654749
176	0x3e91bf08	0.28466058
177	0xbde79f94	-0.11309734
178	0xbd8c4eba	-0.068509534
179	0x3c8cfe02	0.017210964
180	0x3e9e0279	0.3086126
181	0xbe27cfd2	-0.16387871
182	0x3e021a1b	0.12705271
183	0x3ec40ac1	0.38289455
184	0x3c801dff	0.015639303
185	0x3e97bf25	0.2963802
186	0xbea084d2	-0.31351334
187	0xbe441b32	-0.19150999
188	0x3e8fcd1c	0.28086174
189	0x3d39c97d	0.04535817
190	0x3da5d250	0.080967546
191	0xbe41604b	-0.18884389
192	0x3c50d530	0.01274614
193	0x3dd2ad94	0.10287014
194	0xbc069100	-0.008213282
195	0x3f1e5342	0.6184579
196	0xbe8255aa	-0.25455981
197	0x3e985069	0.29748848
198	0xbe91d4ff	-0.28482816
199	0xbd7eba1c	-0.062189206
200	0xbcde5bad	-0.027143324
201	0x3c825cf5	0.015913466
202	0xbe1f38c2	-0.15548995
203	0xbebe709b	-0.37195286
204	0x3c8820cb	0.0166172
205	0xb8f57cac	-0.00011705732
206	0xbd925f42	-0.07147075
207	0x3f124621	0.5713826
208	0x3eb31ac0	0.34981346
209	0xba78b25d	-0.00094870274
210	0xbedea266	-0.43483275
211	0x3d3fdec3	0.0468433
212	0xbe1abb48	-0.15110505
213	0xbea35490	-0.31900454
214	0x3d4546c1	0.04816318
215	0xbd2c6b74	-0.042094663
216	0x3dc7c5af	0.09754502
217	0x3efc6cd8	0.4930179
218	0x3e435600	0.19075775
219	0x3ddafdf5	0.1069297
220	0xbe7cf986	-0.2470456
221	0x3e0d123b	0.13776486
222	0xbe50b0da	-0.20379964
223	0xbc910a37	-0.017705066
224	0xbc5a0064	-0.013305757
225	0xbd339b44	-0.043849245
226	0x3ed109e5	0.4082786
227	0xbe93bb7d	-0.2885398
228	0x3eb378fd	0.35053244
229	0xba9a5b0d	-0.0011776403
230	0xbca1d163	-0.019753164
231	0x3d848561	0.064707525
232	0xbdadb321	-0.08481432
233	0x3e39383a	0.18087855
234	0x3dcfbadd	0.10143063
235	0xbd4ce14e	-0.050019555
236	0xbd132d47	-0.03593185
237	0x3ca397e8	0.019969895
238	0xbe6d7811	-0.23190333
239	0x3cd1fac6	0.025632273
240	0xbe9cbb28	-0.3061154
241	0xbe26768f	-0.16256164
242	0x3eb60be7	0.35555956
243	0xbd193219	-0.037401292
244	0xbd733c17	-0.059383478
245	0xbe99cf19	-0.30040815
246	0x3eb1cbd4	0.3472582
247	0x3df4f52f	0.119608276
248	0x3e6d0229	0.23145355
249	0x3d3c973d	0.04604267
250	0xbea31b5b	-0.31856808
251	0xbda28b60	-0.0793674
252	0xbc13b59f	-0.00901547
253	0xbe7d630d	-0.24744816
254	0x3dbc9f5c	0.09210083
255	0x3dc7b909	0.097520895

log_std.0.bias f4 [128]
0	0x3dcd99e0	0.10039115
1	0x3e3f883b	0.18704312
2	0xbdfa24ed	-0.12214074
3	0xbeee13c1	-0.46499446
4	0xbc7615e3	-0.015019867
5	0xbf185520	-0.5950489
6	0xbee6e0e5	-0.45093456
7	0x3e0d039b	0.13770907
8	0x3e52882f	0.20559762
9	0x3d9b66b6	0.0758795
10	0xbeab1045	-0.3341085
11	0x3cc95475	0.024576405
12	0xbdf20eab	-0.11819204
13	0xbb577c22	-0.0032880385
14	0xbe476958	-0.19473779
15	0x3da6ac48	0.08138329
16	0xbec3e667	-0.3826172
17	0x3dea9eaa	0.11456044
18	0x3e13db45	0.14439113
19	0xbf14ed61	-0.5817471
20	0xbecba798	-0.397763
21	0xbee69694	-0.45036757
22	0x3e5ca0d7	0.2154573
23	0xbe018743	-0.12649255
24	0xbbbbc537	-0.005730297
25	0x3e2e18bd	0.17001624
26	0xbeaa9e00	-0.3332367
27	0xbecb6179	-0.39722803
28	0x3cdaf0d6	0.026726168
29	0xbedf0d9f	-0.4356508
30	0x3e74d771	0.2391031
31	0x3e1c1443	0.15242104
32	0xbe90659a	-0.28202516
33	0xbed36598	-0.41288447
34	0x3ea46c31	0.32113793
35	0xbeaf5b53	-0.34249362
36	0x3e379d0f	0.17931007
37	0x3dd66171	0.10467804
38	0xbec09bf6	-0.3761899
39	0xbe94d538	-0.29068923
40	0x3e54da93	0.20786504
41	0xbdd45654	-0.10368028
42	0xbec1246f	-0.3772311
43	0x3eb468b1	0.35236123
44	0xbe9f7928	-0.31147122
45	0xbe93748b	-0.28799853
46	0x3e2aa041	0.16662695
47	0x3cf08d3e	0.029364225
48	0xbea9b4c2	-0.3314572
49	0xbd6b8d1c	-0.05750762
50	0x3cbff7a8	0.023433521
51	0xbd8d98f5	-0.0691394
52	0xbd843cfd	-0.06456945
53	0xbdeae946	-0.114702746
54	0xbeb31a47	-0.34980986
55	0xbdb77edc	-0.089597434
56	0xbe1ecf33	-0.15508728
57	0xbe43321f	-0.19062088
58	0xbed7d64b	-0.4215568
59	0x3e628bb4	0.22123605
60	0xbeda91bf	-0.4268932
61	0x3e96f863	0.2948638
62	0xbe9f5217	-0.31117317
63	0xbddb3c6f	-0.10704886
64	0x3e481c78	0.1954211
65	0xbe2dd2c4	-0.16974932
66	0x3d3db76c	0.046317503
67	0x3e8853f6	0.26626557
68	0xbd357b52	-0.04430706
69	0xbf0999ef	-0.5375051
70	0xbe84b84d	-0.2592186
71	0x3e8356a1	0.2565203
72	0xbf03a764	-0.5142729
73	0x3eac252a	0.33622104
74	0x3e9d216e	0.30689567
75	0xbf079119	-0.52955776
76	0x3e30440f	0.17213462
77	0xbd32a376	-0.04361292
78	0xbe249a02	-0.16074374
79	0x3c0e4808	0.008684166
80	0xbe21df14	-0.15807754
81	0x3e3e8b85	0.1860791
82	0x3cfc94aa	0.030832607
83	0xbec49c7e	-0.38400644
84	0xbdecec4e	-0.11568509
85	0x3e482b48	0.1954776
86	0xbe53fcd2	-0.20701912
87	0x3cef7b32	0.029233549
88	0xbe1529a0	-0.1456666
89	0x3cb5c7dc	0.022190027
90	0x3e918d3b	0.28428063
91	0xbd52d043	-0.051468145
92	0x3e9c395a	0.30512506
93	0xbee040ed	-0.43799534
94	0xbda7318d	-0.08163748
95	0x3ec2e2c4	0.38063633
96	0xbc9f820b	-0.019471189
97	0x3d8acff2	0.06777944
98	0xbea03878	-0.31293082
99	0xbef5f8d6	-0.4804141
100	0xbee1b183	-0.44080743
101	0xbd88b111	-0.06674398
102	0xbd803c50	-0.06261504
103	0xbaa32634	-0.0012447299
104	0x3e055604	0.13021094
105	0x3ea28e3e	0.31749147
106	0x3dd77510	0.10520375
107	0xbe90c872	-0.28277928
108	0x3e817310	0.25283098
109	0xbe771ac1	-0.241313
110	0x3e9b0ce5	0.30283275
111	0xbf186f04	-0.59544396
112	0xba2e2756	-0.0006643435
113	0x3c116f8d	0.008876693
114	0x3e47ed40	0.19524097
115	0x3e12f28d	0.14350338
116	0xbe124618	-0.14284551
117	0xbeb957f2	-0.3619991
118	0x3e9090fd	0.28235617
119	0x3dba71b7	0.09103721
120	0x3e029da5	0.12755449
121	0x3ed86acc	0.4226898
122	0xbd8ce8b9	-0.06880326
123	0x3e6e7494	0.23286659
124	0x3e61ab25	0.22037943
125	0x3e0a13f5	0.13484176
126	0x3e545a6f	0.20737623
127	0xbf0cabd8	-0.5494971

log_std.2.weight f4 [1, 128]
0	0xbc94b21a	-0.018151332
1	0xbc35629e	-0.011070875
2	0xbc00cd3e	-0.007861434
3	0xbc1ca251	-0.009560184
4	0x3c8f2568	0.017473891
5	0x3cf27191	0.029595168
6	0x3c09bbae	0.008406563
7	0xbc5bdfb3	-0.013420033
8	0xbd80e282	-0.06293203
9	0xbc5e1e3f	-0.013557016
10	0x3b105200	0.0022021532
11	0xbc3f6510	-0.01168181
12	0x3a075cbc	0.000516366
13	0xbc058c90	-0.0081511885
14	0x3a0668e4	0.0005127324
15	0xbbd01696	-0.0063503487
16	0xba9f1bd7	-0.0012139034
17	0xbcf6debc	-0.030135505
18	0xbcd82159	-0.026383089
19	0x3b722ca5	0.003695288
20	0xbb9d89f4	-0.004807705
21	0x3b229f1b	0.0024814073
22	0xbd0980e1	-0.033570174
23	0x3c4db559	0.012555444
24	0xbc8aebfb	-0.016958227
25	0xbc57289a	-0.013132239
26	0xbc0a0ea1	-0.008426339
27	0x3c59a897	0.013284824
28	0xbc0c354a	-0.008557627
29	0x3b3a4459	0.0028422086
30	0xbcaf762d	-0.021418655
31	0xbc38fb72	-0.011290418
32	0xbc4d8cae	-0.012545748
33	0xbbc6434f	-0.0060505043
34	0xbcb4b497	-0.022058768
35	0x3bdd80bf	0.0067597325
36	0xbcb0c906	-0.02158023
37	0xbbaf7cbb	-0.005355445
38	0x3c74318b	0.01490439
39	0xbe0a0a91	-0.13480593
40	0xbbd25629	-0.0064189625
41	0xbcfd0b70	-0.030889243
42	0xbbd9c4f5	-0.0066457936
43	0xbd14e55c	-0.036351547
44	0xbaede1c1	-0.0018148945
45	0x3cad9912	0.021191154
46	0x3c5c8e9c	0.013461735
47	0x3bc2e7f8	0.005948063
48	0x3cbccbde	0.02304643
49	0xbc9bb2d8	-0.019006178
50	0xbbfd2b5f	-0.0077261175
51	0x3bdb5cc3	0.0066944077
52	0xbcbdf2fc	-0.023187153
53	0xbc364069	-0.011123755
54	0xbc3f2843	-0.011667314
55	0x3c592eb7	0.013255767
56	0xbc33b563	-0.010968539
57	0xbb204582	-0.0024455492
58	0xbbfd3064	-0.007726716
59	0xbcdcb391	-0.026941093
60	0xba307adf	-0.00067321764
61	0xbc964ddc	-0.018347673
62	0x3b822d78	0.0039727055
63	0x3b7ffa2f	0.0039059033
64	0xbcceff06	-0.025268089
65	0x3bf27230	0.007398866
66	0xbad75c22	-0.0016430656
67	0xbc75d101	-0.015003444
68	0x3c41980c	0.011816036
69	0x3b0cdda0	0.0021494403
70	0xbca21188	-0.01978375
71	0xbbd491ab	-0.0064870915
72	0xbc299279	-0.010349863
73	0xbcb1325d	-0.02163046
74	0xbc06585b	-0.0081997765
75	0xbc20dcff	-0.009818315
76	0xbc823edb	-0.015899112
77	0xbc8b6ca9	-0.017019587
78	0xbb523565	-0.0032075283
79	0xbc44b506	-0.01200605
80	0x3cc29c4c	0.023756169
81	0xbc60b84f	-0.013715818
82	0xbcf2bb2d	-0.029630268
83	0xbc22a424	-0.0099268295
84	0xbc7ebf74	-0.015548576
85	0xba44f63a	-0.0007513497
86	0xb9f167f3	-0.0004604455
87	0xb9fd6f01	-0.00048338625
88	0xba982fc6	-0.0011610917
89	0xbb3e1de2	-0.002900951
90	0xbabacf86	-0.0014252521
91	0xbb8bf23a	-0.004270819
92	0xbc1be509	-0.009515055
93	0x3dc3fb8d	0.09569464
94	0xbb6a15c9	-0.0035718551
95	0xbd5ae9f3	-0.053445768
96	0xbba2a465	-0.004963445
97	0xbbdd6fd6	-0.0067577166
98	0x3c1b9b0e	0.009497417
99	0x3a22c453	0.0006209064
100	0xbc1edabf	-0.009695708
101	0xbb63e681	-0.0034774842
102	0xbcc5979f	-0.02412015
103	0xbb845287	-0.0040381583
104	0xbc39fa15	-0.011351128
105	0xbc42af1d	-0.011882571
106	0xbb4ea1ec	-0.0031529618
107	0xba3cf1d5	-0.00072076666
108	0xbc58642e	-0.013207478
109	0x3c8afec5	0.016967187
110	0xbcf65938	-0.03007184
111	0x3d439e15	0.04775818
112	0x3b5cf5d7	0.0033715868
113	0xbc639b1d	-0.013891962
114	0xbbd72c98	-0.0065665953
115	0xbb6b043c	-0.0035860678
116	0xbbadeff4	-0.0053081457
117	0xbcd2721a	-0.025689173
118	0xbc3d65c4	-0.011559907
119	0xbc092924	-0.008371625
120	0xbba8e289	-0.005153958
121	0xbd12185e	-0.03566777
122	0xbd38909a	-0.045059778
123	0xbc68b03a	-0.014202172
124	0xbb87b8a4	-0.004141884
125	0xbc99e8c6	-0.018787753
126	0xbbbd4e51	-0.0057771583
127	0xbc337a54	-0.010954458
