HybridLearning-master/data/hlt_stoch/InvertedPendulumBulletEnv/seed_666/policy_7000.pt (torch, 10544 bytes, 6 tensors)

mu.0.weight f4 [128, 5]
0	0x3e8d1052	0.27551514
1	0x3e6d6bab	0.23185603
2	0xbeedcf4b	-0.46447214
3	0x3fd9219c	1.6963382
4	0x3e6aab0a	0.22916809
5	0xbcbf03a5	-0.023317168
6	0xbd8503a1	-0.06494833
7	0x3aa7c0e1	0.0012798571
8	0xbe5bd353	-0.21467333
9	0xbc321045	-0.010868137
10	0xbc4f4db1	-0.0126528
11	0xb933aa28	-0.00017134158
12	0x3c28b302	0.010296585
13	0xbd2191b5	-0.039445598
14	0x3b0ab3d6	0.002116432
15	0xbeca7191	-0.3953977
16	0xbfb7f8b6	-1.4372776
17	0x3ea805a5	0.32816806
18	0xbe7cf237	-0.24701773
19	0x3f2a72bc	0.6658132
20	0xbc0738c0	-0.008253276
21	0x3c142189	0.0090411985
22	0xbcbe6fd1	-0.023246678
23	0x3b767ee3	0.0037612251
24	0x3c2af4d7	0.010434351
25	0x3e3510d9	0.17682208
26	0x3e0e8af8	0.139202
27	0xbdfff194	-0.12497249
28	0x3f6e815b	0.9316613
29	0x3dc6228b	0.09674557
30	0x3c90134d	0.017587328
31	0x3a8b1ce0	0.0010613464
32	0xbc6747ac	-0.014116209
33	0x3d30f3cd	0.043201257
34	0xbb2ae567	-0.0026076676
35	0x3f9bf88c	1.2185225
36	0xbe5ab9d2	-0.21359947
37	0x3e7712e7	0.24128304
38	0xbfc68f3e	-1.5512464
39	0x3f2a7104	0.665787
40	0xbc65d9e8	-0.014029004
41	0xbba5a397	-0.005054902
42	0x3c89e660	0.016833484
43	0xbd16733c	-0.03673099
44	0x3af1dfe8	0.001845357
45	0x3c3cb93c	0.011518773
46	0xbd3e2af8	-0.046427697
47	0x3c369523	0.011143955
48	0xbbdadda5	-0.006679254
49	0x3b261902	0.0025344496
50	0xbe11585c	-0.14193863
51	0x3d88b9b0	0.06676042
52	0xbde336b7	-0.110944204
53	0xbd1e304f	-0.03862029
54	0x3c7cc654	0.0154281445
55	0x3f8b49fb	1.0881952
56	0x3e91a037	0.28442547
57	0xbe5fd9dd	-0.21860452
58	0x3f4b5dd3	0.7944004
59	0xbf5a2b32	-0.8522216
60	0x3f8e9e21	1.1142007
61	0x3e291728	0.1651274
62	0x3f66461d	0.89950734
63	0x40803e2b	4.007589
64	0x3f370a11	0.71499735
65	0xbc3a336c	-0.011364799
66	0x3ed5fd79	0.41794947
67	0xbf1a462a	-0.6026331
68	0xbf311773	-0.69176406
69	0xbe897ff4	-0.26855433
70	0xbed49d20	-0.41526127
71	0x3cb661bf	0.022263406
72	0xbd40bedf	-0.04705703
73	0xbe932293	-0.28737316
74	0x3dd4d68a	0.103924826
75	0x3f3b6f0d	0.73216325
76	0xbda1b7c1	-0.078963764
77	0x3e314a26	0.17313442
78	0x3e54c368	0.20777667
79	0xbe089ba1	-0.13340618
80	0xbc140dd6	-0.009036502
81	0xbd3f4067	-0.04669228
82	0xbc95d88b	-0.018291732
83	0xbd9e1d91	-0.07720483
84	0x3c2eb883	0.010664108
85	0x3bd4e4b4	0.00649699
86	0x3ca4dbfc	0.020124428
87	0xbc0bbcbd	-0.008528885
88	0x3d03a444	0.032139078
89	0xbb53c397	-0.0032312626
90	0x3fae54c9	1.3619624
91	0xbebb605f	-0.36596963
92	0x3e534b23	0.20634131
93	0xbe939601	-0.2882538
94	0xbdf85fdc	-0.12127659
95	0x3ae49ae9	0.0017441186
96	0xbd1d7770	-0.038443983
97	0x3b171138	0.0023051035
98	0xbcea6f54	-0.028617539
99	0x3b90def6	0.0044211103
100	0xbc3eba1e	-0.0116410535
101	0x3b024a4f	0.0019880717
102	0x3b830e17	0.0039994824
103	0xbd2f8c6b	-0.042858522
104	0x3b39f0ac	0.0028372211
105	0xbb988525	-0.004654544
106	0x3e2a8d01	0.16655351
107	0xbd1e3f55	-0.038634617
108	0xbfa7a3ee	-1.3096902
109	0x3e61c3b8	0.22047317
110	0x3fbb18ba	1.4616921
111	0x3e5d7d09	0.21629728
112	0xbc97c123	-0.018524712
113	0xc032f49a	-2.7961793
114	0xbee4136e	-0.44546074
115	0xbbbfb46a	-0.0058503645
116	0xbd57776b	-0.05260412
117	0xbc8357d2	-0.016033087
118	0xbd378793	-0.044807028
119	0x3c2c7a3b	0.010527189
120	0x3cb21c16	0.021741908
121	0xbcac19ce	-0.021008398
122	0xbc7d87c7	-0.015474266
123	0xbd080420	-0.03320706
124	0x3c3daeaa	0.011577288
125	0xbcdda86e	-0.027057853
126	0x3bc4c317	0.006004702
127	0x3d76b256	0.06022867
128	0xbcc2f000	-0.023796082
129	0xbb88fffa	-0.0041809054
130	0xbd8d77c1	-0.06907607
131	0xbd1110e4	-0.0354165
132	0x3c2debe6	0.010615325
133	0xbe422925	-0.18961008
134	0xbb94fb0c	-0.0045465287
135	0xbf72168b	-0.9456565
136	0xbdd3cc11	-0.10341657
137	0xbe7c1f08	-0.24621212
138	0xbf44deab	-0.76902264
139	0x3f5e7f81	0.86913306
140	0x3c3eb53b	0.011639888
141	0x3c22a05d	0.009925929
142	0xbc73dbf6	-0.014883986
143	0x3d368702	0.044562347
144	0xbb239833	-0.0024962544
145	0x3aeb771e	0.0017964577
146	0xbd3b15ec	-0.045675203
147	0x3846c448	4.738968e-05
148	0xbd0473e6	-0.032337092
149	0x3c03f2e7	0.008053518
150	0x3ed07874	0.40716898
151	0xbe3a3e27	-0.18187772
152	0xbdc8913c	-0.09793326
153	0x3f03542c	0.5130031
154	0xbe63ded8	-0.22252977
155	0x3f85bb28	1.044774
156	0xbe5a0615	-0.21291383
157	0x3bad596c	0.005290201
158	0xbaca57cd	-0.0015437544
159	0xbe30a991	-0.17252184
160	0xbfd0ccff	-1.631256
161	0x3d45659b	0.0481926
162	0x3f6c4b63	0.9230253
163	0xbfdba322	-1.7159159
164	0xbf136acf	-0.5758485
165	0xbcdb846d	-0.026796544
166	0x3f88d1c3	1.0689014
167	0xbf6b2fd6	-0.91869867
168	0x3e9f5dc9	0.3112624
169	0x3e899d63	0.2687789
170	0xbc16a1c5	-0.009193842
171	0xbb8d5d6f	-0.0043141167
172	0x3bb03f2a	0.0053786235
173	0xbd18751c	-0.03722106
174	0x3b24811e	0.0025101374
175	0xbf12c672	-0.57334054
176	0xbecb9ae6	-0.39766616
177	0xbd8e68f7	-0.06953614
178	0xbe3cc491	-0.18434359
179	0x3d1a1b6c	0.037623808
180	0xbfbb1750	-1.461649
181	0x3de13bff	0.109977715
182	0xbf113da2	-0.5673467
183	0xbedd4c02	-0.43222052
184	0x3fa27f30	1.2695065
185	0x3eb06627	0.34452936
186	0x3ea079bc	0.31342876
187	0xbe80de69	-0.25169685
188	0x3f98606f	1.1904429
189	0x3e240bb6	0.16020092
190	0x3e02ce5c	0.12774032
191	0x3ee4ae5d	0.4466428
192	0x3f1ac18d	0.60451585
193	0xbf701b10	-0.93791294
194	0x3ebfebd1	0.374846
195	0x3d880edf	0.066434614
196	0x3bdf983b	0.006823567
197	0x3c198aae	0.009371443
198	0xbd2e1965	-0.042504687
199	0xba7e2eb3	-0.000969629
200	0xbe1fe390	-0.15614152
201	0x3e10cdbf	0.14140986
202	0xbc40b1bb	-0.011761124
203	0xbf8bf8db	-1.093532
204	0x3e72b1bd	0.23700614
205	0x3eaf696d	0.3426012
206	0xbcba414e	-0.022736218
207	0x3fbf66f2	1.4953291
208	0x3e92353d	0.28556243
209	0xbe93e56b	-0.2888597
210	0x3d3ad4ba	0.045613028
211	0x3c31c002	0.010849001
212	0xbcb63b5d	-0.022245103
213	0x3dbbe8dc	0.09175274
214	0xbb91575f	-0.0044354643
215	0x3d653cb3	0.05596609
216	0x3ee5fb82	0.44918448
217	0xbfb90922	-1.4455912
218	0x3f03a783	0.5142748
219	0xbf08b7d9	-0.5340553
220	0xbe2369d2	-0.15958336
221	0x3e5ee5d3	0.21767358
222	0xbe1e9585	-0.15486725
223	0x3f4455e5	0.76693565
224	0x3dfdadd2	0.12386669
225	0xbf0b905b	-0.54517144
226	0xbf203875	-0.62586147
227	0xbf98324e	-1.1890352
228	0xc0903fee	-4.507804
229	0xbf919f84	-1.1376805
230	0xbeee4938	-0.46540236
231	0x3d7266e1	0.059180144
232	0xbdb529a6	-0.088458344
233	0xbf1b56e6	-0.6067947
234	0x3e431f5d	0.19054933
235	0x3fa78e72	1.3090346
236	0xbdff66b0	-0.12470758
237	0xbed6f473	-0.41983375
238	0xc009af68	-2.151331
239	0x3bac9789	0.005267088
240	0xbb6edde0	-0.0036448166
241	0xbd9097bf	-0.07060193
242	0xbbe430c8	-0.006963823
243	0xbd71641f	-0.058933374
244	0x3c176e14	0.009242553
245	0x3c1a42be	0.009415327
246	0x3b206d38	0.0024479162
247	0xbc02b35c	-0.007977333
248	0x3d0fe625	0.035131592
249	0xbaff5fad	-0.001948347
250	0xbf309146	-0.6897167
251	0x3d4497b7	0.04799625
252	0xbdf9993b	-0.121874295
253	0xbe57f871	-0.21090867
254	0x3dfe53b2	0.12418307
255	0x3e785644	0.24251658

mu.0.bias f4 [128]
0	0xbe9b6511	-0.30350545
1	0xbc8c9141	-0.017159106
2	0xbc7ae2fa	-0.0153129045
3	0xbcceb739	-0.025233852
4	0x3c81f3ef	0.015863387
5	0x3e1d3402	0.1535187
6	0x3c9b8b5f	0.018987356
7	0x3df7e600	0.12104416
8	0xbca7e006	-0.020492565
9	0xbc463389	-0.012097248
10	0x3dd3e031	0.103454955
11	0xbe1a8bee	-0.15092441
12	0xbf4032ac	-0.7507732
13	0x3f2b5754	0.6693013
14	0x3d898847	0.06715446
15	0xbe4adbb8	-0.19810379
16	0x3be1fd9d	0.006896688
17	0x3c533498	0.012890957
18	0xbdb332a2	-0.08749892
19	0xbbed64a8	-0.007244665
20	0xbc27a26f	-0.010231598
21	0xbc24d25a	-0.010059917
22	0x3f965523	1.1744732
23	0x3be5bc2d	0.0070109577
24	0x3bce409d	0.0062943236
25	0xbd68c325	-0.05682673
26	0xbcdd37d8	-0.027004167
27	0xbe5d0480	-0.21583748
28	0x3c981cf6	0.018568497
29	0xbbc227b3	-0.0059251427
30	0x3db90f4a	0.09036119
31	0xbd47b686	-0.048758052
32	0x3fa5d23a	1.2954781
33	0x3f4342aa	0.76273596
34	0xbc2d67a2	-0.01058379
35	0x3dfa8a19	0.12233371
36	0xbf750a12	-0.9571849
37	0x3e8687c0	0.26275444
38	0xbf38403d	-0.7197302
39	0xbc194cb7	-0.009356669
40	0xbddfe538	-0.10932392
41	0x3fc80238	1.5625677
42	0x3d03390d	0.03203683
43	0xbf806aa0	-1.0032539
44	0x3dc55213	0.09634795
45	0x3f3f3690	0.7469263
46	0x3dd989c1	0.106219776
47	0xbf660b5e	-0.89861095
48	0xbb65546f	-0.0034992953
49	0x3c4f068b	0.012635837
50	0x3dfc1ad9	0.12309808
51	0x3e022358	0.12708795
52	0x3d80da4c	0.06291637
53	0x3d3c5e29	0.045988236
54	0xbcd8440c	-0.026399635
55	0xbc250cdf	-0.0100738695
56	0x3df8d8d3	0.12150731
57	0x3bfced5a	0.007718724
58	0x3eda0a50	0.42585993
59	0x3ccf8ec5	0.025336633
60	0x3d7cbbb4	0.061702445
61	0x3d45f041	0.048324827
62	0xbec0962c	-0.37614572
63	0xbc645dff	-0.013938426
64	0xbf92e14b	-1.1475004
65	0xbc5c9553	-0.013463336
66	0xbd050731	-0.03247756
67	0x3c5be4d2	0.013421254
68	0xbd42b334	-0.047534183
69	0x3b1268bb	0.0022340256
70	0xbf13516e	-0.57546127
71	0xbd8779d9	-0.066150375
72	0x3d35a10a	0.044343032
73	0xbbf31860	-0.007418677
74	0xbd2b9200	-0.041887283
75	0x3bc73725	0.006079572
76	0xbea785e7	-0.32719347
77	0x3d9fd18f	0.07803642
78	0x3b49ddce	0.0030802372
79	0xbf051090	-0.519784
80	0xbed73dfe	-0.42039484
81	0xbe6a9500	-0.22908401
82	0xbe5b03c8	-0.21388161
83	0xbbcc3abf	-0.006232589
84	0xbf8cca44	-1.0999227
85	0xbd47ed68	-0.048810393
86	0xbf135744	-0.5755503
87	0xbc0d910f	-0.008640542
88	0xbdfe1473	-0.12406244
89	0xbebe3b40	-0.3715458
90	0xbc3fbfa3	-0.011703405
91	0xbf37ef07	-0.718491
92	0x3f223667	0.6336426
93	0x3e641fcc	0.22277755
94	0xbcaf09c8	-0.021366969
95	0xbe82f790	-0.255795
96	0x3f09171f	0.53550905
97	0xbd90a77d	-0.07063196
98	0xbcf43057	-0.029808206
99	0x3e832fe0	0.25622463
100	0x3becbdaa	0.007224758
101	0xbba243af	-0.004951916
102	0xbc618242	-0.013763966
103	0x3dd024a9	0.10163242
104	0x3bcc4686	0.006233993
105	0xbdd0f675	-0.10203258
106	0x3ca00042	0.019531373
107	0x3f09ba63	0.5380003
108	0x3d9c30af	0.07626473
109	0x3fc6e20e	1.5537736
110	0x3d579b7a	0.05263851
111	0xbcc0a0c5	-0.02351416
112	0xbc8689cc	-0.016423129
113	0xbeab2d87	-0.33433172
114	0xbdefe259	-0.11713094
115	0x3c042cb1	0.008067296
116	0x3e6b04f8	0.22951114
117	0x3e9164b6	0.2839715
118	0xbd931927	-0.07182532
119	0xbe10c3b3	-0.14137153
120	0x3c1d0106	0.009582764
121	0x3ee2c20f	0.4428868
122	0x3d5bced1	0.053664032
123	0x3eb90a5a	0.3614071
124	0x3f32da54	0.6986439
125	0x3f88edfa	1.0697625
126	0xb918cdb6	-0.00014572483
127	0xbecc20a2	-0.39868647

mu.2.weight f4 [1, 128]
0	0x3e520085	0.2050801
1	0xbaed2a17	-0.0018094209
2	0x3a32482b	0.0006800915
3	0x3eaf1926	0.34198874
4	0xbb61eb03	-0.0034472353
5	0x39d6f905	0.00041002795
6	0xbae1b55e	-0.0017220189
7	0xbe30be26	-0.17260036
8	0x3b1de294	0.002409135
9	0x3b98351a	0.004645002
10	0xb9a4f59e	-0.00031463517
11	0xbea253ce	-0.31704563
12	0x3fa64474	1.298964
13	0x3e5a2fc1	0.21307279
14	0x3d0a8607	0.033819225
15	0xbdb8b04a	-0.090179995
16	0xbac56f88	-0.0015063146
17	0xbb20e0fb	-0.0024548161
18	0xbe407531	-0.18794705
19	0x3aed820e	0.0018120424
20	0xb9fa107a	-0.00047695992
21	0x3e02cad6	0.12772688
22	0xbeca5801	-0.39520267
23	0x3a072887	0.00051558804
24	0xbb518df3	-0.0031975477
25	0x3bb414f9	0.005495664
26	0x3a42f077	0.0007436345
27	0x3e53316b	0.2062432
28	0xbae0282e	-0.0017101818
29	0x3b0fc23d	0.0021935843
30	0xbd8190b1	-0.06326426
31	0xbe23f21d	-0.16010328
32	0x3ec460e0	0.3835516
33	0xbe942576	-0.2893483
34	0x398bdb5c	0.00026675581
35	0x3d26c092	0.040710993
36	0x3eaa7242	0.33290297
37	0x3ce0d750	0.027446419
38	0xbe0fff07	-0.14062129
39	0xbbef0472	-0.007294231
40	0x3dceb303	0.100927375
41	0xbf81bb4e	-1.0135286
42	0xbb0fdb88	-0.002195092
43	0xbf084e35	-0.53244334
44	0x3cc28c36	0.023748498
45	0xbf008d2c	-0.5021541
46	0x3d9478cd	0.072496034
47	0x3f135d95	0.5756467
48	0x3a98a9ed	0.0011647322
49	0xba0aab32	-0.00052897923
50	0x3d923836	0.07139628
51	0xbb83059e	-0.0039984724
52	0xbc065ac0	-0.008200347
53	0xbbbbf5fb	-0.0057361103
54	0x3b8b117a	0.0042440267
55	0x3b6ab27e	0.0035811956
56	0x3ed8be95	0.42332903
57	0xbb249d37	-0.0025118121
58	0xbdc34264	-0.095341474
59	0x3a63a761	0.0008684304
60	0x3d0ae2a6	0.033907555
61	0xbb83c8f5	-0.0040217587
62	0x3e59d8f2	0.21274164
63	0xbab60259	-0.0013886198
64	0xbe773a6d	-0.24143381
65	0x3acb237d	0.0015498247
66	0x3bbda2ba	0.005787221
67	0xb9fd4d51	-0.00048313526
68	0x3b8fdacd	0.0043900968
69	0xba4e842b	-0.0007877971
70	0xbd73f029	-0.059555206
71	0xbd3d5266	-0.04622116
72	0xbd8f1575	-0.069865145
73	0x3a9a99ea	0.0011795138
74	0x3dae3e93	0.08508029
75	0xba119e4f	-0.0005554901
76	0xbc292478	-0.010323636
77	0x3bd88def	0.0066087167
78	0x39fdae30	0.000483857
79	0xbe46a7fc	-0.19400018
80	0xbda89662	-0.08231808
81	0x3e0dd909	0.13852324
82	0xbd6c51ca	-0.057695188
83	0x381d33f3	3.74801e-05
84	0xbf343ec8	-0.70408297
85	0x3bd07364	0.006361412
86	0x3e1f0d79	0.15532483
87	0xba0115f7	-0.00049242325
88	0xbd10fb4f	-0.035395917
89	0x3e144ea9	0.14483131
90	0x3a93ef7e	0.0011286584
91	0xbf94b4ad	-1.1617638
92	0xbea74c85	-0.32675567
93	0xbb139f09	-0.0022525212
94	0x3b4fb0e8	0.0031691138
95	0xbb820456	-0.003967802
96	0x3e6d4b25	0.23173197
97	0xbb373ffc	-0.0027961722
98	0xbcab4cac	-0.020910583
99	0x3e4c337d	0.19941516
100	0xbd9208f1	-0.07130612
101	0x3adb5313	0.0016733132
102	0x3ad21900	0.0016029179
103	0x3dfed96c	0.12443814
104	0x3d0e2a1e	0.034708135
105	0xbdd54882	-0.104142204
106	0xbb2e8627	-0.0026630254
107	0xbdf8bb0d	-0.12145052
108	0xbd8ff5ae	-0.070292816
109	0xbfa328de	-1.2746847
110	0x3c971f98	0.018447682
111	0x3ba77d6d	0.0051113875
112	0x3afaf805	0.0019147402
113	0xbf0b937a	-0.54521906
114	0xbcf9549d	-0.030435855
115	0xba860fe5	-0.0010228126
116	0x3eb21aec	0.34786165
117	0xbecb964b	-0.39763102
118	0x3b7a0be8	0.003815407
119	0xbde36f75	-0.11105243
120	0xbbfe8ea4	-0.007768469
121	0xbe4860a8	-0.19568121
122	0x3b84e887	0.0040560397
123	0x3c4b466f	0.012406929
124	0xbedee5ad	-0.43534604
125	0xbe92673b	-0.28594384
126	0x3a0516eb	0.00050769624
127	0xbc11967e	-0.008885978

log_std.0.weight f4 [128, 5]
0	0xbde56b60	-0.11202121
1	0x3e790ceb	0.24321334
2	0xbef67ae7	-0.48140642
3	0x3f34e2dc	0.7065866
4	0x3dfc93de	0.12332891
5	0x3e02c8ee	0.12771961
6	0x3da025d8	0.07819718
7	0x3da05576	0.078288004
8	0x3ed0f39b	0.40810856
9	0xbacf99b4	-0.0015838654
10	0x3ddb33d4	0.10703245
11	0x3e25966c	0.16170663
12	0xbd8ff0c6	-0.07028346
13	0x3df4f1ed	0.11960206
14	0xb9ddc883	-0.00042301798
15	0x3eb6c777	0.35699055
16	0x3e26ed2d	0.16301413
17	0xbf205f54	-0.6264546
18	0x3f97c947	1.18583
19	0x3ea23a0b	0.31684908
20	0xbeccb890	-0.3998456
21	0xbe02cb58	-0.12772882
22	0x3ebb31af	0.36561343
23	0x3f84af78	1.0366049
24	0x3e6f95ed	0.23397036
25	0x3e9f9976	0.3117177
26	0xbda11c77	-0.07866757
27	0xbf3ee3e6	-0.74566495
28	0xbdebf125	-0.11520604
29	0xbe4441bf	-0.19165705
30	0xbefe14ed	-0.4962534
31	0xbeaaa141	-0.33326152
32	0x3ed76876	0.42071885
33	0x3d844a58	0.064594924
34	0x3cd73970	0.026272506
35	0x3e275f7e	0.16345021
36	0x3df973e0	0.121803045
37	0x3f011446	0.5042156
38	0x3f633f6d	0.88768655
39	0x3d1974e0	0.037464976
40	0x3f4d2836	0.8013948
41	0xbdbac3a4	-0.09119347
42	0x3f1d28e6	0.6139053
43	0x3f4be983	0.79653186
44	0x3dc60812	0.09669508
45	0xbed5cd4d	-0.41758195
46	0xbe32e285	-0.17469223
47	0xbeb1ef55	-0.34752908
48	0x3df0524d	0.11734448
49	0xbdb2277e	-0.08698939
50	0xbef41ee3	-0.47679815
51	0xbe87c11f	-0.26514527
52	0x3eaddd98	0.33958125
53	0xbf020a1b	-0.5079667
54	0xbc9b9b62	-0.01899499
55	0x3e34f085	0.17669876
56	0x3ddce9c7	0.10786777
57	0x3efe673a	0.4968813
58	0x3dded71b	0.10880872
59	0x3e22f1ae	0.15912506
60	0xbf2199a3	-0.63125056
61	0xbd9df260	-0.07712245
62	0x3e3880eb	0.18017928
63	0xbe99cc59	-0.30038717
64	0xbd0dfdcb	-0.034665864
65	0x3ed25d25	0.4108669
66	0x3d455023	0.048172127
67	0x3e910f0c	0.28331792
68	0xbea64b21	-0.32479194
69	0xbd177e2d	-0.036985565
70	0xbdd41944	-0.103563815
71	0x3d41a403	0.047275554
72	0xbd74f4f3	-0.059803914
73	0xbd279bc7	-0.040920045
74	0xbb837b95	-0.004012535
75	0xbc78d2b9	-0.015186959
76	0xbcc45333	-0.023965454
77	0x3d115ce0	0.035488963
78	0x3da2e6a9	0.07954151
79	0x3be08466	0.0068517206
80	0x3f1365ce	0.57577217
81	0x3e8437d7	0.25823852
82	0x3f114c24	0.56756806
83	0xbe45157d	-0.19246478
84	0xbdb8fb59	-0.09032316
85	0x3eaa415f	0.33253
86	0x3e1a02df	0.15040158
87	0x3ea20004	0.31640637
88	0xbe8a1a40	-0.26973152
89	0xbeb26009	-0.34838894
90	0x3eccec57	0.40024063
91	0x3dde8bf3	0.10866537
92	0x3ec15b85	0.37765136
93	0xbe5cb52f	-0.21553491
94	0x3e177315	0.14789994
95	0x3e2e8b11	0.17045237
96	0x3de4022b	0.11133226
97	0xbe1db14e	-0.15399668
98	0xbd7c40ed	-0.061585356
99	0xbc5d2ca0	-0.013499409
100	0x3ec261ef	0.37965342
101	0xbedb1ace	-0.42793888
102	0xbd8b7297	-0.06808966
103	0x3e86c1b6	0.26319665
104	0x3d258bb4	0.040416434
105	0xbe7dfc23	-0.24803214
106	0x3d13533d	0.035968054
107	0x3ebdf208	0.37098718
108	0x3e41c0dd	0.18921228
109	0x3d22bfa0	0.03973353
110	0x3ec182ea	0.37795192
111	0x3e74ae5e	0.23894641
112	0x3ec69d67	0.38791963
113	0x3db4a77d	0.08821008
114	0x3e49fb3b	0.19724743
115	0x3f02fedd	0.5117014
116	0x3f09018a	0.53517973
117	0xbe493f5f	-0.1965308
118	0x3ec7a0c1	0.38989833
119	0xbd1a7683	-0.037710678
120	0x3e2b6f84	0.16741759
121	0xbdd1ec41	-0.1025014
122	0xbe82d06c	-0.25549638
123	0xbdf93702	-0.12168695
124	0x3c9e7005	0.019340524
125	0x3d3f20e1	0.046662215
126	0x3c8607bb	0.016361108
127	0xbc497ac1	-0.012297333
128	0x3e11edbc	0.14250845
129	0x3b6f27a3	0.0036492131
130	0x3f4a0c06	0.78924596
131	0x3ead123e	0.3380298
132	0xbd4eaaa5	-0.050455708
133	0x3c342fe9	0.010997751
134	0x3e054e3e	0.13018128
135	0x3eb903d1	0.36135724
136	0x3ef903d4	0.48635733
137	0x3ea634db	0.324622
138	0xbe6c6b4e	-0.23087808
139	0xbd289e58	-0.041166633
140	0xbe18ab25	-0.14909036
141	0xbd10cf87	-0.035354163
142	0x3d2cc1ce	0.042177014
143	0x3e1072b3	0.14106254
144	0x3cd95e04	0.026534088
145	0x3e07a5d9	0.1324686
146	0xbe2d90b1	-0.16949727
147	0xbdfa5476	-0.12223141
148	0xbe1c21d4	-0.1524728
149	0x3c576e11	0.0131488005
150	0x3e4f3cdd	0.20238061
151	0xbe57687a	-0.21035948
152	0x3d7c7f51	0.061644856
153	0xbf3acb3a	-0.7296635
154	0xbced7264	-0.02898521
155	0xbbc0ff10	-0.005889781
156	0xbbc030ce	-0.005865193
157	0x3bfad808	0.0076551475
158	0x3da11878	0.07865995
159	0x3bcf34ca	0.0063234316
160	0xbec2894a	-0.37995368
161	0xbe3c660e	-0.18398306
162	0xbecaff0c	-0.3964771
163	0x3ea2df86	0.3181116
164	0x3ebe04ae	0.37112945
165	0xbe596d10	-0.2123301
166	0xbe039fbe	-0.12853906
167	0x3dab2cf2	0.08358182
168	0x3efc104f	0.49231192
169	0x3e837ddf	0.2568197
170	0x3e8a6974	0.2703358
171	0xbc87bba8	-0.016568974
172	0xbae3626a	-0.0017348055
173	0xbe945f3f	-0.28978917
174	0xbe7a234f	-0.24427532
175	0xbcb19d3f	-0.021681426
176	0x3defcdf0	0.11709201
177	0xbbe509d0	-0.006989695
178	0xbd892421	-0.06696344
179	0xbc645a97	-0.013937614
180	0x3d57d5b4	0.052694038
181	0x3b29bae1	0.0025898742
182	0x3d096e4f	0.033552464
183	0x3e99b64e	0.300219
184	0xbb13f0bc	-0.0022573909
185	0x3e60b36d	0.21943446
186	0xbe66a4cb	-0.22523801
187	0xbc93e917	-0.018055482
188	0x3e56ec19	0.20988502
189	0x3cd82e3e	0.026389237
190	0x3e0edc43	0.1395121
191	0xbdec1c65	-0.11528853
192	0x3e757240	0.23969364
193	0x3e081e22	0.13292745
194	0xbc2466bd	-0.01003426
195	0x3f737378	0.95098066
196	0x3e99c268	0.30031133
197	0xbd936e68	-0.07198793
198	0x3dcaafbf	0.09896802
199	0x3d54c8d6	0.051949345
200	0x3e3a2d43	0.18181328
201	0x3e2ac428	0.1667639
202	0x3cc5d058	0.024147198
203	0xbf1c5a8c	-0.61075664
204	0x3ce31926	0.027721953
205	0xbd3196b3	-0.04335661
206	0x3cb91e76	0.022597533
207	0x3f45fe27	0.7734093
208	0xbe1f6aa2	-0.15568021
209	0xbe1e0f37	-0.15435492
210	0xbeb1a37c	-0.3469504
211	0xbd8d5a1a	-0.06901951
212	0xbddae528	-0.10688239
213	0xbdd59e6d	-0.10430608
214	0xbb89c71d	-0.0042046444
215	0x3eee678a	0.4656337
216	0x3dc81433	0.09769478
217	0x3f0ed06a	0.55786765
218	0x3f6df290	0.92948246
219	0x3df0e648	0.11762673
220	0xbd6773f2	-0.05650706
221	0x3dbd5705	0.09245113
222	0xbdfd08e4	-0.123552114
223	0x3d5b82bb	0.05359147
224	0xbca4f0dc	-0.020134382
225	0xbec77d13	-0.38962612
226	0x3eb0861f	0.34477326
227	0xbe48fd25	-0.19627817
228	0x3f504501	0.8135529
229	0x3d16f0f2	0.036850877
230	0xbd14c014	-0.036315992
231	0x3e60bf04	0.21947867
232	0x3e2ac9d5	0.16678555
233	0x3f4cc4b0	0.7998762
234	0x3e843d25	0.258279
235	0x3d36271b	0.044470888
236	0x3d0fb0ed	0.03508084
237	0xbde922d7	-0.11383598
238	0xbf7ecb01	-0.9952851
239	0x3e7e9371	0.24860932
240	0xbc1b9ef3	-0.009498346
241	0xbe63c982	-0.22244838
242	0x3f0d8271	0.5527716
243	0xbf986b79	-1.1907798
244	0xbe96c196	-0.2944457
245	0xbef6ec73	-0.4822727
246	0x3cf1d9ad	0.029522741
247	0x3de6935c	0.11258575
248	0x3e2aec84	0.16691786
249	0xbbb004d1	-0.005371668
250	0xbed85323	-0.42250928
251	0x3e1a5117	0.15069996
252	0x3db2dd77	0.08733647
253	0xbdb26f9b	-0.08712693
254	0xbd0004fd	-0.031254757
255	0x3de1a661	0.110180624

log_std.0.bias f4 [128]
0	0xbdffeb18	-0.124960124
1	0xbd92f500	-0.07175636
2	0xbd2fa4d8	-0.042881817
3	0xbe7a038f	-0.2441542
4	0x3d0d6dc4	0.03452851
5	0xbf507002	-0.8142091
6	0xbf2d229c	-0.67630935
7	0xbd31d775	-0.043418366
8	0x3e51fde7	0.20507012
9	0x3e26c013	0.16284208
10	0xbf22af51	-0.6354876
11	0xbead6c12	-0.33871514
12	0xbee2f4ed	-0.4432749
13	0xbe9fe831	-0.31231835
14	0xbe6486ad	-0.22317
15	0xbe2bc4a0	-0.16774225
16	0xbf25e7ce	-0.6480683
17	0x3d48bc72	0.04900784
18	0xbe4231b8	-0.18964279
19	0xbf14ed61	-0.5817471
20	0xbf0ff8c9	-0.5623899
21	0xbf2054df	-0.62629503
22	0xbd3d3656	-0.046194397
23	0xbe8896d8	-0.26677585
24	0xbe63dfe0	-0.2225337
25	0xbcaba48f	-0.020952491
26	0xbf1802ac	-0.59379077
27	0xbf5d9701	-0.8655854
28	0xbe84a9e9	-0.2591088
29	0xbf13aa86	-0.57682073
30	0x3d2ce6b2	0.042212196
31	0xbd9e5ecf	-0.07732927
32	0xbdad2dca	-0.08455999
33	0xbf0349c1	-0.51284415
34	0x3e808d4d	0.25107804
35	0xbf0095ce	-0.50228584
36	0xbe08bdbf	-0.13353632
37	0xbead39bb	-0.33833107
38	0xbf04ab4c	-0.5182388
39	0xbf2dff95	-0.6796811
40	0x3d760e6f	0.06007236
41	0xbe7acc7b	-0.24492066
42	0xbf1e2d3d	-0.6178778
43	0x3e9f66e3	0.31133184
44	0xbf08a1d6	-0.5337194
45	0xbf2fa971	-0.6861792
46	0xbe27b1e4	-0.16376454
47	0xbe5c751f	-0.21529053
48	0xbf0f2e01	-0.5592957
49	0xbe3ba289	-0.18323721
50	0xbd4e1a6d	-0.05031817
51	0xbe9071c4	-0.28211796
52	0xbeb28eae	-0.3487448
53	0xbe04013f	-0.128911
54	0xbee77673	-0.45207557
55	0xbe29dfa6	-0.16589221
56	0x3d8cefee	0.068817005
57	0xbe9f306d	-0.31091633
58	0xbf2a0297	-0.664102
59	0xbda0681b	-0.078323565
60	0xbf49d8b0	-0.78846264
61	0x3e31a501	0.173481
62	0xbefee1a6	-0.4978153
63	0xbf0f2233	-0.5591156
64	0x3e8796cb	0.26482233
65	0xbecc3c39	-0.39889696
66	0xbdff4d14	-0.12465873
67	0xbd2d75b4	-0.04234858
68	0x3e430d19	0.19047965
69	0xbf118731	-0.5684691
70	0xbeedeecd	-0.46471253
71	0xbc9432dd	-0.01809066
72	0xbeecbd3a	-0.46238118
73	0xbd6e50d3	-0.05818255
74	0xbe0dbab4	-0.13840753
75	0xbedbb51c	-0.42911613
76	0xbeaece2c	-0.34141672
77	0xbe9000ba	-0.28125554
78	0xbec267a0	-0.37969685
79	0x3d1814d2	0.03712923
80	0xbd38ed00	-0.045147896
81	0x3ea3b86f	0.3197665
82	0xbe0b7ed6	-0.13622603
83	0xbf4d51e4	-0.8020308
84	0xbe5135bb	-0.20430653
85	0xbea7ffe3	-0.32812414
86	0xbee92c46	-0.4554159
87	0xbed46bcc	-0.41488492
88	0xbebbf009	-0.3670657
89	0xbe5458e5	-0.20737036
90	0xbdbfaab9	-0.09358735
91	0xbc8f2dbb	-0.01747786
92	0x3cd82a14	0.026387252
93	0xbf6b31fb	-0.9187314
94	0xbe86c61d	-0.26323023
95	0x3e902dd6	0.2815997
96	0xbedbd865	-0.42938533
97	0xbe91d841	-0.284853
98	0xbed13d7a	-0.40867215
99	0xbf07c38e	-0.5303277
100	0xbe7bf853	-0.24606447
101	0xbdd76f5f	-0.10519289
102	0xbe81c9cc	-0.2534927
103	0xbe373ba8	-0.17893851
104	0xbe39f41c	-0.18159527
105	0x3d34da69	0.044153605
106	0xbd9233a9	-0.0713876
107	0xbf264126	-0.6494316
108	0xbd8ba1cf	-0.06817972
109	0xbf384947	-0.7198681
110	0x3eaf53d4	0.34243643
111	0xbf56471c	-0.83702254
112	0xbeb6a3a1	-0.35671714
113	0xbed0a1ed	-0.4074854
114	0xbe739d7e	-0.23790547
115	0xbe83e4c3	-0.2576047
116	0xbc2b12a7	-0.010441459
117	0xbf064aff	-0.52458185
118	0xbdb4881a	-0.08815022
119	0xbe05d346	-0.13068876
120	0xbe33616d	-0.17517634
121	0x3ef40f46	0.47667903
122	0x3d5c028f	0.053713378
123	0xbe5daf6a	-0.21648946
124	0xbd1e22fb	-0.03860758
125	0xbeca0a96	-0.394612
126	0xbd831980	-0.06401348
127	0xbf37d3aa	-0.7180735

log_std.2.weight f4 [1, 128]
0	0xbda3109b	-0.079621516
1	0xbc320302	-0.010864975
2	0x3c5083b4	0.012726713
3	0xbeba04db	-0.3633183
4	0x3e315584	0.17317778
5	0x3e27ba4b	0.16379659
6	0xbdb2d772	-0.08732499
7	0xbda96002	-0.08270265
8	0xbe570480	-0.2099781
9	0xbda8e315	-0.082464375
10	0xbe2b67ed	-0.16738863
11	0xbd250aed	-0.040293623
12	0xbded3093	-0.115815304
13	0xbcbc4c36	-0.022985559
14	0xba271ed4	-0.0006375138
15	0xbc2e8ce2	-0.010653706
16	0xbe250d55	-0.16118367
17	0xbe1bf6c0	-0.15230846
18	0xbd9f2f29	-0.07772667
19	0x3b722ca5	0.003695288
20	0xbd83fa64	-0.064442426
21	0x3c41ba55	0.01182421
22	0xbdd6f947	-0.10496765
23	0x3dbbf46d	0.0917748
24	0xbb4a945c	-0.0030911183
25	0x3b27718d	0.002554986
26	0x3e26f14c	0.16302985
27	0x3e8e0182	0.27735525
28	0x3a0af600	0.0005300939
29	0xbc10e89a	-0.008844519
30	0xbd672f80	-0.056441784
31	0xbafb89f9	-0.0019190899
32	0xbe2ed1a5	-0.1707216
33	0xbdb1f82a	-0.08689912
34	0xbdd12903	-0.102129005
35	0xbc96d342	-0.018411282
36	0xbbcf250e	-0.006321556
37	0xbc453b1e	-0.01203802
38	0x3c5ebd6a	0.0135949645
39	0x3ec6caf2	0.3882671
40	0xbd383788	-0.044974834
41	0xbe147241	-0.1449671
42	0x3a37a54b	0.00070055266
43	0xbe2ffbb1	-0.17185856
44	0xbc9fec00	-0.019521713
45	0xbe119f7a	-0.14220992
46	0x3e055526	0.13020763
47	0x3e5011d5	0.20319302
48	0x3ec9e812	0.39434868
49	0xbc27f78b	-0.01025189
50	0x3b27d8ea	0.0025611469
51	0x3cd1e67d	0.0256226
52	0xbd9224d8	-0.07135934
53	0xbcf3ba31	-0.029751869
54	0x3dcba386	0.09943299
55	0x3e363177	0.17792307
56	0xbcfa6e60	-0.030570209
57	0xbd1a8af7	-0.037730183
58	0xbc8eb20b	-0.017418882
59	0xbe12683e	-0.14297578
60	0xbcb079e5	-0.021542499
61	0xbbd8a26c	-0.006611159
62	0xbcbabc8d	-0.022794986
63	0x3de5d2d1	0.11221851
64	0xbdd3c060	-0.10339427
65	0x3dfe44a7	0.12415438
66	0x39d782ec	0.0004110554
67	0xbd68bcad	-0.05682056
68	0x3e107a98	0.14109266
69	0x3d641aaa	0.05568949
70	0xbe7f818f	-0.24951766
71	0xb944e4ed	-0.00018777298
72	0x3d9a95fb	0.07548138
73	0xbd0cda29	-0.03438774
74	0x3bcb8637	0.006211068
75	0xbd955cea	-0.072931126
76	0xbc0533ac	-0.008129995
77	0xbdf192c8	-0.117955744
78	0x3dacf2e2	0.08444764
79	0xbc08eb01	-0.008356811
80	0x3ea7fd79	0.32810572
81	0xbcbe790e	-0.023251083
82	0xbe0edc9d	-0.13951345
83	0x3de61cfc	0.11235997
84	0x3e69d68a	0.22835746
85	0xbc0e2288	-0.008675225
86	0x3e52eb34	0.20597535
87	0xbcc0ea31	-0.023549171
88	0x3b0a4aa8	0.0021101627
89	0x3cfcae81	0.030844929
90	0xbb57234b	-0.0032827433
91	0xbc9af1d0	-0.018914133
92	0xbc82266f	-0.015887467
93	0x3f20f9ce	0.6288117
94	0xbaf03f2b	-0.0018329372
95	0xbde00684	-0.10938743
96	0xbcf30fbc	-0.029670589
97	0xbc126328	-0.0089347735
98	0x3e678d63	0.22612529
99	0xbc09f50c	-0.00842024
100	0xbd89396c	-0.067004055
101	0x3d8f4190	0.06994927
102	0xbd869de5	-0.06573085
103	0xbcac369d	-0.021022135
104	0xbdae12e0	-0.08499694
105	0xbc19e54b	-0.009393047
106	0x3a9dcaef	0.0012038628
107	0xbe03de43	-0.12877755
108	0xbb1685b9	-0.0022967889
109	0x3e5c6120	0.21521425
110	0xbd14fb5a	-0.03637252
111	0x3ee41be8	0.4455254
112	0xbc3b8cef	-0.011447175
113	0xbdc2bec5	-0.09509043
114	0xbc2d64a8	-0.01058308
115	0xbb85baf3	-0.004081124
116	0xbe1337fd	-0.14376827
117	0x3c9ff019	0.019523667
118	0xbb7d66d8	-0.0038666036
119	0xbb8fccef	-0.0043884437
120	0xbc4d7178	-0.01253926
121	0xbe231781	-0.15926935
122	0xbe808267	-0.2509949
123	0x3aabca6d	0.0013106592
124	0xb94bc2fd	-0.00019432227
125	0xbdb7ece2	-0.08980729
126	0xb9c24716	-0.00037055527
127	0xbdc15da9	-0.094416924
