HybridLearning-master/data/hlt_stoch/InvertedPendulumBulletEnv/seed_666/policy_3000.pt (torch, 10544 bytes, 6 tensors)

mu.0.weight f4 [128, 5]
0.1731614 0.116622195 -0.27721494 1.5590467 0.20943159 0.21118341 0.027593864 0.021746773
-0.5559647 -0.1394721 -0.028781254 -0.007026515 0.040726397 -0.02795475 0.0009254952 -0.33401203
-0.4599362 0.29405406 -0.45798415 0.6432058 -0.028171282 0.046027817 -0.02897502 0.15861993
0.016635466 0.29896688 -0.10800826 -0.21173823 0.8897286 0.15711465 0.024078581 -0.00039724918
0.003524985 0.052345306 0.004967347 0.38044247 -0.0947989 0.043541092 -0.42929476 0.43863276
0.006559204 -0.00085269264 -0.017966023 0.024570733 0.004799276 0.1855571 0.05444599 0.011926534
0.21612772 -0.009463747 -0.41108948 0.07392281 -0.096939124 0.22379738 0.09986492 0.5340756
0.28608945 -0.29791117 1.2562156 -0.76217294 0.6537062 0.2870252 0.828127 3.6646705
0.6086424 0.28536075 -0.006713893 -0.4455033 -0.4039465 -0.36455345 -0.20907982 -0.09306261
0.08632436 -0.34492174 0.08152295 0.43134606 0.05656624 0.05950618 0.052708667 -0.07839829
0.107604556 0.030371131 -0.030213134 0.23906803 0.012182553 0.011756653 -0.0034275188 -0.013833181
-0.01330671 0.002412167 0.6225519 -0.15127143 0.20568457 -0.46958387 -0.16302949 0.09601126
-0.014108658 0.117098115 -0.36491185 -0.04050474 0.04073606 -0.009246018 0.06462556 0.08450728
0.0077235266 -0.013975212 0.05118338 0.13379186 -1.0151647 0.13170558 0.97818553 0.31788525
0.008324617 -1.8762752 -0.33867642 0.061237976 0.034550074 -0.04782382 0.24697003 0.016639214
0.03159636 0.07141282 -0.039783124 -0.4169391 -0.055298664 0.12104899 0.019574592 0.191962
-0.5268624 -0.08866931 -0.23809242 -0.1919481 0.1135603 -0.51137936 0.033758014 -0.48225045
-0.15908635 -0.13019754 -0.7319169 0.51328194 0.005092721 -0.0024524545 -0.00799067 0.0074886163
0.001748282 0.11693949 0.033688504 -0.06593285 0.25403535 0.008322721 0.23088157 -0.119804144
-0.23052274 0.5007345 -0.10583076 0.5815166 -0.09675746 -0.0885831 0.009359867 -0.11186032
-1.2421317 0.11621882 0.86651635 -1.5418546 -0.4506188 -0.07196107 0.4428981 -0.56245476
0.6952101 0.19102176 -0.02051575 -2.7460737e-05 0.014630571 -0.047228515 -0.0054139565 -0.42735222
-0.35499194 -0.06253135 -0.36214423 0.047688626 -0.06739426 -0.20196396 0.1881048 -0.17987774
1.2608864 0.69178236 0.41513193 -0.1338056 1.2816079 0.5098566 -0.06162994 0.39827937
0.48549902 -0.24175203 0.45491987 0.13976233 0.07012122 0.0033542009 0.30575448 0.010127814
-0.23470955 0.038180202 0.0673356 -0.8817167 0.14224859 0.050792962 0.15265322 1.2813689
0.33104226 -0.34585804 0.16056708 0.11376929 -0.14284252 0.5073835 -0.027698973 -0.09662179
0.18455996 -0.8149317 0.71980137 -0.1888307 -0.22568655 -0.039259885 -0.30314124 0.92499596
0.19936734 -0.41290373 -0.18601781 -0.86707336 -3.7813523 -1.0235343 -0.2900651 -0.14716308
0.009949941 -0.6957291 0.08446175 0.37647992 -0.65467995 -0.16856492 -1.4976007 0.0054529035
-0.12982453 0.11093772 0.096598834 -0.23464336 0.03990456 -0.04076639 0.0031377014 0.0016471596
-0.072347775 -0.0034105952 -0.47295693 -0.12165089 -0.060869064 -0.18531834 0.07458104 -0.34839737
00000000: 3951 313e 9ed7 ee3d 1eef 8dbe d88e c73f
00000010: 3c75 563e 7740 583e 870c e23c 4a26 b23c
00000020: b453 0ebf c6d1 0ebe aac6 ebbc ae3e e6bb
00000030: b9d0 263d 5c01 e5bc ee9c 723a a003 abbe
00000040: c27c ebbe 418e 963e e67c eabe 23a9 243f
00000050: 76c7 e6bc aa87 3c3d 055d edbc 436d 223e
00000060: 1a47 883c 3012 993e 6f33 ddbd e8d1 58be
00000070: 41c5 633f aae2 203e 7240 c53c e245 d0b9
00000080: 6f03 673b 0868 563d 20c5 a23b 5bc9 c23e
00000090: ed25 c2bd 2558 323d 86cc dbbe 7994 e03e
000000a0: 97ee d63b 3c87 5fba 7b2d 93bc 9048 c93c
000000b0: 3f43 9d3b ae02 3e3e c202 5f3d 8267 433c
000000c0: 9650 5d3e d50d 1bbc 527a d2be d864 973d
000000d0: 0588 c6bd 242b 653e fb85 cc3d 2eb9 083f
000000e0: 517a 923e d087 98be accb a03f c41d 43bf
000000f0: 4a59 273f f8f4 923e 2200 543f f689 6a40
00000100: fdcf 1b3f ce1a 923e 3700 dcbb 0219 e4be
00000110: 13d2 cebe c0a6 babe 0519 56be 9c97 bebd
00000120: d3ca b03d 9599 b0be 81f5 a63d 64d9 dc3e
00000130: 00b2 673d c1bc 733d 0be5 573d 488f a0bd
00000140: c75f dc3d e1cc f83c 8981 f7bc 40ce 743e
00000150: 5599 473c fa9e 403c 39a0 60bb 91a4 62bc
00000160: 6304 5abc 7215 1e3b 905f 1f3f e6e6 1abe
00000170: fa9e 523e 4c6d f0be 34f1 26be 8da1 c43d
00000180: 0028 67bc 23d1 ef3d bad5 babe 4ce8 25bd
00000190: dbda 263d 9c7c 17bc 685a 843d 2712 ad3d
000001a0: a315 fd3b 4af8 64bc aaa5 513d bc00 093e
000001b0: ebf0 81bf d4dd 063e 5e6a 7a3f dbc1 a23e
000001c0: f963 083c c929 f0bf ff66 adbe acd4 7a3d
000001d0: 6184 0d3d e9e2 43bd b6e5 7c3e f64e 883c
000001e0: 2f6b 013d e240 923d a1f3 22bd 0b79 d5be
000001f0: da80 62bd 88e8 f73d e55a a03c b091 443e
00000200: 74e0 06bf 4198 b5bd 80ce 73be 0b8e 44be
00000210: 4d92 e83d c2e9 02bf d845 0a3d 88e9 f6be
00000220: 88e7 22be 8152 05be e85e 3bbf 7266 033f
00000230: d7e0 a63b 5cb9 20bb 4deb 02bc 1163 f53b
00000240: 9c26 e53a f97d ef3d f5fc 093d cd07 87bd
00000250: ec10 823e 065c 083c 386c 6c3e e05b f5bd
00000260: 270e 6cbe 2330 003f ccbd d8bd 46de 143f
00000270: c628 c6bd 0e6b b5bd 215a 193c 0617 e5bd
00000280: 2cfe 9ebf 2204 ee3d 04d4 5d3f 7e5b c5bf
00000290: 82b7 e6be 5360 93bd 8ac3 e23e 09fd 0fbf
000002a0: 4af9 313f 359b 433e a510 a8bc 7c5b e6b7
000002b0: 10b5 6f3c b072 41bd 8f67 b1bb e9cd dabe
000002c0: 81c1 b5be 7010 80bd f86a b9be 2655 433d
000002d0: 0006 8abd a4cf 4ebe 8b9e 403e df31 38be
000002e0: ba64 a13f a618 313f 2c8c d43e 5604 09be
000002f0: ba0b a43f f685 023f ad6f 7cbd 46eb cb3e
00000300: 5493 f83e d88d 77be 42eb e83e db1d 0f3e
00000310: b79b 8f3d 27d2 5b3b da8b 9c3e 21ef 253c
00000320: b357 70be d862 1c3d 3fe7 893d 30b8 61bf
00000330: 9da9 113e 480c 503d 2051 1c3e e503 a43f
00000340: 5f7e a93e 4e14 b1be b26b 243e e0ff e83d
00000350: 4f45 12be e3e3 013f f5e8 e2bc a5e1 c5bd
00000360: 49fd 3c3e 5d9f 50bf e744 383f d65c 41be
00000370: 601a 67be f9ce 20bd 5435 9bbe 89cc 6c3f
00000380: f426 4c3e 1e68 d3be 747b 3ebe 85f8 5dbf
00000390: ad01 72c0 2c03 83bf 6a83 94be ebb1 16be
000003a0: 1405 233c 4d1b 32bf 48fa ac3d fac1 c03e
000003b0: 1b99 27bf 489c 2cbe 61b1 bfbf 45ae b23b
000003c0: b9f0 04be 5133 e33d 9cd5 c53d 5946 70be
000003d0: f772 233d a8fa 26bd e5a1 4d3b 81e5 d73a
000003e0: 122b 94bd 4b84 5fbb 6927 f2be 1a24 f9bd
000003f0: d751 79bd 17c4 3dbe f2bd 983d 2461 b2be

mu.0.bias f4 [128]
-0.28816178 -0.024268221 -0.03346118 -0.13847724 0.016223097 0.12862799 -0.01125632 -0.034656078
0.011457694 -0.06438516 0.15066774 -0.30677342 -0.8220301 0.3090158 0.13587046 -0.26370814
-0.0010227194 0.0074649495 -0.19059426 -0.10614002 -0.072082885 0.088239126 1.1077467 0.02029594
0.0017600403 -0.18712436 -0.048720226 -0.09366445 0.0049238126 0.027495017 0.05125178 -0.16261533
0.876163 0.66759604 -0.005900715 0.047139514 -0.10350213 0.22662507 -0.45030007 -0.05094957
-0.14505182 1.4132779 0.07749788 -0.61810803 -0.019614134 0.4656883 0.1001663 -0.4852112
0.015724376 0.0042705457 0.112213485 0.061676126 0.12550835 0.1526359 -0.03640272 -0.0036748527
0.25213027 -0.036796782 0.30414912 0.06136827 0.08837751 0.029516064 -0.36993355 0.1292873
-1.0111015 0.0014407272 -0.12099893 0.08609074 -0.093979426 -0.0016643627 -0.35085323 -0.09173242
-0.06365272 0.012910476 0.062255498 0.10202258 -0.32257655 -0.019475339 0.023821361 -0.3092229
-0.33097163 -0.19422865 -0.30154562 0.04009824 -0.81316113 -0.14487876 -0.49896628 -0.0051759975
-0.17928585 -0.22331835 -0.017055992 -0.74321157 0.552907 0.16672663 -0.017134279 -0.018995695
0.42141378 -0.033896726 0.03644099 0.1497506 -0.013180965 0.050800685 -0.064570524 0.13125353
-0.18293287 -0.22479534 -0.0011116819 0.49995437 0.012863277 1.4208882 0.06631095 -0.08086212
-0.06370261 -0.43664357 -0.14254837 -0.011081916 0.074319504 0.24063244 -0.07350568 -0.14861293
0.061454758 0.4056591 0.20856057 0.22926107 0.7437389 0.5038671 0.040382102 -0.25174215
00000000: f189 93be 26ce c6bc 970e 09bd facc 0dbe
00000010: 4de6 843c 0eb7 033e 6e6c 38bc 88f3 0dbd
00000020: 0db9 3b3c 5edc 83bd a548 1a3e 6811 9dbe
00000030: 9170 52bf 5237 9e3e a021 0b3e c104 87be
00000040: c50c 86ba 899c f43b 242b 43be f05f d9bd
00000050: 31a0 93bd b7b6 b43d a5ca 8d3f ac43 a63c
00000060: 27b1 e63a 879d 3fbe dc8e 47bd 26d3 bfbd
00000070: ef57 a13b 3b3d e13c 63ed 513d a284 26be
00000080: 384c 603f 93e7 2a3f c95a c1bb 5d15 413d
00000090: edf8 d3bd 6710 683e bb8d e6be 7fb0 50bd
000000a0: 7788 14be 4ae6 b43f 35b7 9e3d 543c 1ebf
000000b0: d2ad a0bc b26e ee3e fd23 cd3d 9a6d f8be
000000c0: 68d0 803c efef 8b3b 2fd0 e53d 1ba0 7c3d
000000d0: 4385 003e 964c 1c3e 051b 15bd ccd5 70bb
000000e0: 3817 813e 39b8 16bd 6fb9 9b3e 4c5d 7b3d
000000f0: 45ff b43d accb f13c ee67 bdbe e463 043e
00000100: c66b 81bf c8d6 bc3a 49ce f7bd 5850 b03d
00000110: 4978 c0bd bf26 daba 09a3 b3be 35de bbbd
00000120: 5b5c 82bd 7686 533c 9fff 7e3d 37f1 d03d
00000130: c128 a5be bf8a 9fbc 0425 c33c 7752 9ebe
00000140: 1d75 a9be e0e3 46be 3064 9abe 0d3e 243d
00000150: 542b 50bf 195b 14be 8278 ffbe 6a9b a9bb
00000160: b696 37be 91ad 64be 02b9 8bbc 1d43 3ebf
00000170: 508b 0d3f 63ba 2a3e 305d 8cbc dc9c 9bbc
00000180: 8cc3 d73e 4bd7 0abd 2643 153d 3958 193e
00000190: f9f4 57bc 6114 503d 8d3d 84bd 5367 063e
000001a0: c152 3bbe c030 66be dbb5 91ba 05fa ff3e
000001b0: 7fc0 523c aadf b53f 09ce 873d 0a9b a5bd
000001c0: 8476 82bd bf8f dfbe 33f8 11be ed90 35bc
000001d0: d334 983d 5a68 763e 258a 96bd fd2d 18be
000001e0: fcb7 7b3d 8db2 cf3e e790 553e 6ac3 6a3e
000001f0: ac65 3e3f 6ffd 003f b467 253d 59e4 80be

mu.2.weight f4 [1, 128]
0.19199298 -0.029177126 0.00096844 0.107297994 -5.7245623e-05 0.009586265 -0.00048046856 0.021744741
-0.00078445196 -0.009498625 0.013189405 -0.25536123 0.88819313 0.029659176 0.060656644 -0.039749127
-0.0037636885 -0.00075123046 -0.020047748 0.00017285468 -0.00034916063 0.07798794 -0.26026452 -0.0031595193
-0.0052174404 -0.0023488428 0.023582477 0.038851447 -0.0006155046 -0.003494257 -0.041465677 -0.038082134
0.1282139 -0.11798387 0.0016342276 0.048888545 0.028235858 0.046850402 -0.02636059 -0.0037586573
0.054404903 -0.56287557 -0.021090643 -0.20471421 0.07030813 -0.3640515 0.07278648 0.26118007
0.010192819 0.0012063225 0.032665804 -0.008741169 0.012094178 -0.010082742 -0.015673194 0.00010562251
0.26461264 0.0008062206 -0.060001064 0.017449344 0.037697077 0.0005914095 0.0840894 -0.025525162
-0.00199889 9.118597e-05 -0.006555006 0.00014405738 -0.016439691 9.8552526e-05 -0.0072978865 -0.05735599
-0.054645758 0.0005103242 0.003744101 0.0007936537 0.017154777 0.009604908 -0.004283275 -0.04877731
-0.0325226 0.08522207 -0.07306186 -0.0018450546 -0.19558184 -0.0054034796 0.03187081 0.00029516337
-0.026817365 0.0661408 -0.002738508 -0.77015567 -0.084188044 -0.008081583 -0.0051132008 -0.04372197
0.20290302 -0.011946943 -0.0022625586 0.1459118 -0.056522954 0.0022891853 0.0008391895 0.06321374
0.07777436 -0.04514088 0.00024856618 -0.05947374 -0.054774877 -0.7573775 0.010193709 -0.009412699
0.0017711315 -0.34074095 -0.05440388 -0.0070575294 0.21249825 -0.26748666 -0.04314034 -0.07842114
0.009721817 -0.10862843 0.04332792 -0.0023402856 -0.36670902 -0.119332545 0.00055332074 0.0040957355
00000000: cf99 443e de04 efbc e9de 7d3a 0dbf db3d
00000010: 051b 70b8 b60f 1d3c 66e7 fbb9 0722 b23c
00000020: aea3 4dba 1fa0 1bbc 6018 583c b5be 82be
00000030: a060 633f cdf7 f23c 1a73 783d fbcf 22bd
00000040: 37a8 76bb 39ee 44ba 2d3b a4bc 5340 3539
00000050: 8c0f b7b9 24b8 9f3d 6441 85be f00f 4fbb
00000060: 10f7 aabb 0bef 19bb 0a30 c13c b222 1f3d
00000070: d159 21ba e8ff 64bb ead7 29bd 03fc 1bbd
00000080: 814a 033e 87a1 f1bd 9433 d63a 5b3f 483d
00000090: e34e e73c 35e6 3f3d 2af2 d7bc ce53 76bb
000000a0: add7 5e3d 9d18 10bf 49c6 acbc 9aa0 51be
000000b0: b5fd 8f3d f564 babe 1411 953d 65b9 853e
000000c0: c8ff 263c 771d 9e3a 94cc 053d 1f37 0fbc
000000d0: a926 463c 1632 25bc 1265 80bc a781 dd38
000000e0: 4f7b 873e 8c58 533a adc3 75bd edf1 8e3c
000000f0: 4068 1a3d d208 1b3a 1037 ac3d 251a d1bc
00000100: cfff 02bb 183b bf38 60cb d6bb 1c0e 1739
00000110: 88ac 86bc fcad ce38 1c23 efbb 1dee 6abd
00000120: 3bd4 5fbd 47c7 053a 975f 753b 330d 503a
00000130: 2d88 8c3c e75d 1d3c b75a 8cbb b7ca 47bd
00000140: 6b36 05bd e988 ae3d 75a1 95bd c2d5 f1ba
00000150: 9b46 48be ac0f b1bb f78a 023d 28c0 9a39
00000160: 17b0 dbbc d474 873d 8a78 33bb ec28 45bf
00000170: c86a acbd 9e68 04bc a38c a7bb cf15 33bd
00000180: cfc5 4f3e 1cbd 43bc 6f47 14bb e769 153e
00000190: 9d84 67bd 2806 163b 0efd 5b3a 3576 813d
000001a0: 2a48 9f3d a5e5 38bd fd51 8239 bd9a 73bd
000001b0: 9f5b 60bd 7ee3 41bf 8403 273c b937 1abc
000001c0: 5025 e83a 9975 aebe 9ad6 5ebd d942 e7bb
000001d0: 2499 593e 03f4 88be edb3 30bd 439b a0bd
000001e0: 4248 1f3c 9578 debd 9e78 313d 7a5f 19bb
000001f0: 49c1 bbbe 9f64 f4bd ba0c 113a 8535 863b

log_std.0.weight f4 [128, 5]
-0.21226056 0.20889698 -0.48597252 0.7819617 0.085212566 0.11287158 0.031369552 0.18486932
0.4685096 0.07070299 0.10174129 0.22719759 -0.35571223 0.10827368 -0.14294326 0.3110128
0.27604708 -0.3445227 0.96085477 0.14574575 -0.13536799 0.17943493 0.27813143 0.81877273
0.25604793 0.08366019 -0.027732333 -0.56454015 0.22885725 -0.17883174 -0.75558126 -0.3551219
0.3657098 0.2699233 -0.050124727 -0.013090074 -0.05601099 0.59920883 0.7308845 0.06900338
0.49073717 -0.27213478 0.6674444 0.66232914 0.10943978 -0.117583156 -0.03277496 -0.45151561
0.0142079545 -0.12692943 -0.12501621 -0.13329168 -0.015813472 -0.00999504 -8.3910316e-05 -0.011137438
-0.032003522 0.6230928 0.06589226 0.23143275 -0.5941717 0.122641034 0.15671298 -0.06708719
0.09634188 0.06459017 -0.12977275 0.20651305 -0.4262778 -0.030461824 -0.10835699 0.05483247
-0.05962575 -0.059021503 -0.006309914 0.014462649 -0.11729991 0.025419736 0.06913425 0.0036016298
0.15981174 0.104452804 0.2565357 -0.3424125 -0.00060070393 0.27496254 0.06700835 0.34778863
-0.18322755 -0.20911223 0.16901916 -0.12613432 0.44812027 -0.023646908 0.1956846 0.17045237
0.11133226 -0.15399668 -0.061585356 -0.013499409 0.38225302 -0.14026432 -0.06796612 0.12765254
-0.00866621 -0.35348725 0.04625759 0.17629716 0.28349483 0.006426834 0.121289656 0.0728116
0.43812817 0.27902701 0.21782185 0.3350117 0.38635874 0.040275868 0.6551523 0.114056155
0.16542996 -0.16679952 -0.49322593 -0.008279833 -0.13252127 -0.070431225 -0.06508536 0.0812815
0.4241565 0.06156564 0.6054944 0.17416403 0.10917943 -0.25236493 -0.0954949 -0.013980272
0.40798092 0.39892736 -0.30478382 -0.020139601 -0.22303414 -0.017451243 0.071095325 0.13116851
0.022234764 0.21783155 -0.18838064 -0.13155335 -0.2141911 -0.0045131133 0.051586095 -0.29471996
0.16011612 -0.5578662 -0.019104155 -0.14265133 -0.009527388 -0.1003452 0.18299755 0.033660635
-0.346953 0.026724733 -0.43063638 0.18460493 0.329349 -0.17798653 -0.1404489 -0.37427333
0.41601098 0.27936372 0.0030026576 0.13091291 0.18147251 -0.3046212 -0.162556 -0.04918724
0.2128214 -0.01193874 -0.054814443 -0.0065863887 0.06487799 -0.048819117 0.09663578 0.50569814
0.05861508 0.2635197 -0.18326113 -0.12392747 0.22585359 0.018815508 0.08502106 -0.18264559
0.253991 0.18578362 0.024208676 0.7460767 0.07764573 0.14494607 0.036369294 -0.02000683
0.05111461 0.043977298 -0.066536635 -0.50957716 0.012379879 -0.22823577 0.03131283 0.7177796
0.09942843 -0.043697964 -0.33089608 -0.0032538888 -0.12486236 -0.26861247 -0.06297602 0.17012066
0.08708979 0.48955533 0.86387277 0.17039885 -0.14032994 0.139263 -0.11901128 0.013552193
-0.006187167 -0.2870664 0.39169678 -0.16179317 0.59842664 0.028034735 0.012683801 0.076696016
0.034517378 0.81407845 0.22844039 -0.2474073 -0.07593431 -0.06367641 -0.8579694 0.15065116
-0.13094284 -0.052081943 0.5804372 -0.934548 -0.24865039 -0.69313055 0.18192108 0.19832052
0.014406217 0.075324014 -0.67382044 0.22147056 0.055796057 -0.1992367 0.12243216 0.062544934
00000000: d55a 59be 17e9 553e 64d1 f8be a42e 483f
00000010: ed83 ae3d 3729 e73d 5c7d 003d 624e 3d3e
00000020: 7ee0 ef3e bbcc 903d bd5d d03d 7ca6 683e
00000030: ea1f b6be 97be dd3d b85f 12be 123d 9f3e
00000040: 0b56 8d3e 4865 b0be 94fa 753f 603e 153e
00000050: e89d 0abe cabd 373e 3e67 8e3e 179b 513f
00000060: b718 833e 0956 ab3d eb2e e3bc b485 10bf
00000070: 8e59 6a3e ab1f 37be c66d 41bf 8ad2 b5be
00000080: 513e bb3e 6333 8a3e 964f 4dbd c077 56bc
00000090: c86b 65bd c065 193f 3f1b 3b3f a551 8d3d
000000a0: e741 fb3e 4055 8bbe a3dd 2a3f 678e 293f
000000b0: f721 e03d 70cf f0bd 093f 06bd 0e2d e7be
000000c0: 7bc8 683c caf9 01be 4004 00be 9d7d 08be
000000d0: 418b 81bc 3cc2 23bc 02f9 afb8 cd79 36bc
000000e0: 2016 03bd 0283 1f3f 85f2 863d b5fc 6c3e
000000f0: a31b 18bf 392b fb3d 5e79 203e 0265 89bd
00000100: e44e c53d da47 843d 26e3 04be 2878 533e
00000110: 1541 dabe 138b f9bc 45ea ddbd 0398 603d
00000120: 213a 74bd 88c0 71bd 65c3 cebb bff4 6c3c
00000130: ef3a f0bd 0d3d d03c 4296 8d3d 5209 6c3b
00000140: b0a5 233e 5aeb d53d a658 833e b150 afbe
00000150: 8f78 1dba e4c7 8c3e ac3b 893d 5a11 b23e
00000160: 01a0 3bbe 8421 56be 5c13 2d3e 5b29 01be
00000170: 0570 e53e 29b7 c1bc 8b61 483e 118b 2e3e
00000180: 2b02 e43d 4eb1 1dbe ed40 7cbd a02c 5dbc
00000190: abb6 c33e 73a1 0fbe d231 8bbd 59b7 023e
000001a0: b8fc 0dbc 48fc b4be 9978 3d3d 3e87 343e
000001b0: 3c26 913e 3198 d23b b666 f83d 401e 953d
000001c0: 5652 e03e a1dc 8e3e b10c 5f3e a786 ab3e
000001d0: d0d0 c53e 4ff8 243d 10b8 273f 4696 e93d
000001e0: 7966 293e 7ecd 2abe 1c88 fcbe 23a8 07bc
000001f0: a8b3 07be 3f3e 90bd 794b 85bd ea76 a63d
00000200: 0a2b d93e 412c 7c3d ae01 1b3f 0e58 323e
00000210: 7799 df3d fa35 81be d592 c3bd 830d 65bc
00000220: e0e2 d03e 3540 cc3e a00c 9cbe cefb a4bc
00000230: 1063 64be e9f5 8ebc 6d9a 913d 0a51 063e
00000240: ae25 b63c 3c0f 5f3e dbe6 40be ecb5 06be
00000250: e954 5bbe bde2 93bb f14b 533d 89e5 96be
00000260: 7bf5 233e 52d0 0ebf 5180 9cbc 3113 12be
00000270: c318 1cbc c981 cdbd b663 3b3e bcdf 093d
00000280: d3a3 b1be d4ed da3c 5f7c dcbe 1309 3d3e
00000290: 6fa0 a83e 1a42 36be d6d1 0fbe c1a0 bfbe
000002a0: 64ff d43e c308 8f3e 3cc8 443b 090e 063e
000002b0: eed3 393e 4ff7 9bbe 1475 26be 8f78 49bd
000002c0: daed 593e b49a 43bc 1c85 60bd a2d2 d7bb
000002d0: c0de 843d 8ef6 47bd fbe8 c53d 6f75 013f
000002e0: 5e16 703d 0eec 863e cea8 3bbe afcd fdbd
000002f0: 2a46 673e fb22 9a3c 861f ae3d 7207 3bbe
00000300: 1c0b 823e 103e 3e3e 4651 c63c e2fe 3e3f
00000310: b904 9f3d be6c 143e f8f7 143d 5de5 a3bc
00000320: 8e5d 513d 8a21 343d 5c44 88bd a673 02bf
00000330: fad4 4a3c a3b6 69be e241 003d 67c0 373f
00000340: 22a1 cb3d a3fc 32bd 366b a9be 323f 55bb
00000350: d6b7 ffbd 9387 89be 92f9 80bd 1c34 2e3e
00000360: 225c b23d ffa6 fa3e c426 5d3f 097d 2e3e
00000370: a7b2 0fbe f69a 0e3e 30bc f3bd 040a 5e3c
00000380: b8bd cabb 5efa 92be 7b8c c83e 1cad 25be
00000390: 7d32 193f 1aa9 e53c b8cf 4f3c cd12 9d3d
000003a0: 1862 0d3d 7267 503f 47ec 693e 5758 7dbe
000003b0: 7383 9bbd c768 82bd e2a3 5bbf 4c44 1a3e
000003c0: e115 06be e053 55bd 8897 143f 8a3e 6fbf
000003d0: 359e 7ebe 0171 31bf 8549 3a3e 8914 4b3e
000003e0: 0e08 6c3c 7a43 9a3d 7f7f 2cbf 2ec9 623e
000003f0: 688a 643d b504 4cbe b6bd fa3d 8f17 803d

log_std.0.bias f4 [128]
0.066243276 0.19085672 0.020043839 -0.4491162 -0.1938497 -0.9085177 -0.519237 0.16535626
0.27386346 0.27274287 -0.3474814 -0.116634 -0.149736 -0.050634373 -0.21831447 -0.04908802
-0.45146045 0.28417215 0.025894614 -0.5817471 -0.42215604 -0.44766024 0.11571668 -0.029642154
-0.03296112 0.29558298 -0.5003455 -0.5597841 -0.16673088 -0.5018813 0.26233435 0.08973791
-0.22067793 -0.49688816 0.36836335 -0.41007194 0.23272161 -0.032986794 -0.40986466 -0.5140004
0.24607593 -0.21008107 -0.5139727 0.38576418 -0.406193 -0.45483992 -0.0987339 -0.13092077
-0.5426252 -0.03621328 -0.010371891 -0.1485865 -0.16210946 0.026259184 -0.45448458 -0.16610546
0.1049955 -0.14940122 -0.47651356 0.119125016 -0.6265732 0.4353279 -0.38462207 -0.4421538
0.29336685 -0.5565663 -0.013744234 0.16048878 0.1057114 -0.5605136 -0.4427477 0.3415433
-0.47322944 0.22559296 0.2697093 -0.37386614 -0.054871365 -0.15970494 -0.25969604 0.012889583
-0.029001797 0.48356557 0.055266786 -0.6560008 -0.12336831 -0.11237278 -0.27152058 -0.10910875
-0.18956926 -0.030876124 0.219966 0.039626423 0.35385174 -0.7145771 -0.19474006 0.42344186
-0.07857696 -0.020527476 -0.40430602 -0.52034473 -0.36906686 -0.11507705 -0.18719164 -0.044488877
0.12738362 0.47687954 0.006784597 -0.50017565 0.14929275 -0.5429552 0.42351916 -0.75385064
-0.11762702 -0.040953375 0.01794367 -0.064627975 -0.13481599 -0.42092204 0.29846287 0.07838833
0.061748814 0.5146879 0.1607519 0.017718762 0.07009376 -0.09076775 0.13694894 -0.6834134
00000000: 8eaa 873d f26f 433e fa32 a43c 8ff2 e5be
00000010: 8980 46be 9e94 68bf b7ec 04bf 2753 293e
00000020: d537 8c3e f4a4 8b3e 15e9 b1be cedd eebd
00000030: 6554 19be fd65 4fbd d48d 5fbe 8510 49bd
00000040: d325 e7be 037f 913e f120 d43c 61ed 14bf
00000050: d624 d8be b933 e5be defc ec3d 1ad4 f2bc
00000060: 3d02 07bd a756 973e a516 00bf 034e 0fbf
00000070: 80bb 2abe 4b7b 00bf b050 863e 82c8 b73d
00000080: 65f9 61be 2068 febe 1f9a bc3e f3f4 d1be
00000090: 934e 6e3e 291d 07bd c8d9 d1be 8895 03bf
000000a0: 54fb 7b3e 7e1f 57be b793 03bf e282 c53e
000000b0: 87f8 cfbe c7e0 e8be 0035 cabd 1810 06be
000000c0: 7ce9 0abf 6054 14bd ddee 29bc 0f27 18be
000000d0: 0600 26be 801d d73c 34b2 e8be 8d17 2abe
000000e0: e107 d73d a2fc 18be 96f9 f3be d1f7 f33d
000000f0: 1a67 20bf 4ce3 de3e 2fed c4be fc61 e2be
00000100: 2e34 963e 217b 0ebf 7f2f 61bc 2c57 243e
00000110: 387f d83d d27d 0fbf d4af e2be c3de ae3e
00000120: 214b f2be d701 673e 5617 8a3e 626b bfbe
00000130: ccc0 60bd b189 23be e1f6 84be d42e 533c
00000140: 2d95 edbc e895 f73e 6d5f 623d abef 27bf
00000150: 86a8 fcbd b323 e6bd bf04 8bbe 6974 dfbd
00000160: 721e 42be edef fcbc c43e 613e 514f 223d
00000170: 0e2c b53e 86ee 36bf f069 47be 5fcd d83e
00000180: f5ec a0bd 3d29 a8bc 3301 cfbe 5035 05bf
00000190: 55f6 bcbe 84ad ebbd 2aaf 3fbe f839 36bd
000001a0: da70 023e 8e29 f43e 5351 de3b 830b 00bf
000001b0: 33e0 183e 1dff 0abf 81d7 d83e 5bfc 40bf
000001c0: 6fe6 f0bd babe 27bd 9afe 923c ac5b 84bd
000001d0: 340d 0abe 1883 d7be 20d0 983e 108a a03d
000001e0: 53ec 7c3d 96c2 033f 259c 243e f026 913c
000001f0: 518d 8f3d 71e4 b9bd 583c 0c3e 2ef4 2ebf

log_std.2.weight f4 [1, 128]
-0.10555368 -0.039840203 -0.029895788 -0.18658565 0.11594384 0.21752752 0.108347796 -0.07787456
-0.17178299 -0.048496235 -0.0022225317 -0.08082522 0.04563917 -0.026755441 -0.0016268718 -0.0018632811
0.009888038 -0.066336565 -0.07541526 0.003695288 0.0019373 0.0074987127 -0.110334896 0.04377797
-0.018742148 -0.03692217 0.07542824 0.07615882 0.007393287 -0.012836236 -0.06206279 -0.00423207
-0.120990194 -0.060473338 -0.05730613 0.0075957496 -0.0272788 0.0020789762 0.017332293 0.18183458
-0.031128252 -0.10154236 0.009605417 -0.14721237 -0.004655002 -0.06011355 0.109040774 0.10486197
0.31827608 0.07550475 0.085783966 0.08104458 -0.0692599 -0.0417516 0.12305998 0.14271134
-0.054995686 -0.034345265 -0.027937485 -0.096918814 -0.06471157 -0.04650614 0.063871466 0.14081323
-0.057707723 0.061883863 0.0019369344 -0.012267178 0.1063062 0.019629328 -0.17952295 -0.011404859
0.04302825 -0.08362862 -0.013943883 -0.051990803 -0.0042515593 -0.038536783 0.004516069 -0.030163093
0.27325645 -0.05895745 -0.11388954 0.104926735 0.13817501 0.010813547 0.061147742 -0.00026888167
-0.002700152 0.09017126 -0.009615755 -0.061303202 -0.014799054 0.6118043 -0.0053742854 -0.14987427
-0.0005556719 -0.006469474 0.1841523 -0.00090908736 -0.14011945 0.116881415 -0.009942611 -0.031950124
-0.010205078 -0.025771793 -0.00034526215 0.027499879 -0.04175036 0.21216412 -0.11790149 0.32482544
-0.003952109 0.00036395874 -0.027799472 -0.0026147289 -0.094525 -0.008197231 -0.021775667 -0.008359749
-0.04555732 -0.102065176 -0.17414248 -0.04464106 0.0011866353 0.0030956026 -0.003995348 -0.045622915
00000000: 872c d8bd 7b2f 23bd 03e8 f4bc 4f10 3fbe
00000010: f773 ed3d 89bf 5e3e 73e5 dd3d b37c 9fbd
00000020: e1e7 2fbe fda3 46bd e5a7 11bb b187 a5bd
00000030: 23f0 3a3d 3a2e dbbc c23c d5ba 5739 f4ba
00000040: 7001 223c 77db 87bd 5173 9abd a52c 723b
00000050: 00ed fd3a c3b7 f53b 43f7 e1bd 8750 333d
00000060: 2289 99bc b43b 17bd 1f7a 9a3d 28f9 9b3d
00000070: 6343 f23b 134f 52bc 8d35 7ebd 2dad 8abb
00000080: b5c9 f7bd e4b2 77bd d5b9 6abd c4e5 f83b
00000090: ca77 dfbc 6f3f 083b 74fc 8d3c d832 3a3e
000000a0: ad00 ffbc 71f5 cfbd 0a60 1d3c d7be 16be
000000b0: fd88 98bb a039 76bd c550 df3d dfc1 d63d
000000c0: 15f5 a23e 3ca2 9a3d 81af af3d b3fa a53d
000000d0: 22d8 8dbd ba03 2bbd df06 fc3d ec22 123e
000000e0: 2843 61bd 9fad 0cbd 27dd e4bc 5f7d c6bd
000000f0: 8087 84bd 397d 3ebd 0bcf 823d 5831 103e
00000100: ef5e 6cbd ef79 7d3d bce0 fd3a 46fc 48bc
00000110: 11b7 d93d afcd a03c ddd4 37be 72db 3abc
00000120: 643e 303d 7b45 abbd e274 64bc 4ff4 54bd
00000130: aa50 8bbb bfd8 1dbd 88fb 933b 9718 f7bc
00000140: 45e8 8b3e 5e7d 71bd eb3e e9bd d4e3 d63d
00000150: c07d 0d3e 4e2b 313c 0e76 7a3d b0f8 8cb9
00000160: 09f5 30bb b6ab b83d 668b 1dbc 1119 7bbd
00000170: bb77 72bc 359f 1c3f c61a b0bb a478 19be
00000180: 83aa 11ba e2fd d3bb 6c92 3c3e d24f 6eba
00000190: 797b 0fbe 865f ef3d 55e6 22bc 22de 02bd
000001a0: 3333 27bc 5e1f d3bc 4d04 b5b9 6d47 e13c
000001b0: 6d02 2bbd 8d41 593e 5676 f1bd 854f a63e
000001c0: b180 81bb b7d1 be39 b8bb e3bc df5b 2bbb
000001d0: 5396 c1bd ae4d 06bc e262 b2bc 54f7 08bc
000001e0: 509a 3abd 8c07 d1bd 6852 32be 8bd9 36bd
000001f0: e088 9b3a 98df 4a3b 68eb 82bb 18df 3abd
