HybridLearning-master/data/hlt_stoch/InvertedPendulumBulletEnv/seed_666/policy_5000.pt (torch, 10544 bytes, 6 tensors)

mu.0.weight f4 [128, 5]
0.1715788 0.22278224 -0.4622172 1.6904535 0.2565523 0.16311663 -0.01177891 0.029352011
-0.42328927 -0.08675184 0.028798737 0.025995683 0.015331152 -0.0007119195 0.0057222983 -0.70219994
-0.65321165 0.19953144 -0.3152859 0.6917287 -0.020341976 0.0006914895 -0.012046364 0.004117302
-0.0039155637 0.23551768 0.024136558 -0.16505161 0.9457978 0.147971 -0.011874568 -0.012639846
0.009597903 -0.04234762 -0.009090094 0.6977227 -0.109704144 0.005412468 -0.88124734 0.5036596
0.013983391 0.0077273156 0.018545734 0.021845521 0.010071799 0.016766164 0.009339673 0.033471745
0.11235007 0.010368608 -0.40125695 0.032176413 -0.123823315 0.029248891 0.08795717 0.93565464
0.43890893 -0.29219255 0.7533117 -0.7747458 0.9379693 0.26128054 0.86329985 3.9461207
0.67354006 0.27647737 0.30814606 -0.59858614 -0.72939956 -0.27577898 -0.38519716 -0.08074599
-0.003128291 -0.3337698 0.10782968 0.6923337 0.067741334 0.14533883 0.17447591 -0.10112502
-0.009215238 -0.007311027 -0.0012516445 0.0034252263 -3.563527e-05 -0.0074704085 -0.031856738 -0.018241724
-0.0036312307 -0.0027682304 1.1016512 -0.19010425 0.21591042 -0.32475576 -0.08138104 -0.018661248
0.0031786356 0.05545853 -0.045501422 -0.0062602027 -0.050435327 -0.07763794 -0.009206378 -0.0062003452
-0.009083895 0.11456265 0.16270383 0.030387621 -1.3129247 0.19638619 1.2508188 0.24679951
0.11391513 -2.490662 -0.400196 -0.015791625 -0.010501029 -0.009743319 0.002481027 -0.0032388584
-0.011526594 -0.009009753 -0.014392788 -0.16607429 -0.017938703 -0.008854913 -0.028960353 0.14702755
-0.23690149 -0.04483737 -0.24437463 -0.14531726 0.060817763 -0.3836139 0.0011473002 -0.7412657
-0.4215144 -0.0774397 -0.7193332 0.6561349 -0.0048520262 -0.09695314 -0.011450052 0.0020979096
-0.006814354 -6.3095185e-06 -0.008903994 -0.010465525 0.013223556 0.0017294597 0.26333317 -0.11401394
-0.13582724 0.55420136 -0.21153669 0.9244692 -0.0640076 -0.0077373837 0.013189833 -0.10905956
-1.6145971 0.2227661 0.7618293 -1.6677809 -0.60091424 -0.05339104 0.87000716 -0.7425678
0.5590458 0.22328761 0.010623683 0.013546822 0.006394957 -0.007943521 0.00012443966 -0.6373328
-0.51049656 -0.08520481 -0.29284015 0.012511017 -1.2116182 -0.2623548 -0.17061813 -0.47552752
1.15062 0.5045779 0.37421775 -0.22424239 1.0702944 0.3394776 0.06670352 0.49382973
0.51568294 -0.87929046 0.4650562 0.015919141 0.019392047 0.023046043 0.061315358 0.012617353
-0.0381654 0.102291346 0.017978385 -1.103569 0.21167271 0.3064344 0.0025334598 1.3827691
0.21802935 -0.2715723 0.15078585 0.08312471 -0.08532814 0.3288877 0.02044893 0.07422303
0.12881984 -1.2984792 0.23230197 -0.47864515 -0.2594097 0.051565938 -0.2814015 0.8692111
0.14703241 -0.5908824 -0.46342748 -1.1958524 -4.4139714 -1.1275734 -0.38484237 -0.08745242
-0.05857823 -0.62739646 0.1321926 0.9014276 -0.26136827 -0.32915723 -2.061097 -0.011706555
-0.033666216 -7.373781e-05 0.0157955 -0.08446713 -0.007261948 0.024370542 0.06272588 0.0059762863
-0.008364934 0.0028346651 -0.6805158 -0.10862702 -0.111127734 -0.20939156 0.0907692 -0.17469588
00000000: 5ab2 2f3e 0721 643e bca7 ecbe c860 d83f
00000010: d35a 833e 0c08 273e 54fc 40bc a173 f03c
00000020: 5fb9 d8be f3aa b1bd 54eb eb3c e6f4 d43c
00000030: 832f 7b3c 1ca0 3aba 1e82 bb3b 60c3 33bf
00000040: e138 27bf f851 4c3e 276d a1be 2215 313f
00000050: 37a4 a6bc 1345 353a 1d5e 45bc 6fea 863b
00000060: 214e 80bb 8c2b 713e 08ba c53c 4a03 29be
00000070: ce1f 723f b685 173e 8c8d 42bc 5b17 4fbc
00000080: 8640 1d3c b374 2dbd 9eee 14bc f49d 323f
00000090: 91ac e0bd 135b b13b 6d99 61bf d6ef 003f
000000a0: 981a 653c 6c35 fd3b 39ed 973c 61f5 b23c
000000b0: 3004 253c 3259 893c 6e05 193c ab19 093d
000000c0: cb17 e63d 18e1 293c 8d71 cdbe 6acb 033d
000000d0: 1497 fdbd 5f9b ef3c e422 b43d 1087 6f3f
000000e0: acb8 e03e 439a 95be 09d9 403f be55 46bf
000000f0: c21e 703f 90c6 853e 3801 5d3f 3e8d 7c40
00000100: 1f6d 2c3f 718e 8d3e 52c5 9d3e f13c 19bf
00000110: eeb9 3abf e732 8dbe 9038 c5be 275e a5bd
00000120: 0404 4dbb e0e3 aabe cfd5 dc3d c83c 313f
00000130: f8bb 8a3d b4d3 143e d0a9 323e a21a cfbd
00000140: 82fb 16bc 5791 efbb 380e a4ba c379 603b
00000150: 1477 15b8 54ca f4bb 367c 02bd ab6f 95bc
00000160: f1f9 6dbb 336b 35bb e802 8d3f b0aa 42be
00000170: 9f17 5d3e 6346 a6be 1aab a6bd 79df 98bc
00000180: a850 503b 7c28 633d b35f 3abd 6322 cdbb
00000190: 4695 4ebd a400 9fbd 59d6 16bc 442c cbbb
000001a0: 9ed4 14bc d39f ea3d d59b 263e 76ef f83c
000001b0: eb0d a8bf 7619 493e d51a a03f 03b9 7c3e
000001c0: 564c e93d 0267 1fc0 7de6 ccbe 705d 81bc
000001d0: 820c 2cbc 71a2 1fbc ba98 223b 0743 54bb
000001e0: 0ada 3cbc a59d 13bc bacf 6bbc 610f 2abe
000001f0: 30f4 92bc 3214 11bc 433e edbc 648e 163e
00000200: 4e96 72be 64a7 37bd 583d 7abe 0cce 14be
00000210: 0c1c 793d 0b69 c4be 0261 963a 97c3 3dbf
00000220: bcd0 d7be b598 9ebd 3826 38bf 75f8 273f
00000230: bffd 9ebb 5e8f c6bd 0099 3bbc 157d 093b
00000240: f24a dfbb 5ab6 d3b6 0fe2 11bc 9877 2bbc
00000250: 9da7 583c 0aaf e23a 9bd3 863e 2480 e9bd
00000260: 4c16 0bbe 24e0 0d3f 139d 58be 03aa 6c3f
00000270: 6b16 83bd e189 fdbb 2b1a 583c 9e5a dfbd
00000280: 1eab cebf cc1c 643e 3f07 433f d879 d5bf
00000290: 84d5 19bf 90b0 5abd cab8 5e3f ec18 3ebf
000002a0: a01d 0f3f 82a5 643e f50e 2e3c 7df3 5d3c
000002b0: ca8c d13b 8b25 02bc 047c 0239 3e28 23bf
000002c0: e7af 02bf dc7f aebd 25ef 95be 02fb 4c3c
000002d0: 4e16 9bbf 5e53 86be 85b6 2ebe 5878 f3be
000002e0: 8447 933f 042c 013f 7899 bf3e cc9f 65be
000002f0: 68ff 883f 02d0 ad3e db9b 883d 40d7 fc3e
00000300: cc03 043f 2e19 61bf d91b ee3e dc68 823c
00000310: 12dc 9e3c 0ecb bc3c d025 7b3d 04b9 4e3c
00000320: 5353 1cbd 207e d13d 6847 933c c041 8dbf
00000330: bbc0 583e f8e4 9c3e 6708 263b 94fe b03f
00000340: 1643 5f3e 860b 8bbe 9b67 1a3e 4a3d aa3d
00000350: 85c0 aebd f863 a83e 8484 a73c 3e02 983d
00000360: 59e9 033e 9134 a6bf 91e0 6d3e fa10 f5be
00000370: 59d1 84be ce36 533d db13 90be 9e84 5e3f
00000380: aa8f 163e 1244 17bf 5e46 edbe b111 99bf
00000390: 413f 8dc0 5354 90bf 0f0a c5be 411a b3bd
000003a0: baef 6fbd 0e9d 20bf 7f5d 073e f6c3 663f
000003b0: 10d2 85be 4c87 a8be 03e9 03c0 dacc 3fbc
000003c0: 96e5 09bd afa3 9ab8 9065 813c 1afd acbd
000003d0: a3f5 edbb bba4 c73c 6d76 803d b9d4 c33b
000003e0: 130d 09bc cac5 393b 4936 2ebf d877 debd
000003f0: f096 e3bd be6a 56be 34e5 b93d 7ae3 32be

mu.0.bias f4 [128]
-0.31651056 -0.0410025 -0.0046628527 -0.11673845 0.00070587115 0.16549857 -0.011952454 -0.096734785
-0.014097548 -0.023808878 0.12084446 -0.27189898 -0.7704226 0.5503606 0.10175631 -0.23193964
-0.0055054794 0.012188028 -0.13262117 -0.05090245 -0.009119652 -0.04044191 1.0926466 0.0017918044
0.00582448 -0.14278995 -0.056041613 -0.063208885 0.003873742 0.009359892 0.093447976 -0.1100822
1.1458808 0.844531 -0.0014565319 0.104633786 -0.6972382 0.27080804 -0.7058204 -0.014935026
-0.15870781 1.5120444 0.0853897 -0.93581545 0.0047198148 0.49277958 0.117683895 -0.82217014
-0.01941773 0.007108265 0.13756207 0.1567351 0.08427445 0.11929686 -0.012999911 0.015197317
0.1256883 0.0020653103 0.4570828 0.06313893 0.075084955 0.047170263 -0.3325 -0.023015011
-0.9479238 -0.005942482 -0.05783652 0.008828501 -0.07406549 -0.0019725175 -0.57068706 -0.08468107
0.0015158624 -0.01366087 0.003034227 0.032848876 -0.3739739 0.07130998 0.003784411 -0.42863935
-0.37722468 -0.22818291 -0.27355167 0.005580636 -1.020809 -0.076383755 -0.57183164 0.0035604665
-0.13818203 -0.35470584 -0.005935747 -0.7685916 0.67147815 0.22793886 -0.009647975 -0.17827262
0.49881843 -0.06496696 -0.02121434 0.32154763 -0.00044711944 0.013924782 -0.010307763 0.13623318
-0.07713659 -0.16719243 0.010074888 0.5352729 0.081891745 1.5064178 0.017327089 -0.039074082
-0.015746161 -0.4049894 -0.142682 0.002869323 -0.08356347 0.37681398 -0.070448376 -0.17169741
0.023671027 0.5489101 0.121908344 0.34592965 0.7119742 0.80596215 0.0041633337 -0.38128272
00000000: ac0d a2be 3df2 27bd d8ca 98bb 9214 efbd
00000010: 360a 393a 7578 293e 3ad4 43bc e31c c6bd
00000020: 67f9 66bc d60a c3bc 4d7d f73d 5836 8bbe
00000030: 6a3a 45bf 6fe4 0c3f 9d65 d03d 9681 6dbe
00000040: 4f67 b4bb 4bb0 473c d8cd 07be 167f 50bd
00000050: 986a 15bc 6ba6 25bd d8db 8b3f fbda ea3a
00000060: 48db be3b 8737 12be e48b 65bd a973 81bd
00000070: 9bde 7d3b 3c5a 193c a761 bf3d c772 e1bd
00000080: 39ac 923f 2f33 583f 1ae9 beba 3d4a d63d
00000090: 347e 32bf 5aa7 8a3e a5b0 34bf 0ab2 74bc
000000a0: 4d84 22be ac8a c13f cce0 ae3d 9a91 6fbf
000000b0: ada8 9a3b 9b4d fc3e 4104 f13d be79 52bf
000000c0: ee11 9fbc 73ec e83b 12dd 0c3e 2b7f 203e
000000d0: 1598 ac3d ea51 f43d 94fd 54bc 2bfe 783c
000000e0: 6fb4 003e 285a 073b c206 ea3e fc4e 813d
000000f0: 24c6 993d 9b35 413d 713d aabe fa89 bcbc
00000100: 22ab 72bf 27b9 c2bb fde5 6cbd 6ba5 103c
00000110: a6af 97bd 5a45 01bb 8c18 12bf 456d adbd
00000120: e7af c63a d7d1 5fbc e2d9 463b 8b8c 063d
00000130: 8279 bfbe f70a 923d e103 783b 9e76 dbbe
00000140: 9823 c1be c8a8 69be f70e 8cbe c5dd b63b
00000150: dfa9 82bf 166f 9cbd 8f63 12bf b756 693b
00000160: 977f 0dbe 019c b5be a880 c2bb 6bc2 44bf
00000170: fee5 2b3f ce68 693e 8a12 1ebc 198d 36be
00000180: 2165 ff3e 660d 85bd b2c9 adbc e4a1 a43e
00000190: 5b6b eab9 c524 643c e4e1 28bc b680 0b3e
000001a0: caf9 9dbd 7e34 2bbe 2511 253c a507 093f
000001b0: dcb6 a73d 4cd2 c03f 8af1 8d3c 250c 20bd
000001c0: 18fe 80bc c55a cfbe 3b1b 12be 400b 3c3b
000001d0: 5323 abbd c3ed c03e 3d47 90bd 72d1 2fbe
000001e0: bee9 c13c 5f85 0c3f 15ab f93d b11d b13e
000001f0: f143 363f 8953 4e3f 936c 883b 7d37 c3be

mu.2.weight f4 [1, 128]
0.21717256 -0.019608142 0.004851637 0.16775657 -0.0018174273 0.018485965 -0.0019374758 -0.074606426
0.004642132 0.0053782887 0.019262338 -0.28741682 1.1796001 0.1370516 0.061778337 -0.08246123
-0.00087681616 -0.0050179 -0.10118561 0.0006752905 -0.0065731923 0.17724158 -0.354925 -0.0029791244
-0.0061658463 -0.008571182 -0.004749394 0.04620299 -0.0065856986 -0.00095915806 -0.079371 -0.09533172
0.29785958 -0.3623307 0.0027688262 0.0839627 0.20206672 0.008030207 -0.14075649 0.0047604325
0.15125723 -0.8255393 0.00969482 -0.3685971 0.040599413 -0.508895 0.08410164 0.48045132
-0.001856022 0.0055006663 0.06961544 0.0043168375 -0.0030461752 0.005111376 0.0070645306 -0.0019371568
0.32181868 -0.0021663303 -0.10239127 0.018805113 0.044850267 -0.0061907833 0.22083151 -0.013348424
-0.11704616 0.011317773 0.006294944 0.008304607 -0.010985796 -0.0047395355 -0.05924619 -0.06522573
-0.08773247 0.0033116743 0.020524174 -0.0064375 0.043836642 -0.00027838952 -0.0030232696 -0.117057286
-0.08993023 0.11089062 -0.07202131 0.0005247118 -0.4989261 0.0060378574 0.07864602 0.006999102
-0.04673634 0.12861553 0.0061680865 -0.9031664 -0.19228633 0.002249456 -0.0006715851 -0.0327653
0.19742748 -0.008278524 -0.024992818 0.22907923 -0.07983404 -0.0036029504 0.007818718 0.09963392
0.068839975 -0.07781231 -0.0031552576 -0.119019106 -0.10927751 -1.0281605 0.04807452 0.0056593847
0.0055321497 -0.39181542 -0.05954356 0.003191018 0.3886526 -0.38257837 -0.025572347 -0.105103806
-0.005191067 -0.11279108 0.03437685 -0.0003203479 -0.35559124 -0.18062997 -0.00060490705 -0.0035730705
00000000: 7c62 5e3e 41a1 a0bc 7bfa 9e3b 61c8 2b3e
00000010: be36 eeba e16f 973c e6f2 fdba 41cb 98bd
00000020: 071d 983b 5b3c b03b 0dcc 9d3c 4c28 93be
00000030: 23fd 963f 4157 0c3e 480b 7d3d 6fe1 a8bd
00000040: 23da 65ba 326d a4bb 673a cfbd fa05 313a
00000050: ef63 d7bb d17e 353e bbb8 b5be 6a3d 43bb
00000060: de0a cabb 256e 0cbc cea0 9bbb 593f 3d3d
00000070: d8cc d7bb 0270 7bba 438d a2bd 473d c3bd
00000080: 0d81 983e 6983 b9be 3275 353b a3f4 ab3d
00000090: 94ea 4e3e 2191 033c 7822 10be 67fd 9b3b
000000a0: 2de3 1a3e 8b56 53bf 06d7 1e3c c2b8 bcbe
000000b0: 924b 263d f146 02bf 7b3d ac3d b7fd f53e
000000c0: c445 f3ba ef3e b43b 8a92 8e3d 4274 8d3b
000000d0: 57a2 47bb 547d a73b 947d e73b 32e8 fdba
000000e0: 6bc5 a43e fef8 0dbb 84b2 d1bd 2e0d 9a3c
000000f0: eab4 373d 0edc cabb a821 623e 59b3 5abc
00000100: e6b5 efbd 2e6e 393c d145 ce3b 0c10 083c
00000110: c5fd 33bc 1b4e 9bbb 22ac 72bd 1195 85bd
00000120: 15ad b3bd ad08 593b 5022 a83c aaf1 d2bb
00000130: 0d8e 333d cff4 91b9 0c22 46bb bbbb efbd
00000140: 572d b8bd 9f1a e33d e97f 93bd d08c 093a
00000150: 3e73 ffbe 38d9 c53b 2a11 a13d b958 e53b
00000160: 9b6e 3fbd cab3 033e a91d ca3b ea35 67bf
00000170: b5e6 44be 9c6b 133b 500d 30ba e834 06bd
00000180: 6e2a 4a3e a5a2 07bc bdbd ccbc bf93 6a3e
00000190: 0780 a3bd 7a1f 6cbb 151a 003c de0c cc3d
000001a0: f9fb 8c3d 0f5c 9fbd 70c8 4ebb 4ac0 f3bd
000001b0: e3cc dfbd c39a 83bf cae9 443d 5c72 b93b
000001c0: 0947 b53b 089c c8be f3e3 73bd 6620 513b
000001d0: 79fd c63e 50e1 c3be 197d d1bc aa40 d7bd
000001e0: d319 aabb 02ff e6bd bdce 0c3d 5ef4 a7b9
000001f0: 0e10 b6be 10f7 38be a092 1eba 2d2a 6abb

log_std.0.weight f4 [128, 5]
-0.2935379 0.25038302 -0.47710901 0.7276049 0.13459043 0.15760665 0.124725424 0.11224457
0.49004692 -0.017231379 0.14224319 0.2869807 -0.02707151 0.16856827 -0.07077387 0.35236448
0.20216812 -0.48950222 1.0696636 0.2735597 -0.19681989 -0.006186606 0.33083275 0.96604234
0.2546961 0.29179546 -0.05457406 -0.6540721 0.113840386 -0.2010283 -0.6286703 -0.3244875
0.3762051 0.2308714 0.0011371475 0.16761741 0.10132202 0.5495706 0.82871026 0.029847307
0.7123906 -0.13829999 0.6625835 0.6878652 0.12087694 -0.4639824 -0.025979944 -0.28925875
0.15550832 -0.08142184 -0.29324967 -0.2772208 0.1546188 -0.28023997 0.072284006 0.10243634
0.064687416 0.5674507 0.10478787 0.16873397 -0.597661 0.080362454 0.13797884 -0.10565344
-0.00046286717 0.28092396 -0.14968547 0.22639018 -0.3905254 0.0051242597 -0.103563815 0.047275554
-0.059803914 -0.040920045 -0.004012535 -0.015186959 -0.023965454 0.035488963 0.07954151 0.0068517206
0.2651299 0.09711723 0.5297956 -0.16420013 -0.021864973 0.43232504 0.09169482 0.30392137
-0.20558363 -0.30958244 0.31304085 0.004385574 0.41981366 -0.1820152 0.15745455 0.17045237
0.11133226 -0.15399668 -0.061585356 -0.013499409 0.4533294 -0.1689342 -0.15775079 0.13366838
0.061879504 -0.36181918 -0.020615214 0.26489076 0.26848155 0.012939877 0.3453626 0.20031317
0.4303977 0.11529684 0.18982908 0.43338576 0.39558095 -0.13029897 0.55364037 0.012713923
0.13109316 -0.05393902 -0.3013818 -0.08072825 -0.02181474 -0.030363105 -0.0016571992 -0.0013794829
0.31757 0.015407814 0.6725985 0.26756373 0.09208661 -0.048449438 0.044434603 0.22704312
0.33722237 0.3047173 -0.053466085 -0.05961555 -0.14696161 -0.0011435855 0.036936145 0.120601326
0.018860767 0.13274023 -0.17272416 -0.12393277 -0.15384002 0.010558219 0.12241737 -0.18775164
0.16313414 -0.66372293 0.013815483 -0.004850839 -0.0015034453 -0.019463437 0.097638965 0.0018979515
-0.54366785 -0.08540838 -0.30232227 0.30669037 0.36201736 -0.19196765 -0.15193275 -0.124642886
0.39648056 0.31155562 0.14152357 0.06323922 0.10937104 -0.27683055 -0.23476635 -0.021681426
0.11709201 -0.006989695 -0.06696344 -0.013937614 0.096586876 0.024920084 0.0445442 0.42751482
0.008099601 0.23946242 -0.07868795 -0.11810699 0.11200046 0.0454529 0.1395121 -0.11528853
0.23969364 0.13292745 -0.01003426 0.8237023 0.2875885 -0.0016160564 0.12365859 -0.04112049
0.17545445 0.1875511 -0.027178485 -0.5063652 -0.02476317 -0.0589556 0.00035093998 0.7538168
-0.044904348 -0.14080864 -0.35367224 -0.0577324 -0.13279434 -0.07678722 -0.014111311 0.40123633
0.16600834 0.55730075 0.8879577 0.11584955 -0.056554206 0.09245191 -0.1235813 0.053610098
-0.020208476 -0.34550375 0.23185576 -0.3041217 0.7093867 0.008793837 0.07880928 0.14042394
0.16067123 0.749919 0.27180475 -0.060814787 0.06424912 -0.07373897 -0.97606367 0.20482595
-0.12451781 -0.13006312 0.5256777 -1.1308594 -0.2600619 -0.59040594 0.12235342 0.21259795
0.149796 0.08912119 -0.56673104 0.17431605 0.073791035 -0.1431804 0.076026276 0.10156468
00000000: 9a4a 96be 3432 803e a247 f4be 5144 3a3f
00000010: 13d2 093e a363 213e 0b70 ff3d 7be0 e53d
00000020: 6ee7 fa3e d228 8dbc 33a8 113e 22ef 923e
00000030: 12c5 ddbc 299d 2c3e e4f1 90bd 1e69 b43e
00000040: 2905 4f3e 09a0 fabe bdea 883f 0410 8c3e
00000050: 278b 49be 03b9 cabb e962 a93e 8d4e 773f
00000060: 8767 823e 3766 953e 0d89 5fbd 4571 27bf
00000070: 2625 e93d 5dda 4dbe 89f0 20bf 3a23 a6be
00000080: f49d c03e 8d69 6c3e 570c 953a e6a3 2b3e
00000090: eb81 cf3d a9b0 0c3f 5b26 543f 5782 f43c
000000a0: 3b5f 363f 839e 0dbe 129f 293f ef17 303f
000000b0: 548e f73d 1a8f edbe e4d3 d4bc b919 94be
000000c0: 933d 1f3e 7ec0 a6bd d224 96be e2ef 8dbe
000000d0: 6454 1e3e 9d7b 8fbe a309 943d 25ca d13d
000000e0: d67a 843d 7344 113f 069b d63d 99c8 2c3e
000000f0: 5000 19bf 1295 a43d 534a 0d3e d560 d8bd
00000100: fbac f2b9 44d5 8f3e 2647 19be d4d2 673e
00000110: f2f2 c7be 68e9 a73b 4419 d4bd 03a4 413d
00000120: f3f4 74bd c79b 27bd 957b 83bb b9d2 78bc
00000130: 3353 c4bc e05c 113d a9e6 a23d 6684 e03b
00000140: 1bbf 873e 66e5 c63d afa0 073f 1424 28be
00000150: 2c1e b3bc b559 dd3e 7eca bb3d 959b 9b3e
00000160: 8484 52be 9781 9ebe e446 a03e dcb4 8f3b
00000170: d1f1 d63e 3162 3abe c43b 213e 118b 2e3e
00000180: 2b02 e43d 4eb1 1dbe ed40 7cbd a02c 5dbc
00000190: cb1a e83e 16fd 2cbe 6c89 21be 5de0 083e
000001a0: 5d75 7d3d 5d40 b9be 3de1 a8bc c39f 873e
000001b0: 6a76 893e c701 543c 5ed3 b03e e51e 4d3e
000001c0: 165d dc3e c020 ec3d 8e62 423e bde4 dd3e
000001d0: 9689 ca3e 186d 05be 60bb 0d3f 0f4e 503c
000001e0: 493d 063e 29ef 5cbd b74e 9abe da54 a5bd
000001f0: d3b4 b2bc 0cbc f8bc 6136 d9ba c4cf b4ba
00000200: 8998 a23e 0e71 7c3c 6a2f 2c3f 1dfe 883e
00000210: e897 bc3d eb72 46bd 0f01 363d fe7d 683e
00000220: 69a8 ac3e e803 9c3e 41ff 5abd 6f2f 74bd
00000230: 1b7d 16be 5de4 95ba 5b4a 173d d4fd f63d
00000240: e581 9a3c 0eed 073e 9ade 30be 77d0 fdbd
00000250: 3d88 1dbe 61fc 2c3c f5b5 fa3d f741 40be
00000260: a30c 273e bfe9 29bf 565a 623c c9f3 9ebb
00000270: 410f c5ba c971 9fbc f0f6 c73d afc4 f83a
00000280: d12d 0bbf 97ea aebd fcc9 9abe 8506 9d3e
00000290: 575a b93e 2b93 44be 4294 1bbe c544 ffbd
000002a0: 80ff ca3e 3884 9f3e 8eeb 103e 9083 813d
000002b0: ecfd df3d bcbc 8dbe 9766 70be 3f9d b1bc
000002c0: f0cd ef3d d009 e5bb 2124 89bd 975a 64bc
000002d0: 57cf c53d 3425 cc3c fb73 363d 39e3 da3e
000002e0: 30b4 043c a335 753e 2627 a1bd 14e2 f1bd
000002f0: 7f60 e53d d22c 3a3d 43dc 0e3e 651c ecbd
00000300: 4072 753e 221e 083e bd66 24bc 27de 523f
00000310: cd3e 933e dbd1 d3ba b740 fd3d f56d 28bd
00000320: 55aa 333e 650d 403e 6aa5 debc 26a1 01bf
00000330: 22dc cabc 6d7b 71bd 5efe b739 23fa 403f
00000340: 9fed 37bd 2430 10be 8714 b5be cf78 6cbd
00000350: 3dfb 07be 9e42 9dbd 2133 67bc d96e cd3e
00000360: 17fe 293e 43ab 0e3f 3251 633f 8742 ed3d
00000370: 62a5 67bd 6d57 bd3d 3118 fdbd 4396 5b3d
00000380: 3f8c a5bc dee5 b0be 996b 6d3e d7b5 9bbe
00000390: 5e9a 353f 0714 103c c366 a13d 4bcb 0f3e
000003a0: 0087 243e b1fa 3f3f fe29 8b3e ed18 79bd
000003b0: 0b95 833d 7504 97bd 4fdf 79bf e5bd 513e
000003c0: 3203 ffbd 442f 05be d092 063f 00c0 90bf
000003d0: d526 85be d824 17bf 6e94 fa3d 47b3 593e
000003e0: 1f64 193e 2c85 b63d 4915 11bf e87f 323e
000003f0: c11f 973d e29d 12be aab3 9b3d 2501 d03d

log_std.0.bias f4 [128]
0.02431793 0.052306198 0.10243525 -0.35997254 -0.086112335 -0.8323109 -0.56963915 0.061479643
0.24120392 0.21089351 -0.46782377 -0.22519581 -0.23126198 -0.20182225 -0.22317 -0.16774225
-0.49503785 0.12853722 -0.09275583 -0.5817471 -0.4694982 -0.46199825 0.065699495 -0.1696191
-0.1494478 0.14324939 -0.63986254 -0.7906468 -0.24423581 -0.57525903 0.14830703 -0.029851006
-0.16156015 -0.37419465 0.2693729 -0.50228584 0.051822294 -0.25064376 -0.5182388 -0.6184501
0.11476032 -0.24507333 -0.61148345 0.35601526 -0.5336593 -0.5959386 -0.16889127 -0.19247358
-0.5634185 -0.038735855 0.02870966 -0.22963275 -0.25551143 -0.053160276 -0.43792444 -0.18395874
0.17104167 -0.08602396 -0.5877072 0.035402846 -0.7305592 0.35679728 -0.29795155 -0.64400214
0.23674916 -0.42578852 -0.12463908 -0.024831789 0.21718287 -0.50027084 -0.46469218 0.089635015
-0.42002743 0.07162852 0.005546392 -0.36216483 -0.19319953 -0.2664881 -0.31410223 0.10003004
-0.09028619 0.456293 -0.025766212 -0.77384734 -0.17370953 -0.2557454 -0.37441823 -0.34420463
-0.2625365 0.03798956 -0.008857254 0.051217858 0.17412084 -0.87578386 -0.24804373 0.33606455
-0.2706428 -0.08435456 -0.41676095 -0.5303277 -0.27147472 -0.08163954 -0.23578489 -0.12737638
-0.11045186 0.28410253 -0.07138718 -0.4751304 0.049614612 -0.64149857 0.42494652 -0.8691193
-0.2074006 -0.18443368 -0.15295202 -0.1963066 -0.04489603 -0.4382432 0.07841065 -0.03001045
-0.07577698 0.50994855 0.07194177 -0.092133194 -0.03199109 -0.20292471 -0.0361648 -0.77801985
00000000: 6536 c73c 063f 563d 93c9 d13d 524e b8be
00000010: aa5b b0bd 5412 55bf dfd3 11bf 14d2 7b3d
00000020: 29fe 763e 78f4 573e 9986 efbe bb99 66be
00000030: f1cf 6cbe 7eaa 4ebe ad86 64be a0c4 2bbe
00000040: 9a75 fdbe 439f 033e c5f6 bdbd 61ed 14bf
00000050: 1162 f0be 098b ecbe 758d 863d a1b0 2dbe
00000060: d808 19be f8af 123e 08ce 23bf d467 4abf
00000070: f418 7abe 2d44 13bf ccdd 173e 198a f4bc
00000080: 0670 25be 7196 bfbe 3feb 893e ce95 00bf
00000090: 9d43 543d 6154 80be 4cab 04bf bf52 1ebf
000000a0: 7507 eb3d 81f4 7abe 2e8a 1cbf a247 b63e
000000b0: e59d 08bf 6f8f 18bf d5f1 2cbe cb17 45be
000000c0: 323c 10bf 7da9 1ebd 8530 eb3c d924 6bbe
000000d0: 65d2 82be 97be 59bd a237 e0be ae5f 3cbe
000000e0: 8c25 2f3e 542d b0bd fb73 16bf 9302 113d
000000f0: ed05 3bbf 22ae b63e 1b8d 98be 53dd 24bf
00000100: 5f6e 723e f400 dabe c642 ffbd 096c cbbc
00000110: 3065 5e3e c011 00bf 22ec edbe 9092 b73d
00000120: d60d d7be f9b1 923d 82be b53b ab6d b9be
00000130: 19d6 45be 2171 88be 02d2 a0be 8ddc cc3d
00000140: f7e7 b8bd 3c9f e93e aa13 d3bc dc1a 46bf
00000150: e9e0 31be 10f1 82be bfb3 bfbe 973b b0be
00000160: 2f6b 86be f19a 1b3d 041e 11bc d1c9 513d
00000170: bc4c 323e 5f33 60bf 2dff 7dbe a710 ac3e
00000180: b191 8abe 15c2 acbd b161 d5be 8ec3 07bf
00000190: bcfe 8abe a232 a7bd 9871 71be f46e 02be
000001a0: 9634 e2bd e375 913e 7133 92bd 4b44 f3be
000001b0: b138 4b3d 4039 24bf 9792 d93e 9a7e 5ebf
000001c0: d360 54be 2fdc 3cbe 749f 1cbe 9904 49be
000001d0: e6e4 37bd 6a61 e0be c395 a03d 7ad8 f5bc
000001e0: f630 9bbd fd8b 023f 3556 933d 54b0 bcbd
000001f0: 1709 03bd 7fcb 4fbe 8b21 14bd 4f2c 47bf

log_std.2.weight f4 [1, 128]
-0.09103025 -0.031275105 -0.009884798 -0.29348695 0.14269224 0.16233332 -0.03442525 -0.0905027
-0.2072279 -0.055093218 -0.04941733 -0.052467793 -0.02611779 -0.037783563 -0.0006375138 -0.010653706
-0.030081958 -0.12799765 -0.071412645 0.003695288 -0.019001361 0.005017353 -0.11572981 0.05257827
0.0005668006 0.0021705485 0.0986062 0.11595628 -0.0033392995 -0.008858292 -0.048604902 -0.0005091542
-0.17329217 -0.071106374 -0.08132787 -0.018411282 -0.0044668387 -0.014955251 0.0135949645 0.31054795
-0.028931469 -0.13770813 0.00051956775 -0.17890093 -0.019540068 -0.081206374 0.12940925 0.17298381
0.34933287 0.049067773 0.0328729 0.084642425 -0.043741148 -0.040595867 0.14379978 0.17211562
-0.046793632 -0.031784203 -0.0056264577 -0.117271416 -0.030203901 -0.028965076 0.027393982 0.16205782
-0.08879081 0.08193123 0.0004069478 -0.034415208 0.124966 0.042545177 -0.17924064 0.00436013
0.052561313 -0.049379725 0.0023251972 -0.04744441 -0.0067454474 -0.05873736 0.048651952 -0.021112466
0.2975755 -0.015245744 -0.121936955 0.16749902 0.20392706 0.024432711 0.14656724 -0.022996634
0.00020130513 0.0575435 -0.0020076763 -0.033931084 -0.021698704 0.6552841 -0.0012753241 -0.11378525
-0.023764687 0.00019403378 0.19654441 -0.00842024 -0.07913377 0.070973285 -0.041079093 -0.028990889
-0.04026964 0.00553186 0.0012038915 0.0054294253 -0.02266825 0.24004385 -0.078303225 0.3243637
0.0026969258 -0.044915836 -0.020714352 -0.0008719854 -0.12249238 0.028910255 -0.00064524036 -0.00015360132
-0.026559338 -0.1346207 -0.24725646 -0.024578316 -0.0006796223 -0.03960157 -0.00016423504 -0.07408593
00000000: 116e babd 531a 00bd d9f3 21bc ec43 96be
00000010: ea1d 123e b53a 263e 7e01 0dbd 7b59 b9bd
00000020: 8d33 54be 6da9 61bd d469 4abd 78e8 56bd
00000030: faf4 d5bc f0c2 1abd d41e 27ba e28c 2ebc
00000040: 706e f6bc d111 03be cb40 92bd a52c 723b
00000050: bea8 9bbc 9c68 a43b c003 edbd 505c 573d
00000060: 5895 143a c33f 0e3b 0cf2 c93d 7c7a ed3d
00000070: 26d8 5abb 5f22 11bc ef15 47bd c378 05ba
00000080: 8173 31be 38a0 91bd 3a8f a6bd 42d3 96bc
00000090: 8f5e 92bb de06 75bc 6abd 5e3c 2400 9f3e
000000a0: b001 edbc 5c03 0dbe 9a33 083a ce31 37be
000000b0: 7e12 a0bc 874f a6bd dc83 043e ab22 313e
000000c0: c2db b23e 4afb 483d bca5 063d 0259 ad3d
000000d0: eb29 33bd da47 26bd 4040 133e 143f 303e
000000e0: aeaa 3fbd 2730 02bd 265e b8bb ff2b f0bd
000000f0: 2c6e f7bc 2b48 edbc 5869 e03c 7cf2 253e
00000100: f5d7 b5bd 90cb a73d 9c5b d539 f6f6 0cbd
00000110: 2dee ff3d da43 2e3d dc8a 37be 6cdf 8e3b
00000120: 884a 573d 6542 4abd 5662 183b 1255 42bd
00000130: ea08 ddbb 9696 70bd 4547 473d 0df4 acbc
00000140: d15b 983e 49c9 79bc 15ba f9bd dd84 2b3e
00000150: 41d2 503e 1c27 c83c b915 163e 7063 bcbc
00000160: 6f15 5339 bcb2 6b3d 3893 03bb 52fb 0abd
00000170: 7bc1 b1bc b3c0 273f c728 a7ba 3e08 e9bd
00000180: 29ae c2bc 8c75 4b39 f042 493e 0cf5 09bc
00000190: e310 a2bd 715a 913d 8d42 28bd 4d7e edbc
000001a0: c7f1 24bd 9b44 b53b e5cb 9d3a 52e9 b13b
000001b0: c4b2 b9bc 0ece 753e 715d a0bd 0013 a63e
000001c0: e8be 303b abf9 37bd 25b1 a9bc f395 64ba
000001d0: 49dd fabd 33d5 ec3c 5925 29ba 0a10 21b9
000001e0: f892 d9bc 02da 09be cc30 7dbe 7758 c9bc
000001f0: ae28 32ba 4235 22bd 8236 2cb9 5dba 97bd
