HybridLearning-master/data/hlt_stoch/InvertedPendulumBulletEnv/seed_666/policy_9000.pt (torch, 10544 bytes, 6 tensors)

mu.0.weight f4 [128, 5]
00000000: 4a9c 7f3e 9bc1 413e 1908 eabe ad32 f23f
00000010: e44d d63d 7f0d 94bb 3c61 10ba f6b2 393b
00000020: f377 1dbc 331c 083b cb3b 2c3b d790 eebb
00000030: 9c20 d03a 5aa3 b23c d996 9cbb 1774 153e
00000040: a6f2 10c0 0958 883e 0959 a5be aca6 1f3f
00000050: 50d0 8bba 560d 4eba 2e31 0dbc 888d 48bb
00000060: 1d5a 7cb9 598e 1c3e 33c8 dd3c f720 18be
00000070: ef72 453f a46b 8e3d ab1f 823b fed4 813c
00000080: 5738 2cbd 1ae6 ec3c a2a9 7f3c 7a58 b63f
00000090: 542a e03c d016 263e af56 18c0 8005 453f
000000a0: 184c b7bb 0db7 92bc 8846 4d3d 689a e5bc
000000b0: ebff a7bc bde7 f73b 0ed0 d339 d943 173d
000000c0: 05ae 5dbd 4cd8 bf3b c2de 87bc 65da 3c3c
000000d0: a69c a9bd 06ae 79bd 3d1d 7c3c f15f 843f
000000e0: 0f26 873e 117b ffbd a54d 4a3f 5531 5ebf
000000f0: 0ae6 6e3f 03f6 8e3d 7c35 693f 6ad2 8340
00000100: 852d 393f 5b93 35be 8a82 c43e c892 24bf
00000110: 8680 2cbf 5944 29be d79f b0be 2a3a c63c
00000120: 5dd4 7abd 9166 babe 4ee9 a73d 520f 363f
00000130: 7b26 6abd feac 283e 5168 bf3e a568 b8bd
00000140: a903 513b b2c1 343c 1527 e1bc 165b 753c
00000150: dbbf 0f3c 09b7 7ebc 0f1d 343a a085 8abc
00000160: ef95 173d c511 b1bb 919c a53f 719c acbe
00000170: d7e2 8b3d 48b3 3cbe 502f dfbd e76d 173d
00000180: 86de 093c ce5f dd3c e27a 0ebd 5883 033c
00000190: 6c7e 64bb 6c4d dd3a 6f2f 353b df46 b93c
000001a0: b6ef 6938 0cd4 f4bd c32a 413e abe4 79bd
000001b0: 02c0 b0bf c2dc 0f3e 4195 f43f 84ee f33e
000001c0: 40f3 51bd c9c1 5dc0 5d91 b6be 28a4 84bc
000001d0: 929b 0dbb e5c6 54bc a7dc cb3c 8f98 b3bb
000001e0: a852 66bb 2ba3 793b bf64 f73b b811 393c
000001f0: 8cf8 783b 915b 5f3c 8563 c0bb 4081 493d
00000200: f333 533b 933f a0bb 6f1d d23b f3f9 0f38
00000210: 0329 093c ba69 243c c0ef 8c3a 29af 62bf
00000220: d0f6 44be a37d b1be f86e 19bf af04 5f3f
00000230: 3804 17bb 8568 463c 85d8 22bc 42dd 25bc
00000240: a3a8 163c de39 16bc 739b 5ebc f326 883c
00000250: b592 39bc 55d3 52bc 3656 f73e 1991 2fbe
00000260: 02a3 afbd 666d 183f ff8a febd e4c0 893f
00000270: 2caa 64be 1630 8cbd 8c1e 983d face fcbd
00000280: fedb 07c0 a913 6c3e bebb 623f d4a6 b8bf
00000290: b74a d5be fbc9 b0bd 3238 643f 84fc 80bf
000002a0: b0d2 d23e 6073 603e fdeb 6b3b e17d e73b
000002b0: 2569 653c 72da f23c 7f1f b73a 48ef d6be
000002c0: 3c3e 1dbe 43fb a8bd 8d84 9fbe a24b e43d
000002d0: 8315 d3bf d052 eabe befa 5fbf 8a01 17bf
000002e0: bdd2 b33f ed1a 743e 8b1a 943e 45d7 8bbe
000002f0: 144d a93f 7bdb 603e 0266 603d 4749 943e
00000300: def2 2e3f 9907 43bf 2fb5 c33e caf0 393d
00000310: 61b6 0a3c 6ae2 723c 157b 75bd 21f2 db3b
00000320: c8f7 7dbe 5e04 113e cb08 cebb e4e5 96bf
00000330: 0af3 243e 5d37 c13e 93f7 d63a 3b40 c63f
00000340: eb01 ae3e e1ec 59be a011 913a a5f4 183c
00000350: fad8 85bc d22d b0bc 5d58 ef3b fa2c 81be
00000360: 8bee de3e 5349 bebf 27c9 6f3f c33b 19bf
00000370: e969 fabc 8e5c 2f3e e0d6 06be dde8 2f3f
00000380: 24a5 b83d 69d9 b4be 2d78 d0be 8e96 91bf
00000390: 4a75 a0c0 3adf 8fbf e050 06bf 032e 9a3c
000003a0: 6e36 c7bd 0e55 36bf 88aa db3d 85e1 ad3f
000003b0: 4ce1 833c e479 c3be c959 0dc0 f84c 03bd
000003c0: cb22 1fbc 8db6 b43b 9240 153c c369 2e3c
000003d0: 3fe3 dd3a 4f7b aebb 717c 8dba ae24 b7bb
000003e0: b251 11bd 16c6 8c3b d73b 27bf bb94 2d3d
000003f0: 7df6 dfbd df63 b6be eee3 cb3d 1ec3 343e
0.24961963 0.18921511 -0.45709303 1.8921715 0.10464075 -0.0045182104 -0.0005507653 0.0028335429
-0.009611118 0.0020768761 0.0026280757 -0.00728045 0.0015878859 0.021806408 -0.0047787246 0.14595066
-2.26481 0.26629665 -0.3229449 0.62363696 -0.001066694 -0.00078602636 -0.008617682 -0.0030601937
-0.00024066163 0.15288676 0.027073001 -0.14856325 0.771285 0.069541246 0.0039710603 0.015848633
-0.042045917 0.028918315 0.015604408 1.4245751 0.027363934 0.1621964 -2.3802907 0.7696152
-0.005593788 -0.017909551 0.050116092 -0.028027728 -0.020507773 0.007565467 0.0004040007 0.03692994
-0.054121036 0.005854642 -0.016585711 0.011526679 -0.082818314 -0.060956977 0.01538783 1.0341779
0.26396224 -0.12474645 0.79024726 -0.86794025 0.9331976 0.06980517 0.91097236 4.1194353
0.7233508 -0.17731993 0.38380843 -0.6428647 -0.6738361 -0.16529979 -0.34496948 0.024197657
-0.06123768 -0.36406377 0.08198796 0.71117127 -0.057165604 0.16472241 0.37384275 -0.09004334
0.003189305 0.011032509 -0.027484456 0.01497533 0.008773769 -0.015546569 0.0006870785 -0.01690942
0.037008222 -0.0054037296 1.2938405 -0.33713105 0.06830376 -0.18427765 -0.10897696 0.036970045
0.00841487 0.027023222 -0.03478516 0.00802692 -0.0034865392 0.0016884035 0.002764668 0.022616802
5.5774777e-05 -0.11954507 0.18863969 -0.06100909 -1.3808596 0.14049056 1.9108049 0.4764291
-0.051257372 -3.4649527 -0.35657778 -0.016191557 -0.002160762 -0.012986873 0.024885489 -0.005480833
-0.0035144482 0.003809164 0.0075498517 0.011295728 0.0037989942 0.013632671 -0.0058712387 0.049195528
0.003222701 -0.004890391 0.0064122 3.432664e-05 0.008371594 0.010034973 0.0010752603 -0.88548523
-0.19234776 -0.34666166 -0.5993495 0.8711652 -0.0023043286 0.01210988 -0.009939318 -0.010123553
0.00919548 -0.00916907 -0.013586867 0.016620135 -0.011326482 -0.012867768 0.4830796 -0.17145194
-0.08576013 0.5954193 -0.12428855 1.076199 -0.2233054 -0.06845109 0.07427701 -0.12344165
-2.1228023 0.23054375 0.8856772 -1.4425912 -0.41658565 -0.08632275 0.8914825 -1.0077062
0.41176367 0.21919012 0.0035998814 0.0070645665 0.014002119 0.029645178 0.0013971179 -0.41979432
-0.15355772 -0.08251049 -0.31155816 0.11147238 -1.649094 -0.45766306 -0.8749198 -0.58986723
1.4048687 0.23838396 0.289265 -0.27312675 1.3226647 0.21958725 0.054784782 0.28962156
0.68339336 -0.7618347 0.3822417 0.04539565 0.008466334 0.014824489 -0.059931833 0.0067122136
-0.24801552 0.14161822 -0.0062876693 -1.1788907 0.16108337 0.3773755 0.0016400687 1.5488352
0.33985838 -0.21281768 0.0011067875 0.009335672 -0.016338814 -0.021506224 0.007304235 -0.25229627
0.4354137 -1.4866127 0.9366631 -0.59856814 -0.03056808 0.1712515 -0.13167906 0.68714696
0.09015873 -0.3532212 -0.40716687 -1.1374071 -5.0143175 -1.1239998 -0.52467155 0.018820768
-0.097271785 -0.71223533 0.10725886 1.3584448 0.01609864 -0.38178933 -2.208605 -0.032055825
-0.009712885 0.005514926 0.009109633 0.010645333 0.0016928687 -0.005324758 -0.0010794533 -0.0055890894
-0.0354783 0.0042960746 -0.65325683 0.04237817 -0.10935686 -0.3562307 0.099555835 0.17652556

mu.0.bias f4 [128]
00000000: dfb1 9bbe 00d5 72bb a531 06bc a2fe a13d
00000010: 7971 f93b f979 0c3e e1b3 c23c 8397 b43e
00000020: 0d84 eebc 66a7 9bbc 7000 9d3d ff9c c3bd
00000030: 0b1d 2ebf ba56 323f 5c59 c53d cf08 71be
00000040: 1f95 793c bc1c 043c 5b91 07be 8459 d6bb
00000050: d073 16bc 5eb8 ee3b 832d a43f fa48 2c3c
00000060: d458 37bc ff05 27bd 4320 20bc 61fb 57be
00000070: 6d8b 0b3c ec7e 4bbb 9f7c 6e3d c723 9fbd
00000080: 4340 9c3f 76ce 453f 6731 5ebc bfc0 153e
00000090: 694c 9fbf c67c 8a3e b688 3ebf 072f d13b
000000a0: b4ba 60bd ca19 cc3f d11c 8e3c 13ac 87bf
000000b0: ec6e 063e a57c 633f c1a8 123e b27c 7bbf
000000c0: b0f7 40bc 7c05 e53b 0230 2d3e 7417 793d
000000d0: e427 343d 8369 033d f0fb 86bc e7cc 4fbc
000000e0: ff59 033e 5a37 8cbc 17df bf3e 7fa4 a43b
000000f0: 6d85 a93d 30d5 2b3d 692a c6be 34de d4ba
00000100: 151d a4bf aff9 edbc 5bc1 a6bc 7d57 f03b
00000110: 41dc fcbc d86f b13b 4b6f 16bf 5d60 d7bd
00000120: efb6 05bd 2b0c 44bc 9f39 3f3c 6de2 7e3c
00000130: a61e 95be 96eb e53d ace5 e1ba 71be 1ebf
00000140: 2f6e c6be e69e 3fbe cd32 00be d15a e2bb
00000150: 8fec 91bf 11e6 05bd 1608 1fbf 067f c8bc
00000160: b749 20be 6f6c cbbe d50a 11bc 6da2 2abf
00000170: d56e 223f 69b3 533e 56ec aabc d7ff 85be
00000180: 4251 263f 7438 7fbd e053 88bd a120 3f3e
00000190: 4340 e6bc eaf8 2bbc 3b50 28bb 0abd 083e
000001a0: 10a1 68bc 276d f2bd 06d8 453c f74e 123f
000001b0: 8c03 703d ba12 ca3f 674d ce3d 7026 8abc
000001c0: 4e2a 0abc 552d a2be b8e2 1bbe d048 563c
000001d0: d703 cf3e 43e4 0d3e cf48 93bd 7bd3 2ebe
000001e0: cac4 7c3b 99d1 5f3e 8845 473d 2f46 b93e
000001f0: 096d 1d3f c34c 853f bb17 a6bb d6fa cebe
-0.30409142 -0.0037053227 -0.008190547 0.079098955 0.007612404 0.13718404 0.023767414 0.35271844
-0.029115701 -0.01900072 0.07666099 -0.09551429 -0.68013066 0.69663584 0.096361846 -0.23538516
0.015233307 0.008063491 -0.13239042 -0.006541433 -0.009182885 0.007285162 1.2826389 0.010515446
-0.011190612 -0.040777203 -0.009773317 -0.21091987 0.008517128 -0.0031050993 0.058224317 -0.07770496
1.2207111 0.7726816 -0.013561583 0.14624308 -1.2445194 0.2704832 -0.74427354 0.00638378
-0.054865554 1.594537 0.017347725 -1.0599388 0.13128251 0.8886207 0.14322187 -0.98237145
-0.011777803 0.006989179 0.16912845 0.060813382 0.043983355 0.032083046 -0.016477555 -0.01268313
0.128273 -0.017116237 0.37474892 0.0050244923 0.08277402 0.04195136 -0.3870423 -0.0016240538
-1.2821375 -0.029049722 -0.020355871 0.007334648 -0.030866744 0.005414944 -0.5876357 -0.10516427
-0.032645162 -0.011965792 0.011671453 0.015556914 -0.29124945 0.11226575 -0.0017234585 -0.6200934
-0.38755938 -0.18712959 -0.12519379 -0.006907799 -1.1400317 -0.03269011 -0.62121713 -0.024474632
-0.1565312 -0.39731166 -0.00885268 -0.6665409 0.63450366 0.20673908 -0.020864647 -0.26171753
0.6496774 -0.062309697 -0.06656623 0.1866479 -0.028106814 -0.010496357 -0.0025682587 0.13353363
-0.014198557 -0.118372254 0.01207543 0.5715174 0.058597133 1.5786965 0.10073357 -0.016864032
-0.008432938 -0.3167521 -0.15223205 0.013078883 0.40432617 0.13856606 -0.071916215 -0.17072861
0.0038569444 0.21857299 0.048650295 0.36186358 0.614945 1.0414051 -0.005068747 -0.40425748

mu.2.weight f4 [1, 128]
00000000: fa56 453e 9236 8c3a ca1c e439 fdb2 b03e
00000010: 9432 883a 1100 9a3c d500 b43b 9724 b4be
00000020: 9a88 d4bb ebc4 fdbb 9d6a 913b ac4b 9cbe
00000030: 72b3 ab3f c98b 5c3e 60dc bc3c 4a52 cfbd
00000040: baa6 443b adff 953b 943e 23be d4db 2cbc
00000050: 7f2d c2b7 98cc e13d 9e0f 0abf edd3 d33b
00000060: d527 0639 7eae dcbb 8b4b e5ba 4718 8b3e
00000070: b380 fc38 8cf8 40ba 9160 e9bc 7bad 2cbe
00000080: 0c34 083f 74ae 73be 1a34 acbb 646c f63c
00000090: a4a9 be3e 4dc0 0cbd 17f9 11be 042c cabb
000000a0: 9182 893d b3dd 85bf a4d7 a2b8 e280 1dbf
000000b0: 841d 883c 8899 1cbf 11d9 9a3d 80ce 333f
000000c0: b8c4 883a 5b81 833b 5e73 983d df5a 3039
000000d0: a91f 083c 9f25 203c 5174 4bbb 770b a5bb
000000e0: af74 fe3e bf17 b03b 7289 8ebd 913b 173b
000000f0: 1a72 973c 71f0 6a3c 904f 7f3e ccda 133b
00000100: d8b8 93be 985d dabb 523e c5bb a0e5 b43b
00000110: 407b 2ebc cd50 413c f1b0 b3bd 0bc2 26bd
00000120: 3711 59bd 0bea bab9 f831 973d 4035 b0bb
00000130: ade3 a3bc 2bd4 ab3b ec5f 543b 6388 bfbe
00000140: 8ac8 40bd cb19 e13d 53c3 44bd d2c4 8bbb
00000150: 66da 68bf 61a5 97bc 74c0 433e 2510 d3bb
00000160: ff1a b9bc 16a8 d73d c9d1 3fbb 5f3f 9abf
00000170: f801 a7be 2020 573b e43a b1bb ff57 a4bc
00000180: d9a1 8f3e 8647 ae3c 6b1e ecbb 9266 1f3e
00000190: 0b65 4ebd 50ed ecbb 82ae adb9 b000 043e
000001a0: 7ab4 8c3d 92b2 cebd d048 553b 9e23 4cbe
000001b0: e228 0ebd f0f5 afbf 1378 3e3c 3154 a3ba
000001c0: be3a 9aba 509d 0bbf e305 eebc 1d86 403c
000001d0: 66f1 a63e 8312 e1be 034c ce3b 0fc2 00be
000001e0: 9380 e639 c88c 31be 841d 25bb 7c7e 8a3c
000001f0: 1a3e fbbe cd9b b6be 487f 34bc 86ca b9bc
0.1927146 0.0010697416 0.00043508998 0.34511557 0.001039105 0.01879886 0.0054932632 -0.35184166
-0.0064860107 -0.0077444217 0.004437758 -0.30526483 1.3414137 0.21537699 0.023054302 -0.10123117
0.0030006603 0.004577598 -0.1594184 -0.010550458 -2.3147788e-05 0.11025351 -0.5393008 0.0064644725
0.00012794074 -0.0067346683 -0.0017493827 0.2716696 0.000120402685 -0.0007361255 -0.02848843 -0.16863053
0.5320442 -0.23797017 -0.0052552344 0.030080982 0.372388 -0.03436308 -0.14255176 -0.006169798
0.06714357 -1.0458282 -7.764928e-05 -0.61524785 0.016615637 -0.6117177 0.075609334 0.7023697
0.0010434603 0.004013223 0.074438795 0.0001681852 0.00830833 0.009774595 -0.0031044672 -0.005036767
0.49698398 0.0053739245 -0.06959809 0.0023076276 0.018487025 0.014339552 0.24932694 0.0022560833
-0.28851962 -0.0066639893 -0.006019392 0.0055205375 -0.010649502 0.01179905 -0.08773983 -0.040712398
-0.052994933 -0.0003565106 0.07382578 -0.0053774416 -0.020006025 0.0052437983 0.0032405807 -0.37408742
-0.04706625 0.10991248 -0.04803784 -0.004265406 -0.9095825 -0.018511476 0.19116384 -0.0064411336
-0.02259588 0.10530107 -0.0029269329 -1.2050589 -0.3261869 0.0032825544 -0.0054086316 -0.020061491
0.28053167 0.02127434 -0.0072057745 0.15566471 -0.05038933 -0.0072304383 -0.0003312715 0.12890887
0.06870361 -0.10092653 0.003254462 -0.19935462 -0.034706958 -1.3746929 0.011625308 -0.0012461004
-0.0011766774 -0.54536915 -0.029055541 0.011750725 0.32606047 -0.43959436 0.0062956824 -0.12574027
0.00043964814 -0.1733886 -0.0025194595 0.016906016 -0.49070817 -0.35665742 -0.011016674 -0.022679579

log_std.0.weight f4 [128, 5]
00000000: 38a8 ffbd 578e 463e be50 ddbe cdd0 4d3f
00000010: 544d 383e d4c6 043c db0e 6b3d 5380 ffbb
00000020: 95e1 8a3e 42c0 123c 0b52 b83c 1e6c d83c
00000030: aee8 7bbc 3d5f 863d 182b 7bba 127f 283e
00000040: c2d1 363e c27e 1abf 85d7 b13f 7863 b13e
00000050: d9a1 b8be bd3b ddbd d86e a13e bce8 793f
00000060: de77 913e 9b45 5e3e 0f66 77be 952a 59bf
00000070: 9799 01bd 243b 46be 0ea7 dfbe c320 93be
00000080: fb98 013f 00d7 b3bd 4eae 2b3d 40b8 843e
00000090: b578 b93d 697a be3e 5ae8 493f ac7e a63d
000000a0: 5e6c 653f be3c c13c d824 173f 39d6 383f
000000b0: 35ef e13d 1071 e4be ea79 2fbd b1a9 95be
000000c0: e3b1 943d 4363 93bd 5f60 27bf 4841 1ebe
000000d0: b5d5 0c3f 380e f9be 2ede 583d 697d d43e
000000e0: 4b89 50bd 05dc eb3e 17d7 2d3d d758 363d
000000f0: 89ad 60bf b758 163e dc9f 8e3e 8727 a5be
00000100: c5e1 2bbd 7e51 9c3e 4006 83ba 0e6d 493e
00000110: 19cf 93be 2342 85bb 4419 d4bd 03a4 413d
00000120: f3f4 74bd c79b 27bd 957b 83bb 8b12 1abe
00000130: 0be6 8c3d c469 2b3e 2a7f a2bb 6f2e 07be
00000140: f2db 173f 82c0 993e b40d 133f 2ede 86be
00000150: 34fa b6bd 4423 ef3e 2350 3ebe 746d c73e
00000160: 00f7 d0be bc58 9cbe da92 363f a2e3 4bbe
00000170: dbee d03e 8299 9abe 232b 143d 118b 2e3e
00000180: 2b02 e43d 4eb1 1dbe ed40 7cbd a02c 5dbc
00000190: e1d6 c03e 982a 89be e757 d7bd a6f4 af3e
000001a0: ba81 043d 63c4 77be 25c7 aa3c 9f9c b23e
000001b0: 1395 273e 819e 163c c884 143f ced4 483e
000001c0: 51fb a63e a5af 043e af19 153e 34b7 143f
000001d0: 7082 cd3e 44d5 7ebe c88b 983e 1a20 43bd
000001e0: 9d52 633e d8d4 ca3c dff4 88be 9600 1dbd
000001f0: c59c a4bc cfe7 c5bc 98d0 69bc 29ed 573c
00000200: 9c70 a73d 6524 93ba 0873 463f 2b99 a93e
00000210: c11d 40be 8ddb 69bd 68a4 173e 296a d03e
00000220: f605 fb3e 53fc b63e 694a 9ebe a45a a7bd
00000230: e4e7 edbd f13e 02bd 48dd 5a3d 8837 163e
00000240: 43e8 b63b 8ba0 0b3e 4bd1 06be ac9a debd
00000250: 0ee6 0abe 7ffb d63c 58b9 e03e 0ae4 fbbe
00000260: 34ca 1c3e 26c8 39bf 4596 ebbc 4565 d9bc
00000270: db5f 023d ba65 293d 5659 383d 42ac 9c3b
00000280: 010d c1be 3621 a73c 791d 06bf c608 d33e
00000290: d904 ad3e 436f 47be a78f 233d b3f8 203e
000002a0: 86f5 143f 248e 7e3e 4e64 043f 08e3 78be
000002b0: 1182 5fbd 142a e6be b840 4abe 3f9d b1bc
000002c0: f0cd ef3d d009 e5bb 2124 89bd 975a 64bc
000002d0: 93a3 f83d 223f 683c eb54 a43c 4bd8 283e
000002e0: ca8d 24bc 2af0 dc3d deeb 59be b7fd f23d
000002f0: 7fb1 7a3e 765b 173c f666 113e 7394 95bd
00000300: 1bb1 593e aef1 0b3e 315e 8dbc 31da 873f
00000310: 41e9 413e 3514 b3bd 9e6a 3b3d 76cf 883d
00000320: 157b a13e fa10 473e a1d2 b4bd 95b5 13bf
00000330: 6345 54bd c1d4 3d3e f578 ebbd 7ce5 333f
00000340: fada f6be 5a04 16be eeb7 01bf 01ad adbe
00000350: d26c a73e 733c 83be 70a0 393d 33e6 133f
00000360: de88 573e df9c 003f c61c 4f3f 3cc8 083e
00000370: f273 67bd 0557 bd3d e408 fdbd bb82 5b3d
00000380: dcf0 a4bc 9827 e2be 6664 e63e fbde 23be
00000390: 3c02 5c3f 209b 7f3d 22fc 81be d04d 823e
000003a0: 1124 4a3e b5fa 673f 0709 853e 53a6 41ba
000003b0: 4b16 633b e4f4 4ebe 5100 99bf 006d 5e3e
000003c0: dd49 933d 9c15 66be 4a0c fd3e 05ca a5bf
000003d0: b401 93be 168d 1cbf b5e5 4f3e 88e9 383e
000003e0: 093e 983e af52 edbc d976 cbbe eadf af3d
000003f0: 312a 913d 6b9a 9bbd 97b7 95bc 7290 503c
-0.12483257 0.19390236 -0.43225664 0.8039673 0.17998248 0.008104045 0.057387214 -0.00779728
0.2712523 0.008956971 0.022500059 0.026418742 -0.015375299 0.06561134 -0.00095813116 0.16454723
0.17853454 -0.6034967 1.3893896 0.346462 -0.3606098 -0.1080241 0.3152988 0.9762075
0.28411764 0.2170624 -0.24160026 -0.848306 -0.031640615 -0.19358498 -0.4368214 -0.28735933
0.50624055 -0.08781242 0.041914277 0.25921822 0.09056226 0.37202767 0.78870165 0.081296295
0.8961848 0.023588534 0.59040594 0.7220188 0.11031953 -0.4461751 -0.042840876 -0.29231027
0.07260492 -0.07196667 -0.65381426 -0.1545459 0.5501359 -0.4864366 0.052946262 0.4150193
-0.050912183 0.460663 0.042441454 0.044518318 -0.87764794 0.1468228 0.27856338 -0.3225672
-0.041963357 0.30530924 -0.000999637 0.19670507 -0.2886894 -0.004066722 -0.103563815 0.047275554
-0.059803914 -0.040920045 -0.004012535 -0.15046136 0.06879815 0.16739565 -0.004959007 -0.13201307
0.59319985 0.30029684 0.57442784 -0.26341385 -0.08934441 0.46706593 -0.18585257 0.38950694
-0.40813446 -0.3053645 0.7131783 -0.19911054 0.40807232 -0.30195242 0.03617395 0.17045237
0.11133226 -0.15399668 -0.061585356 -0.013499409 0.3766394 -0.2679031 -0.10514813 0.3436634
0.03235028 -0.2419601 0.020846913 0.34885117 0.16365461 0.009193064 0.5801511 0.19612429
0.32613614 0.12957628 0.14560579 0.58092046 0.40138578 -0.24886042 0.29794145 -0.047638036
0.22199483 0.024759695 -0.26749322 -0.038330637 -0.020094285 -0.024158387 -0.014270924 0.013179102
0.081757754 -0.0011226056 0.77519274 0.3312467 -0.1876135 -0.057094146 0.1480881 0.40705994
0.49027985 0.35739383 -0.30916145 -0.08171585 -0.11616495 -0.031798307 0.053433686 0.14669621
0.005581887 0.13635461 -0.13165776 -0.10869345 -0.13564321 0.02624297 0.43891406 -0.49197417
0.1531151 -0.7257103 -0.028758178 -0.026537547 0.031829696 0.04135678 0.045007072 0.004781277
-0.37705234 0.020401578 -0.5238872 0.4121763 0.3379276 -0.19476037 0.03993192 0.15719871
0.5818714 0.2485891 0.5171555 -0.24305356 -0.0545674 -0.44953978 -0.1975125 -0.021681426
0.11709201 -0.006989695 -0.06696344 -0.013937614 0.12140574 0.014175208 0.020060023 0.16488759
-0.010043571 0.10787995 -0.21281382 0.118647985 0.24481772 0.009238115 0.14199433 -0.07303705
0.21258967 0.13666412 -0.017256828 1.0613462 0.18936636 -0.087440886 0.045755975 0.06680195
0.31539217 0.1944007 -0.08829237 -0.5769895 -0.051823985 0.1853819 -0.1149768 0.7027204
-0.4821394 -0.14650097 -0.5067128 -0.33921054 0.3270021 -0.25632057 0.04531902 0.5777313
0.21048304 0.50239366 0.8090328 0.13357633 -0.05650706 0.09245113 -0.123552114 0.05359147
-0.020134382 -0.44170833 0.44998473 -0.16003029 0.8594091 0.062403798 -0.25387675 0.2544999
0.1974032 0.90616924 0.2598345 -0.000738715 0.0034650739 -0.20210606 -1.1953222 0.21721268
0.07191823 -0.22469181 0.49423438 -1.2952276 -0.28712237 -0.6115278 0.2030247 0.18057835
0.2973483 -0.02897009 -0.3973911 0.0858763 0.070881255 -0.07597812 -0.018276019 0.012729751

log_std.0.bias f4 [128]
00000000: 2db3 6fbd 2524 74be 74cf 1dbe 1a9a 20be
00000010: f0e8 4ebd 6ce1 50bf 8e55 2bbf 56d4 2fbe
00000020: 3f0a 223e 8c5d 353e e515 14bf 6358 d3be
00000030: 8c58 e1be 7aef d4be ad86 64be 650b 6ebe
00000040: d15f 36bf 3f2a 81bb 2996 89be 61ed 14bf
00000050: eb7f 36bf 23cc 27bf 593a 19be 5dab c7be
00000060: eb3d babe 34bc f7bd f9db 0ebf db14 72bf
00000070: 32c1 e8be 1b56 19bf 3d76 7dba c1e1 32be
00000080: cc88 c0bd 9670 21bf e2af 343e ce95 00bf
00000090: 2129 aabe 7cda 04bf 647e 0abf de93 30bf
000000a0: b83b f5bb 5da8 aabe 3803 17bf 3afc 913e
000000b0: d6a1 08bf 9b0c 37bf c23f 00be 22a7 5dbe
000000c0: 82a4 1abf 18f1 9dbe ea4c 1dbe 943a d0be
000000d0: d578 c1be 9abb fabd 2602 d1be 9b76 12be
000000e0: f7a0 21bd 82c1 dfbe 4f58 2abf f811 02be
000000f0: f785 58bf f3a9 173c 5d78 11bf a609 0fbf
00000100: 20d8 613e a62d 0cbf 144d ffbd 366f 09be
00000110: 5f5a 283e a549 38bf d57e fdbe 5728 c4bc
00000120: 7635 1ebf 52c4 4dbe d49f 3cbe 835e bfbe
00000130: bdcb ccbe 533b d0be b8cd fdbe 3cc3 a7bd
00000140: 7245 b5bc 97e4 033e 5746 4dbe d163 50bf
00000150: 3115 35be 4f94 0bbf 69ab 05bf f258 d7be
00000160: 8079 c9be 8933 a9be d3f6 2cbe e8f9 2cbe
00000170: 3218 47be 3240 7bbf 1dc6 86be c767 a93d
00000180: 65d8 dbbe 7289 9ebe 089f ecbe 8ec3 07bf
00000190: 68b2 a0be 654a dbbd dfff 86be e909 b3be
000001a0: 1967 a0be 29b7 52bd f741 92bd d2de 36bf
000001b0: 900f 1fbe b364 3fbf 389f f83d 9db9 81bf
000001c0: fd94 bcbe 0e8d e9be b5f1 a4be c3e4 83be
000001d0: 6f76 5cbd b6c7 15bf 58c1 4dbe 4044 5fbe
000001e0: 12e4 a3be 23c4 da3e 18a8 033d cb61 8bbe
000001f0: e538 1ebd f134 f1be d35a 95bd 60e6 4dbf
-0.058520485 -0.23841913 -0.15411168 -0.15683785 -0.050515115 -0.81593966 -0.6692742 -0.17170843
0.15824221 0.17711467 -0.5784591 -0.4127837 -0.44012868 -0.41588956 -0.22317 -0.23246534
-0.71239954 -0.0039418037 -0.26872376 -0.5817471 -0.7128894 -0.6554586 -0.14963664 -0.38997927
-0.36375365 -0.12096444 -0.558044 -0.9456307 -0.45459896 -0.5989701 -0.0009668803 -0.17468931
-0.09401092 -0.6306242 0.17645219 -0.50228584 -0.33234504 -0.5189588 -0.54099107 -0.6897563
-0.0074839257 -0.33331576 -0.58989286 0.28512746 -0.5337194 -0.7150361 -0.12524322 -0.21645787
-0.6040727 -0.30848002 -0.15361372 -0.40669692 -0.377875 -0.122428134 -0.40821952 -0.14303057
-0.03946015 -0.43702322 -0.66541 -0.12702167 -0.84579414 0.009256828 -0.56824285 -0.558741
0.22055101 -0.54757154 -0.12465873 -0.1342133 0.16440724 -0.7198737 -0.49510828 -0.023945017
-0.61800325 -0.20094422 -0.18420345 -0.37376794 -0.3999919 -0.4067026 -0.49571013 -0.08191535
-0.02212784 0.12880169 -0.20046364 -0.8140231 -0.17683865 -0.54523176 -0.52214676 -0.42060047
-0.3935051 -0.3304713 -0.16891031 -0.16892207 -0.19442824 -0.9814483 -0.26323023 0.08271747
-0.42938533 -0.30964237 -0.4621508 -0.5303277 -0.31386113 -0.10707549 -0.2636709 -0.34968498
-0.31328657 -0.051444206 -0.07141488 -0.71433747 -0.1553328 -0.7476303 0.121397436 -1.013477
-0.3683242 -0.4561543 -0.32215658 -0.2576047 -0.053823885 -0.5850786 -0.20093286 -0.21803379
-0.3200994 0.42727765 0.03214273 -0.27223048 -0.038628478 -0.47110704 -0.07292714 -0.8042965

log_std.2.weight f4 [1, 128]
00000000: 86cb e1bd 29ed babc eb8a ebbb 91ca d4be
00000010: 6ad0 ee3d 2632 423e c92a 73bd ab7e c5bc
00000020: 506b 52be dafa c0bc 3a69 1abe 0cc4 01bd
00000030: 9627 51be 61fe 0f3d d41e 27ba 80c3 5b3d
00000040: b8d2 45be fe11 19be bdcd 0bbe a52c 723b
00000050: f86c e0bc 3d4e a23b b8d6 9cbd 2726 eb3c
00000060: 4d7e 19bc 72fc 68bb 2362 a73d 88e1 ac3e
00000070: b6c4 b5bc 71fc f1bb 0bc8 02be 03ef 16ba
00000080: e67e 24be 472d f8bd 5bfb e0bd 42d3 96bc
00000090: 2ce2 b1bc 107c 39bd aff3 4e3c 59f7 ce3e
000000a0: 9f67 3ebd 3844 11be 0e76 08be e24b 2ebe
000000b0: 00ec 9fbc c1df 6ebe 6dd2 f23d 65f1 833e
000000c0: b10b cb3e a8b6 d6bd 7338 8fbc 2d62 1cbd
000000d0: c10f 72bd 64af 773b c5ed 633d c8eb 463e
000000e0: cd8a 12bd 956c 94bd 5778 8ebc 8fa6 f2bd
000000f0: d73d ccbd 718b 133b 3d19 d9bd 866d 6c3e
00000100: 188f aebd 6fca 113d ec82 d739 0f17 38bd
00000110: 891e fb3d 1ada 3fbd f89b 98be 1d4a fe38
00000120: 885b b2bc abfc f4bb c9c6 e2bb 4677 19be
00000130: 76c4 48bd ed8f 6ebe 2487 8e3c 0aac 5bbc
00000140: d490 b13e 89de 5d3b dde9 debd 1633 9f3e
00000150: 9f29 943e c91a 1bba 0cbe 423e 8781 b7bc
00000160: 9275 fa37 1f27 303c b618 b13a a24d 4ebd
00000170: 03fe a4bc a9a5 033f 2b3f f0ba 7d19 a4bd
00000180: bc0f f3bc 90bf ad3b 7fa4 5e3e 0cf5 09bc
00000190: 4e76 53bd df6c ce3d 49de d8bd ccc6 8fbc
000001a0: eaed 2cbe 91a8 a0b9 96c5 9d3a 2988 253d
000001b0: e22d fb3a 08fb a43d 1164 c73c 7231 463f
000001c0: 2238 28bc 9795 79bd 47b7 50bb f3ba 85bb
000001d0: 6c34 7fbd 6cb1 293d 988f 2b38 dc0e 48bc
000001e0: c856 a9bc ee72 31be a5f7 6dbe 07c8 7e3b
000001f0: 225c 4fb9 df95 a2bc 7db3 08ba 45cb 1fbe
-0.11025147 -0.022818165 -0.007188191 -0.41560796 0.116608456 0.18964443 -0.059366975 -0.024108252
-0.20548749 -0.023557115 -0.15079203 -0.031681105 -0.20425257 0.035154704 -0.0006375138 0.05365324
-0.19318664 -0.1494827 -0.13652702 0.003695288 -0.02739571 0.0049531744 -0.07658142 0.028704716
-0.009368491 -0.003555086 0.08173015 0.33765817 -0.022188526 -0.0073848297 -0.12771623 -0.00057576614
-0.16064033 -0.12118011 -0.10985442 -0.018411282 -0.021714292 -0.04528433 0.012631341 0.40423086
-0.04648554 -0.1418618 -0.13326284 -0.17021134 -0.019521713 -0.23327543 0.11856542 0.25770107
0.39657357 -0.10484058 -0.017482972 -0.038179565 -0.059097055 0.003779375 0.055646677 0.19425881
-0.035776902 -0.07247273 -0.017391367 -0.11848175 -0.099727325 0.0022513533 -0.10600517 0.23088655
-0.08523387 0.035593446 0.0004110554 -0.044943865 0.122616835 -0.046838857 -0.29806495 0.000121254685
-0.021772161 -0.0074764094 -0.0069206697 -0.14986905 -0.049015485 -0.23297091 0.017398424 -0.0134077165
0.34680808 0.0033854565 -0.1088445 0.31093663 0.28938004 -0.0005916772 0.1901781 -0.02240063
2.985707e-05 0.010751515 0.0013511393 -0.050367005 -0.020140653 0.5142465 -0.0018329372 -0.08012674
-0.029670589 0.005302377 0.21742438 -0.00842024 -0.051626496 0.10079359 -0.105892725 -0.017550848
-0.16887632 -0.0003064317 0.0012037035 0.040413056 0.0019163454 0.08055693 0.024339708 0.774192
-0.010267289 -0.060933676 -0.0031847523 -0.004081124 -0.062305853 0.04142897 4.090331e-05 -0.012210574
-0.020671263 -0.17328998 -0.23239 0.003887655 -0.0001977538 -0.019846855 -0.0005214734 -0.15604885
