HybridLearning-master/data/hlt_stoch/InvertedPendulumBulletEnv/seed_666/policy_final.pt (torch, 10556 bytes, 6 tensors)

mu.0.weight f4 [128, 5]
000000 7a 43 8d 3e 4e bf a6 3e 57 5d db be 28 a0 f4 3f
       0.27590543 0.3256783 -0.4284465 1.9111376
000010 ea d2 19 3e e8 f9 46 3c 85 f4 b3 3c f0 f9 3e 3c
       0.15021864 0.012144543 0.021967182 0.011656269
000020 dc b8 36 bd cc d5 5c 3c ba ce 89 bc 91 ef cf ba
       -0.04460989 0.0134787075 -0.016822208 -0.0015864243
000030 b7 54 69 bb e7 28 18 3c 5e 77 98 bb db 32 64 3e
       -0.0035603472 0.009287096 -0.0046529016 0.22285025
000040 a1 82 f9 bf 76 d7 bd bd 6a 56 c9 be 42 ac 93 3e
       -1.949299 -0.092696115 -0.3932374 0.2884236
000050 6c da 61 bc b1 f5 0a bc 06 1a 9a ba b4 e7 95 3c
       -0.013784986 -0.008481429 -0.0011757023 0.018298961
000060 83 89 51 bc 63 06 55 3e cd 6f 5a 3d 71 af 1a be
       -0.012789133 0.20803218 0.053329278 -0.15105988
000070 e0 98 47 3f 94 58 1c 3e c9 35 f0 3c 16 ac 10 3d
       0.77967644 0.15268165 0.029322522 0.035320364
000080 ad cf f1 bc 5e e4 b4 bd e4 eb c4 3b 20 bf c1 3f
       -0.029517973 -0.0883262 0.0060095657 1.5136452
000090 c5 fd 98 3e 92 21 7b 3d 78 cd 31 c0 14 14 77 3f
       0.2988111 0.061311312 -2.7781658 0.9651501
0000a0 21 6e e5 bc c4 45 00 bd 60 6d 0b 3d 40 02 b5 3d
       -0.028006615 -0.031316534 0.034039855 0.0883832
0000b0 22 b4 f7 ba 18 8e d7 bc f9 89 26 bd d4 4e ed 3c
       -0.0018898288 -0.026312873 -0.040658925 0.028968252
0000c0 24 ff b0 3d d2 2c 26 bc 38 4f 0f 3d 89 f3 b1 3c
       0.08642414 -0.010142522 0.03498766 0.021722572
0000d0 4c fe 5e bd b8 2d e0 bd 1d 82 71 bc 4f 63 6c 3f
       -0.054441735 -0.1094622 -0.014740494 0.9233903
0000e0 de 46 30 3e 37 2b de bd 27 6d 62 3f 55 60 68 bf
       0.17214534 -0.10848086 0.88447803 -0.9077199
0000f0 de 98 50 3f 5c f3 d8 3c 36 e1 6a 3f ac e2 7c 40
       0.81483257 0.02648323 0.91749895 3.951335
000100 e3 84 41 3f b5 8c 7b bd 01 88 c2 3e 3a 42 34 bf
       0.75593394 -0.061413486 0.37994388 -0.70413554
000110 a7 cc 12 bf c1 62 13 be 9b 43 90 be f3 c5 be bc
       -0.57343525 -0.1439314 -0.2817658 -0.023287749
000120 64 c3 99 bd 2d 1a bd be 03 0d 0a 3d 8c bf 2c 3f
       -0.07507971 -0.36934033 0.033703815 0.6747978
000130 8d 4c 4a 3d b0 a6 1a 3e 8e bf bd 3e de e9 0d be
       0.04938941 0.15102649 0.37060207 -0.13858745
000140 6e a1 1e 3d 65 bd 3c 3d a7 1b b5 bc cc c0 9f bd
       0.03872817 0.04607906 -0.022107912 -0.07800445
000150 7f 34 bb 3c ff 93 b3 3c a0 02 20 3d 70 f7 91 bc
       0.02285218 0.021921156 0.039065003 -0.017818183
000160 80 d1 83 bd 20 a6 99 3c 26 23 9d 3f 1c aa 25 be
       -0.06436443 0.018755972 1.2276351 -0.16178173
000170 eb 43 33 3d 56 e5 2f be 9f 48 1c be d4 02 18 bd
       0.043765943 -0.17177328 -0.15262078 -0.037112072
000180 d0 01 15 bd 57 62 c0 3b 0b cc 4c 3d 61 a0 fd bc
       -0.03637868 0.005871098 0.049999278 -0.030960264
000190 5f 61 9a bc 19 10 cf bc ae ad 0d bb 46 78 f9 3c
       -0.018845258 -0.02527623 -0.0021618414 0.030452859
0001a0 15 0c aa bc 10 a8 72 bc 52 9e 0d 3e 0c 6b f0 bc
       -0.020757714 -0.014810577 0.13829926 -0.029347919
0001b0 cd b6 b2 bf 41 da 72 3d cc ba f1 3f 3c 2a 22 3f
       -1.3962036 0.059290174 1.8885131 0.63345695
0001c0 40 59 05 3d d0 c8 64 c0 c7 57 c7 be 34 13 a7 bc
       0.03255582 -3.5747566 -0.38934156 -0.020394899
0001d0 34 ce 74 bc 1b 31 23 bb e7 ee d0 3c dc 14 9a bc
       -0.014941741 -0.0024901095 0.025504543 -0.018808775
0001e0 61 9a ae bb 7d 83 2e 3b 5e 43 98 bb e2 01 4e bb
       -0.005328462 0.0026628666 -0.0046467027 -0.0031434228
0001f0 a7 8b ca b9 dc 35 51 bd 72 c1 41 bd d1 58 c8 3c
       -0.00038632491 -0.051076755 -0.047303624 0.024456413
000200 38 cf a3 3d c8 e0 b0 bc ad 32 89 bd b5 fb 10 bd
       0.07998508 -0.021591559 -0.06699119 -0.035396297
000210 0e 28 94 3b 3c 2e cd 3d 4a 1f 39 bd bb 9a 2e bf
       0.0045213765 0.10018584 -0.045195855 -0.6820485
000220 34 ec a3 be fa 48 ce be fb 8c 33 bf 98 4e 2b 3f
       -0.32016146 -0.40290052 -0.70136994 0.669168
000230 1e e5 90 3c f8 69 f2 3c af 3d 12 bc bd bc b5 bc
       0.017687377 0.029591545 -0.008925839 -0.022184724
000240 aa c3 c5 3c fe f0 f7 bc 0b 29 39 bd 6a 03 8d 3c
       0.024141151 -0.030266281 -0.045205157 0.017213542
000250 7b f0 9d 3d df d6 b8 bc 0c 27 d9 3e 72 08 d3 bd
       0.07711884 -0.022563396 0.42412603 -0.10304345
000260 91 c7 9f bd c1 d7 12 3f d4 fd 80 bd dc 61 87 3f
       -0.07801736 0.57360464 -0.06298414 1.0576739
000270 4f e3 38 bd 23 3a db bd 86 3d 70 3d e6 c5 41 be
       -0.045138653 -0.10704448 0.058652423 -0.18923149
000280 66 52 08 c0 9d ea 90 3d 36 5a 7e 3f 03 41 a3 bf
       -2.1300292 0.07075999 0.993564 -1.2754215
000290 b7 0f da be e2 d2 5f 3d 44 8e 3e 3f 5a fe 6f bf
       -0.42590114 0.054644473 0.7443583 -0.93747485
0002a0 65 4f 0c 3f 9d 4b 5e 3e 6b 38 8b bc 88 cf 90 bc
       0.54808646 0.21708532 -0.016994676 -0.017677084
0002b0 24 b3 0a ba f5 80 a8 3c 2a 37 77 bc 51 07 cd be
       -0.0005290976 0.020569304 -0.015088836 -0.40044644
0002c0 58 58 42 be ff e9 cf bd c8 fe cb be 16 d5 f2 3d
       -0.18979013 -0.10152053 -0.3984282 0.11857049
0002d0 a1 e8 bc bf 22 b3 17 bf 22 07 7d bf 6e 30 c9 be
       -1.4758493 -0.5925771 -0.9883901 -0.3929476
0002e0 90 90 d1 3f 49 54 99 3e 80 6f 82 3e d1 5b 9f be
       1.6372242 0.29947117 0.25475693 -0.31124738
0002f0 51 58 b5 3f 8d af 3b 3e 52 9b 2a be 90 be b2 3e
       1.4167577 0.18328686 -0.16660812 0.34911013
000300 4a f1 35 3f 3e 7a 0b bf 34 e4 a3 3e 49 f4 be bc
       0.710713 -0.544834 0.32010043 -0.023309844
000310 de df 00 bd 38 7f bb 3b e7 dc 22 3d d4 4b ce bc
       -0.031463496 0.0057219528 0.03976145 -0.025182642
000320 1a 9d 3a be 60 10 5a 3d 53 ec 5f 3c db e6 96 bf
       -0.18223992 0.053238273 0.013667184 -1.1789201
000330 87 c4 f2 3d 54 68 bc 3e cf a5 1a bd f8 69 ca 3f
       0.11853891 0.36798346 -0.037755784 1.5813589
000340 01 bc 8b 3e 27 58 2f be dc 92 54 3c 8c ea cd 3c
       0.27291873 -0.17123471 0.012974467 0.025136255
000350 42 71 db bb e7 3d 43 bc ea 9d ad 3c 9b c3 8e be
       -0.006696851 -0.011916614 0.021193463 -0.2788361
000360 85 85 9c 3e 03 75 c9 bf a6 8e 86 3f db bc 26 bf
       0.30570617 -1.5738834 1.0512283 -0.6513192
000370 61 67 95 3d 1a 9a 1d 3e cf 3b 05 be 7c 0e 33 3f
       0.072951086 0.15390816 -0.13011096 0.69943976
000380 7a 66 0e 3e a7 55 c3 be 19 cd 70 be 92 a3 99 bf
       0.13906279 -0.38151285 -0.23515739 -1.2003043
000390 f4 83 a0 c0 37 ab 92 bf 84 74 fb be db 09 c6 bd
       -5.0161076 -1.1458501 -0.49112332 -0.096698485
0003a0 8e 69 ba bd da 98 2c bf 72 b1 e6 3d ed b5 94 3f
       -0.09102164 -0.6742073 0.11264314 1.1618019
0003b0 fc 4a 25 be 88 0f 73 be 9f 46 0f c0 d4 25 c9 bc
       -0.16141886 -0.23736393 -2.2386854 -0.02455417
0003c0 23 e3 c0 bc b1 40 9c bc 99 74 25 3b 1c 43 ca 3c
       -0.023545807 -0.019073816 0.00252465 0.024690203
0003d0 4d 9e ad bc e2 75 78 3c 66 21 d2 3c d7 06 7b 3b
       -0.021193648 0.015164824 0.025650691 0.0038303637
0003e0 2a 32 1e bd 60 ec 87 3c 01 fd 1d bf 9f 6b 54 bd
       -0.03862206 0.016592205 -0.6171418 -0.051860448
0003f0 29 35 ce bd 5d 1b bc be 8d 6a 02 3e 45 e2 c4 3d
       -0.10068733 -0.36739627 0.12735958 0.0961347

mu.0.bias f4 [128]
000000 6b 4b c8 be 90 0b 03 bd 4a e9 ac 3b ab 8e 75 be
       -0.3912004 -0.03199345 0.0052768337 -0.23980205
000010 9d c8 c2 3b ff 36 1b 3e 6c 74 cd 3b 11 7c 0a 3f
       0.005944325 0.15157698 0.006269982 0.5409556
000020 ad 8f 54 bc 07 6b b7 bb 85 f2 0c 3d 09 b9 03 be
       -0.012973708 -0.0055974755 0.034410972 -0.12863554
000030 cc f7 28 bf ed 9a 2c 3f 72 97 b6 3d 8f 17 84 be
       -0.6600311 0.674239 0.08915605 -0.25799224
000040 48 36 81 bb 62 54 50 bb 93 16 16 be 9c 67 62 3c
       -0.0039432384 -0.0031788577 -0.14657049 0.013818648
000050 68 4d 96 3c 41 d7 fc bb bc 3d ac 3f 2a 36 46 3c
       0.018347457 -0.00771609 1.345634 0.012097875
000060 92 9c 83 3b 38 e6 f4 3a 4a bd c2 3c e1 82 75 be
       0.0040164674 0.0018684333 0.0237719 -0.23975708
000070 7b b9 69 bb c7 cf 0d 3c 29 93 69 3d f1 2f 0a be
       -0.0035663533 0.008655495 0.05702511 -0.1349485
000080 80 fb 9a 3f cc 35 56 3f f8 22 39 3c 46 d6 12 3e
       1.2108002 0.8367584 0.011299841 0.14339551
000090 55 8e c2 bf 40 4f b6 3e de 8e 48 bf 47 df 19 3c
       -1.5199686 0.35607338 -0.78343 0.009391612
0000a0 0b 59 40 bd 3e 91 ce 3f 4d 3b 6f bb 9f f2 8f bf
       -0.046959918 1.6138074 -0.0036503852 -1.1245917
0000b0 3f 1f 11 3e 0e 84 66 3f 11 39 20 3e 4b 18 56 bf
       0.14172076 0.9004525 0.15646769 -0.8363082
0000c0 6b 75 ef 3b d0 68 b7 bc ba 36 43 3e 4f d5 6e 3d
       0.0073076985 -0.022388846 0.19063845 0.058308896
0000d0 c9 9a 9f 3a 33 17 dd bb 66 7e 70 ba 11 dc 4a bb
       0.0012176867 -0.0067471503 -0.0009174108 -0.0030953924
0000e0 db 37 c2 3d fe fa 3a bd c1 f4 b7 3e 53 bf 4c bb
       0.0948331 -0.04564952 0.3592892 -0.0031241968
0000f0 14 d1 a1 3d d0 de fa 3c cf 41 da be 89 df 07 bd
       0.079012066 0.030623823 -0.42628333 -0.033172164
000100 74 5e 83 bf 24 3e a5 bb 84 9c 16 bc fe ef a7 bc
       -1.02632 -0.005042808 -0.00919259 -0.02050018
000110 00 9a 24 3b d3 1d 7a bc 6d 57 1f bf ed 3d dd bd
       0.0025116205 -0.0152659 -0.62242776 -0.10802827
000120 88 8d 05 bd 55 b5 0e 3c 7c 43 eb 3b 1f 6a 20 3c
       -0.032605678 0.008710225 0.0071796756 0.009790926
000130 cc b0 8d be d1 d9 a6 3d 4c a5 06 3c ed f9 16 bf
       -0.27673948 0.08147014 0.008218121 -0.58975106
000140 01 06 c2 be df 92 41 be bb f2 0a be a0 03 76 3b
       -0.37895206 -0.18903683 -0.13569157 0.0037538782
000150 4a 43 9c bf 23 5a fb bb 85 c1 19 bf a6 51 a8 bc
       -1.2208035 -0.0076706572 -0.6006091 -0.020546746
000160 67 b9 1b be b2 85 de be f3 37 8a 3b 04 57 21 bf
       -0.15207444 -0.43461376 0.0042180954 -0.630234
000170 6a f8 3c 3f 22 48 49 3e 03 35 91 bb 40 ca 8f be
       0.7381655 0.19656423 -0.0044313683 -0.28083992
000180 ee ff 3d 3f 70 77 04 be f3 59 86 bd 8f 76 22 3e
       0.7421864 -0.12936187 -0.06560125 0.15865539
000190 82 e0 13 bd 69 a8 b4 ba e0 1d c0 3b 01 e2 33 3e
       -0.03610278 -0.00137831 0.0058629364 0.17566682
0001a0 0c 53 77 bd 04 07 1f be a7 e8 22 bb 57 52 04 3f
       -0.060381934 -0.1553002 -0.002485791 0.5168814
0001b0 8a 06 71 3d e4 b2 d0 3f 57 0d be 3d 1d 17 d9 bb
       0.058844127 1.6304593 0.09279888 -0.00662507
0001c0 a1 9c 17 3c 3f 47 58 be 7c 80 15 be de c6 ae bb
       0.009253652 -0.21120928 -0.14599794 -0.0053337654
0001d0 ac 4c dd 3e 1e 96 6c 3e 02 2f 32 bd a0 42 55 be
       0.43222558 0.2310414 -0.04350186 -0.20826197
0001e0 dc e2 c2 3b d9 2a 45 3e 47 71 77 3c 3e 47 c2 3e
       0.005947454 0.19254626 0.015102691 0.37944978
0001f0 27 16 22 3f ae 7c 78 3f 96 2c 7d 3c e3 3b dd be
       0.6331505 0.97065246 0.015452525 -0.43209752

mu.2.weight f4 [1, 128]
000000 55 be 2a 3e 78 e4 1c 3c a3 a3 1a 3b 67 d1 95 3e
       0.16674168 0.009575956 0.002359607 0.29261324
000010 da 38 ce ba 1d 87 28 3c 69 4d 4a 3b a8 5d 94 be
       -0.0015733496 0.01028612 0.0030868894 -0.28977704
000020 6f fe 93 ba 0c 67 91 bb 94 f3 98 bb 69 ec 85 be
       -0.0011291037 -0.004437333 -0.0046677087 -0.2615693
000030 49 0c 91 3f f3 a3 7e 3e bb de 5b 3c 91 00 d5 bd
       1.1331874 0.24867229 0.013419802 -0.10400499
000040 04 84 08 3c b1 3c fc 3b ff 54 d7 bd 49 f2 09 bc
       0.008332256 0.0076976647 -0.105142586 -0.008419582
000050 31 7b 1f bc 8d 10 00 3e 42 23 e9 be d0 d8 84 bb
       -0.009733961 0.12506314 -0.45534712 -0.0040541664
000060 80 df 60 3a 58 cf a7 bb ca 55 93 bb ca ce 90 3e
       0.0008578226 -0.005121153 -0.004496311 0.28282768
000070 5e 38 1e 3c fa bf 1d bc 0e e8 66 bc bb 85 1d be
       0.009656994 -0.00962829 -0.014093412 -0.15383045
000080 14 92 dc 3e 2e b6 a3 be ef b0 c8 bb 00 c2 3f 3d
       0.430802 -0.3197493 -0.0061246078 0.046815872
000090 3a e6 90 3e 3c b5 ab bd 67 ef 28 be ec 4a e0 bb
       0.2830065 -0.08384177 -0.16497575 -0.006844869
0000a0 21 c9 80 3d 97 e7 80 bf 80 8a 02 3c e7 38 0b bf
       0.06288362 -1.0070676 0.007967591 -0.543837
0000b0 c6 c9 22 3c a0 b5 e3 be 53 80 a3 3d 2a 65 3b 3f
       0.009935802 -0.44474506 0.0798346 0.7320124
0000c0 41 d0 87 bb 96 14 33 3c 2e 99 99 3d e4 3f fa ba
       -0.004144699 0.010930201 0.0749992 -0.0019092527
0000d0 29 6d 94 3b 0c 9b df 3b 79 be 9b bb 56 36 c0 bb
       0.0045296145 0.006823903 -0.0047529307 -0.0058658523
0000e0 54 f4 12 3f 95 0b b6 bb 5d 95 84 bd c6 2a bc 3b
       0.57404065 -0.00555558 -0.06473801 0.0057424037
0000f0 a5 0f 5d ba 52 43 3a bc 49 bc 1f 3e 44 59 cc 3b
       -0.0008432812 -0.0113685895 0.15599169 0.006236227
000100 43 cd 1d be 78 3e 77 bb c7 ca 25 bb d0 4c 32 3c
       -0.15410332 -0.0037726443 -0.0025297867 0.010882571
000110 7f e8 c5 bb 92 a9 1d 3c 2a 25 9a bd 98 0f 0e bd
       -0.0060396786 0.009622948 -0.0752662 -0.03468284
000120 57 c4 2d bc 7c fa 34 bc 7e c7 1f 3e cc 63 07 bc
       -0.010605893 -0.011046048 0.15603444 -0.0082635395
000130 99 ff 80 3b a5 02 c5 bb 74 21 7b bb 45 7f 7d be
       0.0039367196 -0.006012278 -0.00383195 -0.2475558
000140 da c1 b3 bd c8 e1 59 3d 8d fb 88 bd 08 a5 02 bc
       -0.087772086 0.053193837 -0.066886045 -0.007973917
000150 ec e5 a1 bf b9 26 2f bb 10 33 0e 3e d2 b9 3d 3c
       -1.2648292 -0.0026725961 0.13886666 0.011579948
000160 13 b8 08 bc d8 49 a8 3d 69 fc ff bb 83 3b 7d bf
       -0.008344668 0.082172096 -0.007812072 -0.9891893
000170 09 ae 5f be c0 12 95 3b 98 c0 92 bb 87 55 b2 bc
       -0.21843733 0.0045493543 -0.0044785254 -0.021769298
000180 30 56 b2 3e f4 9c 34 3c fe 34 61 bb 13 84 05 3e
       0.3483138 0.011023749 -0.0034363861 0.13038664
000190 95 c8 18 bd a3 4f d5 bb fc 4f 02 bc e4 58 05 3e
       -0.037300665 -0.0065097376 -0.00795364 0.1302219
0001a0 8e e8 0d 3e 08 61 bf bd 4d 48 f5 3b 3f 2f 0d be
       0.13858244 -0.09344679 0.0074854256 -0.13787554
0001b0 1d 97 e3 bc 19 bb b3 bf 58 a7 8f 3c 53 63 4e bb
       -0.027782017 -1.4041473 0.01753585 -0.0031492307
0001c0 7d bd 24 bc be 66 e4 be e1 25 ee bc b1 d1 29 3c
       -0.010054943 -0.44609636 -0.029070796 0.010364936
0001d0 6e 39 ae 3e 69 a9 e1 be 19 68 9f 3b e9 08 11 be
       0.3402819 -0.44074562 0.0048647043 -0.14163555
0001e0 f2 f7 6c bb 28 8e 86 bd 9f 2e 3f ba 2a 79 0c 3d
       -0.003615853 -0.06570083 -0.0007293019 0.03429524
0001f0 0d f1 cb be 0c 9f e6 be 1f 78 1b bc 64 24 0f bd
       -0.39832345 -0.45043218 -0.009489088 -0.034946814

log_std.0.weight f4 [128, 5]
000000 19 09 4f be d4 ad 0b 3e 8d 99 d3 be fe fc 4f 3f
       -0.20218314 0.13640529 -0.41328087 0.8124541
000010 84 91 26 3e 59 be f2 3c 2a 97 a8 3d 16 f7 ee 3c
       0.16266447 0.02963178 0.08231957 0.029170554
000020 3f 6c 8d 3e a9 a1 a8 3c 0b 52 b8 3c 1e 6c d8 3c
       0.27621648 0.020584898 0.022500059 0.026418742
000030 ae e8 7b bc 3d 5f 86 3d 18 2b 7b ba 69 7a 9e 3c
       -0.015375299 0.06561134 -0.00095813116 0.01934548
000040 28 22 d1 3d d3 66 1d bf 53 4b bd 3f 7e 79 a8 3e
       0.10211593 -0.6148502 1.4788612 0.3290519
000050 ac f8 92 be f4 26 2a be 53 f7 2d 3e 69 2d 83 3f
       -0.28705347 -0.16616422 0.16988878 1.0248233
000060 13 e7 79 3e 01 41 fa 3d 59 12 8f be 83 0b 49 bf
       0.24404554 0.1221943 -0.27943686 -0.7853319
000070 12 d0 ab 3d 0e 12 51 be 88 16 dd be 2d fc 9f be
       0.08389296 -0.20417044 -0.43181252 -0.31247082
000080 4b 84 af 3e d5 15 b3 3b 6b 5e 4c 3a 94 fe 6d 3e
       0.3428062 0.005465249 0.0007796052 0.23241645
000090 60 bc f0 3d 28 39 a5 3e 1d 12 3e 3f 41 b7 27 3d
       0.1175468 0.3227017 0.7424639 0.04094625
0000a0 f1 b9 5a 3f 59 36 0e 3d 1f 00 24 3f 67 04 2e 3f
       0.85439974 0.0347198 0.64062685 0.6797547
0000b0 11 20 e8 3d 05 3e af be 79 b3 14 bc b6 d0 b4 be
       0.11334241 -0.34227005 -0.009075993 -0.35315484
0000c0 5f 34 0e 3d ad 74 69 bd 9d 27 22 bf 60 eb 17 be
       0.034717914 -0.056996036 -0.63341695 -0.14835882
0000d0 95 7b e9 3e 7b fd 18 bf 24 f3 60 3d a9 41 aa 3e
       0.45602098 -0.5976178 0.054919377 0.3325322
0000e0 9d ae fe bd 5f 30 e8 3e d3 ed 71 3c 45 57 75 3c
       -0.124356486 0.45349404 0.014766174 0.01497442
0000f0 f1 69 4f bf 86 82 0d 3e 77 88 9d 3e 12 3a b7 be
       -0.8102103 0.13819322 0.30768177 -0.35786492
000100 d8 73 4b bc 6a 21 70 3e 09 ba 9f 3d 74 c9 0e 3e
       -0.012417756 0.23450246 0.07799155 0.13944036
000110 c3 59 96 be 20 b2 d1 bc 44 19 d4 bd 03 a4 41 3d
       -0.29365358 -0.025597632 -0.103563815 0.047275554
000120 f3 f4 74 bd c7 9b 27 bd 95 7b 83 bb 0a 83 00 be
       -0.059803914 -0.040920045 -0.004012535 -0.12549987
000130 5f 78 a2 3c f3 67 19 3e 58 af 20 bd 7e bb 41 bc
       0.019832788 0.1498106 -0.03922972 -0.011824487
000140 85 0b 21 3f 60 e3 94 3e 9d 75 0a 3f 4d a2 e6 be
       0.629082 0.29079723 0.54085714 -0.450457
000150 7a c3 97 bd 3d 25 01 3f 25 fa b9 bb 40 40 f2 3e
       -0.07410331 0.50447446 -0.0056755715 0.47314644
000160 12 aa 1c bf 64 bc 88 be d5 83 2c 3f b1 a1 43 be
       -0.61197007 -0.2670623 0.6738866 -0.19104649
000170 03 b7 cd 3e 54 4b ae be 94 6e b0 bc 11 8b 2e 3e
       0.4017869 -0.34041846 -0.021537103 0.17045237
000180 2b 02 e4 3d 4e b1 1d be ed 40 7c bd a0 2c 5d bc
       0.11133226 -0.15399668 -0.061585356 -0.013499409
000190 ab af c4 3e 95 74 a2 be 90 11 c9 bd 91 37 b9 3e
       0.38415274 -0.3172957 -0.09817803 0.36175206
0001a0 15 5c 85 3d 04 c4 77 be 48 cc aa 3c fe 9b b2 3e
       0.06511704 -0.24195868 0.020849362 0.34884638
0001b0 4b 92 27 3e 8c 51 16 3c 72 14 fb 3e 41 00 36 3e
       0.163644 0.009174716 0.49039036 0.17773534
0001c0 4c 2f c3 3e fd 87 a2 3d 1b d5 04 3e c8 59 16 3f
       0.38122022 0.07936094 0.12971918 0.58730745
0001d0 55 40 ca 3e df b7 3d be 80 a6 8a 3e 17 fe 12 bc
       0.39502206 -0.18527173 0.27080154 -0.008971713
0001e0 8b f6 2e 3e d0 08 46 3c 91 b0 60 be 07 a7 d4 bc
       0.17086236 0.012087062 -0.21942355 -0.025958551
0001f0 e6 f9 ff bb fc 87 1f bd 5e 7d 85 bb 50 04 08 3c
       -0.0078117726 -0.038948044 -0.004073783 0.008301809
000200 48 d3 8a 3d ad 8c 34 3b aa 0c 42 3f 20 6c 73 3e
       0.0677858 0.002754967 0.75800574 0.23771715
000210 2f 21 30 be 7f d0 a1 bc 8e 62 e8 3d 5a 59 38 3e
       -0.17200159 -0.019752739 0.11346923 0.18002835
000220 db 5b 1a 3f 3c bf 10 3f a5 cd e8 be 71 3a 59 3c
       0.6029641 0.565418 -0.45469394 0.013258562
000230 c8 e7 ed bd 8f 3e 02 bd db dc 5a 3d 7e 37 16 3e
       -0.116164744 -0.03179794 0.05343328 0.14669606
000240 2d e5 b6 3b 7a 8c 06 3e 64 cc 05 be 94 3f c6 bd
       0.005581519 0.13139525 -0.1306625 -0.09680095
000250 41 4d 09 be b1 95 82 3b d1 8e d9 3e 78 41 ca be
       -0.13408376 0.0039851298 0.42491773 -0.39503074
000260 dd a8 f1 3d 29 85 54 bf 43 32 13 be 45 65 d9 bc
       0.11799786 -0.83015686 -0.14374642 -0.026537547
000270 db 5f 02 3d ba 65 29 3d 56 59 38 3d 42 ac 9c 3b
       0.031829696 0.04135678 0.045007072 0.004781277
000280 77 e4 e8 be e8 c7 97 bd e4 d4 18 bf 17 9f ec 3e
       -0.45486805 -0.07411176 -0.59699845 0.46215126
000290 02 30 9d 3e b1 0a 42 be d3 4c 11 3c cb b7 05 3e
       0.3070069 -0.18949391 0.008868414 0.13058393
0002a0 f9 fc 20 3f 74 c6 6a 3e 52 5a bc 3e 63 37 88 be
       0.62886006 0.22927266 0.3678766 -0.26604757
0002b0 01 68 a2 3c b7 cc 0d bf fb 4b 46 be 3f 9d b1 bc
       0.019824984 -0.55390495 -0.19364922 -0.021681426
0002c0 f0 cd ef 3d d0 09 e5 bb 21 24 89 bd 97 5a 64 bc
       0.11709201 -0.006989695 -0.06696344 -0.013937614
0002d0 9b 58 f5 3d c2 07 4e 3c e6 f9 a9 3c 3a 76 25 3e
       0.11979791 0.012575092 0.020749044 0.16158381
0002e0 9c 03 bb bb 85 35 8b bc f2 93 79 be a6 54 d4 3d
       -0.0057072174 -0.016993294 -0.24372843 0.10367708
0002f0 9a 52 78 3e 76 56 87 3c 15 67 11 3e 3b 8f 95 bd
       0.2425026 0.01652072 0.14199479 -0.0730271
000300 75 af 59 3e d4 f1 0b 3e 02 62 8d bc a0 80 86 3f
       0.21258338 0.13666469 -0.017258648 1.0508003
000310 a5 f2 51 3e fe b5 ad bd ba b4 a3 3d d3 60 8e 3d
       0.20502718 -0.08481978 0.07993455 0.069520615
000320 cd 51 9d 3e 58 22 1b 3e c3 e2 2b be 12 96 1d bf
       0.30726472 0.1514982 -0.16785721 -0.61557114
000330 c1 ae 30 3c b0 04 81 3e 92 da 42 3c 57 22 3e 3f
       0.010783852 0.2519889 0.011892932 0.7427115
000340 34 69 3a bf dd ba fe bd 25 5c 19 bf 4a 41 af be
       -0.7281678 -0.12437985 -0.59906226 -0.342295
000350 8f e0 28 3e 99 a3 4b be e3 6c 6d 3c 5c dd 0b 3f
       0.16491912 -0.19886626 0.014491293 0.5463464
000360 3f 80 60 3e ea cc 08 3f 97 d2 58 3f e9 5a ab 3d
       0.21923922 0.53437674 0.84696335 0.08366949
000370 f2 73 67 bd 05 57 bd 3d e4 08 fd bd bb 82 5b 3d
       -0.05650706 0.09245113 -0.123552114 0.05359147
000380 dc f0 a4 bc cc cd e4 be 33 6a 09 3f a9 62 33 be
       -0.020134382 -0.4468826 0.5367767 -0.17518105
000390 69 34 64 3f 36 f8 6f 3d 79 fc 51 be 6b 95 eb 3d
       0.8914247 0.05858632 -0.20506467 0.115031086
0003a0 62 cc b2 3d 7b c2 77 3f 03 5a 86 3e 1f 93 f0 3c
       0.08730389 0.9678113 0.26240548 0.029367028
0003b0 57 e1 25 bd ff 7d 1d be 46 05 95 bf 9b fc 1f 3e
       -0.040498104 -0.15380095 -1.1642234 0.15623705
0003c0 d0 5e c8 bd 3a a4 a4 bc d3 c9 26 3f 26 af a3 bf
       -0.09783709 -0.02009784 0.6515171 -1.2787826
0003d0 e8 d8 a7 be 27 e5 f1 be 9b a4 41 3e 46 f5 ee 3d
       -0.32782674 -0.47245142 0.18910448 0.11667876
0003e0 8b 1b b8 3e 1f 25 36 3d dd 0d 9a be 43 34 11 3d
       0.35958514 0.044468995 -0.30088702 0.03545023
0003f0 11 9b 87 3d 50 40 b0 bd 67 6d 5d bc 61 27 0c bd
       0.066213734 -0.08606017 -0.013514853 -0.034217242

log_std.0.bias f4 [128]
000000 af 0c c5 bd 7f 1d a1 be 74 cf 1d be 01 21 22 be
       -0.0962156 -0.31467816 -0.15411168 -0.15832902
000010 bd 79 4f be 8f c4 4f bf f2 81 48 bf b9 00 60 be
       -0.20261283 -0.811593 -0.7832328 -0.21875276
000020 2a e9 60 3e d1 b2 d7 3d e7 ef 25 bf 2f 5f d9 be
       0.21963945 0.105321534 -0.64819187 -0.42455432
000030 e5 60 dd be 63 f3 ee be ad 86 64 be 6b 07 c9 be
       -0.43237987 -0.46670064 -0.22317 -0.39263472
000040 fd 86 30 bf 04 23 8a 3d c1 ad 88 be 61 ed 14 bf
       -0.68955976 0.0674496 -0.26695064 -0.5817471
000050 bd 98 2f bf 8e cc 27 bf e0 cc 08 be 00 df c2 be
       -0.68592435 -0.655465 -0.13359404 -0.3806076
000060 f3 b9 d8 be 43 19 0b be a7 2d 1c bf ae 36 56 bf
       -0.42329368 -0.13583855 -0.6100716 -0.83677185
000070 39 c1 e8 be b7 1e 1c bf 64 d5 96 bd c1 e1 32 be
       -0.45459917 -0.6098437 -0.0736492 -0.17468931
000080 dc 20 04 be 5f 1f 25 bf 91 5a 80 3e ce 95 00 bf
       -0.1290316 -0.64500993 0.25069097 -0.50228584
000090 8f 24 ab be 93 63 14 bf bb 7e 0a bf 98 0b 3a bf
       -0.3342633 -0.5796444 -0.54099625 -0.7267394
0000a0 31 ab 0a 3d 3f 78 89 be 30 43 40 bf bb 30 b0 3e
       0.033854667 -0.26849553 -0.7510252 0.34412178
0000b0 d6 a1 08 bf 1b 61 39 bf 2e 4f 75 be 19 02 81 be
       -0.5337194 -0.72413796 -0.23955986 -0.25196913
0000c0 ff f6 0b bf dc e9 c8 be 07 73 5b be 35 99 cf be
       -0.5467376 -0.3924092 -0.21430598 -0.40546575
0000d0 4a 53 c8 be e1 0c 00 be 51 d1 06 bf b8 ef 68 be
       -0.39126045 -0.12504913 -0.5266314 -0.22747695
0000e0 dd aa bf bd e1 b3 e4 be 4f 58 2a bf 20 58 a6 bd
       -0.093587615 -0.44668487 -0.66541 -0.08122277
0000f0 b0 cb 60 bf 06 15 0d bd 40 b3 31 bf b3 df 23 bf
       -0.878108 -0.034443878 -0.6941414 -0.6401321
000100 6d 5a 89 3e 69 31 24 bf 14 4d ff bd 8b 7d 1c be
       0.26826802 -0.64137894 -0.12465873 -0.15282266
000110 ca cc 49 3d bd 1d 4c bf 73 c0 b8 be 40 ac 1a bd
       0.049267568 -0.79732877 -0.36084327 -0.037761927
000120 1c f5 26 bf ff 4c 5c be d4 9f 3c be ee 1d d5 be
       -0.6521776 -0.21513747 -0.18420345 -0.41624397
000130 bd cb cc be 21 3f df be 79 e2 1d bf 4c 70 ef bd
       -0.3999919 -0.4360285 -0.61673695 -0.11691341
000140 e5 84 c6 bd 28 4a e6 3c 69 a1 28 be 40 d7 72 bf
       -0.09693316 0.028111532 -0.16467823 -0.94859695
000150 ae 7b 4e be 37 c0 0e bf fa c6 0c bf bd a0 d8 be
       -0.20164368 -0.55762047 -0.54991114 -0.42310134
000160 80 79 c9 be f5 db cc be 4b 09 77 be ac 20 78 be
       -0.3935051 -0.40011564 -0.24124639 -0.24231213
000170 ad 34 4c be 73 e2 7a bf 1d c6 86 be 40 60 98 3d
       -0.19941969 -0.98001784 -0.26323023 0.07440233
000180 65 d8 db be 72 89 9e be 13 6f df be 8e c3 07 bf
       -0.42938533 -0.30964237 -0.4363943 -0.5303277
000190 5d 52 b0 be fb 94 62 be c4 fb ac be 29 c9 d4 be
       -0.34437838 -0.22127144 -0.33785832 -0.41559723
0001a0 0e 30 af be 0b 05 28 be f7 41 92 bd 34 96 3d bf
       -0.3421635 -0.16408174 -0.07141488 -0.74057317
0001b0 00 c4 38 be 21 2a 37 bf e6 51 90 3d 33 46 8c bf
       -0.18043518 -0.7154866 0.07046871 -1.0958923
0001c0 fd 94 bc be 70 74 04 bf 0b b8 cc be c3 e4 83 be
       -0.3683242 -0.5174017 -0.39984164 -0.2576047
0001d0 09 27 01 be 2c 42 14 bf 54 1b 9c be 8d b3 60 be
       -0.12612547 -0.5791347 -0.304896 -0.21943493
0001e0 5f ee 98 be 2a 86 06 3f aa 2e e1 3d 46 22 92 be
       -0.29869363 0.5254847 0.109952286 -0.28541774
0001f0 fb dc 53 be 15 2b 14 bf c4 bb 96 bd 74 04 67 bf
       -0.20689766 -0.5787824 -0.07360032 -0.9024117

log_std.2.weight f4 [1, 128]
000000 f3 7c c8 bd 3c 36 67 bb eb 8a eb bb 28 8b d3 be
       -0.09789457 -0.003528013 -0.007188191 -0.41317105
000010 f0 53 85 3d 69 46 13 3e c4 81 95 bd cb 2b 48 bc
       0.065101504 0.14382328 -0.073001415 -0.012217472
000020 2b b4 69 be 54 92 17 bd 13 aa d4 bd dc 09 d6 3c
       -0.22822635 -0.037004784 -0.103840016 0.026127748
000030 df b3 f1 3a 36 35 e7 3b d4 1e 27 ba 57 f5 9a bc
       0.0018440447 0.007055904 -0.0006375138 -0.018915815
000040 ec dc 02 be 44 f8 46 be 4b ff 31 bd a5 2c 72 3b
       -0.12779588 -0.19430643 -0.043456357 0.003695288
000050 b5 04 6e bd 51 42 a2 3b 75 27 88 bd 1d 9a cd bc
       -0.058109958 0.004951753 -0.06648151 -0.025097901
000060 5e c3 2e bc 2d b7 54 bb 9b d8 01 3d 57 88 ae 3e
       -0.010666696 -0.0032457814 0.03170071 0.34088394
000070 a3 c4 b5 bc b7 d7 c6 bb 48 bb e7 bd 03 ef 16 ba
       -0.02218849 -0.0060681957 -0.11315018 -0.00057576614
000080 bc bc 30 be 18 c2 c0 bd 22 b2 e2 bd 42 d3 96 bc
       -0.17259496 -0.094120204 -0.110691324 -0.018411282
000090 ef b9 b0 bc 6e 35 65 bd bc f2 4e 3c bb 76 c2 3e
       -0.021573035 -0.055959158 0.012631115 0.3798121
0000a0 89 bc 99 bd f2 72 36 be 7c 05 6b be a4 bf 47 be
       -0.07506663 -0.17817286 -0.22951311 -0.19506699
0000b0 00 ec 9f bc 4a f8 94 be 24 b0 eb 3d 32 be 34 3e
       -0.019521713 -0.2909568 0.115082055 0.17650679
0000c0 90 56 d9 3e f5 7f cd bb 3a ce 79 3c 7d 54 75 bd
       0.42448854 -0.006271357 0.015246922 -0.059895027
0000d0 b8 3f e2 3c f1 a0 05 bd 81 51 52 3d a2 77 38 3e
       0.027618274 -0.03262419 0.05134726 0.18014386
0000e0 6b 70 9a bc 1c f6 68 bd 57 78 8e bc 53 6b 23 be
       -0.018852433 -0.056875333 -0.017391367 -0.1595891
0000f0 24 0f 80 bd 58 bd d2 ba f6 f7 08 be 9d ea 45 3e
       -0.06252888 -0.0016078157 -0.1337584 0.19327779
000100 c0 3c 02 be cb 69 9d 3d ec 82 d7 39 41 4e 14 3d
       -0.12718487 0.07686194 0.0004110554 0.03620744
000110 c6 c5 f1 3d 18 a0 8f bd 8d 77 9b be 14 9e 0a ba
       0.118053004 -0.07012957 -0.30364648 -0.00052878377
000120 4c 3e c3 3b 43 95 94 b9 c9 c6 e2 bb 4e ea 33 be
       0.005958354 -0.00028339968 -0.0069206697 -0.17569849
000130 76 c4 48 bd 2d da 16 be e6 6b f3 bc 6b ae 90 bb
       -0.049015485 -0.14731665 -0.029714536 -0.0044153235
000140 4c 5e b8 3e db 08 42 bc c9 af 0d be 45 46 7d 3e
       0.36009443 -0.011842932 -0.13836588 0.24733837
000150 be 75 5f 3e 41 ac ac ba b0 31 f3 3d bd e3 b6 bc
       0.21822259 -0.0013173894 0.118747115 -0.022325391
000160 92 75 fa 37 64 37 bd bc 2c 6a 92 bc 9c e9 0f bd
       2.985707e-05 -0.023097701 -0.017872892 -0.035134897
000170 e3 53 08 bd 63 9c 0a 3f 2b 3f f0 ba 51 ab ce bd
       -0.033283126 0.5414488 -0.0018329372 -0.1009127
000180 bc 0f f3 bc 90 bf ad 3b 82 89 72 3e 0c f5 09 bc
       -0.029670589 0.005302377 0.23685268 -0.00842024
000190 5b 08 ca bd 0e 1b 40 3d 68 67 2c bd 27 6d 96 3c
       -0.09864875 0.0469008 -0.042090803 0.018362595
0001a0 2c c4 c7 bd 1c 08 4c 3c 96 c5 9d 3a 03 91 ac 3d
       -0.09754214 0.012453105 0.0012037035 0.08426096
0001b0 6d 29 6e 39 26 ea 1f 3e e9 a0 48 3c 67 17 40 3f
       0.00022712881 0.15616664 0.012245395 0.7503571
0001c0 22 38 28 bc 09 73 c0 3a f1 bd 4b 3a f3 ba 85 bb
       -0.010267289 0.0014682721 0.0007772139 -0.004081124
0001d0 d7 3a 01 be 63 74 87 3d 81 ef 11 bc 89 f0 47 bc
       -0.12620102 0.06613996 -0.0089072 -0.012203344
0001e0 be 45 d9 bd e0 bf 7d be b1 94 81 be b5 08 f0 bb
       -0.106090054 -0.24780226 -0.25308755 -0.0073252567
0001f0 fc 41 90 bc 89 9d 4f 3d 38 c4 e8 b9 05 eb 05 be
       -0.017609589 0.050687347 -0.00044396683 -0.13077934
