HybridLearning-master/data/hlt_stoch/InvertedPendulumBulletEnv/seed_666/policy_4000.pt (torch, 10544 bytes, 6 tensors)

mu.0.weight f4 [128, 5]
0	0x3e4f37c8	0.20236123
1	0x3e32e674	0.17470723
2	0xbec2cbf6	-0.38046235
3	0x3fd625d4	1.6730294
4	0x3e81bfd4	0.25341666
5	0x3e7a8408	0.24464428
6	0x3cbd9086	0.023140203
7	0x3d0d4216	0.034486853
8	0xbf047806	-0.5174564
9	0xbdd57561	-0.10422779
10	0xba4a378b	-0.0007713965
11	0x3a04fba2	0.00050728966
12	0x3cc0b1d2	0.023522291
13	0x3a530960	0.0008050408
14	0x3a38308c	0.0007026277
15	0xbf006596	-0.5015501
16	0xbedd5a56	-0.43232983
17	0x3e591857	0.21200691
18	0xbecd34af	-0.40079257
19	0x3f2b74e3	0.6697523
20	0x3bb87f51	0.0056304117
21	0x3c0f554f	0.0087483665
22	0xbcb73c08	-0.022367492
23	0x3d4fa81f	0.050697442
24	0x3ab45111	0.001375707
25	0x3e8e8185	0.2783319
26	0xbd8242a3	-0.06360366
27	0xbe341803	-0.17587285
28	0x3f72c284	0.9482806
29	0x3e38813a	0.18018046
30	0x3c884584	0.01663471
31	0xbc1ca3bb	-0.009560521
32	0x3ac8a10d	0.0015306786
33	0x3bbd9186	0.00578517
34	0xba9f08fe	-0.0012133417
35	0x3ece7020	0.4031992
36	0x3c2f48f2	0.010698544
37	0xbc662d0e	-0.014048828
38	0xbefafeed	-0.49022618
39	0x3ec63999	0.3871582
40	0xbd109001	-0.035293583
41	0x3c222a9a	0.009897852
42	0x3c911a23	0.017712658
43	0xb9ed4368	-0.00045254384
44	0x3c09564e	0.008382393
45	0x3e35a059	0.17736949
46	0x3d310e7e	0.04322671
47	0x3d07b29c	0.03312932
48	0x3e2be69b	0.16787188
49	0xbc52c9ff	-0.012865542
50	0xbefeda06	-0.49775714
51	0x3ccfd0e7	0.025368167
52	0xbe020f2b	-0.12701099
53	0x3dff6b3a	0.12471624
54	0x3d639b24	0.055567876
55	0x3f35848f	0.70905393
56	0x3ecba6a1	0.39775565
57	0xbe7cc5b2	-0.2468479
58	0x3f66ac73	0.90106887
59	0xbf3df90a	-0.7420813
60	0x3f3fc0a6	0.74903333
61	0x3eacded9	0.3376377
62	0x3f527c8b	0.8222129
63	0x4071248b	3.7678554
64	0x3f28baa1	0.65909773
65	0x3e947f75	0.29003492
66	0x3e7f94e0	0.24959135
67	0xbf06bec3	-0.5263483
68	0xbefe0f8d	-0.4962124
69	0xbe7e51af	-0.24835847
70	0xbeb51617	-0.35368416
71	0xbdba0dc6	-0.09084658
72	0x3d3557e8	0.044273287
73	0xbeb45696	-0.3522231
74	0x3d45f800	0.048332214
75	0x3f24e22b	0.64407605
76	0x3de1f891	0.110337384
77	0x3de46dad	0.111537315
78	0x3e111363	0.14167552
79	0xbd4608ce	-0.04834824
80	0x3d48b78a	0.04900316
81	0x3cb6ce19	0.022315072
82	0xbc64d6f7	-0.013967267
83	0x3db59b19	0.08867473
84	0xbb94acf2	-0.0045372183
85	0x3d36631e	0.04452812
86	0xbc90252d	-0.017595852
87	0xbcb3a469	-0.021928983
88	0xbc2f58d2	-0.010702329
89	0xbbfdbb51	-0.007743277
90	0x3f58812d	0.84572107
91	0xbdff3845	-0.124619044
92	0x3e613ca9	0.21995796
93	0xbec56dc7	-0.38560316
94	0xbd86ef7c	-0.06588647
95	0x3d351a54	0.04421456
96	0xbb3b8703	-0.0028614409
97	0x3dc5dbc4	0.096610576
98	0xbe512028	-0.20422423
99	0xbcb63a37	-0.022244556
100	0x3c8cdedb	0.01719611
101	0x3be61eb6	0.007022704
102	0x3d2c9536	0.042134486
103	0x3cb87d8a	0.0225208
104	0xbb109383	-0.002206058
105	0x3dc70e18	0.09719485
106	0x3e4b58a2	0.1985803
107	0x3db48a2c	0.08815417
108	0xbfaff6ff	-1.3747252
109	0x3e1c12f5	0.15241607
110	0x3f964d78	1.1742392
111	0x3e9abe7a	0.30223447
112	0x3e6194e9	0.22029461
113	0xc00c34de	-2.1907268
114	0xbea9be29	-0.33152893
115	0x3d1a7758	0.03771147
116	0x3c9f31ce	0.019432928
117	0xbce80753	-0.028323805
118	0x3db1a381	0.08673764
119	0xbb353f65	-0.0027656194
120	0x3c61b7c6	0.013776725
121	0x3d4fc645	0.050726194
122	0xbc2e96e0	-0.010656089
123	0xbe9ff0ab	-0.31238303
124	0xbd057a8f	-0.032587584
125	0x3dedfb4f	0.11620199
126	0x3c86b6ca	0.016444582
127	0x3e35b291	0.17743899
128	0xbed67177	-0.41883442
129	0xbd817e6b	-0.063229404
130	0xbea2ba9d	-0.31783
131	0xbe38d994	-0.1805175
132	0x3daf9526	0.0857337
133	0xbee11f39	-0.43969133
134	0x395dadc7	0.0002114094
135	0xbf1d3da2	-0.6142217
136	0xbe6ed6aa	-0.23324075
137	0xbe1096e8	-0.14120066
138	0xbf479ce6	-0.77973783
139	0x3f171f27	0.5903191
140	0x3cc38cab	0.023870787
141	0xbb10e9b6	-0.0022111959
142	0x3b2c5689	0.0026296696
143	0xbca7c7e8	-0.020481065
144	0xbb551016	-0.0032510809
145	0x3d904a6e	0.07045446
146	0x3ce2f591	0.027704986
147	0xbd1cbfd5	-0.038268883
148	0x3dfd3c60	0.12365031
149	0xbbc11b78	-0.005893167
150	0x3e841e1c	0.25804222
151	0xbe28a7a5	-0.16470201
152	0xbe3db3f3	-0.18525676
153	0x3f0dae82	0.553444
154	0xbe016f6f	-0.12640165
155	0x3f4bec3a	0.7965733
156	0xbd1c1874	-0.038109258
157	0xbcfd40ee	-0.03091475
158	0x3d05eb4c	0.0326951
159	0xbd4d59d9	-0.050134514
160	0xbfa9985a	-1.3249619
161	0x3dd59ffe	0.10430907
162	0x3f672e7c	0.90305305
163	0xbfc8923c	-1.5669627
164	0xbf0df96c	-0.5545871
165	0xbdcfe9e0	-0.1015203
166	0x3f47b9da	0.7801796
167	0xbf2c3ed2	-0.67283356
168	0x3f02e0a2	0.5112401
169	0x3e260c54	0.1621564
170	0x3ba7dbe0	0.0051226467
171	0x3b06a01d	0.0020542212
172	0xbbbc446d	-0.0057454617
173	0xbb836333	-0.004009628
174	0xbaf93348	-0.0019012475
175	0xbf1cc5ad	-0.6123913
176	0xbecfdbb3	-0.40597305
177	0xbd94a6d5	-0.07258383
178	0xbeb3471f	-0.350152
179	0x3bd07c06	0.006362441
180	0xbf159c88	-0.5844197
181	0xbedf5c89	-0.43625286
182	0x3c1e0a83	0.009646061
183	0xbecd006e	-0.4003939
184	0x3f9073a4	1.1285291
185	0x3f1b4bb2	0.60662377
186	0x3edfd2fa	0.4371565
187	0xbe37b272	-0.17939165
188	0x3f8cee32	1.1010191
189	0x3ebff940	0.3749485
190	0x3d9a0c1f	0.07521843
191	0x3f08bf4b	0.5341689
192	0x3f00df5c	0.5034082
193	0xbf0a3bb1	-0.5399733
194	0x3f0061e9	0.501494
195	0x3de86ebb	0.11349245
196	0x3d1dce22	0.03852666
197	0x3c7b218b	0.0153278215
198	0x3e2d77b5	0.16940196
199	0xbbe07bb6	-0.006850685
200	0xbd96dea1	-0.07366682
201	0x3e33363a	0.17501155
202	0x3d67addf	0.0565623
203	0xbf952583	-1.1652073
204	0x3e3e4294	0.18580085
205	0x3e2d9e1c	0.16954845
206	0x3c6c20df	0.014412134
207	0x3fa75a27	1.3074387
208	0x3e98a765	0.29815212
209	0xbe94a8df	-0.29035088
210	0x3e61dcfe	0.22056958
211	0x3dd9a054	0.10626283
212	0xbde2b136	-0.110689566
213	0x3ed4b34b	0.4154304
214	0x3b67acff	0.0035350916
215	0x3bf9db8b	0.0076250485
216	0x3e632361	0.22181465
217	0xbf8d96f7	-1.1061696
218	0x3db69bc6	0.0891643
219	0xbea58f63	-0.32335958
220	0xbe8a765f	-0.27043435
221	0xb9eca002	-0.00045132643
222	0xbe9fe531	-0.31229547
223	0x3f77b2eb	0.9675738
224	0x3e32e6f1	0.1747091
225	0xbefb1064	-0.49035943
226	0xbe90755a	-0.28214532
227	0xbf82a7a0	-1.0207405
228	0xc08a8595	-4.3288064
229	0xbf88887e	-1.0666654
230	0xbec47537	-0.38370678
231	0xbded6476	-0.11591427
232	0xbc9e4b6e	-0.019323077
233	0xbf2f6624	-0.6851523
234	0x3d308912	0.04309947
235	0x3f422f1a	0.7585312
236	0xbed631ab	-0.4183477
237	0xbe7fbe95	-0.24975045
238	0xbff89fcf	-1.942377
239	0x3c94d734	0.018169023
240	0xbe172bcb	-0.147628
241	0x3d03193d	0.03200649
242	0x3cea9e64	0.02863998
243	0xbe227144	-0.1586352
244	0x3bed6a0a	0.007245307
245	0xbc2b3646	-0.0104499515
246	0xbbd55e3d	-0.006511478
247	0x36baa484	5.562384e-06
248	0xbc8c33e7	-0.017114593
249	0x3ac20002	0.0014801028
250	0xbf28e1c7	-0.6596951
251	0xbe1172f8	-0.14204013
252	0xbdbd9343	-0.092566036
253	0xbe5996f3	-0.21248989
254	0x3d1a924f	0.037737187
255	0xbec762e2	-0.3894263

mu.0.bias f4 [128]
0	0xbe90daad	-0.28291836
1	0xbd305dc2	-0.043058164
2	0xbcc9bba2	-0.024625603
3	0xbdeb4bc3	-0.1148906
4	0x3cb779c8	0.022396937
5	0x3e2286ea	0.15871778
6	0xbc0f41e2	-0.008743735
7	0xbd2fdcfd	-0.04293536
8	0xbc27a9d1	-0.0102333585
9	0xbd28ecb0	-0.041241348
10	0x3e080fa6	0.1328722
11	0xbe989327	-0.29799768
12	0xbf4add1c	-0.79243636
13	0x3ef0d285	0.47035614
14	0x3e133e3c	0.1437921
15	0xbe86723c	-0.2625903
16	0x3c50973c	0.01273137
17	0x3c8c8e5a	0.017157722
18	0xbe179646	-0.14803419
19	0xbdc5fc84	-0.09667304
20	0xbd2baa2c	-0.041910335
21	0xbd145e4c	-0.03622274
22	0x3f8fea05	1.1243292
23	0x3ce30cf3	0.027716136
24	0x3b87fba6	0.004149872
25	0xbe36e331	-0.17860104
26	0xbd23ed8b	-0.04002146
27	0xbd9c2830	-0.07624853
28	0xbbb7b8af	-0.005606733
29	0x3d0db80d	0.034599353
30	0x3da868ac	0.082230896
31	0xbe0e0764	-0.13870007
32	0x3f7d1770	0.9886389
33	0x3f50b804	0.81530786
34	0x3b98c279	0.004661855
35	0x3dda41fb	0.10657116
36	0xbec5fc7f	-0.38669202
37	0x3e95c103	0.2924882
38	0xbf189fc7	-0.596188
39	0xbcb9e5f6	-0.022692662
40	0xbe3b2a02	-0.18277743
41	0x3fbf8986	1.4963844
42	0x3da2db77	0.07952016
43	0xbf62ba1c	-0.8856523
44	0xbc870d1f	-0.016485749
45	0x3edc299b	0.43000492
46	0x3e0d2dfe	0.13787076
47	0xbf391898	-0.7230315
48	0xbcbce893	-0.023060119
49	0xbb02b1b5	-0.0019942347
50	0x3e1960b8	0.14978302
51	0x3de6e241	0.11273623
52	0x3dd8b260	0.10580897
53	0x3e1883d4	0.14894038
54	0xbccd8d4a	-0.025091786
55	0x3b2df07a	0.002654104
56	0x3e1590d2	0.14606026
57	0xbd279a74	-0.040918782
58	0x3ec941b9	0.39307955
59	0x3d888441	0.066658504
60	0x3db5ad58	0.08870953
61	0x3d8d15de	0.068889365
62	0xbea3accd	-0.31967774
63	0x3d1d19f5	0.038354833
64	0xbf772bb0	-0.96551037
65	0xbc1e581d	-0.0096645625
66	0xbdb7a861	-0.089676626
67	0x3d3b2494	0.04568918
68	0xbdb69c4e	-0.089165315
69	0xbd21442c	-0.039371654
70	0xbefc4487	-0.49271032
71	0xbde3d5b7	-0.11124747
72	0xbd993d08	-0.07482344
73	0xbb688c89	-0.0035484156
74	0x3d6d237b	0.057895165
75	0x3d7921ce	0.060823254
76	0xbeb945eb	-0.36186156
77	0x3dbe32b4	0.092870146
78	0x3cec5bc7	0.028852357
79	0xbebd24e1	-0.369422
80	0xbebd0b5a	-0.36922723
81	0xbe5510e1	-0.2080722
82	0xbea5eb1a	-0.3240593
83	0x3ca1ab80	0.019735098
84	0xbf6d7ef2	-0.9277183
85	0xbde3d037	-0.11123698
86	0xbf092c04	-0.5358279
87	0x3bc3c224	0.005974071
88	0xbe23fbf1	-0.16014077
89	0xbe95855c	-0.29203308
90	0xbcf9be2f	-0.030486194
91	0xbf3d792d	-0.74013025
92	0x3f1e5ee7	0.6186356
93	0x3e2f899c	0.17142338
94	0x39fcd7b8	0.00048225909
95	0xbdd051ab	-0.10171827
96	0x3f0590ee	0.5217427
97	0xbd97030b	-0.07373627
98	0xbcaf0925	-0.021366665
99	0x3e963a7e	0.293415
100	0xbcc655e2	-0.024210874
101	0x3cea3d1e	0.028593596
102	0xbd2266c7	-0.039648797
103	0x3e1d87cf	0.15383838
104	0xbdf5a8cf	-0.11995088
105	0xbe5a4056	-0.21313605
106	0x3c9dd571	0.019266816
107	0x3f0594eb	0.52180356
108	0x3d97bfd4	0.07409635
109	0x3fc07331	1.5035154
110	0x3c4b813b	0.012420948
111	0xbd75c9f3	-0.060007047
112	0xbd649ed0	-0.055815518
113	0xbed3e3cd	-0.41384736
114	0xbe317fbf	-0.17333888
115	0x3b429da4	0.0029696012
116	0xbe553b90	-0.20823503
117	0x3e9ddaf0	0.308311
118	0xbdbc3511	-0.09189809
119	0xbe42f57a	-0.19038954
120	0x3d268a40	0.04065919
121	0x3f0a1c54	0.53949475
122	0x3e4a9691	0.19783999
123	0x3e948a4b	0.2901176
124	0x3f352384	0.7075732
125	0x3f1f7e89	0.6230245
126	0x3cf7d3f8	0.030252442
127	0xbea652ca	-0.32485038

mu.2.weight f4 [1, 128]
0	0x3e67d5d5	0.22640164
1	0xbaa4e8ad	-0.001258155
2	0xb7fdc78b	-3.025287e-05
3	0x3dbedd61	0.093195684
4	0x39839a32	0.00025101152
5	0x3c0ac345	0.008469407
6	0x3aad94a7	0.0013243154
7	0xbbd836ae	-0.006598315
8	0xba530122	-0.000804918
9	0xbaef64c5	-0.0018264285
10	0x3c519242	0.012791218
11	0xbe6fec75	-0.23430045
12	0x3f846f09	1.0346385
13	0x3db9c397	0.09070509
14	0x3d681fb0	0.056670845
15	0xbd8c957f	-0.068644516
16	0x39922643	0.00027875797
17	0x39f050c0	0.0004583653
18	0xbd5a017f	-0.053224083
19	0x3a7d48f2	0.0009662054
20	0xba4cb53b	-0.0007808988
21	0x3e156fa5	0.1459337
22	0xbe9b65d7	-0.30351135
23	0x3a2c5892	0.00065744773
24	0x3bc62fc6	0.0060481755
25	0x3bb573fe	0.005537509
26	0x3c5b8cbc	0.013400253
27	0x3d2b014f	0.041749295
28	0x397daae2	0.00024191619
29	0x3a2a8fd4	0.00065064174
30	0xbd410c13	-0.047130655
31	0xbd8389e5	-0.06422786
32	0x3e471138	0.19440162
33	0xbea47645	-0.32121482
34	0xb8346722	-4.3011394e-05
35	0x3d9ca6b6	0.07648985
36	0x3d35c69c	0.04437886
37	0x3dacf395	0.08444897
38	0xbda65044	-0.08120778
39	0xba3632c1	-0.0006950312
40	0x3df21dac	0.11822066
41	0xbf30688b	-0.6890952
42	0xbc0eff42	-0.00872785
43	0xbe8b1e69	-0.2717164
44	0x3d71897e	0.058969013
45	0xbf0a61ff	-0.5405578
46	0x3da01019	0.078155704
47	0x3ec5137a	0.38491422
48	0x3b0fe2e5	0.0021955308
49	0x38e8bc9c	0.00011097753
50	0x3d73be0f	0.059507426
51	0xbabac61a	-0.0014249713
52	0x3c01b517	0.00791671
53	0xbafe1cd1	-0.001938725
54	0xbc0e7a3a	-0.008696133
55	0xb95ff5ce	-0.00021358507
56	0x3e859dde	0.26097006
57	0xbb4f2fe0	-0.003161423
58	0xbdae93a1	-0.08524252
59	0xbbde5f86	-0.0067862896
60	0x3cfeecc5	0.03111876
61	0x3b5a481f	0.0033307148
62	0x3dd7afe4	0.10531595
63	0xbb588015	-0.0033035327
64	0xbd80d3d7	-0.06290405
65	0xba5e05fe	-0.0008469521
66	0xbb4211b1	-0.0029612596
67	0x3aa265ff	0.0012390016
68	0xbbbb5f18	-0.005718123
69	0xb96f841c	-0.00022842031
70	0xbd3508fc	-0.04419802
71	0xbd7e4645	-0.062078733
72	0xbd619b72	-0.055079885
73	0xbad66b5d	-0.0016358901
74	0x3c5a635e	0.013329355
75	0x3b1c18dd	0.002381853
76	0x3d1c0e81	0.03809977
77	0x3c2b00be	0.010437189
78	0x3a758649	0.00093660183
79	0xbdd3b420	-0.103370905
80	0xbd37992c	-0.04482381
81	0x3dc13396	0.09433667
82	0xbd66672c	-0.056250736
83	0xb8d74461	-0.000102647355
84	0xbeafe1be	-0.34351915
85	0xbb6b43c4	-0.0035898546
86	0x3d804a66	0.062641904
87	0xbba7b027	-0.0051174345
88	0xbd0a7419	-0.033802126
89	0x3dcc1063	0.09964063
90	0x3925f046	0.00015825135
91	0xbf48ae99	-0.78391415
92	0xbe3d45ff	-0.18483733
93	0xbc106380	-0.008812785
94	0xb88d537b	-6.7389534e-05
95	0xbcc023a5	-0.023454497
96	0x3e51af78	0.20477092
97	0xbcbd6dc5	-0.023123631
98	0xbc3ae4eb	-0.011407117
99	0x3e546953	0.20743303
100	0xbd5ce7e3	-0.053932082
101	0xb8504183	-4.9652077e-05
102	0xb9f546fe	-0.00046782935
103	0x3dad1866	0.08451919
104	0x3d47f728	0.04881969
105	0xbd74f084	-0.059799686
106	0x3a0d85cf	0.0005398662
107	0xbdae5064	-0.08511427
108	0xbda3aa52	-0.079914704
109	0xbf62d36d	-0.8860386
110	0x3c8ae136	0.016953092
111	0xbb5b7bde	-0.0033490579
112	0xba8d486a	-0.0010779027
113	0xbeaf3724	-0.34221756
114	0xbd87b396	-0.0662605
115	0xb97f3198	-0.0002433717
116	0x3ea91f74	0.3303181
117	0xbeb09e63	-0.3449584
118	0xbd2780fa	-0.040894486
119	0xbdcd5457	-0.10025852
120	0x3b08f035	0.0020895128
121	0xbe1825c7	-0.14858161
122	0x3cf98146	0.03045715
123	0xbb3ae686	-0.002851875
124	0xbec3e179	-0.3825796
125	0xbdb21a32	-0.086964026
126	0x398ed220	0.00027240906
127	0x3a165b8e	0.00057356886

log_std.0.weight f4 [128, 5]
0	0xbe9c406e	-0.30517906
1	0x3e80e4b0	0.25174475
2	0xbef575bd	-0.4794139
3	0x3f483776	0.78209627
4	0x3df1f553	0.1181437
5	0x3dec2a87	0.11531549
6	0x3e206c81	0.15666391
7	0x3e146bc1	0.1449423
8	0x3efd0a3b	0.49421868
9	0x3d1956ab	0.03743617
10	0x3d3029b3	0.043008517
11	0x3e975f52	0.2956491
12	0xbe3b3e71	-0.18285538
13	0x3e23a5a0	0.1598115
14	0xbe0cd8c4	-0.13754565
15	0x3ea59da9	0.32346848
16	0x3eb6b844	0.3568746
17	0xbea8efd4	-0.32995474
18	0x3f837e12	1.0272849
19	0x3e70605f	0.23474263
20	0xbe1b8263	-0.15186457
21	0x3da5e2f4	0.080999285
22	0x3ea8f8d7	0.3300235
23	0x3f522854	0.82092786
24	0x3e8529be	0.2600841
25	0x3e090852	0.1338208
26	0xbd630e38	-0.055433482
27	0xbf0ce76f	-0.5504064
28	0x3e99dead	0.300527
29	0xbe484e06	-0.19561014
30	0xbf28bed0	-0.65916157
31	0xbec28422	-0.37991434
32	0x3ee1c9f6	0.44099396
33	0x3e7c4bd9	0.24638309
34	0x3b3ecbc4	0.0029113153
35	0x3cff91d8	0.031197473
36	0x3ce73fb8	0.028228626
37	0x3f0c79eb	0.5487353
38	0x3f57e4f8	0.84333754
39	0x3d648277	0.055788483
40	0x3efecaa5	0.4976398
41	0xbe567ef7	-0.2094687
42	0x3f2e4ef8	0.68089247
43	0x3f36254d	0.71150666
44	0x3e1e936b	0.15485923
45	0xbe9fc05f	-0.31201455
46	0x3bab5d44	0.005229624
47	0xbecbfeaa	-0.3984273
48	0x3d3fa416	0.046787344
49	0xbe0983c4	-0.13429171
50	0xbe24cb22	-0.16093114
51	0xbe971422	-0.29507548
52	0xbdd31615	-0.10306946
53	0xbd346bfd	-0.0440483
54	0x3d0b19ca	0.03396014
55	0x3d7470ef	0.059678014
56	0x3ca4da8b	0.02012374
57	0x3f0e9867	0.557013
58	0x3e005654	0.12532932
59	0x3e7576e3	0.23971133
60	0xbef9f223	-0.48817548
61	0x3d9de5f2	0.07709874
62	0x3e1e6e27	0.15471707
63	0xbcaba093	-0.020950591
64	0x3d86d11e	0.06582855
65	0x3e266253	0.16248445
66	0xbde8f451	-0.11374725
67	0x3e1812c0	0.14850903
68	0xbee32ee9	-0.44371727
69	0xbd07ee2d	-0.033186127
70	0xbdd7371f	-0.105085604
71	0x3d4f5c85	0.050625343
72	0xbd74684e	-0.059669785
73	0xbd4a7ca5	-0.049435277
74	0xbb3ca64e	-0.0028785649
75	0x3c18c164	0.009323452
76	0xbd634ccb	-0.055493157
77	0x3d09435c	0.033511505
78	0x3d6d4c36	0.05793401
79	0x3c60083d	0.013673839
80	0x3e253a03	0.16135411
81	0x3df419d9	0.119189925
82	0x3e8db064	0.27673638
83	0xbe8773b8	-0.26455474
84	0xbd8c469d	-0.06849406
85	0x3eada7a5	0.33916965
86	0x3db8366a	0.08994754
87	0x3eaefa73	0.34175453
88	0xbe39bd59	-0.18138637
89	0xbe83e16a	-0.25757915
90	0x3e88f4e1	0.26749328
91	0xbdaa8992	-0.08327021
92	0x3ebeef8e	0.3729214
93	0xbcf14a3d	-0.029454345
94	0x3e53978a	0.20663276
95	0x3e2e8b11	0.17045237
96	0x3de4022b	0.11133226
97	0xbe1db14e	-0.15399668
98	0xbd7c40ed	-0.061585356
99	0xbc5d2ca0	-0.013499409
100	0x3eecf6e2	0.46282107
101	0xbe28646b	-0.16444556
102	0xbd78378e	-0.060599856
103	0x3dab3356	0.08359401
104	0xbc930210	-0.01794532
105	0xbe9ba28b	-0.30397448
106	0x3ce48689	0.027896183
107	0x3e45382a	0.19259706
108	0x3e6e2e95	0.23259957
109	0x3cb88982	0.022526506
110	0x3e43b31f	0.19111298
111	0x3e288161	0.16455604
112	0x3edb1aba	0.42793828
113	0x3e7e3631	0.2482536
114	0x3e66aa71	0.22525956
115	0x3ebf73a3	0.3739291
116	0x3eb915ae	0.36149353
117	0xbd8f919f	-0.07010197
118	0x3f1bb2fe	0.60819995
119	0x3d888daa	0.06667645
120	0x3e02b633	0.12764816
121	0xbe09e2fb	-0.13465492
122	0xbec4da9a	-0.3844803
123	0xbbd82832	-0.0065965885
124	0xbdb6e332	-0.08930053
125	0xbda336b2	-0.07969417
126	0xbc783313	-0.015148896
127	0x3d5011a5	0.050798077
128	0x3ebe42e3	0.37160406
129	0x3d6effaa	0.05834929
130	0x3f353550	0.70784473
131	0x3e7732e3	0.24140505
132	0x3decc6fb	0.1156139
133	0xbe072b8e	-0.13200209
134	0xbd0fae1d	-0.035078157
135	0x3e30b3fc	0.17256159
136	0x3ec082a6	0.37599677
137	0x3ea7b32b	0.32753882
138	0xbe3fac75	-0.18718131
139	0xbd373bbf	-0.044734713
140	0xbe3a14b5	-0.18171962
141	0xbb114d39	-0.0022171272
142	0x3d12f63f	0.03587937
143	0x3e0978b4	0.13424951
144	0x3cdc0ab3	0.02686057
145	0x3e06de64	0.13170773
146	0xbe3a79ed	-0.18210573
147	0xbe07e9fd	-0.13272853
148	0xbe14cafa	-0.14530554
149	0x3c81d9d2	0.015850935
150	0x3d331702	0.043723114
151	0xbe82d0c7	-0.2554991
152	0x3e422419	0.18959083
153	0xbf1eadeb	-0.6198413
154	0xbce31fbd	-0.027725095
155	0xbdf035a4	-0.11728981
156	0x3cd6658c	0.026171468
157	0xbda5d438	-0.08097118
158	0x3e0e2646	0.13881788
159	0x3c95f68b	0.018306037
160	0xbef77d70	-0.4833789
161	0x3a86a625	0.0010272904
162	0xbedcbddd	-0.43113604
163	0x3e83c973	0.2573963
164	0x3eabb3d8	0.33535647
165	0xbe2be8b0	-0.16787982
166	0xbdd48391	-0.10376657
167	0xbe9ead06	-0.3099138
168	0x3ed2782b	0.41107306
169	0x3e94d8d3	0.29071674
170	0x3d17dcbb	0.03707574
171	0x3db2e22f	0.08734547
172	0x3e0c2553	0.13686113
173	0xbe9dfc3e	-0.30856508
174	0xbe4f859e	-0.20265815
175	0xbcc4420c	-0.023957275
176	0x3e35fa74	0.17771322
177	0x3d0f9ee4	0.03506364
178	0xbd9c6aaa	-0.07637532
179	0xbd12ae0b	-0.03581051
180	0x3d46f45c	0.048572883
181	0x3c2fe987	0.01073683
182	0x3d3d8e45	0.046278257
183	0x3f0ba254	0.5454457
184	0x3d23e99a	0.0400177
185	0x3e893163	0.26795492
186	0xbde820bc	-0.113343686
187	0xbdb95900	-0.090501785
188	0x3e410bf3	0.18852215
189	0x3b0e2e9a	0.0021695257
190	0x3e0df60b	0.13863389
191	0xbe022807	-0.12710582
192	0x3e7ca5ba	0.24672595
193	0x3e053d54	0.13011676
194	0xbc0a6eca	-0.008449266
195	0x3f51744c	0.8181808
196	0x3e3d58a0	0.18490839
197	0x3d1085da	0.0352839
198	0x3cf75d4a	0.03019585
199	0xbd33e6e5	-0.04392137
200	0x3d8555a6	0.06510477
201	0x3da7c8d3	0.08192601
202	0xbdce3c3a	-0.10070081
203	0xbf02659f	-0.5093631
204	0xbd5898b4	-0.052880004
205	0xbe2cff95	-0.16894372
206	0x3db190c4	0.0867019
207	0x3f397ab9	0.72452885
208	0x3dd6795c	0.10472366
209	0xbdb130ef	-0.086519115
210	0xbec1ed8d	-0.3787655
211	0xbcfe112a	-0.031014044
212	0xbe220e62	-0.15825799
213	0xbd121598	-0.035665125
214	0xbd34dd61	-0.044156436
215	0x3e87fe80	0.26561356
216	0x3e0e2620	0.13881731
217	0x3f0523d4	0.52007794
218	0x3f6f4e91	0.9347926
219	0x3e1171f9	0.14203633
220	0xbe066452	-0.13124207
221	0x3e06ebcb	0.13175885
222	0xbde926e2	-0.113843694
223	0x3c4a887c	0.012361642
224	0xbc7e4e21	-0.015521557
225	0xbe9e222f	-0.30885455
226	0x3ead86e1	0.33891967
227	0xbe814c3c	-0.25253475
228	0x3f2a05a0	0.66414833
229	0x3c80798e	0.015682962
230	0x3d89bc46	0.067253634
231	0x3da40460	0.08008647
232	0x3d7d23c6	0.061801694
233	0x3f4405c5	0.76571304
234	0x3e86ea19	0.26350477
235	0xbe106baa	-0.1410357
236	0xbdbf869c	-0.093518466
237	0xbb5895bc	-0.0033048233
238	0xbf616a78	-0.88053083
239	0x3e406017	0.18786655
240	0xbe4053e8	-0.18782008
241	0xbe138258	-0.14405191
242	0x3f1705dc	0.58993316
243	0xbf87aac8	-1.0598993
244	0xbe75f6b4	-0.24019891
245	0xbf233022	-0.6374532
246	0x3e0ed07e	0.13946721
247	0x3e54856c	0.20754021
248	0x3d8ea3bc	0.069648236
249	0x3dd8c8be	0.105851635
250	0xbf23f626	-0.6404747
251	0x3e2f8c28	0.17143309
252	0x3d8ffeb1	0.070310004
253	0xbe6a3074	-0.22870046
254	0x3dbad543	0.09122708
255	0x3dcac267	0.099003606

log_std.0.bias f4 [128]
0	0x3d97ddbd	0.0741534
1	0x3e02d533	0.12776642
2	0x3d36fa89	0.044672523
3	0xbee35598	-0.4440124
4	0xbe15a4c9	-0.14613642
5	0xbf645456	-0.89191186
6	0xbefc157b	-0.49235138
7	0x3dc69a09	0.096973486
8	0x3e5fe535	0.2186478
9	0x3e82e9b4	0.25568926
10	0xbed53cab	-0.41647848
11	0xbe17f391	-0.14839007
12	0xbe58d719	-0.21175803
13	0xbe0b7ac5	-0.13621052
14	0xbe62b48b	-0.22139184
15	0xbdc454f8	-0.09586519
16	0xbf0a3137	-0.53981346
17	0x3e4f1fbb	0.20226948
18	0xbd9e0777	-0.077162676
19	0xbf14ed61	-0.5817471
20	0xbebe226f	-0.37135646
21	0xbeff905a	-0.4991482
22	0x3d59d79a	0.05318413
23	0xbe06e0b9	-0.13171662
24	0xbdb7c317	-0.08972757
25	0x3e828276	0.2549016
26	0xbf0782d3	-0.52933997
27	0xbf3435f1	-0.7039481
28	0xbe5908c6	-0.21194753
29	0xbf118205	-0.5683902
30	0x3e6966ca	0.22793117
31	0x3d3eb547	0.0465596
32	0xbe4b2916	-0.19839892
33	0xbef28394	-0.4736601
34	0x3eaeb50c	0.34122503
35	0xbee4af8a	-0.44665176
36	0x3e0998ec	0.13437241
37	0xbe21a80c	-0.15786761
38	0xbf034965	-0.51283866
39	0xbf0da870	-0.5533514
40	0x3e2bd257	0.16779457
41	0xbe66f193	-0.22553091
42	0xbf17508b	-0.59107274
43	0x3eae9d1e	0.34104246
44	0xbed41475	-0.41421857
45	0xbf0c9198	-0.5490966
46	0xbdd669ac	-0.10469374
47	0xbdf0bee8	-0.117551625
48	0xbf0ebb0e	-0.5575417
49	0xbd03ecf3	-0.032208394
50	0x3d24c62c	0.040228054
51	0xbe1b9e88	-0.15197194
52	0xbe433ce3	-0.19066195
53	0xbc7967b1	-0.015222476
54	0xbefcaf4f	-0.493525
55	0xbe292f2c	-0.16521901
56	0x3e383cc2	0.17991927
57	0xbde2c5d7	-0.11072891
58	0xbf0453c5	-0.5169032
59	0x3dbe6032	0.092956915
60	0xbf34c5df	-0.7061443
61	0x3edf2489	0.43582562
62	0xbe7804b2	-0.24220541
63	0xbf0f5197	-0.5598387
64	0x3e8605b3	0.26176223
65	0xbef616fd	-0.48064414
66	0xbd9b2111	-0.07574666
67	0x3dd4e5b7	0.10395377
68	0x3e347738	0.17623603
69	0xbefebde9	-0.49754265
70	0xbeede489	-0.4646342
71	0x3e71a6ae	0.2359874
72	0xbec7a97d	-0.38996497
73	0x3e1e9e18	0.15489995
74	0x3e102c89	0.14079489
75	0xbe8c8360	-0.2744398
76	0xbdbd49e9	-0.09242613
77	0xbe6c8120	-0.23096132
78	0xbe96e69e	-0.29472822
79	0x3d95aabc	0.073079556
80	0xbd48ed24	-0.04905428
81	0x3f04ca28	0.51870966
82	0x3cb58a8b	0.022160789
83	0xbf43943c	-0.7639806
84	0xbdd8ada1	-0.10579992
85	0xbe580a40	-0.2109766
86	0xbe9b3f35	-0.3032166
87	0xbe071f60	-0.13195562
88	0xbe489918	-0.1958965
89	0x3d0adc5c	0.033901557
90	0x3de2f58c	0.110819906
91	0x3de28252	0.11060013
92	0x3e536a35	0.20645984
93	0xbf527250	-0.8220568
94	0xbe80466b	-0.25053725
95	0x3ec0efdb	0.37682995
96	0xbe0c9553	-0.13728838
97	0xbc3defef	-0.011592849
98	0xbed6fa17	-0.41987678
99	0xbf06a033	-0.52588195
100	0xbe875f11	-0.26439717
101	0xbd99f892	-0.07518114
102	0xbe9b3f6d	-0.30321828
103	0xbc9bd9a4	-0.019024678
104	0x3cfc3445	0.030786643
105	0x3ed97bcd	0.42477265
106	0xbd63ddee	-0.05563157
107	0xbeeec8d4	-0.46637595
108	0x3df4f11c	0.119600505
109	0xbf229379	-0.63506275
110	0x3ede18f8	0.43378425
111	0xbf5e998f	-0.8695306
112	0xbe2da17f	-0.16956137
113	0xbdefc4c8	-0.11707455
114	0xbd6b7aeb	-0.05749027
115	0xbe01b3cc	-0.12666243
116	0xbc585637	-0.013204149
117	0xbedd71ff	-0.43251035
118	0x3e6e7ea2	0.23290494
119	0x3d92bad8	0.07164544
120	0x3c1825b8	0.009286337
121	0x3f08f68a	0.5350119
122	0x3da3ee40	0.08004427
123	0xbc22fe61	-0.009948344
124	0x3a641498	0.00087005785
125	0xbe010520	-0.12599611
126	0x3cfb9a92	0.030713353
127	0xbf44ebd9	-0.76922375

log_std.2.weight f4 [1, 128]
0	0xbdf989b7	-0.1218447
1	0xbd169b24	-0.036769047
2	0xbd09b55d	-0.033620227
3	0xbe8cbb50	-0.27486658
4	0x3dd3ac6c	0.10335621
5	0x3e45780c	0.19284075
6	0x3d106140	0.035248995
7	0xbdae29be	-0.085040554
8	0xbe33b920	-0.17551088
9	0xbd911edc	-0.07085964
10	0xbca9c847	-0.020725382
11	0xbd741159	-0.059586857
12	0xbc4930d3	-0.012279707
13	0xbcaebda0	-0.021330655
14	0xba830936	-0.0009997252
15	0xbbb889ae	-0.005631647
16	0x3b8837a4	0.0041570235
17	0xbdc8b6e4	-0.098005086
18	0xbd81a9ac	-0.063311905
19	0x3b722ca5	0.003695288
20	0x3bde817e	0.006790339
21	0x3b659f0f	0.0035037433
22	0xbdeb6978	-0.11494726
23	0x3cd9f4e4	0.02660603
24	0xbbcb6955	-0.006207625
25	0xbc9ef384	-0.019403227
26	0x3da6a8c5	0.08137659
27	0x3dbfbdc0	0.09362364
28	0xbc00c104	-0.0078585185
29	0xbc1f1a26	-0.009710824
30	0xbd46480f	-0.048408564
31	0xbc7016a9	-0.01465384
32	0xbe1c17fb	-0.15243523
33	0xbd8b4632	-0.06800498
34	0xbd9e453b	-0.077280484
35	0x39dd8989	0.00042254876
36	0xbc80c51d	-0.015718991
37	0x3bb44e63	0.0055025085
38	0x3c7a514c	0.015278172
39	0x3e6ed2a9	0.23322548
40	0xbd1ff04d	-0.039047528
41	0xbddb6ede	-0.107145056
42	0x3bdcc732	0.006737613
43	0xbe2522c3	-0.16126542
44	0xbb3474d1	-0.0027535448
45	0xbdb8b9ed	-0.090198375
46	0x3de5fc1b	0.11229726
47	0x3e00d187	0.12579928
48	0x3eba0cac	0.36337793
49	0x3d686639	0.056738112
50	0x3d51ed60	0.05125177
51	0x3d884e2e	0.066555366
52	0xbd18607d	-0.037201393
53	0xbd1be890	-0.038063586
54	0x3dec27ac	0.11531004
55	0x3e12a2c0	0.14319897
56	0xbda23a2e	-0.07921253
57	0xbd7fea1c	-0.062479123
58	0xbc9b4522	-0.018953864
59	0xbddb28db	-0.10701152
60	0xbd8656dc	-0.06559536
61	0xbd29f489	-0.041492973
62	0x3d001138	0.03126642
63	0x3e0a88e3	0.1352878
64	0xbd9d3590	-0.07676232
65	0x3d105b88	0.03524354
66	0xbb2a449f	-0.0025980843
67	0xbccbc2b8	-0.024873123
68	0x3df6df43	0.120543025
69	0x3d6122cc	0.054964826
70	0xbe0bf65e	-0.136682
71	0xbbe4126a	-0.006960203
72	0x3c88ad3f	0.016684173
73	0xbd858956	-0.065203354
74	0xbc1192a6	-0.008885061
75	0xbd6aafd1	-0.057296578
76	0xbba4f8a1	-0.0050345217
77	0xbcb2d118	-0.02182822
78	0x3b5bae6f	0.0033520719
79	0xbd13f90f	-0.036126193
80	0x3e91afee	0.28454536
81	0xbd651895	-0.055931646
82	0xbdf4e056	-0.11956851
83	0x3dfa218f	0.12213432
84	0x3e2124ad	0.15736647
85	0x3c8d4dd1	0.01724902
86	0x3de3c5a7	0.111216836
87	0xbbd6a2d0	-0.0065501705
88	0xbb6729e6	-0.0035272776
89	0x3d846f08	0.0646649
90	0xbb4830f6	-0.003054676
91	0xbd8bec3c	-0.068321675
92	0xbd01c336	-0.03168031
93	0x3f220779	0.6329265
94	0xba8d787b	-0.0010793352
95	0xbe060b87	-0.13090335
96	0xbbe52a94	-0.006993601
97	0xbc112f14	-0.008861322
98	0x3e59754a	0.21236148
99	0xbc165bbf	-0.009177147
100	0xbe27e84a	-0.16397205
101	0x3da249b2	0.079242125
102	0xbcd0100f	-0.025398282
103	0xbd67b39e	-0.05656778
104	0xbce0b470	-0.02742979
105	0xbc8794f1	-0.016550513
106	0x3a44fc61	0.0007514414
107	0x3c172ecb	0.009227465
108	0xbd014f91	-0.03157002
109	0x3e696130	0.2279098
110	0xbddab779	-0.10679526
111	0x3eb57e54	0.35447943
112	0xba9e96de	-0.0012099405
113	0xbbd5c845	-0.006524118
114	0xbc427ff6	-0.011871329
115	0xbaa13486	-0.0012298978
116	0xbe27ea51	-0.16397978
117	0x3ce9e123	0.028549736
118	0xbc20822e	-0.009796662
119	0xbc7cd98d	-0.0154327275
120	0xbd415088	-0.04719594
121	0xbe062d8d	-0.13103314
122	0xbe642cfb	-0.22282784
123	0xbc971843	-0.018444186
124	0xbb250df4	-0.0025185319
125	0xbc182b3d	-0.009287653
126	0xbb01f976	-0.0019832528
127	0xbd8431c9	-0.06454808
